results/checkpoint_0_critic_local.pt (torch_old, 28326 bytes, 13 tensors)

layers.0.weight f4 [64, 24]
000000 b2 d4 2f be db 65 99 be 4f 53 06 bd 39 43 b5 3d
       -0.1717098 -0.29960522 -0.032794293 0.08850712
000010 3c 37 69 be ac f0 dc 3d cd d5 29 3d 95 72 b0 3d
       -0.22774976 0.10788092 0.041463662 0.08615605
000020 29 5f 89 bd 0a 70 92 bd ba b2 e1 3c 2a c0 13 be
       -0.067076035 -0.07150276 0.027551044 -0.14428774
000030 4a 9b 89 be 38 32 aa 3e 5d c1 0c bd c6 46 b1 bd
       -0.2687629 0.3324144 -0.034364093 -0.08656077
000040 6e 2c 2a bd bb af 92 be 0f 17 56 bd 8e 63 e9 3c
       -0.041546278 -0.28649697 -0.052268084 0.028489854
000050 6c 0a bd 3d c3 9d 12 3f 33 7b 5b 3c f5 1e 96 3d
       0.092305034 0.57271975 0.013396072 0.07330123
000060 97 1f 3a ba a2 94 15 be 32 2d 13 bd 06 9e d7 3c
       -0.0007100044 -0.1460748 -0.035931773 0.026320469
000070 a3 06 09 3e 90 52 63 3e a3 49 09 3d f4 01 c8 bc
       0.13381438 0.22199464 0.03351749 -0.024414994
000080 f4 37 85 bc c4 2f 27 bd 48 d9 0f bd 05 7e 5c 3b
       -0.016262032 -0.040817037 -0.035119325 0.003364445
000090 c4 9e 2a bd a6 19 c9 3e b7 ad 02 3d dd 55 81 bc
       -0.041655317 0.3927738 0.03190395 -0.015788013
0000a0 3e 4f ea b9 a1 8e d5 3d b1 67 44 3d f9 d1 91 bc
       -0.00044690998 0.10427595 0.04795045 -0.017800318
0000b0 2d 5d 13 be b3 88 2b bf ea f3 4b bd 91 a0 f8 ba
       -0.14391012 -0.6700546 -0.04979316 -0.0018968751
0000c0 a1 64 53 bd 09 64 29 3d 15 6e 5a bc 6d 5b e1 3c
       -0.05160964 0.041355167 -0.01333191 0.027509416
0000d0 fe 64 21 bc 8b e4 06 3f 31 3e cc 3b 54 5b 21 bd
       -0.009850739 0.5269248 0.0062329997 -0.039393738
0000e0 00 e2 4e 3d cd 31 8f 3e c3 cb db 3d 41 16 5b bd
       0.0505085 0.27967682 0.10732224 -0.05348802
0000f0 c1 bf c1 3d 59 a3 16 3e 34 d5 e9 bd 35 16 b3 3d
       0.09460402 0.1471075 -0.114176184 0.0874447
000100 3f 92 7a bd 54 4e c7 3e 3b 5c 24 bd 79 ba 4b 3e
       -0.061174627 0.38926947 -0.04012702 0.19895352
000110 f9 1e 33 bc f7 2f 6c bf 49 d9 12 3d 22 76 f4 3c
       -0.010932677 -0.9226069 0.03585175 0.029841486
000120 6f 22 10 3d 86 b2 0b be 9b 81 bf bc 98 db dd 3c
       0.03518909 -0.1364232 -0.02337723 0.02708225
000130 d8 2f c2 3d 55 3e 59 bc c8 f9 5b bc 30 c5 ef 3d
       0.09481782 -0.01325949 -0.013426252 0.117075324
000140 04 a0 6d be 4b 25 a1 3d d7 e9 df bc f6 01 ac 3e
       -0.23205572 0.07868441 -0.027333183 0.33595246
000150 cd 82 f3 3d 6b a2 b6 be ad 52 0c 3c 88 fe 8d 3e
       0.11890183 -0.3567079 0.008564633 0.27733254
000160 0b db af be 23 2a 77 3e f7 0f 81 bd 41 6a d1 bd
       -0.34346804 0.24137168 -0.06301873 -0.102253444
000170 69 ea 9e 3e ce e3 e0 bd 69 35 07 3d e8 5c 76 be
       0.31038216 -0.1098095 0.03300992 -0.24058878
000180 0e fc 06 bd 6d b6 83 3e 3d 4b fb 3c 59 02 1c 3e
       -0.03295522 0.25725117 0.030675525 0.1523527
000190 bd 96 5a 3d 88 ea 8c be ee 4d b3 bc 9c ee 8b bc
       0.05336641 -0.27522683 -0.021887746 -0.017081551
0001a0 f2 2a 5a be de f4 3c 3e 5b ce 1b bc 69 88 1b 3e
       -0.21305445 0.18452784 -0.009509648 0.15188755
0001b0 9c 2a 2d be 7d 9e c8 3a ec bf cf bc ae 8b 2d 3e
       -0.16910785 0.0015306022 -0.02536007 0.16947815
0001c0 ef 11 a3 bd ab 0f 93 3d 7b 27 2b bd 80 6b b9 be
       -0.07962405 0.07180723 -0.0417857 -0.36214828
0001d0 85 b2 b9 3d 21 56 10 bf 33 b3 10 3c 22 05 b2 be
       0.09067253 -0.5638142 0.008831787 -0.3476954
0001e0 f7 49 fb 3d 77 05 5b bd e3 9d 59 bd da a6 a4 3d
       0.12269967 -0.05347201 -0.053129088 0.08039637
0001f0 8b 12 74 3e f7 5e cf be 3e 2a 9a 3d e1 e0 a6 bc
       0.23835199 -0.4050214 0.07527588 -0.020370902
000200 44 e5 2f bd 67 24 05 be 1b 24 6b 3c c8 47 9a 3c
       -0.042943254 -0.13002168 0.01435187 0.018833056
000210 e2 25 e2 3d f7 11 d8 be fb 0d 63 bc 7a 2e 94 bd
       0.11042382 -0.42201206 -0.013858314 -0.07235427
000220 34 28 8a 3d 06 1c 51 be c2 67 91 bd 14 1c a2 bd
       0.067459494 -0.20420846 -0.07099868 -0.07915512
000230 29 ac 6d be 97 e0 54 bf 2c 93 3e 3d 68 8b f8 3c
       -0.23210205 -0.83155197 0.046527073 0.030339912
000240 7a 13 e2 bd 8f ac cb 3e 22 92 1d bd a2 e9 6f 3d
       -0.11038871 0.3978009 -0.03846944 0.05857242
000250 aa 48 e2 bc 48 2c a2 3e ec 9b 86 3c 70 8b 43 bd
       -0.02762254 0.3167441 0.016431771 -0.0477404
000260 b2 7e 5d 3b 6d 14 1f 3f f3 fe 10 3d c1 c5 4e 3e
       0.003379744 0.6214054 0.03539939 0.20192625
000270 6b 4f 47 3d e4 27 a3 3e a5 7d 93 bd 93 9e a4 3d
       0.048659723 0.31866372 -0.07201699 0.08038058
000280 26 d4 e6 bd 1b ae 0b 3f f8 79 b0 bc e8 a2 11 be
       -0.11270933 0.5456254 -0.021542534 -0.142223
000290 ea 6a cd 3d a4 eb 0a 3f f6 e7 07 bd 1a 98 22 be
       0.10030158 0.5426581 -0.0331802 -0.15878335
0002a0 40 a0 fc bd 7d a8 13 3e 1e 74 9c bd 55 df 59 3e
       -0.12335253 0.14419742 -0.07639335 0.212766
0002b0 0c 42 79 bd b4 34 8f bd ac 55 bf 3d 0c c7 2e 3e
       -0.060854003 -0.06992474 0.093425125 0.17068118
0002c0 15 01 11 bd ea 31 b2 3e c7 a2 19 3d 65 f5 1d 3e
       -0.035401423 0.34803706 0.037508752 0.15425642
0002d0 da 83 3a 3e 4e aa 99 bd 40 ad 66 bb 41 e6 c7 3e
       0.1821436 -0.07503186 -0.003519848 0.39042857
0002e0 91 d5 6d be ee c7 ab 3e e3 9e 89 3c c3 b0 c5 3e
       -0.23226 0.33550972 0.016799396 0.3861142
0002f0 54 c3 dd bd b2 30 3a 3d eb 2a 4c 3b 1e 95 0f 3f
       -0.108282715 0.045456596 0.003115351 0.5608691
000300 05 77 10 bd 8d af e0 3e 3f 7f 8a bd a3 44 1e 3e
       -0.035269756 0.43883935 -0.067625515 0.1545587
000310 8d 57 d8 3d de 0a 43 be e3 e8 02 3d c1 b1 55 bd
       0.10563574 -0.19047114 0.03196038 -0.052171472
000320 13 37 05 3e 06 41 57 3f cf c5 0e bd c0 8e f2 3e
       0.1300929 0.8408359 -0.034856614 0.47374535
000330 3d c4 39 3e 28 6d 68 bd e8 d3 24 bd 0c 78 c0 3e
       0.18141265 -0.056744725 -0.040241152 0.37591588
000340 20 ef b8 3e b1 13 90 3f 4c ff 79 3d e8 57 a6 3d
       0.36119938 1.1256009 0.061034486 0.081222355
000350 fc cc 63 3e 90 be 57 3c 00 7a 02 be 86 ff 59 3e
       0.22246164 0.013167992 -0.12741852 0.2128888
000360 79 6e c4 bd 0a d5 dc bd 47 9a b0 bc af b9 a5 bc
       -0.095913835 -0.107828215 -0.02155794 -0.020230142
000370 31 42 42 3e 42 d8 68 3c 0d 6e da 3c ea 77 e5 3c
       0.18970563 0.014211716 0.026663804 0.028011281
000380 d1 19 70 3d 31 11 c0 bd 35 a9 56 bc 9b f7 80 bd
       0.05861837 -0.09378279 -0.013101866 -0.06297227
000390 44 fb 88 3d c3 eb c7 3d ae aa e5 3b 8a c4 60 3d
       0.0668855 0.09761765 0.007008872 0.054874934
0003a0 20 96 90 3e 16 ef 93 3d ab 64 7c bd a8 2c 26 bd
       0.28239536 0.072233364 -0.061619442 -0.04056993
0003b0 94 aa 1f bf 34 de fe 3c 3e f9 76 3d d5 5d 0e 3d
       -0.62369657 0.031111814 0.06029629 0.034757454
0003c0 25 6c 27 3d a6 e8 13 be b6 e5 4d 3d b3 a4 03 3e
       0.04087462 -0.14444217 0.050267898 0.12855797
0003d0 43 5e 1c 3d bd e8 a5 bd 9d 78 a0 3b 44 35 25 3e
       0.038175832 -0.08101032 0.0048971907 0.161336
0003e0 42 07 55 3e d3 fd 27 be 12 59 0e be c4 9a 36 bd
       0.2080355 -0.1640542 -0.13901165 -0.04458119
0003f0 c4 6f 8c be 7b 14 ac be 92 b0 80 bd 10 fa be 3d
       -0.2742902 -0.33609375 -0.06283678 0.093250394

layers.0.bias f4 [64]
000000 e2 f5 48 3e dd e2 af bd 8a 91 2c be 50 18 a8 bd
       0.19625047 -0.085881926 -0.16852394 -0.08207762
000010 d2 d1 e6 3d d8 43 d7 3d 6f 46 28 3e 49 00 c0 bd
       0.11270489 0.10510987 0.16433118 -0.093750544
000020 b5 53 ad 3c 7e cd 47 3e 55 6a 1f 3e b0 e1 17 3e
       0.021158079 0.19511983 0.15567906 0.14832187
000030 a1 cc 1b 3c 40 99 41 3e a7 51 3d be 7a 3c 01 be
       0.009509237 0.18906116 -0.18488179 -0.12620726
000040 f2 9a a4 3d 9c 33 59 3d 38 86 18 be 48 59 d6 3d
       0.08037366 0.053027734 -0.1489495 0.10466248
000050 85 12 0e be ad 0a 04 be 66 00 f9 3d 7d f6 46 3e
       -0.13874252 -0.12894697 0.12158279 0.19429965
000060 c1 21 38 be 2b 3b 17 3d 12 3b 65 bc a5 c5 4e be
       -0.17981626 0.03692166 -0.013991134 -0.20192583
000070 45 b1 40 be 62 b6 10 3e 36 61 c3 bd 42 2e ee 3d
       -0.18817623 0.14132074 -0.09540026 0.11629917
000080 a0 9b aa bd c5 55 cc 3d 80 e2 cf bd 6d cf 14 3e
       -0.08330464 0.09977297 -0.10150623 0.14532252
000090 93 cb 1d 3d 15 58 41 3e 5f 8c 5a 3c 3e 89 1f be
       0.03852422 0.18881257 0.013339131 -0.15579697
0000a0 ef 07 23 3b a4 bc 04 be e1 2f 3c 3e 64 45 31 be
       0.0024876555 -0.12962586 0.1837764 -0.17311627
0000b0 1c 06 1b 3e b7 f4 ee 3d f9 4c 2f bd e9 26 08 be
       0.1513905 0.116677694 -0.042798016 -0.13296093
0000c0 ec 7d a6 3d 71 5b 84 bd 5f 34 0b 3e 44 d7 f7 3d
       0.081294864 -0.064627536 0.13594197 0.121016055
0000d0 9f d7 3f be c8 a8 0b bd 0d d7 76 bc 7e 8a df 3d
       -0.18734597 -0.03409651 -0.015065921 0.10915087
0000e0 73 58 bd bd 08 aa be bd 72 16 97 3d ab bb a9 bd
       -0.09245386 -0.09309775 0.07377328 -0.08287748
0000f0 ea ec 41 be 91 c6 bb 3c 3f 8a c5 3d 21 74 8e bc
       -0.18938032 0.022921832 0.09645509 -0.017389359

layers.1.weight f4 [64]
000000 35 e0 e4 3e 96 6f 1b 3f 58 27 3d 3f d6 6d 13 3f
       0.44702306 0.6071714 0.7388816 0.5758947
000010 86 7d 15 3f bc 4b bc 3e 25 27 e8 3e 97 d9 7e 3e
       0.5839466 0.3677653 0.45342365 0.24887691
000020 dc 00 7a 3e dd f8 45 3f 93 db 8b 3e 29 72 b3 3e
       0.2441439 0.7733286 0.2731596 0.35048035
000030 15 da 5b 3f 3f 62 92 3e 55 be fb 3e 0c 26 da 3e
       0.8587964 0.2859058 0.4916865 0.42607152
000040 85 1d bc 3e 25 4d bb 3e 00 42 c2 3e b3 c1 da 3e
       0.36741272 0.36582294 0.3794098 0.42725906
000050 01 d9 9d 3e 05 2c 02 3f ca d6 5f 3f 76 90 17 3f
       0.30829623 0.5084842 0.8743712 0.59204805
000060 d9 c8 e6 3e 2c a8 b3 3e 02 15 c1 3e 01 90 d3 3e
       0.4507511 0.35089242 0.3771134 0.41320804
000070 c4 a9 a6 3e 8f a6 f5 3e 6e f8 9d 3e d1 19 20 3f
       0.32551396 0.47978637 0.308536 0.6253939
000080 68 62 a2 3e b8 a1 5f 3f 0f 3f b7 3e df c9 a5 3e
       0.31715703 0.8735614 0.35790297 0.32380578
000090 ac 83 9a 3e 7e 24 ff 3e 6f a4 eb 3e 78 ba 9b 3e
       0.30178583 0.4983253 0.4602389 0.30415702
0000a0 4f 89 83 3e 97 57 b4 3e 71 4b b5 3e 8d 5b 9b 3f
       0.25690696 0.35223076 0.3540912 1.2137314
0000b0 80 3d 0d 3f 63 45 22 be 05 76 c3 3e b4 2d 29 3f
       0.55171967 -0.15846781 0.3817598 0.6608536
0000c0 e1 9c ba 3e c7 9d d6 3e 88 ef c6 3e 73 e0 dd 3e
       0.36447814 0.4191725 0.38854623 0.43335304
0000d0 db ba b0 3e ca 97 1e 3f 68 6c de 3e c9 ab 68 3f
       0.3451756 0.6195036 0.43442082 0.90887123
0000e0 0a 8d cd 3d a5 04 bc 3e da a1 15 3f 80 8a bb 3e
       0.10036667 0.36722293 0.5845009 0.36629105
0000f0 f5 4a 5f 3f c7 f2 80 3f e1 55 12 3f de cb af 3e
       0.8722375 1.007409 0.5716229 0.34335226

layers.1.bias f4 [64]
000000 5c 5d 54 be 1f b3 ca 3e 0d 7d 37 be 4c 39 8d be
       -0.20738739 0.39589784 -0.17918797 -0.27582777
000010 45 da 76 be 42 f8 ed be 93 04 a3 bd 4f 8e 78 3d
       -0.241067 -0.46478468 -0.07959857 0.06068259
000020 d3 e4 28 be 1a 64 47 bf 69 02 8b be 8a 14 71 be
       -0.1649354 -0.7788712 -0.27150276 -0.23542991
000030 71 c9 5c 3e ef 14 b4 3c 94 c5 96 be 96 8e e8 be
       0.21561219 0.021982638 -0.29447615 -0.45421284
000040 a3 9a e4 be fb a8 6b be dd b1 8c be 24 95 9f be
       -0.44649228 -0.2301368 -0.2747945 -0.31168473
000050 32 3d ca bd 47 4d a8 bb 5e 04 b0 ba c4 3f 2a bf
       -0.09874953 -0.0051361653 -0.0013429036 -0.6650355
000060 c4 29 bd be 48 f7 b5 be 73 34 9b be 14 bc cd be
       -0.36945927 -0.35540223 -0.30313453 -0.40182555
000070 30 1b 55 be 05 a6 47 bf 76 f3 2e be 29 e9 e7 be
       -0.20811152 -0.779877 -0.1708506 -0.45295075
000080 09 f4 9d be 99 ea 60 be 12 45 ef be 8c 72 f3 bd
       -0.30850247 -0.21964492 -0.46732384 -0.118870825
000090 16 a7 25 be 58 01 bc be 25 e0 bd 3d 5d c1 0b be
       -0.1617702 -0.36719775 0.09271268 -0.13647981
0000a0 9c 0d 8f 3d 6a 75 d6 be cc 0c 88 be c4 4b 8a be
       0.06985018 -0.41886455 -0.26572263 -0.2701093
0000b0 cd b4 e7 bc 0b 89 20 3e 13 f9 7c be 3e 7f a5 be
       -0.028284455 0.15677278 -0.2470439 -0.3232364
0000c0 ad ff cb be 5b 3e a5 be cf 05 e5 3d f1 3a b0 be
       -0.39843503 -0.32274136 0.111827485 -0.3441997
0000d0 2f b7 7e bd 36 de d3 be d1 96 80 3e 9b eb 4b bf
       -0.062186416 -0.4138047 0.25115064 -0.7965638
0000e0 9c e7 6c bc 7d a7 44 bd 48 10 d3 be 4d f9 c2 be
       -0.014459517 -0.04801129 -0.4122336 -0.38080826
0000f0 dc bf 9e 3d 90 8c b0 3e ec 25 8e be 56 27 cd be
       0.07751438 0.3448224 -0.27763307 -0.40069073

layers.1.running_mean f4 [64]
000000 e5 47 a3 40 6b f7 46 bd d8 be 2e bf b0 35 13 40
       5.102526 -0.0485758 -0.68259954 2.3001518
000010 ca f2 70 3c ba 74 a2 c0 0f 8e 6b 40 a5 58 07 40
       0.014706323 -5.076749 3.6805456 2.1147854
000020 71 a8 b8 c0 33 3c 98 bf 84 71 ac c0 41 36 1e c0
       -5.7705617 -1.1893371 -5.388857 -2.4720614
000030 ec 64 76 3f 17 f9 70 3e 74 3f 12 be d5 21 ad c0
       0.96247745 0.2353252 -0.14282018 -5.41038
000040 95 6f 98 c0 3b 1a b5 bf eb 82 92 40 48 17 3e bf
       -4.763621 -1.414863 4.578481 -0.74254274
000050 de d5 83 bf 32 a8 64 40 b2 bc 9e 3f a1 90 83 3f
       -1.0299642 3.5727658 1.2401335 1.0278512
000060 0a bf 03 41 8c 67 3d c0 bd 6e 0f 40 9d c4 0a c1
       8.23414 -2.959445 2.241134 -8.673001
000070 58 0c d7 bf 1f 19 b9 be 22 1c e1 40 18 fb af 3e
       -1.6800642 -0.36151978 7.034684 0.34371257
000080 8d 71 25 40 33 fb 6c 3f 0b cd f6 bf 72 b8 9b 3e
       2.5850556 0.925708 -1.9281324 0.30414158
000090 37 9c 38 40 64 f7 0e 3f c9 04 14 40 61 b8 0a 3f
       2.8845346 0.5584624 2.312792 0.5418759
0000a0 33 cd 3e 40 59 45 a1 40 4c 25 21 bf 29 61 c6 bc
       2.9812744 5.0397153 -0.62947536 -0.024216251
0000b0 51 5e 46 40 d3 b1 c0 bf bd 66 02 c1 62 8a 7f 3e
       3.0995066 -1.5054268 -8.150083 0.24955133
0000c0 cb 75 da 3f ed 3a 16 40 66 3e 84 3f 8d 7d ea bf
       1.7067198 2.3473465 1.0331542 -1.8319565
0000d0 ea c0 75 40 c2 1d b4 c0 43 7c 0d 3e 91 a0 2f c0
       3.8398995 -5.6286325 0.13816933 -2.7441752
0000e0 c6 93 99 c0 e1 bc 6e bd cf e2 43 3f ae 26 a0 bf
       -4.7992887 -0.058285598 0.7651796 -1.2511804
0000f0 55 ac 49 be 35 17 2e 3e a5 ec 5c 3f f3 37 92 bf
       -0.19694646 0.1700104 0.8629859 -1.1423324

layers.1.running_var f4 [64]
000000 44 73 64 41 ff 2e 0e 3f ce 46 24 40 d0 3c 7a 41
       14.278141 0.5554046 2.5668216 15.639847
000010 9a b6 10 41 cd 2a 36 41 30 29 88 41 48 40 13 42
       9.04458 11.385449 17.020111 36.812775
000020 ce 15 41 42 c0 8b 97 40 1e 75 84 41 32 c5 05 42
       48.271294 4.7358093 16.557186 33.442574
000030 94 5f 80 40 49 9b 01 43 a3 97 c9 3f 96 fa ac 41
       4.0116673 129.60658 1.5749401 21.622356
000040 89 7e 43 40 ab 18 ba 41 1e 59 97 41 35 2c 28 41
       3.054598 23.262045 18.918514 10.510793
000050 1a 80 3d 41 f4 38 b3 41 ac 6d c4 40 85 d5 19 42
       11.843775 22.40281 6.1383877 38.458515
000060 5d 23 d2 41 da 6d 31 41 2d 11 2e 41 0e 0a 81 41
       26.267267 11.089319 10.879193 16.12991
000070 fa 86 0f 42 24 67 83 3f 1a 91 31 41 c9 9c 1b 42
       35.881813 1.0265851 11.097925 38.90311
000080 99 00 0f 42 30 13 26 40 25 04 e9 40 39 51 40 41
       35.750584 2.594921 7.281756 12.01983
000090 d4 0d 08 42 a2 86 a2 3f ab dd c9 40 0d b8 05 41
       34.013504 1.2697337 6.308309 8.357434
0000a0 88 21 d0 40 9c b6 0d 42 56 41 ad 41 49 0a 8d 41
       6.504093 35.42833 21.656902 17.630022
0000b0 e9 bb 93 41 9a 89 bd 40 0f 41 d2 41 1c bc 83 40
       18.466753 5.923047 26.281767 4.1167126
0000c0 99 78 58 42 55 0e 79 41 12 fa e0 41 d8 fe a1 41
       54.11777 15.565999 28.122105 20.249435
0000d0 37 e2 fb 41 47 67 47 41 ad be 63 3f 69 e4 b6 40
       31.485456 12.462714 0.88962823 5.715382
0000e0 a1 da e2 41 fd ee 85 41 c6 c5 d6 41 78 c1 e2 40
       28.356752 16.741693 26.84657 7.086117
0000f0 7c a9 5d 40 a3 b1 55 40 b9 d0 3a 41 04 2b 2b 41
       3.4634695 3.338967 11.675958 10.698002

layers.3.weight f4 [64, 66]
000000 20 57 27 be cd 16 be 3c 04 c0 0c 3e ac d4 af bd
       -0.1634183 0.023204232 0.13745123 -0.08585486
000010 6b 3c f9 bd d4 67 05 3e cb 8b 59 3e 75 84 01 3e
       -0.12169727 0.13027889 0.21244733 0.12648185
000020 51 f8 cf be b7 16 6f 3d 77 b7 37 3d 95 d6 92 bd
       -0.40619138 0.058371272 0.0448527 -0.071698345
000030 3a 8f 17 be 71 c5 6b 3e e8 93 38 be 3c d8 d6 bd
       -0.1480073 0.23024537 -0.18025172 -0.10490462
000040 e1 75 a6 bd b9 b7 1a be 2c 8c 47 3c b5 9a dd 3d
       -0.08127952 -0.15109147 0.012179416 0.10820524
000050 3a 49 c7 bd f6 02 1c 3e 9d 1c 2f be 2f 5b 16 3e
       -0.09730764 0.15235505 -0.17100759 0.14683221
000060 cd 2a 1f bd 0d 0e 43 bd 96 7c 49 be b2 a8 d6 bd
       -0.038859177 -0.04762082 -0.19676432 -0.10481395
000070 43 30 0c bc 36 ba d2 3c 1a 09 c3 3d 6e 63 ee 3d
       -0.008556428 0.025723558 0.0952322 0.116400585
000080 fd 70 6b bc 42 31 bd bd 9b 58 80 3c 3d 92 8c 3b
       -0.0143702 -0.09237911 0.01566725 0.004289894
000090 8f b9 2c be 1c c5 ff bd f9 d6 80 bc 39 4f 8c 3d
       -0.1686766 -0.124887675 -0.015727507 0.06851048
0000a0 2e 90 43 be 38 95 31 be 6f 36 b3 3d 78 8c 15 be
       -0.19097969 -0.17342079 0.08750617 -0.14604366
0000b0 1a c5 ab 3e ae d6 4f 3e 38 a3 7b 3d b2 80 60 be
       0.33548814 0.20296738 0.061434954 -0.21924093
0000c0 b6 5b 4e bc ad 45 9d 3c 62 ae 14 bb 3b a8 9d be
       -0.012595108 0.019198263 -0.0022686948 -0.30792412
0000d0 ce bd b4 bd f7 3c 37 3d 51 2b 67 be 9c 31 94 3d
       -0.08825265 0.044735875 -0.22575118 0.07236025
0000e0 a7 18 b0 bd d8 c4 56 bd 7b 2a 13 be 2b 98 08 be
       -0.08598452 -0.05243382 -0.14371674 -0.13339297
0000f0 e4 15 8a 3e eb 2f 83 3b fb 5a 2c be 53 f7 cf be
       0.26969826 0.004003515 -0.16831581 -0.4061838
000100 0f 81 90 bc 30 98 fa bc fc 92 5b 3e 43 ff 9c be
       -0.017639665 -0.030590147 0.21442789 -0.306635
000110 3e 7c 85 bb 64 09 c9 3b 69 31 15 bd 18 bc a5 be
       -0.0040736487 0.0061351527 -0.036424074 -0.32370067
000120 45 72 94 3d d5 59 09 3e 73 c8 8d bd 05 c3 ac bd
       0.07248358 0.13413174 -0.06922998 -0.084356345
000130 69 a6 43 3d da 2e bb bc 3e 6d 96 bb 34 13 13 bf
       0.047766123 -0.022849489 -0.0045906594 -0.57451177
000140 59 de 8e bd 52 8a ea 3d 9b 6c 86 3d cb da ef bc
       -0.06976003 0.11452164 0.065636836 -0.029279133
000150 89 2c af 3d 19 b8 fc 3c 59 1d 7a 3d 4b f8 17 3e
       0.08553416 0.030849503 0.061063144 0.1484081
000160 d4 d3 6a 3e eb 2d 46 3e a0 91 a3 bd c4 8b 67 bd
       0.22932369 0.19353454 -0.0798676 -0.056529775
000170 9c 7a 9a 3c 18 71 e2 3d 0c 2f 29 3e a0 13 78 be
       0.018857293 0.11056727 0.16521853 -0.24226236
000180 46 a9 ef bc 16 98 7e bd 4c 40 83 3d 96 f7 f1 3d
       -0.02925552 -0.06215676 0.06408748 0.118148014
000190 f4 45 8a be 2a 64 6f 3e d0 00 c3 bc dd 6f 7c bc
       -0.27006495 0.23378053 -0.023804098 -0.01540753
0001a0 3a 9d f2 3d 73 62 81 3d 26 cb c9 3b 20 6f 9e bc
       0.11846395 0.06317606 0.0061582504 -0.019340098
0001b0 07 d2 d0 3d e0 25 8a 3e 51 7d f8 3d 45 9f 85 bd
       0.101963095 0.2698202 0.12133277 -0.06524519
0001c0 2c c3 9b 3d 4b 9b 0d 3e a9 5c c7 3c 63 8e d7 3d
       0.076055855 0.13828771 0.024336176 0.10525205
0001d0 5f cc 39 3d 31 fc b2 3e 2e c7 d9 bd f4 72 03 3e
       0.04536092 0.34958032 -0.10633694 0.1283682
0001e0 01 bb 67 be 57 13 90 3d fa d7 5c 3e f5 19 5b be
       -0.2262993 0.07034939 0.21566764 -0.2139662
0001f0 ff 14 d0 3b b0 bd 85 3e 07 d6 7c be 13 67 0a 3e
       0.006350159 0.26121283 -0.2469102 0.13515882
000200 7d 7c 93 bd 7d 78 ab bd e2 5f 1b 3c 46 ba 02 bd
       -0.07201479 -0.08372591 0.009483309 -0.031915925
000210 a3 a1 57 3d 5e 93 05 3e 47 c5 58 3d 51 a1 f7 bd
       0.052644383 0.13044497 0.052922513 -0.120913155
000220 3c 1e 06 3b 82 a4 9d 3e a9 26 02 be 78 29 1f be
       0.0020464798 0.30789572 -0.1271006 -0.15543163
000230 fd ec e5 bd b8 70 e5 3e e2 d9 6e 3d e3 d0 01 bc
       -0.112268426 0.4481256 0.058313258 -0.007923338
000240 7c 0e 3c 3e 32 60 89 be 88 a9 0f 3e 48 cf f7 bc
       0.183649 -0.26831204 0.14029515 -0.030250207
000250 9b 8f a9 3d 1a 0a c6 3b 1e 34 44 be fc 1e 4f 3d
       0.08279344 0.0060436847 -0.19160506 0.05056666
000260 1f 5f e1 3b 34 20 dd b9 51 25 ae bd 20 f1 2c be
       0.0068777944 -0.00042176398 -0.08503211 -0.16888857
000270 97 65 06 bc 7c f7 c2 3d 9f 4f d0 3d 5e 09 4a 3e
       -0.008202932 0.0951986 0.101714365 0.19730136
000280 bf 65 81 be 7c 9d 47 3e d4 5a b0 3d 07 10 9f be
       -0.2527294 0.1949367 0.08611074 -0.31066915
000290 d4 9b 8d 3e 7c f6 14 bd 4b f1 60 bd d6 e6 b3 3d
       0.2765795 -0.03636788 -0.054917615 0.08784263
0002a0 02 f0 b6 3d 9a a6 55 bd a3 be 71 be 5c 43 c4 bd
       0.089324966 -0.052160837 -0.23607878 -0.0958316
0002b0 7b aa 32 3e 68 33 a3 3d 03 a8 f5 bc c8 9e 81 be
       0.17447846 0.07968789 -0.02998734 -0.25316453
0002c0 6d c4 35 be 55 62 aa bc 2d ed 08 3d 1b f0 bb bd
       -0.17750712 -0.020798841 0.033429313 -0.09176656
0002d0 60 a5 e0 3d 1a cf 69 bc 3e 73 03 3e f3 67 de 3d
       0.10969043 -0.014270568 0.1283693 0.108596705
0002e0 55 28 d2 3d 00 80 8e 3c a3 eb 79 3e 58 3c 31 3d
       0.10261599 0.01739502 0.24406295 0.04327044
0002f0 66 61 21 3d b3 05 39 3e 8d 79 bc ba 92 b5 d2 3e
       0.039399527 0.1806858 -0.0014379487 0.41154152
000300 ab 7e a4 bc 78 f7 6e bd 1f 3f 36 bd 7f 86 8c 3d
       -0.020079931 -0.058341473 -0.04449379 0.068615906
000310 ae 53 2f bd 5a f7 2a 3c 2e f7 29 be 7d dc 9a bd
       -0.042804413 0.01043495 -0.16598198 -0.07561586
000320 19 c5 20 bf e2 0c ff bc 29 b5 86 3c 60 4b 94 be
       -0.6280075 -0.031134073 0.016443806 -0.28963757
000330 03 0a da bd 9b d0 02 be 56 29 26 3d 2f 1f 65 3c
       -0.10646441 -0.12774889 0.040566765 0.0139844855
000340 16 c9 1e bd 49 b2 8b bd f3 ba c3 bd 3a d1 19 be
       -0.03876599 -0.068211146 -0.09557142 -0.1502122
000350 f1 8e af be 66 44 d6 3d 0c 58 66 bc f2 35 39 3e
       -0.34288743 0.10462265 -0.014059078 0.18086985
000360 ca 04 cd 3c b1 23 64 3e be f2 18 bd 43 33 b9 bd
       0.025026698 0.2227924 -0.037340872 -0.090429805
000370 49 c7 08 bd 23 14 1d 3e ea ea 3a 3d 89 d9 4e 3d
       -0.033393178 0.15339713 0.045634188 0.050500426
000380 eb 3a a5 bd cc 5a 9a bd f4 7d 7a bd 24 68 93 bd
       -0.08067878 -0.075368494 -0.061155275 -0.071975976
000390 3f c0 70 bd d2 b2 3a be 54 b0 86 be 38 7b 35 3d
       -0.05877709 -0.18232277 -0.26306403 0.044306964
0003a0 d1 79 23 3c a7 18 b8 3c fd 0a ad 3c c8 5c a7 3d
       0.009977774 0.022472693 0.021123404 0.081719935
0003b0 19 6a 82 be 72 50 46 3e f9 c3 af bc 47 8d cc 3c
       -0.2547157 0.19366625 -0.021455752 0.02496971
0003c0 28 cf 32 be 62 fc c4 3c cd 0a 1c 3e 40 a5 97 bc
       -0.17461836 0.024046127 0.15238495 -0.018511415
0003d0 cb f6 85 bd e3 6f 4a 3d d7 bb 57 3e 46 36 f7 bd
       -0.06541213 0.04942311 0.21067749 -0.12070899
0003e0 a8 37 a0 3d 3e 24 d1 bc b4 f2 38 3d bd af e1 bd
       0.078231156 -0.025529977 0.045153335 -0.110198475
0003f0 07 54 b0 be d5 be 64 be 36 97 b5 3d 05 2f d3 bd
       -0.34439108 -0.22338422 0.08866732 -0.10311703

layers.3.bias f4 [64]
000000 55 55 a6 bd dc 29 ae 3d 4b 1e 82 3d ed fe d8 3d
       -0.081217445 0.08504078 0.06353434 0.10595498
000010 8c c6 d0 bd f2 0f a9 3d 9c 36 ad bc d2 33 ff bc
       -0.1019412 0.082549945 -0.021144204 -0.03115264
000020 cd a9 67 bd 9b 8a 0c 3d 9e eb b9 3d 24 81 07 be
       -0.05655842 0.034311872 0.090781435 -0.13232857
000030 02 fa 7a 3d 1a 61 b2 bd 7a 0f 7a bd 1d 28 a7 3d
       0.061273582 -0.08709927 -0.061049916 0.08161948
000040 94 d5 c0 3c 01 f6 df 3d 1d 5b 40 3d d2 7f 08 bb
       0.023539342 0.109355934 0.046961892 -0.002082814
000050 67 22 64 3d d9 11 86 3c 38 15 82 3d 35 dc d7 3d
       0.05569687 0.016365932 0.063517034 0.10540048
000060 3c 33 91 bc 0e d9 e6 3d c5 7f 94 3d 74 bf d5 3d
       -0.017724626 0.11271869 0.072509326 0.104369074
000070 6f 48 e9 bd b3 76 98 3d a9 75 fd bd 4a 97 e1 bd
       -0.11390769 0.07444515 -0.123759575 -0.11015184
000080 fd 71 c8 bd 14 a9 89 3d 93 71 4e bd da 3f 4c 3d
       -0.097873665 0.06721702 -0.05040128 0.04986558
000090 32 07 7d bd 65 e7 a1 3d 8e f4 81 3d 97 75 e0 bd
       -0.06177444 0.07905463 0.06345473 -0.109599285
0000a0 42 75 d5 3c 10 2b d9 3d e9 77 a3 bd 91 ea e4 3d
       0.02605689 0.10603917 -0.079818554 0.111775525
0000b0 0a 94 fe bd ef 1a db bc 32 53 6b 3d b2 f1 3e bc
       -0.1243058 -0.026746241 0.057452388 -0.011654304
0000c0 d1 cc b3 3d 0d 81 db 3d 0f 96 78 bd cf 29 83 bd
       0.087793 0.10717974 -0.060689982 -0.06404459
0000d0 6a bf a6 bc a7 b8 e9 3d 4b 34 f5 bd f4 29 b4 bd
       -0.020354945 0.11412173 -0.11972865 -0.087970644
0000e0 3a b3 f3 bc 63 96 a8 bd 01 9f 45 3d f1 28 80 3d
       -0.029748548 -0.08231809 0.04824734 0.06257809
0000f0 6d f0 ee 3d be 00 dc bd 71 ac 80 3d 08 3f a3 3c
       0.11666951 -0.10742329 0.062828906 0.019927517

layers.4.weight f4 [64]
000000 db db 25 3f 2e 5c 13 3f 09 9e d2 3e 55 45 51 3f
       0.647886 0.5756253 0.41136196 0.8174642
000010 d7 b4 68 3e b8 8f e6 3e 2f 88 30 3f 42 07 d4 3e
       0.22725235 0.45031524 0.689578 0.41411787
000020 ea 8e 78 3e 5d de d0 3e ea e6 11 3f bb 89 bb 3e
       0.24273267 0.4079465 0.5699297 0.36628518
000030 11 6b d4 3e bf 89 3e 3e 8c b2 c5 3e 85 e4 18 3f
       0.41487935 0.18607233 0.38612783 0.59723693
000040 15 33 01 3f cc 3f 77 3e 41 d8 d2 3e a5 9a d4 3e
       0.5046857 0.2414543 0.41180614 0.41524234
000050 2b d4 c3 3e d0 32 07 3f d7 0f 4d 3f 26 ad 35 3f
       0.3824781 0.5281191 0.80102295 0.7096733
000060 63 a3 c7 3e 97 6d fc 3e ae 76 3d 3f b4 3d 3b 3f
       0.38991842 0.4930236 0.74009216 0.73141026
000070 f2 22 5b 3f 79 42 97 3e 58 e3 4b 3f 7c 68 b4 3e
       0.856002 0.29542902 0.79643774 0.35235965
000080 43 91 ee 3e d7 20 69 3e 09 02 86 3e 97 5d 2a 3f
       0.465952 0.22766434 0.26173428 0.66549057
000090 dc 32 16 3f 09 1e c8 3e 13 30 00 3f da 25 4f 3e
       0.58671355 0.39085415 0.50073355 0.20229283
0000a0 52 69 d6 3e 8a cd 37 3f f4 5f 44 3f 46 1b eb 3e
       0.41877228 0.71798 0.7670891 0.45919245
0000b0 c9 e5 a4 3e ec c6 2c 3f 97 c9 07 3f 37 ad 8a 3e
       0.32206562 0.6749103 0.53041977 0.27085277
0000c0 3d 03 04 3f 66 8a 24 3f 03 a1 35 3f 72 b0 1d 3f
       0.5156744 0.6427368 0.7094881 0.6159736
0000d0 33 24 62 3f d2 e2 15 3f 00 79 67 3e 25 d2 ad 3e
       0.88336486 0.58549225 0.22604752 0.3394939
0000e0 f8 dd 89 3e 97 ec 67 3f b9 fe 49 3f 9c 1d 30 3f
       0.2692716 0.9059538 0.789043 0.6879518
0000f0 04 36 89 3e 50 7c 90 3e 1c 50 a2 3e fa ee 39 3e
       0.26799023 0.28219843 0.31701744 0.18157569

layers.4.bias f4 [64]
000000 ce 5d 60 be 67 14 e2 be 38 54 e1 be f9 e9 bf bd
       -0.21910784 -0.4415619 -0.44009566 -0.093707986
000010 15 a3 cb bd d1 72 b4 be 04 63 32 bf d4 b6 96 be
       -0.09943215 -0.35243848 -0.69682336 -0.29436362
000020 15 f6 4b be fa 7b c6 be ee 12 ac be e0 2e 5c be
       -0.19918092 -0.38766462 -0.33608192 -0.21502256
000030 11 e1 e9 be 30 4d 8c be 38 d8 9b bd ad 10 ea bd
       -0.45679525 -0.2740264 -0.076096 -0.11428962
000040 64 dd 9f bd f5 49 e5 be ca 00 d5 bd 21 9c 1d be
       -0.07805899 -0.44782987 -0.10400541 -0.1539159
000050 01 63 48 be 5e 1d ec be 14 bb 01 bf ad 39 be be
       -0.19569017 -0.46116155 -0.50676084 -0.37153378
000060 cd 00 9d be 40 fc e9 be 07 e9 0b 3e 24 89 2d be
       -0.30664673 -0.45700264 0.13663112 -0.16946846
000070 66 24 89 bd 88 42 2d be b5 33 8e be 02 7d 8a bd
       -0.066963956 -0.16919911 -0.27773824 -0.067621246
000080 b5 45 4b be ee d4 99 be 5b 6d 56 be 0d 39 69 be
       -0.1985081 -0.30045265 -0.20940153 -0.2277567
000090 03 37 3d be bd 09 d1 3c 40 2e 97 be c0 b1 a7 be
       -0.18478017 0.025517339 -0.29527473 -0.327528
0000a0 a7 7a 13 3e d0 4a b3 be 8c 3d 53 bd 18 c2 c8 be
       0.14402257 -0.35018015 -0.051572368 -0.39210582
0000b0 1a e4 92 bd fa 97 70 be a4 e0 26 be 6e e7 79 be
       -0.07172413 -0.23495474 -0.16296631 -0.2440469
0000c0 a0 15 ac bd 29 4c a4 be 17 9e ed be f9 01 73 bd
       -0.08402562 -0.32089356 -0.46409675 -0.059328053
0000d0 68 60 74 be 4e b9 25 3e 33 33 11 3e 93 08 a7 3b
       -0.23864901 0.1618397 0.14179687 0.0050974577
0000e0 ea 44 8a 3d bb d9 4f be 2f 07 25 bb 35 3e 1b bf
       0.067514256 -0.20297901 -0.0025181284 -0.60641795
0000f0 6d 64 22 be bd 4d bb be d5 70 44 be 5d 87 7b be
       -0.15858622 -0.36582747 -0.19183667 -0.24563356

layers.4.running_mean f4 [64]
000000 a3 af 42 be 15 ca 2b 3e 47 ff 2f 3d 8c 91 8b be
       -0.19012313 0.16776307 0.04296806 -0.2725948
000010 08 85 9a be 0e 76 68 bd 61 f6 7d 3e 2e d2 fb bd
       -0.3017962 -0.05675321 0.24801017 -0.12295948
000020 50 03 3b 3e ac b7 08 3d eb d9 08 3e 79 e2 06 bf
       0.18262982 0.03337829 0.13364379 -0.5268932
000030 a0 1e 29 3e f4 ae 09 bd 93 55 e3 be 40 c3 82 be
       0.16515589 -0.033614114 -0.44401225 -0.2553959
000040 5d cb 5b bd 4a f3 f7 bd f4 28 57 bd 15 82 2b 3e
       -0.05366074 -0.121069506 -0.05252929 0.16748841
000050 14 04 11 3f 16 2d 96 3e ae dc da bc 8e 43 d7 3d
       0.5664685 0.29331273 -0.026716556 0.10510932
000060 89 60 83 be 1f f4 61 be 09 ec b7 be 58 0a d7 3c
       -0.25659588 -0.22065781 -0.35922268 0.02625005
000070 9b 94 c0 bd 1c 4a 41 be b9 7d 3d 3e 64 f3 74 be
       -0.09403344 -0.18875927 0.1850499 -0.23920971
000080 5b fb 14 be cb 6f 29 3f 84 d7 d7 be c8 8c 57 3c
       -0.1454901 0.6618621 -0.42156613 0.013156123
000090 11 c2 bb be ae 0b 5a be 23 f0 ac 3d 00 bc ad bd
       -0.36671498 -0.21293518 0.0844424 -0.08483124
0000a0 71 e8 86 be 69 0f f8 bd 45 e6 8b be 58 3d 82 3e
       -0.26349214 -0.12112314 -0.2732412 0.25437427
0000b0 88 8b ae be 5d 1e 54 be 87 6d a6 3e dc d9 9b 3e
       -0.3409083 -0.20714708 0.32505438 0.3043965
0000c0 1b 9d 80 bd cb b2 18 be 73 c6 85 be 12 da 9a be
       -0.062799655 -0.14911954 -0.26127967 -0.302445
0000d0 76 61 cb be fc d6 35 3a e7 cc 03 bf 8b e8 35 be
       -0.39722794 0.0006936637 -0.5148453 -0.1776449
0000e0 94 46 ef bc 4a 54 e2 be 66 51 e3 be 28 43 af bd
       -0.029208459 -0.44204932 -0.4439804 -0.08557731
0000f0 d3 9a 10 3e 18 4a 13 bd 3d 52 72 be 90 3d 20 3e
       0.14121561 -0.035959333 -0.23664184 0.15648484

layers.4.running_var f4 [64]
000000 1a 83 7f 3d 5c 80 2e 3d 03 17 d0 3c 06 2e a3 3d
       0.062380888 0.04260288 0.025401598 0.07967763
000010 dc 04 bc 3d 4c 9d 4d 3d a8 f4 29 3d 1f ab 78 3d
       0.09180614 0.050198838 0.041493088 0.06071007
000020 09 7a f2 3d 51 6f 2a 3d c9 34 0c 3d 95 90 55 3e
       0.118396826 0.041610066 0.034230027 0.20855935
000030 4c ac 4a 3d e2 25 5d 3d 4d 05 44 3e 43 01 85 3d
       0.04948072 0.053991206 0.19142647 0.06494381
000040 a6 31 33 3d 8f 17 b3 3d 0f d2 19 3e 8f ca 43 3d
       0.04374852 0.08744728 0.15021537 0.047800597
000050 a0 a3 c4 3d 1d bd 94 3d d4 bf 55 3d f5 1e 6b 3d
       0.096015215 0.07262633 0.052184895 0.05740257
000060 36 3b 98 3d ae f9 b5 3d b7 8b 7c 3d 05 14 13 3d
       0.074331686 0.08885513 0.06165668 0.035907764
000070 6c 73 45 3d b7 e5 04 3e 1b ee 45 3d d9 97 1b 3d
       0.048205778 0.12978254 0.04832278 0.03798661
000080 95 b7 66 3d bd fd 6c 3d c5 5f 82 3d 86 05 aa 3d
       0.05632742 0.05785917 0.06365923 0.08301835
000090 ad 92 3c 3e d6 49 32 3e ec 24 2b 3d dc bf 08 3d
       0.18415327 0.17410979 0.04178326 0.033386096
0000a0 1e 54 85 3d 94 ad 14 3e 6e 9d 57 3d 33 fe 24 3d
       0.06510185 0.1451934 0.05264037 0.040281486
0000b0 8f df a3 3d 5f ce 75 3d c3 aa 80 3d 9a 5b 1e 3d
       0.08001625 0.060011264 0.0628257 0.038661577
0000c0 43 71 6f 3d 8d ce 34 3d 3e f6 94 3d b7 3a 40 3d
       0.058457624 0.044142295 0.072735295 0.046930995
0000d0 ec fb c8 3d 35 8d 69 3d c2 39 80 3d 02 dd ab 3d
       0.09813675 0.05701943 0.062610164 0.08391763
0000e0 ee 51 4d 3d 81 d7 80 3d 3f bd bc 3e f7 7d 66 3d
       0.050126962 0.06291104 0.36863133 0.056272473
0000f0 20 aa d1 3c 95 9d 14 3d 8f c0 61 3d 7b 87 94 3d
       0.025593817 0.036283094 0.05511528 0.07252403

layers.6.weight f4 [1, 64]
000000 c5 fc 8e bd 8b 36 d7 bd ff 55 4e be 0b 4a 75 bd
       -0.06981806 -0.1050845 -0.20149992 -0.059885066
000010 44 f1 6a be 3f 52 74 bd 7a 19 6f be af eb aa bd
       -0.22943598 -0.05964875 -0.23349562 -0.08345734
000020 b7 6b 33 be bd a6 96 3e 45 bd 86 bd e4 ff 0a 3f
       -0.17521559 0.29424086 -0.06579069 0.5429671
000030 f8 af 8c bd 78 5f df be 04 0c 6f 3e 53 85 88 bd
       -0.06869501 -0.43627524 0.23344427 -0.066660546
000040 11 e2 52 3d 57 5f c5 bf 6a 47 16 3e b7 47 97 bd
       0.051485125 -1.541972 0.1467568 -0.073867254
000050 c2 24 78 bd 2a b8 a9 bd 1a 86 86 bd 9d 6a e1 bd
       -0.06058193 -0.0828708 -0.065685466 -0.11006663
000060 48 ce f2 bd a5 c9 f2 bd 51 4c 9b 3d 8f 5b 9b bc
       -0.11855751 -0.11854867 0.075829156 -0.018964557
000070 2f 7d 5b 3d ea 16 75 3e d8 e7 23 3d 5b 34 5a 3e
       0.05358618 0.23934522 0.040016025 0.21309035
000080 dc 9c 7a bd 6a 0a 0c bf 61 b4 99 3e a3 cb 5a 3d
       -0.06118475 -0.5470339 0.3002043 0.05341686
000090 15 25 55 bd 5a d7 5f 3e a8 ec a7 3d 40 2f ac be
       -0.052037317 0.21859494 0.081994355 -0.336298
0000a0 bb 7d c2 bd b9 e6 a7 bd 47 02 67 3d 08 ca 5e bd
       -0.094966374 -0.08198304 0.056398656 -0.05439189
0000b0 48 24 30 be a8 6d 25 3d 06 66 04 3e ab 33 6e 3e
       -0.1720134 0.04038778 0.12929544 0.23261897
0000c0 9d 0b 9f 3d a3 cf 85 bd 2b d0 85 3d 91 c0 5d 3d
       0.07765887 -0.06533744 0.065338455 0.054138724
0000d0 cf e1 98 bd 95 1e d2 3d 76 ef 3a be e0 92 85 3d
       -0.074649446 0.10259739 -0.1825541 0.06522155
0000e0 6c af cc 3d a7 57 7a bd f6 e8 0d 3e 4f 08 a1 bd
       0.099943966 -0.061118748 0.13858399 -0.07862913
0000f0 8a 11 73 be b1 b7 a6 3e a2 dd ff bd 76 44 5b 3e
       -0.2373716 0.3256202 -0.12493445 0.21412835
