results/checkpoint_critic_target.pt (torch_old, 151857 bytes, 9 tensors)

layers.0.weight f4 [128, 24]
0	0xbe47974a	-0.19491306
1	0xbe1ceecf	-0.15325473
2	0xbe3b1020	-0.1826787
3	0xbe372a31	-0.17887188
4	0xbe480601	-0.1953354
5	0xbe0bced2	-0.13653114
6	0x3d936632	0.071972266
7	0xbdc809f1	-0.09767521
8	0xbe72c814	-0.23709136
9	0xbdaab0b1	-0.083344825
10	0x3d214a90	0.03937775
11	0xbd3ed634	-0.046591
12	0xbdcd4c6e	-0.100243434
13	0xbe169b82	-0.14707759
14	0xbc544b94	-0.012957472
15	0xbe2569c4	-0.16153628
16	0x3cae49e4	0.021275468
17	0xbc235887	-0.009969837
18	0xbdf139e9	-0.117786236
19	0x3c938427	0.018007351
20	0xbd12463d	-0.035711516
21	0xbe06f58f	-0.1317961
22	0xbe501302	-0.20319751
23	0xbe353b89	-0.17698492
24	0xbd4bc885	-0.049751777
25	0xbe0682a8	-0.13135779
26	0xbe202170	-0.15637755
27	0xbdf28c44	-0.1184316
28	0x3d51fd28	0.05126682
29	0xbdbf8a64	-0.09352568
30	0xbd1d706e	-0.0384373
31	0xbdd16036	-0.10223429
32	0xbe182d73	-0.14861088
33	0xbe27436b	-0.16334312
34	0xbcf35a4f	-0.029706148
35	0x3c552420	0.013009101
36	0x3da7cb0a	0.081930235
37	0x3e1a7603	0.1508408
38	0x3d4f17f1	0.05055994
39	0x3d643eb6	0.05572387
40	0x3dad0558	0.08448285
41	0xbd377af1	-0.04479498
42	0x3ce53033	0.027977085
43	0x3d49103a	0.04908774
44	0xbd976452	-0.073921815
45	0xbd9e3e4a	-0.077267244
46	0xbd5dd810	-0.05416113
47	0xb987f750	-0.0002593347
48	0xbcfdf3bc	-0.03100001
49	0xbe81b1b4	-0.2533089
50	0x3d157426	0.03648772
51	0xbe3be7df	-0.1835017
52	0xbe7effcd	-0.24902268
53	0xbdb2faaf	-0.0873922
54	0xbe307295	-0.1723121
55	0xbc7606f1	-0.015016303
56	0x3c7ac71d	0.015306261
57	0xbe2a9b1c	-0.16660732
58	0x3cc3b93b	0.023892036
59	0xbd080eb2	-0.03321714
60	0xbdeb75ee	-0.11497103
61	0xbcc6ddea	-0.024275739
62	0xbd791a45	-0.06081607
63	0xbd505b4b	-0.050868314
64	0xbcebcb8d	-0.028783584
65	0x3d170ca9	0.036877308
66	0xbe0f9c9d	-0.14024587
67	0xbe7020b7	-0.2344998
68	0xbe86ba36	-0.26313943
69	0x3bc152a0	0.0058997422
70	0xbd9757ee	-0.07389818
71	0xbe179e8d	-0.14806576
72	0xbd3554b6	-0.04427024
73	0xbe04aa9f	-0.12955712
74	0xbd168bc5	-0.03675439
75	0x3cef81f8	0.029236779
76	0x3d7e5601	0.06209374
77	0xbdaebef3	-0.085325144
78	0xbc0199cc	-0.007910203
79	0xbd0d4ed6	-0.034499012
80	0xbd6d01f1	-0.05786318
81	0xbcdf6f2c	-0.02727469
82	0xbde99e09	-0.11407096
83	0xbd8111df	-0.06302237
84	0xbda6bdde	-0.08141683
85	0x3e13f2e2	0.14448121
86	0xbd6fc136	-0.05853387
87	0x3dd727ac	0.10505614
88	0x3dafee04	0.0859032
89	0xbdb875de	-0.090068564
90	0xbe427e74	-0.1899355
91	0xbdbd9c63	-0.09258344
92	0xbafdb322	-0.0019355754
93	0x3ddca6d5	0.10774008
94	0xbe114c2e	-0.14189216
95	0xbe1014d5	-0.14070447
96	0xbdabe57c	-0.0839338
97	0xbde2c7b6	-0.11073248
98	0xbdd1cd83	-0.102442764
99	0xbe167be8	-0.14695704
100	0xbd1eb008	-0.038742095
101	0x3cd47392	0.025934014
102	0xbe86b6c0	-0.26311302
103	0xbe7b1435	-0.24519427
104	0xbc5ae75f	-0.013360827
105	0xba2acae1	-0.00065152167
106	0xbda5a2d0	-0.08087695
107	0x3d1a4e51	0.037672345
108	0xbe84963a	-0.25895864
109	0xbd379078	-0.04481551
110	0xbe50b1f4	-0.20380384
111	0xbd4a8f62	-0.049453147
112	0xbd22ccdb	-0.039746147
113	0xbd7acce1	-0.061230544
114	0xbc886e49	-0.01665415
115	0xbe0c6dd1	-0.13713767
116	0xbe20d9cc	-0.15708083
117	0xbe0c3b62	-0.13694528
118	0x3d7614c5	0.0600784
119	0xbe23ea44	-0.16007334
120	0xbbeb7959	-0.0071860966
121	0x3c5a5293	0.013325351
122	0x3d8c0d55	0.068384804
123	0xbe5aa6c2	-0.21352676
124	0xbe641513	-0.22273664
125	0xbbd2f308	-0.006437663
126	0xbdab49c8	-0.08363682
127	0xbe000cb5	-0.12504847
128	0x3d17ac18	0.037029356
129	0x3db9a286	0.09064202
130	0xbe860fb7	-0.26183864
131	0xbd9a2d64	-0.07528189
132	0xbe068e5c	-0.13140243
133	0xbe294915	-0.16531785
134	0xbd67adf4	-0.05656238
135	0xbcbd01c3	-0.02307213
136	0xbe45d27d	-0.19318576
137	0x3a8d1b60	0.0010765605
138	0x3d32d34c	0.04365854
139	0xbe0182b1	-0.12647511
140	0xbe143856	-0.14474615
141	0xbe24c572	-0.16090944
142	0xbded4eed	-0.115873195
143	0xbb373e80	-0.0027960837
144	0xbd8e4be1	-0.069480665
145	0xbd2bcd8c	-0.04194407
146	0xbd498a6e	-0.049204282
147	0xbe199954	-0.14999896
148	0xbe613b21	-0.21995212
149	0xbeb5493c	-0.35407436
150	0xbe86240f	-0.26199386
151	0xbc6f11f1	-0.01459168
152	0xbd863ea6	-0.06554918
153	0xbd8b3083	-0.06796362
154	0xbe33667f	-0.17519568
155	0xbe35fb5f	-0.17771672
156	0x3d56f7da	0.052482463
157	0xbe4f76a5	-0.20260103
158	0xbdc73787	-0.09727388
159	0xbe149472	-0.14509752
160	0xbe26f5ad	-0.16304655
161	0x3cdf0891	0.027225764
162	0xbc0ebf73	-0.008712637
163	0xbe7d67e2	-0.2474666
164	0xbdd2a259	-0.102848716
165	0xbd1e786e	-0.03868907
166	0xbea1088e	-0.3145184
167	0xbe49d0b6	-0.19708523
168	0xbe3e7b6f	-0.18601774
169	0xbe0570bf	-0.1303129
170	0xbdef1546	-0.116739795
171	0xbe593edd	-0.21215387
172	0xbd93f0bd	-0.072236516
173	0xbb0354f5	-0.0020039652
174	0xbd6de741	-0.05808187
175	0xbdb1f5aa	-0.08689435
176	0x3c56453c	0.01307803
177	0xbe1b7458	-0.151811
178	0xbe06cbc2	-0.13163665
179	0xbd0e38f7	-0.034722295
180	0xbd56fa5a	-0.052484848
181	0x3d0a98a4	0.033836976
182	0xbcd02166	-0.02540655
183	0x3d988fee	0.074493274
184	0xbd117b5c	-0.035518035
185	0x3d925e00	0.07146835
186	0xbe751fed	-0.2393796
187	0xbdc8b60e	-0.09800349
188	0xbc5c9d5f	-0.013465255
189	0xbdf29d3e	-0.11846398
190	0xbe8aed97	-0.27134392
191	0xbdda9c44	-0.106743366
192	0xbdf3a9d2	-0.11897625
193	0x3bd205cf	0.006409384
194	0xbe815ee7	-0.25267717
195	0xbac6ca18	-0.001516643
196	0xbe0634c2	-0.13106063
197	0x3d6effdf	0.058349486
198	0x3d35e5fa	0.044408776
199	0xbe1453c6	-0.14485082
200	0xbbdd4181	-0.0067521934
201	0xbb1ef8c0	-0.0024257153
202	0xbc9db468	-0.019251063
203	0x3d1f839b	0.038943868
204	0xbd368d8b	-0.04456858
205	0xbe189ea8	-0.14904273
206	0xbe44acee	-0.19206592
207	0xbd3c421b	-0.04596148
208	0xbd188ade	-0.03724181
209	0xbe024c7c	-0.12724489
210	0xbded199d	-0.11577151
211	0x3d8054b1	0.062661536
212	0xbe0ca612	-0.13735226
213	0x3d42a629	0.047521744
214	0xbe4bd29e	-0.19904563
215	0xbdbaeda5	-0.09127358
216	0x3c841332	0.016122434
217	0x3c4886a1	0.012239129
218	0xba96b2a4	-0.0011497331
219	0xbe34fee1	-0.17675354
220	0xbdefddc3	-0.117122196
221	0x3ce9bdef	0.02853295
222	0x3d936b02	0.071981445
223	0xbda20440	-0.07910967
224	0xbc98563d	-0.01859581
225	0xbdec7d12	-0.11547293
226	0xbe58846c	-0.21144265
227	0xbd4fd99d	-0.05074464
228	0xbdd18083	-0.1022959
229	0x3dbe5e78	0.09295362
230	0xbe157a11	-0.14597346
231	0xbd831b65	-0.064017095
232	0xbdb5e5b1	-0.08881701
233	0xbcce2f68	-0.02516909
234	0xbea2fe39	-0.31834581
235	0xbe4eff2c	-0.20214528
236	0xbdba741f	-0.091041796
237	0xbdcf190a	-0.10112198
238	0xbe27f115	-0.16400559
239	0xbe5eb258	-0.2174772
240	0xbd8e4ff4	-0.069488436
241	0xbdc6c3c2	-0.097053066
242	0xbc86a7e2	-0.016437475
243	0xbe25c8fb	-0.16189949
244	0x3b949072	0.004533821
245	0xbd82ade3	-0.063808225
246	0xbe217c1f	-0.15770005
247	0xbe344d26	-0.17607555
248	0xbdbba400	-0.0916214
249	0xbe3234fa	-0.17403021
250	0xbe0f00f8	-0.13965213
251	0xbdc0b90d	-0.09410296
252	0xbc21ba31	-0.009871052
253	0x3d6800f1	0.056641523
254	0x3d80fe4e	0.06298505
255	0x3cf21e4c	0.029555462

layers.0.bias f4 [128]
0	0xbe015316	-0.12629351
1	0x3dad74df	0.08469557
2	0xbe466a89	-0.19376577
3	0xbdeb454b	-0.11487826
4	0xbd2ab7d8	-0.041679233
5	0x3db34448	0.08753258
6	0x3db3e338	0.08783573
7	0xbe1a8ec6	-0.15093526
8	0x3d0dea8c	0.03464751
9	0xbd8887a0	-0.066664934
10	0xbdc64ee7	-0.09683018
11	0xbc276de2	-0.010219069
12	0x3dea4574	0.114390284
13	0x3e2a67d4	0.1664117
14	0x3e45d4ec	0.19319504
15	0x3e077f46	0.13232145
16	0x3e12f3a0	0.14350748
17	0x3d8a810c	0.06762895
18	0x3d9627f2	0.07331838
19	0xbda7bcbb	-0.08190294
20	0xbdc1c427	-0.09461241
21	0xbe05210c	-0.13000888
22	0xbbc3bc12	-0.0059733475
23	0x3dd41f6e	0.10357557
24	0xbe1c584e	-0.1526806
25	0xbe1170e7	-0.14203225
26	0x3e2946bc	0.1653089
27	0x3e0d3df8	0.1379317
28	0xbe25a000	-0.16174316
29	0xbe1f9363	-0.15583567
30	0xbd941b60	-0.07231784
31	0xbe15a6ea	-0.14614454
32	0x3cf32370	0.029679984
33	0xbd78987e	-0.060692303
34	0x3d6455d0	0.0557459
35	0x3c1c13c1	0.009526194
36	0x3dd3b374	0.10336962
37	0xbd512698	-0.051062196
38	0x3d0ad57a	0.033894993
39	0xbd0b9556	-0.034077965
40	0x3d43eda8	0.04783407
41	0xbb2556b8	-0.002522869
42	0x3e0950de	0.13409755
43	0xbdd35c1f	-0.10320305
44	0x3d9aefb4	0.07565251
45	0xbd2bbcb8	-0.041928023
46	0x3de01c44	0.10942891
47	0xbe1d41d2	-0.1535714
48	0xbe153db0	-0.14574313
49	0xbd37224c	-0.044710442
50	0x3dc64df0	0.09682834
51	0x3dac2628	0.08405715
52	0x3d51cb58	0.051219314
53	0xbdb74d3c	-0.08950278
54	0x3e0f7920	0.1401105
55	0xbdffbc6f	-0.12487113
56	0x3d453855	0.048149426
57	0x3de716f7	0.11283677
58	0x3e45d374	0.19318944
59	0x3c9247c0	0.017856479
60	0xbdaa16b5	-0.08305112
61	0x3db083a0	0.086188555
62	0x3e397b09	0.1811334
63	0xbe314e3a	-0.17314997
64	0xbe4db709	-0.20089354
65	0xbcc830b5	-0.024437288
66	0xbdd11c29	-0.10210449
67	0xbdc0d0e5	-0.094148435
68	0xbe0f8c86	-0.14018449
69	0x3d17d748	0.037070543
70	0xbdc28680	-0.0949831
71	0x3de2faa8	0.11082965
72	0x3e3d4408	0.18482983
73	0xbe38dbaa	-0.18052545
74	0x3c5858a0	0.013204724
75	0x3e418f12	0.18902233
76	0x3e4d6ebe	0.20061776
77	0xbd4ae8ec	-0.049538538
78	0x3dfaa2ae	0.1223806
79	0x3dcb9bb7	0.099418096
80	0x3e0fc82e	0.14041206
81	0xbc958578	-0.01825212
82	0xbd2be70c	-0.04196839
83	0xbdbc6da3	-0.09200599
84	0x3cf37ae2	0.029721681
85	0x3d5a3af8	0.053278893
86	0xbda09b28	-0.07842094
87	0xbe1f2667	-0.15541993
88	0x3e44920a	0.19196334
89	0xbdfadb04	-0.12248805
90	0xbc8d8114	-0.017273463
91	0xbdbfff06	-0.09374814
92	0xbd375827	-0.044761803
93	0xbe4e3b9b	-0.20139925
94	0xbdbe8035	-0.09301797
95	0x3d86a6b8	0.06574768
96	0x3e0fcd8e	0.14043257
97	0x3e4686ec	0.19387406
98	0xbd9852ba	-0.07437654
99	0xbdfca2b6	-0.12335722
100	0xbe3784fe	-0.17921826
101	0xbd8f1fde	-0.069885
102	0xbe316984	-0.17325407
103	0xbdf9ae33	-0.12191429
104	0xbd8a0a59	-0.06740255
105	0x3e4f42e0	0.20240355
106	0xbe08b478	-0.13350093
107	0xbe18c1ce	-0.1491768
108	0xbd337154	-0.04380925
109	0x3df7ef88	0.12106234
110	0xbcf2a5b0	-0.029620022
111	0xbb034bc2	-0.002003417
112	0x3e13cd9e	0.14433905
113	0x3df07a58	0.11742085
114	0x3e297418	0.16548193
115	0xbdf55b9b	-0.11980363
116	0x3e207e64	0.15673214
117	0xbe47ee5a	-0.19524518
118	0xbe072bf7	-0.13200365
119	0xbbee94f5	-0.0072809407
120	0x3d905cb8	0.07048935
121	0xbc9d1950	-0.019177109
122	0x3e4471e0	0.19184065
123	0xbca1fc08	-0.019773498
124	0xbdb7a969	-0.08967859
125	0xbd0e2770	-0.03470558
126	0xbcdd6b34	-0.027028657
127	0x3ccd8bd2	0.025091086

layers.1.weight f4 [128]
0	0xbe5a211d	-0.21301694
1	0xbdaf588d	-0.085618116
2	0xbdd99284	-0.10623649
3	0xbe367dde	-0.17821452
4	0xbe08a81b	-0.13345377
5	0xbde0e0cf	-0.10980379
6	0xbe677076	-0.22601494
7	0xbe60188c	-0.21884364
8	0xbd742c0a	-0.05961231
9	0xbde55ae2	-0.11198975
10	0xbdbef4be	-0.093240246
11	0xbe22e745	-0.15908535
12	0xbd8cf305	-0.0688229
13	0xbdc7328c	-0.09726438
14	0xbcbe3dbe	-0.0232228
15	0xbdd3a6ce	-0.1033455
16	0x3c82afa1	0.015952887
17	0xbd186dc0	-0.03721404
18	0x3dcf65f4	0.10126868
19	0xbcc86eea	-0.02446695
20	0x3d637465	0.055530924
21	0xbccf5e36	-0.025313478
22	0xbdf28273	-0.118412875
23	0xbdbd803b	-0.09252974
24	0x3e155466	0.14582977
25	0x3d9823ef	0.07428729
26	0xbdee920e	-0.116489515
27	0xbbdb9e90	-0.0067022517
28	0xbe0a32b6	-0.13495907
29	0xbd9ee4ef	-0.07758509
30	0xbddbcbdb	-0.10732242
31	0x3cf0aea1	0.029380145
32	0xbd195a2a	-0.037439503
33	0x3e09719b	0.13422243
34	0xbddc071a	-0.10743542
35	0x3d016097	0.031586256
36	0xbc658e76	-0.014011016
37	0x3e257ce3	0.16160922
38	0xbd4c7fac	-0.049926445
39	0xbe5b919e	-0.21442267
40	0x3d273a6b	0.040827196
41	0xbe02faf0	-0.12791038
42	0x3decc60d	0.11561213
43	0xbd947f69	-0.07250864
44	0xbdaa772a	-0.0832351
45	0xbdb3eb63	-0.08785131
46	0xbd6592b1	-0.0560481
47	0xbe88edee	-0.26744026
48	0xbdd78a33	-0.10524406
49	0xbe78fd22	-0.24315313
50	0x3d83b53e	0.064310536
51	0x3ca2ffe2	0.019897405
52	0xbd8a2181	-0.067446716
53	0xbe86c064	-0.26318657
54	0xbe183cd6	-0.14866957
55	0xbbbfef7c	-0.005857406
56	0xbe84ac47	-0.25912687
57	0xbdb419b6	-0.087939665
58	0xbe38bbac	-0.18040341
59	0xbe1b2692	-0.15151432
60	0x3d4e0e09	0.050306354
61	0xbe16b48f	-0.14717315
62	0xbe0320d0	-0.12805486
63	0x3dd44ff4	0.10366812
64	0xbdc0d175	-0.09414951
65	0x3c7429d2	0.014902549
66	0xbe130d00	-0.14360428
67	0xbe3a7449	-0.18208422
68	0xbd442ee6	-0.04789629
69	0xbd89db9b	-0.067313395
70	0xbd1b229f	-0.037874814
71	0xbe159df8	-0.14611042
72	0xbe497a41	-0.19675542
73	0xbe15308a	-0.14569297
74	0xbc0e5aa3	-0.008688602
75	0xbdd52038	-0.10406536
76	0xbd1048c7	-0.035225656
77	0xbe154d3d	-0.14580245
78	0x3df06ff6	0.11740105
79	0x3e65dcbc	0.22447485
80	0x3cbd8f44	0.023139603
81	0xbcc9c005	-0.024627695
82	0xbe7c0a23	-0.24613242
83	0x3d0a0962	0.033700354
84	0xbdae963a	-0.08524747
85	0x3d0390f9	0.03212068
86	0xbd59ad73	-0.05314393
87	0xbd95c88d	-0.07313643
88	0xbb4aa436	-0.0030920631
89	0xbd55a63c	-0.052160487
90	0xbe5ae144	-0.21374995
91	0xbc5b36ed	-0.013379795
92	0xbcf77193	-0.030205524
93	0xbe42af35	-0.19012149
94	0xbe896a1b	-0.26838765
95	0x3da0f6a1	0.07859541
96	0xbe46b9e5	-0.1940685
97	0x3e2009d4	0.15628749
98	0xbe123de0	-0.14281416
99	0xb942163f	-0.00018509569
100	0x3df71916	0.12065332
101	0xbe29a136	-0.16565403
102	0x3d8625c0	0.06550169
103	0xbe2c5380	-0.16828728
104	0xbd553431	-0.052051727
105	0xbdd26963	-0.10274007
106	0xbd343716	-0.043997847
107	0xbdbc3d46	-0.091913745
108	0x3d215bb0	0.03939408
109	0xbd7264c8	-0.059178144
110	0xbd1d0837	-0.038337912
111	0xbe091115	-0.13385423
112	0xbdfe1026	-0.12405424
113	0xbe336a31	-0.17520978
114	0xbdabc793	-0.08387675
115	0xbe1362e1	-0.14393188
116	0xbd8ff6c1	-0.070294864
117	0xbdd436b5	-0.10361997
118	0xbc2eb3ff	-0.010663032
119	0xbe1f09c2	-0.15531066
120	0xbd5bd088	-0.053665668
121	0xbda7c195	-0.0819122
122	0xbe1d3f64	-0.15356213
123	0xbd82bf14	-0.063841015
124	0xbced118f	-0.028939037
125	0xbe1031ff	-0.14081572
126	0x3d3099a3	0.04311527
127	0xbdd4794c	-0.10374698

layers.1.bias f4 [128]
0	0x3b24cbca	0.0025145882
1	0x3c9b9f77	0.018996937
2	0x3d03ab56	0.03214582
3	0x3d2f65aa	0.042821564
4	0xbb7be2d1	-0.0038434754
5	0x3a9ca2c5	0.0011950365
6	0xbc1f3020	-0.009716064
7	0x3c2c8408	0.010529526
8	0x3c01bf64	0.007919166
9	0x3c9e8244	0.019349225
10	0x3cc76f80	0.02434516
11	0xbca8c9d1	-0.020604046
12	0x3b317c4a	0.0027082139
13	0xbd0e8a25	-0.034799714
14	0x3d016485	0.031590004
15	0x3c889854	0.016674198
16	0x3d05d5b8	0.03267452
17	0xbc0d1871	-0.008611784
18	0x3d47a062	0.048736937
19	0x3cec19eb	0.028820952
20	0x3d482460	0.048862815
21	0x3d20056d	0.039067674
22	0x3b2c9337	0.0026332864
23	0x3ca3b46d	0.019983495
24	0x3cb9f049	0.022697585
25	0x3d0c749d	0.0342909
26	0x3cb205c3	0.021731263
27	0xb9e82547	-0.00044278262
28	0xbcbf05f3	-0.023318266
29	0x3d1e090d	0.03858285
30	0xbcc96ec1	-0.024588944
31	0x3ceb9eb9	0.028762208
32	0xbc8c6aa8	-0.017140701
33	0x3cf0533f	0.02933657
34	0x3c78447f	0.0151530495
35	0x3d374ff9	0.044754002
36	0x3b64c036	0.0034904606
37	0x3d115596	0.03548201
38	0x3cb4e7a4	0.022083111
39	0x3c5488da	0.012972081
40	0x3ced2e1b	0.028952649
41	0xba28f74b	-0.0006445541
42	0x3cc6d228	0.024270132
43	0xbc601328	-0.013676442
44	0xbbb347e7	-0.005471218
45	0x3c6a4b30	0.014300153
46	0xbc9c4c86	-0.019079458
47	0x3cbf564c	0.02335658
48	0x3d1ad3b5	0.037799556
49	0x3ab03377	0.0013443072
50	0x3d29d36d	0.041461397
51	0x3d006c1e	0.03135311
52	0xbac74b36	-0.001520491
53	0x3c0cf022	0.008602174
54	0x3ccef764	0.02526445
55	0xbbd8a434	-0.0066113714
56	0x3c4d5fc9	0.012535044
57	0x3ce8aed3	0.028403675
58	0x3c29f33f	0.010372936
59	0x3c3fc0a1	0.011703641
60	0x3d1e56d1	0.038657013
61	0x3c91f0f6	0.017815094
62	0x3c767b24	0.015044007
63	0x3d1f4d2c	0.038891956
64	0x3aeb4699	0.0017950117
65	0x3d07181d	0.03298198
66	0x3b5d3908	0.0033755917
67	0x3b8197ab	0.003954848
68	0x3cb25aeb	0.021771869
69	0xbb6a41bd	-0.003574475
70	0x3c8e7598	0.017390057
71	0xb9d6051f	-0.00040821076
72	0xbb0f47f3	-0.0021862953
73	0x3a7b277d	0.00095807743
74	0xbbbc5507	-0.0057474407
75	0x3c6cea71	0.014460192
76	0x3ba193c2	0.004930944
77	0x3cb64600	0.022250175
78	0x3d10cf2a	0.035353817
79	0x3d0a6063	0.033783328
80	0x3d566c45	0.052349348
81	0xbb1070bb	-0.002203985
82	0x3c8c1e1e	0.017104205
83	0x3cda8369	0.02667399
84	0x37b5452d	2.1609094e-05
85	0x3d31573f	0.043296095
86	0x3a072727	0.00051556755
87	0x3b6c7a6e	0.0036083716
88	0x39c44fe9	0.0003744357
89	0x3d2297e5	0.03969564
90	0x3c7523a5	0.014962112
91	0x3d8833e8	0.06650525
92	0xbc1777d6	-0.00924488
93	0x3ce5c89f	0.028049765
94	0xba241bd2	-0.0006260249
95	0x3d19a065	0.03750648
96	0xb7a92aa1	-2.016622e-05
97	0x3d2880d5	0.04113849
98	0x3ce976bf	0.028499005
99	0xbb0c4c7b	-0.002140789
100	0x3d1c73ed	0.038196493
101	0x3c3b49e9	0.011431196
102	0x3d0c7402	0.03429032
103	0xbc103e85	-0.008803968
104	0x3c21d00e	0.009876264
105	0x3c118508	0.008881815
106	0x3b8d75a0	0.0043170005
107	0xbc9864f4	-0.018602826
108	0x3d2c5b74	0.042079404
109	0x3cbe8df2	0.023261044
110	0x3a9ab03d	0.0011801791
111	0x3c0960ec	0.008384924
112	0xbd083162	-0.03325022
113	0x3c66ff96	0.014099022
114	0xbb86515f	-0.0040990557
115	0x3d0409ab	0.032235783
116	0x3cba3724	0.022731371
117	0x3bdeb74f	0.0067967544
118	0x3d6253b7	0.055255618
119	0x3ca94e3e	0.020667192
120	0x3c93e037	0.01805125
121	0x3c953180	0.01821208
122	0x3d0f2d49	0.034955297
123	0xbac48841	-0.001499422
124	0x3bc0c8cc	0.005883312
125	0xbbe0202b	-0.006839772
126	0x3d16d951	0.036828343
127	0x3c835ee1	0.016036453

layers.1.running_mean f4 [128]
0	0xc131b15e	-11.105803
1	0xc07fed27	-3.9988496
2	0xc11dd0c0	-9.863464
3	0xc156fc92	-13.436663
4	0xc1660de0	-14.378387
5	0xc130ac00	-11.041992
6	0xc1be6c2e	-23.802822
7	0xc1aae718	-21.362839
8	0xc18fc754	-17.972328
9	0xc19fdb44	-19.982063
10	0xc13529ab	-11.322673
11	0xc1849988	-16.574966
12	0xc0f5bda8	-7.6794014
13	0xc17918eb	-15.5685835
14	0xc12f4be4	-10.956028
15	0xc18c341d	-17.525446
16	0xc05466de	-3.3187785
17	0xc1749a4a	-15.287668
18	0xc1223ebf	-10.140319
19	0xc16c25d4	-14.759235
20	0xc162f4e7	-14.184791
21	0xc177b5ec	-15.4819145
22	0xc198f7a9	-19.120928
23	0xc13f8667	-11.970313
24	0xc14fdf70	-12.99205
25	0xc1a04ffd	-20.039057
26	0xc197d57c	-18.97924
27	0xc10ecc9c	-8.924953
28	0xc198d255	-19.102701
29	0xc13d0bd3	-11.815387
30	0xc142d1f5	-12.176259
31	0xc1363f38	-11.390434
32	0xc1a2e36b	-20.361044
33	0xc13e726d	-11.902936
34	0xc085f8c7	-4.1866183
35	0xc12cf4a1	-10.809724
36	0xc1808a90	-16.067657
37	0xc151d113	-13.1135435
38	0xc1236cff	-10.21411
39	0xc1808f83	-16.070074
40	0xc195dbea	-18.73238
41	0xc1872889	-16.894793
42	0xc1838a13	-16.44242
43	0xc0bf3364	-5.9750233
44	0xc1b259b6	-22.293804
45	0xc18cf129	-17.617754
46	0xc15ed9f2	-13.928209
47	0xc1153698	-9.325829
48	0xc1431f0a	-12.195078
49	0xc1987e26	-19.061596
50	0xc111128f	-9.067031
51	0xc1807190	-16.05545
52	0xc14fce9d	-12.987943
53	0xc17f514b	-15.957347
54	0xc102407d	-8.140744
55	0xc0f21dfb	-7.5661597
56	0xc1360f3e	-11.378721
57	0xc18c2dd8	-17.522385
58	0xc151a2e1	-13.102265
59	0xc101a5cf	-8.102981
60	0xc17b149d	-15.692533
61	0xc1381e51	-11.507401
62	0xc1021291	-8.129533
63	0xc11703f6	-9.438467
64	0xc12f5728	-10.958778
65	0xc14225b2	-12.134203
66	0xc13c61f1	-11.773911
67	0xc157b206	-13.480963
68	0xc1039a68	-8.225197
69	0xc10e921d	-8.910672
70	0xc16ab733	-14.669726
71	0xc1910828	-18.128983
72	0xc144fc17	-12.311545
73	0xc15f9495	-13.973775
74	0xc1942d9c	-18.52227
75	0xc147d1ca	-12.488718
76	0xc1167a22	-9.404818
77	0xc0edf5c2	-7.4362497
78	0xc1513a15	-13.07668
79	0xc13b4ab4	-11.705738
80	0xc17a5c30	-15.647507
81	0xc1bc0339	-23.501574
82	0xc1686efd	-14.527097
83	0xc18efdaf	-17.873869
84	0xc1417838	-12.09185
85	0xc1281a54	-10.506428
86	0xc198f136	-19.117779
87	0xc1557c4f	-13.342849
88	0xc16b858d	-14.720105
89	0xc12a1ed1	-10.632524
90	0xc1613f49	-14.0779505
91	0xc19fa1e3	-19.954046
92	0xc1b3cb52	-22.474277
93	0xc0e30ec3	-7.095552
94	0xc08a4735	-4.3211923
95	0xc11bb0f5	-9.730702
96	0xc195a522	-18.705631
97	0xc13b51b0	-11.707443
98	0xc1b7ecf5	-22.990702
99	0xc183a04d	-16.453272
100	0xc14f7b93	-12.9676695
101	0xc0b686df	-5.7039638
102	0xc141f3ea	-12.122049
103	0xc18872ee	-17.056118
104	0xc0bd7338	-5.920315
105	0xc1086714	-8.525166
106	0xc18291c7	-16.32118
107	0xc175d7e6	-15.36521
108	0xc1ae25af	-21.7684
109	0xc16c32aa	-14.762369
110	0xc1541578	-13.255241
111	0xc15bdce0	-13.741425
112	0xc18c9266	-17.571484
113	0xc14e4281	-12.891236
114	0xc13df435	-11.872121
115	0xc15c4d87	-13.768928
116	0xbf744693	-0.9542019
117	0xc125bd58	-10.3587265
118	0xc17241b2	-15.141039
119	0xc166f93f	-14.435851
120	0xc0f611cc	-7.6896725
121	0xc0469ed2	-3.1034436
122	0xc18aab8d	-17.333765
123	0xc190fd6c	-18.123741
124	0xc0b57996	-5.671092
125	0xc11c20cc	-9.758007
126	0xc1799ce8	-15.600807
127	0xc12e17a0	-10.880768

layers.1.running_var f4 [128]
0	0x41970f9f	18.882627
1	0x40df48e8	6.9776497
2	0x41e1f021	28.24225
3	0x41c43bc0	24.529175
4	0x426dcf67	59.45254
5	0x41efb4ae	29.963223
6	0x42ba425a	93.12959
7	0x425fa85e	55.91442
8	0x424e9da3	51.653942
9	0x425a9629	54.64664
10	0x41a0b27c	20.08715
11	0x42580cf0	54.012634
12	0x41c21eec	24.265099
13	0x42372a99	45.7916
14	0x42221a95	40.52596
15	0x426178ef	56.3681
16	0x40f27283	7.5764785
17	0x42236f28	40.85855
18	0x417853a0	15.520416
19	0x421d1c13	39.277416
20	0x4228e5be	42.224358
21	0x423110be	44.26635
22	0x422063d8	40.097504
23	0x41d31080	26.383057
24	0x41c0e785	24.113047
25	0x42827508	65.22858
26	0x42446221	49.09583
27	0x41976f0f	18.929228
28	0x429321dd	73.56614
29	0x41fa7a80	31.309814
30	0x419d658c	19.674583
31	0x41e9f3bd	29.244013
32	0x42867e94	67.24722
33	0x41dc3ddc	27.530205
34	0x4135df1b	11.366969
35	0x41ad4d3f	21.662718
36	0x422aaf11	42.670963
37	0x419fa4bd	19.955439
38	0x41c918e0	25.137146
39	0x4228c018	42.18759
40	0x42b9e3b4	92.94473
41	0x422358ad	40.836597
42	0x422221fb	40.533184
43	0x414706de	12.439177
44	0x42b60c3b	91.02389
45	0x42817895	64.73551
46	0x420da2ff	35.409176
47	0x413d0cd2	11.81563
48	0x41eda854	29.707191
49	0x42435e53	48.842113
50	0x415461a9	13.273843
51	0x425d4108	55.313507
52	0x41cd1036	25.632915
53	0x4217799d	37.868763
54	0x4151a8f7	13.103751
55	0x41a21830	20.26181
56	0x419cf9d7	19.621992
57	0x4293131d	73.53733
58	0x41d24436	26.283306
59	0x415043d2	13.016558
60	0x421781a6	37.87661
61	0x41f516b5	30.636087
62	0x41bcd61a	23.604542
63	0x4209244f	34.285458
64	0x41ce5367	25.790724
65	0x422777b7	41.86691
66	0x42257fc6	41.37478
67	0x42006a5a	32.10386
68	0x419c2029	19.515703
69	0x41a75f05	20.921396
70	0x41d26b15	26.302286
71	0x4246a609	49.662144
72	0x41e09892	28.074497
73	0x4200c748	32.19461
74	0x42652cad	57.29363
75	0x41fe7d60	31.811218
76	0x415aac66	13.667089
77	0x420002a1	32.002567
78	0x4248154b	50.020794
79	0x41d9e594	27.237099
80	0x4230070e	44.00689
81	0x42ba2f4a	93.09236
82	0x42238bdf	40.886593
83	0x42963603	75.10549
84	0x41e6e145	28.859995
85	0x41e338bd	28.402704
86	0x4257a0c2	53.90699
87	0x420aab93	34.667553
88	0x421d7905	39.368183
89	0x422fd157	43.954433
90	0x41c52537	24.643171
91	0x42756b64	61.354874
92	0x42bc3819	94.109566
93	0x4115e1b3	9.367602
94	0x40d4bc0c	6.647955
95	0x419eb5c2	19.838749
96	0x4263c2d9	56.94028
97	0x41d559c2	26.668827
98	0x42bc31e9	94.09748
99	0x426c0f20	59.01477
100	0x419cfff9	19.624987
101	0x4174ae35	15.292531
102	0x41d2083c	26.25402
103	0x429c0a31	78.019905
104	0x4160580a	14.021494
105	0x41367e5f	11.405852
106	0x424c90a5	51.141254
107	0x42211ab4	40.276077
108	0x429932ab	76.59896
109	0x42423090	48.547424
110	0x4215946d	37.394947
111	0x421d61ab	39.34538
112	0x425b196d	54.77483
113	0x420e6efa	35.608376
114	0x421408db	37.008648
115	0x4211b74d	36.429005
116	0x40857af1	4.1712575
117	0x4189b08a	17.2112
118	0x4243a93f	48.91528
119	0x41ec2dae	29.522305
120	0x410b45d1	8.704545
121	0x409b3d45	4.851229
122	0x42862429	67.070625
123	0x425b71ec	54.86125
124	0x413ad38b	11.676646
125	0x418ab6a2	17.339176
126	0x420e8a11	35.63483
127	0x4181e2b1	16.23569

layers.3.weight f4 [256, 130]
0	0xbd269ed9	-0.040678833
1	0xbdddcff0	-0.108306766
2	0xbbd5d926	-0.0065261303
3	0xbd5081a4	-0.050904885
4	0xbd0a8f29	-0.033827934
5	0xbe13f571	-0.14449097
6	0xbde4ec46	-0.11177878
7	0xbe46ec7c	-0.19426149
8	0x3d95e972	0.07319917
9	0xbdb350e4	-0.08755663
10	0x3b4815e2	0.0030530621
11	0xbddb283d	-0.10701034
12	0xbdeafb13	-0.1147367
13	0xbdd8038b	-0.10547551
14	0xbdb2c05b	-0.08728095
15	0xbde08b2a	-0.109640434
16	0xbb603dca	-0.0034216517
17	0xbda892db	-0.082311355
18	0xbc624328	-0.013809957
19	0xbdbb0592	-0.09131922
20	0xbe2961e3	-0.16541247
21	0x3c77bfbd	0.015121398
22	0xbc945b02	-0.018109802
23	0xbde58c6e	-0.112084255
24	0xbd50df65	-0.050994296
25	0xbd9eee13	-0.07760253
26	0xbd6653a7	-0.05623212
27	0xbdbdc0cd	-0.092652895
28	0xbdd5b999	-0.104357906
29	0xbc8c2183	-0.017105823
30	0xbd5d2fc7	-0.054000642
31	0x3cb9f420	0.022699416
32	0xbb0777f3	-0.002067086
33	0xbd34375d	-0.04399811
34	0xbcc4b612	-0.0240126
35	0xbd83d47c	-0.064370126
36	0xbd530247	-0.051515844
37	0xbdb0dfe2	-0.08636452
38	0xbdafb701	-0.08579827
39	0xbceadbd3	-0.028669273
40	0xbdfb8969	-0.12282068
41	0x3c48fbd5	0.012267073
42	0xbdddc438	-0.108284414
43	0xbdfb6e11	-0.12276853
44	0xbd3e8fd5	-0.046523888
45	0xbde559a6	-0.1119874
46	0xbdbf3f9e	-0.09338306
47	0xbdbfe796	-0.093703434
48	0xbd8e196c	-0.069384426
49	0xbe29080b	-0.16506974
50	0xbde1758b	-0.11008748
51	0xbd394c29	-0.045238648
52	0xbc542e31	-0.012950466
53	0xbd2e99d8	-0.042627186
54	0xbd8b3b0a	-0.0679837
55	0xbdccd439	-0.10001416
56	0xbdae1cd7	-0.085015945
57	0x3cfe8af2	0.031072114
58	0xbcc686ec	-0.024234258
59	0xbd703307	-0.058642413
60	0xbe5ae1ed	-0.21375246
61	0x3c172edc	0.009227481
62	0x3cf73404	0.03017617
63	0xbe2e8650	-0.17043424
64	0xbcfbfab1	-0.030759187
65	0x3d8ec54c	0.06971225
66	0xbda32436	-0.07965891
67	0xbe0412fc	-0.12897867
68	0xbe85f75e	-0.2616529
69	0xbe06d9ee	-0.13169071
70	0xbd8abe0a	-0.06774528
71	0xbde14e7b	-0.11001297
72	0xbdafde11	-0.08587278
73	0xbddaf18d	-0.106906034
74	0xbdcccc69	-0.09999926
75	0xbda9c38c	-0.08289251
76	0xbe0b2f52	-0.1359227
77	0xbe0d949c	-0.13826221
78	0xbdeb0e9b	-0.11477395
79	0x3cee4ea5	0.029090235
80	0xbe2ed858	-0.17074716
81	0x3d00fde8	0.031492144
82	0xbd48b19e	-0.048997514
83	0xbdd5d4f1	-0.10441006
84	0xbd4f3983	-0.050591957
85	0xbd72d2e9	-0.05928317
86	0xbdcd1a8a	-0.100148275
87	0xbd88c620	-0.06678414
88	0xbd39ec51	-0.045391385
89	0xbdae5770	-0.08512771
90	0xbcaf8ff1	-0.021430941
91	0x3d6fc1be	0.058534376
92	0xbdc28391	-0.094977506
93	0xbe1c4660	-0.15261221
94	0xbda07c84	-0.078362495
95	0xbdbf9d5e	-0.09356187
96	0xbd9345a9	-0.07191021
97	0xbc94765a	-0.01812284
98	0xbd5dbc68	-0.054134756
99	0xbdf795ad	-0.12089095
100	0xbdf1adf0	-0.11800754
101	0xbe18b44d	-0.1491253
102	0xbd14bcaa	-0.036312737
103	0xbe34b45d	-0.17646928
104	0xbd3efd36	-0.0466282
105	0xbdfa02c7	-0.12207561
106	0xbdd12d85	-0.1021376
107	0xbd2b2705	-0.04178526
108	0xbd72abd9	-0.059245918
109	0xbd05a555	-0.032628376
110	0xbde2d134	-0.110750586
111	0xbe4ec453	-0.20192079
112	0xbe51f0d6	-0.20502028
113	0xbdbb0592	-0.09131922
114	0xbdc26c21	-0.0949328
115	0xbdbf5ede	-0.09344266
116	0xbd1c9099	-0.038223837
117	0xbe501ffc	-0.20324701
118	0xbe06be96	-0.1315864
119	0x3c6059c7	0.01369328
120	0xbe235ece	-0.15954134
121	0xbe0416e4	-0.12899357
122	0xbdb38b7c	-0.08766839
123	0xbd712920	-0.05887711
124	0xbd7382b2	-0.059450813
125	0xbd865cee	-0.06560694
126	0xbccca941	-0.02498305
127	0xb86e78f6	-5.6856275e-05
128	0xbc2a6df1	-0.010402189
129	0xbde171a2	-0.11008002
130	0xbd65e717	-0.056128588
131	0xbe1080cc	-0.14111632
132	0xbd94d580	-0.072672844
133	0xbdc3957b	-0.095499955
134	0xbd751482	-0.05983401
135	0xbd74470f	-0.05963808
136	0xbcf3266d	-0.029681409
137	0xbbdce430	-0.0067410693
138	0xbe073177	-0.13202463
139	0xbe33a0b6	-0.17541775
140	0xbd93ec5d	-0.07222817
141	0xbc88414e	-0.016632702
142	0xbd9cf7e9	-0.076644726
143	0xbd5c0eb6	-0.053724967
144	0xbdcea78e	-0.10090552
145	0xbd3fdc73	-0.046841096
146	0xbdc3e909	-0.09565932
147	0xbd89337f	-0.06699275
148	0xbdf7f36d	-0.12106977
149	0xbd952bd7	-0.072837524
150	0xbd8364da	-0.0641572
151	0xbd1be504	-0.038060203
152	0xbd8aed9e	-0.06783603
153	0x3d968c66	0.073509976
154	0xbd53e1f0	-0.051729143
155	0x3bf24feb	0.007394781
156	0xbe1e38ec	-0.15451401
157	0xbdc65a41	-0.09685183
158	0xbd1ed444	-0.03877665
159	0xbe29a0a4	-0.16565186
160	0xbdf495a7	-0.119426064
161	0xbd33853c	-0.043828234
162	0xbdbc97eb	-0.092086636
163	0xbd5a3993	-0.053277563
164	0xbd0e507d	-0.03474473
165	0xbe109633	-0.14119796
166	0xbe93b43f	-0.28848454
167	0xbdba99f2	-0.09111394
168	0xbe6e7461	-0.23286583
169	0xbe19b5d0	-0.15010762
170	0xbcfc60aa	-0.030807812
171	0xbe461553	-0.19344072
172	0xbd6b843e	-0.057499163
173	0xbd1b0a9b	-0.03785191
174	0xbcf8b1f2	-0.030358288
175	0x3d4c67e2	0.049903758
176	0x3cd39e86	0.025832426
177	0xbde02b9a	-0.10945816
178	0xbd7b0129	-0.061280403
179	0x3d88c165	0.06677512
180	0xbd26e823	-0.040748727
181	0xbe333990	-0.17502427
182	0xbcdbf204	-0.0268488
183	0xbe5ef9f2	-0.21775034
184	0x3c053ac8	0.00813169
185	0xbd412fb8	-0.04716465
186	0xbc04c2c1	-0.008103074
187	0x3d402d6f	0.04691833
188	0xbd0b103f	-0.03395104
189	0xbd45015e	-0.048097007
190	0xbb787eaa	-0.0037917295
191	0xbe0b8af5	-0.13627227
192	0xbe10b2fd	-0.14130779
193	0xbd03ec33	-0.03220768
194	0xbdd1a6c8	-0.10236889
195	0xbd969d54	-0.07354227
196	0x3d8c4071	0.06848229
197	0xbd6dd1c6	-0.058061384
198	0xbd6eeaf3	-0.058329534
199	0xbe162df8	-0.14665973
200	0xbd0f7e92	-0.035032816
201	0xbe2317eb	-0.15927093
202	0xbd88c725	-0.06678609
203	0xbc2d8ee6	-0.010593152
204	0xbc8f7ce5	-0.017515609
205	0x3b86b2a0	0.004110649
206	0xbe530dca	-0.20610729
207	0x3c5c6ead	0.013454122
208	0xbc72776c	-0.01479898
209	0xbd482423	-0.048862588
210	0xbdb9e0ea	-0.09076102
211	0xbdc9e75d	-0.09858582
212	0xbdd76302	-0.10516931
213	0xbe35b2ff	-0.17744063
214	0xbdbabf48	-0.09118515
215	0xba001220	-0.00048855133
216	0xbcffe8c7	-0.031238927
217	0xbe163170	-0.14667296
218	0x3b744649	0.0037273339
219	0x3d34065f	0.04395139
220	0xbe060fae	-0.13091919
221	0xbe02de4d	-0.12780114
222	0xbd7b4ed0	-0.06135446
223	0xbd895ea7	-0.067075066
224	0xbd395b65	-0.045253176
225	0xbdcb56e9	-0.09928686
226	0xbdc953db	-0.09830447
227	0xbd2a5810	-0.04158789
228	0xbd5d738c	-0.054065272
229	0xbd3d8e03	-0.04627801
230	0x3d40a771	0.047034685
231	0xbdbeb3d1	-0.09311641
232	0xbc6b7cf2	-0.014373051
233	0xbdb047ab	-0.086074196
234	0xbdad6b53	-0.08467736
235	0x3bf62899	0.007512164
236	0xbcd02b82	-0.025411371
237	0x3cc370d0	0.023857504
238	0xbdd153b1	-0.10221041
239	0xbc28dda2	-0.010306748
240	0xbd75037a	-0.05981777
241	0xbc105363	-0.008808943
242	0x3ca08028	0.01959236
243	0xbdd21114	-0.10257164
244	0x3e08daf2	0.13364771
245	0xbdc3955f	-0.09549975
246	0xbd70430d	-0.058657695
247	0xbd8a0e52	-0.06741013
248	0xbdd0d271	-0.101963885
249	0xbe15a356	-0.14613089
250	0xbda7d46d	-0.08194814
251	0xbdb1eeda	-0.086881354
252	0xbe1e900e	-0.1548464
253	0xbdd36db7	-0.10323661
254	0xbc0bdb02	-0.008536102
255	0x3ba3e314	0.005001435

layers.3.bias f4 [256]
0	0x3bb62803	0.005558969
1	0x3cd95032	0.026527498
2	0xbcc25c80	-0.023725748
3	0xbd76f670	-0.060293615
4	0x3d1345ba	0.03595517
5	0xbd8255aa	-0.063639954
6	0x3d1da9d9	0.038492057
7	0xbda8257a	-0.08210273
8	0x3d904b69	0.07045633
9	0x3c68b508	0.014203317
10	0x3d45275a	0.04813323
11	0x3d6abd72	0.057309575
12	0x3cab4e14	0.020911254
13	0xbd90dc77	-0.070733
14	0xbdabe66e	-0.0839356
15	0xbb3af9da	-0.002853027
16	0x3d5a8b70	0.053355634
17	0xbd29cafe	-0.041453354
18	0xbdad3b99	-0.08458633
19	0xbd0b1012	-0.033950873
20	0xbd4d8bd2	-0.05018217
21	0xbd823a52	-0.0635878
22	0xbd89f6d1	-0.067365296
23	0xbba66c3b	-0.00507882
24	0x3dc33b29	0.09532768
25	0xbd1798c6	-0.03701093
26	0x3c9052af	0.017617552
27	0x3d3e841c	0.046512708
28	0xbcb2f323	-0.021844452
29	0x3c348195	0.011017223
30	0x3d6f5135	0.058427054
31	0xbd470004	-0.048584
32	0x3d966ca7	0.073449425
33	0xbd8a25b1	-0.0674547
34	0x3c5954e5	0.013264869
35	0xbd43d5fc	-0.047811493
36	0x3d1d86b0	0.038458526
37	0xb92aa85f	-0.00016275186
38	0xbda3881e	-0.07984947
39	0x3dbfd203	0.093662284
40	0xbc51637b	-0.012780066
41	0x3b21851e	0.0024645994
42	0xbb84a3da	-0.004047853
43	0x3ca11cab	0.01966699
44	0x3c0e0e3e	0.008670388
45	0xbdafca89	-0.085835524
46	0xbcbb7f78	-0.02288793
47	0xbd60ea3e	-0.05491089
48	0xbd1ab407	-0.037769344
49	0x3d75d142	0.060014017
50	0xbdae626f	-0.085148685
51	0x3dc1da92	0.09465517
52	0xbd5688a2	-0.052376397
53	0x3d0d002a	0.034423985
54	0xbca4b68f	-0.020106582
55	0xbd91f0db	-0.07126018
56	0xba95d116	-0.001143011
57	0x3a70abd6	0.0009180879
58	0x3d021729	0.03176037
59	0xbd7bd3a1	-0.061481122
60	0xbd29f26c	-0.041490957
61	0x3db183ac	0.086676925
62	0x3caee219	0.021348046
63	0x3d5c1685	0.053732414
64	0xba339755	-0.00068508583
65	0xbdb07a51	-0.0861708
66	0xbd247836	-0.040153705
67	0xbd940511	-0.07227529
68	0xbda0a23a	-0.07843442
69	0xbc87474f	-0.016513495
70	0xbd2049bc	-0.03913282
71	0xbd8660d6	-0.06561439
72	0x3d210087	0.039307144
73	0xbd10fa0f	-0.035394724
74	0x3dc42201	0.09576798
75	0xbd3c5d53	-0.04598744
76	0x3d2162fc	0.03940104
77	0x3a8bc079	0.001066222
78	0x3d6dfa7e	0.058100216
79	0xbdd23726	-0.10264425
80	0xbd98a4ad	-0.074532844
81	0x3d2d51b6	0.042314254
82	0x3c962cc0	0.018331885
83	0x3c4f6fa8	0.012660898
84	0x3ce5ebd8	0.02806656
85	0xbd89a0e1	-0.06720138
86	0x3d951681	0.07279683
87	0xbcab2d67	-0.020895673
88	0xbbde5d92	-0.006786057
89	0xbd0627c9	-0.032752786
90	0x3bf4f7b1	0.007475816
91	0x3c915976	0.017742854
92	0xba98bf8f	-0.0011653769
93	0x3cdbd035	0.02683268
94	0x3b404048	0.002933519
95	0x3d1efdb2	0.03881616
96	0x3d454e2d	0.048170257
97	0xbd60a5ab	-0.054845493
98	0xbc96434b	-0.018342635
99	0x3cfb0a37	0.03064452
100	0xbd8d467c	-0.068982095
101	0x3da32fed	0.079681255
102	0x3c09e71f	0.00841692
103	0xbdae4c5d	-0.08510659
104	0x3cd66960	0.026173294
105	0xbcb953f9	-0.02262305
106	0x3cf25678	0.029582247
107	0xbc826933	-0.015919304
108	0x3d51681c	0.051124677
109	0x3c9cee58	0.01915662
110	0x3d564a20	0.052316785
111	0x3d31f153	0.043443035
112	0xbdd6abca	-0.10481985
113	0xbd148ed6	-0.03626903
114	0xbd83ce92	-0.064358845
115	0xbd8cca8d	-0.06874571
116	0x3d33d1cb	0.043901246
117	0x3d52dfa4	0.05148281
118	0x3e051cad	0.1299922
119	0xbd3a4dfa	-0.04548452
120	0xbd1535c2	-0.03642822
121	0x3db63808	0.08897406
122	0xbc5402d2	-0.012940126
123	0xbda648e9	-0.08119375
124	0x3d4f6c4b	0.050640386
125	0x3db1c0ff	0.08679389
126	0x3cc49e84	0.024001367
127	0xbd7fb7bc	-0.062431082
128	0x3c122c67	0.008921719
129	0xbc0606a2	-0.008180292
130	0xbd9abfbf	-0.07556104
131	0xbc1a7587	-0.009427435
132	0x3c9685b3	0.0183743
133	0x3d17fcb4	0.03710623
134	0xbd870c24	-0.065941125
135	0x3bfbdab2	0.0076859826
136	0xbd89fab8	-0.06737274
137	0x3d8d8113	0.069093846
138	0x3d3164b1	0.043308917
139	0xbda1bd38	-0.07897419
140	0xbc867845	-0.01641477
141	0xbc4fffa1	-0.012695224
142	0xbbc347b0	-0.0059594736
143	0xbd8c2183	-0.06842329
144	0xbdb252fb	-0.087072335
145	0xbd771a50	-0.060327828
146	0xbd63debd	-0.05563234
147	0xbd3066c9	-0.043066774
148	0xbd88bc34	-0.06676522
149	0xbc942069	-0.01808186
150	0x3cddc4ee	0.027071442
151	0x3d202182	0.039094456
152	0xbc89ef01	-0.016837599
153	0xbcf167a0	-0.029468358
154	0x3d037aa2	0.032099374
155	0x3c8d65bb	0.017260423
156	0xbb140460	-0.0022585616
157	0xbd26dd59	-0.040738437
158	0xbb4455a2	-0.0029958268
159	0xbd8080e9	-0.06274588
160	0xbac0f56c	-0.0014721579
161	0xbcf1bd90	-0.029509336
162	0xbdb2a60a	-0.08723076
163	0xbd7422da	-0.05960355
164	0x3d054b7c	0.03254269
165	0x3be3d304	0.0069526453
166	0xbc49dd94	-0.012320895
167	0x3dbc382f	0.09190404
168	0xbc0933e5	-0.008374189
169	0x3d22e5b5	0.039769847
170	0x3caa7f0b	0.020812532
171	0x3d0db7c3	0.034599077
172	0xbd02fda3	-0.031980168
173	0xbdc058df	-0.09391951
174	0xbce8c0c1	-0.028412225
175	0x3c141052	0.009037094
176	0xbd53fccf	-0.05175477
177	0xbd825d7a	-0.063654855
178	0xbb7689ff	-0.0037618873
179	0x3d8c31c4	0.068454295
180	0xbd935161	-0.07193256
181	0x3d62d01b	0.055374246
182	0x3d9527ec	0.07283005
183	0x3da17c07	0.078849845
184	0x3d34a758	0.044104904
185	0x3bd754c0	0.0065713823
186	0xbc98950d	-0.01862576
187	0x3cce8463	0.025209611
188	0x3d0b4aa9	0.03400675
189	0x3c04af3b	0.008098419
190	0xbd996c80	-0.07491398
191	0x3c644d98	0.013934515
192	0xbca29b7e	-0.019849535
193	0xbd88c238	-0.06677669
194	0x3cbe3226	0.023217272
195	0xbd6bd5d3	-0.057576966
196	0x3da35ff1	0.07977284
197	0xbd2ea1a8	-0.042634636
198	0x3d87faff	0.066396706
199	0x3da0b208	0.07846457
200	0x3d7eec9b	0.062237363
201	0x3cea3f91	0.028594764
202	0xbc9f239f	-0.019426165
203	0x3c93b008	0.018028274
204	0x3c21d6be	0.009877859
205	0xbc5fa22c	-0.013649505
206	0x3dfbebf7	0.12300866
207	0x3cc615a3	0.024180239
208	0x3c54fea3	0.013000163
209	0xbd18cbbd	-0.037303675
210	0xbd1adeff	-0.037810322
211	0xbda0d274	-0.07852641
212	0x3dd798c6	0.10527186
213	0xbd1e250f	-0.03860956
214	0x3d7b68f8	0.061379403
215	0xbd2e6328	-0.04257503
216	0x3c544e4f	0.012958123
217	0xbdb89490	-0.09012711
218	0xbd7c7e62	-0.061643966
219	0x3cec200b	0.028823873
220	0xbd9f99f3	-0.07793035
221	0x3d8f8b86	0.07009034
222	0x3db0e6e3	0.08637788
223	0xbc8bead3	-0.017079746
224	0xbd6fcd77	-0.058545556
225	0x3c5298b1	0.012853787
226	0xbd7595f4	-0.05995746
227	0xbd72ea59	-0.059305523
228	0x3d85b047	0.06527763
229	0xbd73653c	-0.059422716
230	0xbd63fc2f	-0.055660423
231	0xbbd4bd13	-0.006492266
232	0xbdb2366b	-0.08701786
233	0xbccf6c4c	-0.025320195
234	0x3d8d467b	0.06898209
235	0x3ca0883b	0.01959621
236	0xbdabd2e5	-0.08389834
237	0xbc3f34cf	-0.011670305
238	0x3b01e3b6	0.0019819564
239	0xbc358448	-0.011078902
240	0xbd9410c9	-0.07229764
241	0x3cb50c47	0.02210058
242	0xbd0055f1	-0.03133196
243	0x3db22006	0.08697514
244	0x3d48a1fd	0.04898261
245	0x3da31542	0.07963039
246	0xbcbef17e	-0.023308512
247	0x3dc11c4e	0.09429227
248	0xbd36238e	-0.0444675
249	0x3d94866d	0.07252202
250	0xbc7a6470	-0.015282735
251	0xbc2d1fa7	-0.010566629
252	0x3d2b36a4	0.041800156
253	0x3d937489	0.07199962
254	0xbd61e3f1	-0.055149022
255	0xbdafbf4c	-0.08581409

layers.5.weight f4 [1, 256]
0	0xbfaf2677	-1.3683614
1	0xbfbaadd3	-1.4584297
2	0xbebeab2c	-0.3723997
3	0xbfa8743c	-1.3160472
4	0x3f343723	0.7039663
5	0xc0071c55	-2.1111042
6	0xbf6f3ced	-0.9345234
7	0xbf1bf06f	-0.6091375
8	0x3f3258cb	0.6966674
9	0xbf4bf1a8	-0.79665613
10	0xc02b713c	-2.6787863
11	0x3f96a25a	1.1768296
12	0xbfb813a7	-1.4380997
13	0x3cb1d7c0	0.021709323
14	0xbf425897	-0.7591643
15	0xbe889424	-0.26675522
16	0x3f8f4c78	1.1195211
17	0x3f20ea2e	0.6285733
18	0xbfacbd46	-1.3495262
19	0xbf97c604	-1.1857305
20	0xbf8fea45	-1.1243368
21	0xbfab713d	-1.3393933
22	0xbf575b91	-0.84124094
23	0xbf98086c	-1.187757
24	0xbfe7bb08	-1.8103952
25	0xbfad7160	-1.3550224
26	0xbfea4f31	-1.8305417
27	0xbf53e8be	-0.8277701
28	0xbf5bf745	-0.8592418
29	0xbf395328	-0.7239251
30	0xbfbb3859	-1.4626571
31	0xbf07f32e	-0.5310544
32	0xbfe7a372	-1.8096755
33	0xbf609840	-0.87732315
34	0xbfd16434	-1.6358705
35	0xbf8ff517	-1.124667
36	0xc005bcc4	-2.0896463
37	0xbf7fdae3	-0.9994337
38	0xbeee2646	-0.46513575
39	0xbfc703b9	-1.5548011
40	0xc036f296	-2.8585563
41	0xbfed970c	-1.8561721
42	0x3f272ad6	0.6529974
43	0xbfdd7de6	-1.7304046
44	0xbcfff63b	-0.031245342
45	0xc008d1d7	-2.1378076
46	0xbf0d38d0	-0.55164814
47	0xc0167bc8	-2.351305
48	0xbf959f3a	-1.1689217
49	0x3f0733e3	0.5281355
50	0x3edfd391	0.437161
51	0xbf0c95d4	-0.5491612
52	0xbf2bb3a4	-0.67070985
53	0xc05cf916	-3.452703
54	0xbf12d847	-0.57361263
55	0xbe61005a	-0.2197279
56	0xbfc47b39	-1.5350105
57	0xbfdcf52e	-1.7262323
58	0xc0233f8d	-2.5507538
59	0xc03ec29c	-2.980628
60	0xbfc0ce0e	-1.5062883
61	0xbf1e59f3	-0.61856
62	0x3e7f6484	0.24940687
63	0xbf9d53e8	-1.2291231
64	0x3f391539	0.7229801
65	0xbf790cae	-0.9728497
66	0xbf6553ba	-0.8958088
67	0xbf197f6d	-0.5996006
68	0xbf7c3d70	-0.98531246
69	0xbeddd3d7	-0.43325683
70	0xbd3208c2	-0.043465383
71	0xbea4c62f	-0.32182452
72	0x3e8a63a8	0.27029157
73	0xbf50daa7	-0.81583637
74	0xc039177c	-2.8920584
75	0xbfb1ce2a	-1.3891041
76	0xbfde29c7	-1.73565
77	0xbfdda4f7	-1.7315968
78	0x3efc7196	0.4930541
79	0xbfc4e8da	-1.5383561
80	0xbfe86eb8	-1.8158789
81	0xc031e1b2	-2.7794003
82	0xc0106f15	-2.25678
83	0xc000e678	-2.0140667
84	0xbf864965	-1.0491148
85	0xc0125a08	-2.286745
86	0xbfdf5a78	-1.7449484
87	0xbf13e9b8	-0.577785
88	0xbf322802	-0.695923
89	0x3e54c2b3	0.20777397
90	0xbfe47afc	-1.7850032
91	0xbfea4761	-1.8303033
92	0xc063debc	-3.5604696
93	0xbdf2b790	-0.11851418
94	0x3ef7cd1e	0.4839868
95	0xbfb07e38	-1.3788519
96	0xbfd2f83d	-1.6482006
97	0xbd21ff80	-0.039550304
98	0xbfd0e34c	-1.6319366
99	0xbfee893d	-1.8635632
100	0xbf8441db	-1.0332597
101	0xbf401676	-0.7503427
102	0xbfaf9ba8	-1.3719378
103	0xbfbaa138	-1.458045
104	0xbf164f02	-0.58714306
105	0xbfa08453	-1.2540382
106	0x3def7591	0.11692346
107	0xbf4b517f	-0.7942123
108	0xbd86a725	-0.06574849
109	0xc001bd51	-2.02718
110	0xbf4ac4df	-0.7920665
111	0xbfeb0ab2	-1.8362639
112	0xbeeee6fd	-0.46660605
113	0xbee7a784	-0.45244992
114	0xbd085e40	-0.03329301
115	0xc00df6df	-2.2181928
116	0xbfc7abe4	-1.5599332
117	0xc042aaa0	-3.0416641
118	0x3f0ac388	0.54204607
119	0xbeb72d2e	-0.35776657
120	0xc0029d2e	-2.0408435
121	0x3eb7ebc8	0.35922074
122	0xbf429718	-0.760118
123	0xbec4d552	-0.38444
124	0xbf384287	-0.7197651
125	0xbf9e8ccd	-1.2386719
126	0x3e9b4e66	0.3033325
127	0xc04c7755	-3.1947834
128	0xbf85ef8d	-1.046373
129	0xc032cffa	-2.793944
130	0xbf3d2873	-0.73889846
131	0xc005d04c	-2.0908384
132	0xbdc00abe	-0.09377049
133	0xbfb6e2f6	-1.4288013
134	0xc0378ed7	-2.8680933
135	0xbfc0e966	-1.5071228
136	0x3ee9c940	0.45661354
137	0xbec0aae6	-0.37630385
138	0xc0220edc	-2.532157
139	0xc007bdf6	-2.1209693
140	0x3f15f913	0.5858318
141	0xbf05fb45	-0.5233653
142	0xc035824c	-2.8360777
143	0xbf608742	-0.8770639
144	0xbf150ac9	-0.5821958
145	0xbebc9090	-0.36829042
146	0xbfdf8188	-1.7461405
147	0xbf82ea7d	-1.022781
148	0xbf905839	-1.1276923
149	0xbf074366	-0.52837217
150	0x3ee262b3	0.44215927
151	0x3e8be491	0.2732282
152	0xc008685f	-2.1313703
153	0xbf49a142	-0.78761685
154	0xbfd6afb1	-1.6772367
155	0xbf8c63ea	-1.0967991
156	0xbfa81932	-1.3132689
157	0xc03aa001	-2.9160159
158	0xbf6dbe1c	-0.9286821
159	0xbfa52fa7	-1.2905167
160	0xc02bbb74	-2.6833162
161	0xc0006590	-2.006199
162	0xbfeeb848	-1.8649988
163	0xbf959383	-1.1685642
164	0xbfdc9b56	-1.7234905
165	0xbf964f02	-1.1742861
166	0x3f19b311	0.6003886
167	0xbe10a5bc	-0.14125723
168	0xbff576b3	-1.9176849
169	0xbfb5027c	-1.4141383
170	0xbfce33c9	-1.6109554
171	0xbfdf71e8	-1.7456636
172	0xbf8762a6	-1.057698
173	0xc047d6dc	-3.122489
174	0xc008126e	-2.1261249
175	0xbfaa020b	-1.3281873
176	0xbeaa9aa6	-0.33321112
177	0xbf8e38ab	-1.1111044
178	0xbe942839	-0.28936937
179	0xbfd0eb1d	-1.6321751
180	0xbfaa8af0	-1.332365
181	0xbea1d184	-0.3160516
182	0x3f26ce2a	0.6515833
183	0xbfcb7e68	-1.5897951
184	0x3f506263	0.81400126
185	0xbe44bde2	-0.1921306
186	0xc01a98ae	-2.4155688
187	0x3f4ed1fe	0.8078917
188	0xbf9b86f7	-1.2150563
189	0xbf9bd8ff	-1.2175597
190	0xbf9992f6	-1.1997974
191	0xbf68cc78	-0.90936995
192	0xbf2acd2c	-0.6671932
193	0xbee08f11	-0.4385915
194	0xbe85a16c	-0.26099718
195	0xc00a9ba2	-2.165749
196	0x3f6dcb35	0.92888194
197	0xc00aece9	-2.1707098
198	0xbef426c2	-0.4768582
199	0x3f704192	0.9385005
200	0xbf46b5cb	-0.77621144
201	0xbfd7d0c2	-1.6860583
202	0xbd5f8570	-0.054570615
203	0xbf0c40c2	-0.5478631
204	0xc00d9c6b	-2.212672
205	0xbf6ccfd3	-0.92504615
206	0x3efc4ab8	0.49275756
207	0xbee5de75	-0.44896284
208	0xbfdf71e8	-1.7456636
209	0xbfd701b9	-1.6797401
210	0xbf35ae5d	-0.7096918
211	0xbf84611c	-1.0342135
212	0xbf34b9d9	-0.7059608
213	0x3fae7956	1.3630779
214	0xbfd8acbb	-1.6927713
215	0xbf8dd703	-1.1081241
216	0xbf5ade04	-0.8549502
217	0xc044e4f2	-3.0764737
218	0xc01eb3d4	-2.4797258
219	0xbed4daef	-0.41573283
220	0xc002a7b2	-2.0414853
221	0x3f3b0f3a	0.7307011
222	0xbf9b5144	-1.2134175
223	0xbfc926cd	-1.5714966
224	0xbf5d27f7	-0.86389107
225	0xbf7d9db6	-0.9906877
226	0xbf490f5d	-0.7853907
227	0xc0104805	-2.2543957
228	0x3edc0c9c	0.4297837
229	0xbef21d02	-0.47287756
230	0x3eefd92f	0.46845385
231	0xbf711fbc	-0.9418905
232	0xbea12ee0	-0.31481075
233	0xbf9afe3e	-1.2108839
234	0xc0289e92	-2.6346784
235	0xbf4031ce	-0.75075996
236	0xbf514699	-0.8174835
237	0xbf145f4e	-0.57957923
238	0xbfc6d8f3	-1.5534958
239	0xc004a0f8	-2.0723248
240	0xbe9acb76	-0.30233353
241	0xbf9247bf	-1.1428145
242	0xbfc94ddd	-1.5726887
243	0x3f0a3580	0.53987885
244	0xbe94a539	-0.29032305
245	0x3f62793a	0.8846623
246	0xbf244546	-0.641682
247	0xbf510234	-0.81643987
248	0xc0080db4	-2.1258364
249	0x3eaa13a4	0.3321811
250	0xbe666346	-0.22498807
251	0xbe6c4eeb	-0.2307698
252	0xbf8e966c	-1.1139655
253	0xbf34663c	-0.704685
254	0xc010dbc8	-2.2634144
255	0xbeacea80	-0.3377266
