results/checkpoint_1_critic_local.pt (torch_old, 86950 bytes, 13 tensors)

layers.0.weight f4 [128, 24]
000000 2f dd ef 3a 3f 9a 58 3e 77 e3 86 3d bd 28 14 bd
       0.0018300171 0.2115259 0.06586354 -0.036171664
000010 e6 26 1a bd 6f 37 87 bd 9f 86 88 bd 9d 82 34 3d
       -0.037634753 -0.0660237 -0.06666302 0.044069875
000020 d6 21 20 3d ea 74 9d 3e b4 cb f4 3b a9 2b 9a 3c
       0.03909477 0.3075326 0.0074705724 0.018819647
000030 8f 92 8d 3d 86 c3 1b be d1 c6 d9 bb 81 53 a4 3b
       0.069127195 -0.15211305 -0.006646015 0.0050148373
000040 e8 93 9c be 36 d5 c0 3e b2 9a 69 3b 66 a8 87 3d
       -0.30581594 0.37662667 0.0035645184 0.06623916
000050 e9 4b 87 3e f2 39 52 bf b4 d8 9f bb 98 25 83 bc
       0.26425102 -0.8211967 -0.004878128 -0.016009137
000060 1d ac d0 bc 98 21 f1 bd 98 52 58 bd 30 ef a1 3c
       -0.025472695 -0.117739856 -0.052813143 0.019767374
000070 07 52 6b 3e 1f a9 5a 3e 9e ee 4a 3d 71 52 09 bc
       0.2298051 0.21353577 0.04954397 -0.008381472
000080 db 6b 2c 3d 72 48 b1 3d c8 9f 74 3d 49 00 e7 bc
       0.042095046 0.08656396 0.05972269 -0.028198378
000090 ac 8c 59 3e 8d af 09 3f 2a 5a 83 bd 94 2c 86 3c
       0.21245068 0.53783494 -0.06413682 0.016378678
0000a0 7e 7d 38 bc f1 4a 4e bc 6d a8 de bc be fb b3 3c
       -0.011260388 -0.01259111 -0.027179921 0.021970626
0000b0 33 e5 9b be bf 22 39 bf eb 37 eb 3c 39 1b ea bc
       -0.30448303 -0.72318643 0.028713187 -0.028577434
0000c0 84 65 37 bd 07 c8 9e be 80 51 3c bc eb 29 89 bd
       -0.044774547 -0.31011984 -0.0114940405 -0.06697448
0000d0 63 3c 9d be c3 05 fe 3e 0f 2b 7d ba 83 8f 54 bc
       -0.30710134 0.4961377 -0.00096576003 -0.012973669
0000e0 3d 6b 62 3e 05 4b 0d be aa 1b fa bc f2 0b 0e bc
       0.2211122 -0.13798149 -0.03053077 -0.00866984
0000f0 d8 2f 99 be a1 9c 31 bd df c9 64 3c 26 55 cd bb
       -0.29919314 -0.043362264 0.013964145 -0.006266254
000100 e5 c8 05 3f c3 50 be be 59 5e 1b 3d 4e c2 8c 3c
       0.52259666 -0.3717099 0.037931774 0.017182495
000110 11 80 32 3c 94 31 cc 3c 5e 97 23 bd 3e f6 0b bb
       0.010894791 0.024925984 -0.039939277 -0.0021356489
000120 ef 0a de 3d b6 e5 15 3e 74 b6 76 bc 04 73 52 3d
       0.10841929 0.14638409 -0.015058149 0.05137922
000130 da db 30 be 64 67 93 3d 31 f7 6e 3c c7 ab 3e bd
       -0.17271367 0.071974546 0.014585302 -0.04655054
000140 43 ef b8 3d d5 80 1a 3e 1c 51 84 bd 70 18 fe bc
       0.090300106 0.15088208 -0.06460783 -0.031017512
000150 f7 e5 cd be 96 cb 32 3d 42 91 55 3d 66 55 44 bc
       -0.40214512 0.043651186 0.05214048 -0.011983251
000160 8c ea 1c 3e 4f f9 db 3e 5f 1f 1c 3b e6 c2 a4 bd
       0.15323848 0.42963645 0.002382241 -0.080449864
000170 f5 0e 2e bf bc 4f 47 3e 23 31 1d bd bd 16 5a bd
       -0.6799157 0.1946401 -0.03837694 -0.05324434
000180 d0 84 85 be c4 b4 d8 bd 5b 0a 77 bd b8 a6 45 bd
       -0.2607789 -0.10581353 -0.06031261 -0.0482547
000190 9f 2c 9b be d9 2f 5d be 8b e3 6e bd f0 6c 32 be
       -0.3030748 -0.21600284 -0.05832247 -0.17424369
0001a0 8a d7 d2 bb 06 40 5e 3b bc 41 44 bc bd 97 b3 3b
       -0.0064343857 0.0033912673 -0.011978563 0.005480735
0001b0 f7 06 1a be 00 63 8e be bf 01 0c bd d4 69 da 3d
       -0.1504172 -0.27809906 -0.034181353 0.10664716
0001c0 a4 64 40 3a e8 4a d9 bb f6 60 72 3e 99 54 3d be
       0.00073392154 -0.006631244 0.236698 -0.18489303
0001d0 b5 a2 df 3c 0d 2f 9d bd 49 33 61 3e 66 dc 68 be
       0.027299264 -0.0767499 0.2199222 -0.22740325
0001e0 24 3a 31 3d ca 99 44 3e 63 a1 59 3b 56 18 69 bc
       0.043268338 0.19199291 0.0033207766 -0.014226994
0001f0 4c af c7 bd 44 2b ad be 20 dc ab 3b 86 75 f4 3b
       -0.09750232 -0.33822072 0.005244747 0.007460299
000200 a4 55 41 3e 24 78 fb bd 5c ef 0c bd 0e 6a 0a be
       0.18880326 -0.122787744 -0.03440796 -0.13517019
000210 db 5c b6 3c 2e 9d 19 be 4d 28 9b 3a 9e 6d f8 bd
       0.022261074 -0.15001366 0.0011837572 -0.12130283
000220 4c 6d e2 3e ac 5e e0 be 4b da cc 3d 69 c7 69 bd
       0.44224012 -0.4382223 0.100025736 -0.057074938
000230 a2 aa 13 be 00 2b 34 bf bf d8 28 3d 96 18 1d be
       -0.1442056 -0.7037811 0.04122233 -0.1534141
000240 6a 0c 8c bd 2b 37 b3 be d4 be 02 bd ff 38 1c bc
       -0.06838305 -0.35003027 -0.03192027 -0.009535073
000250 80 42 53 bd f6 81 b8 3d 5d a9 3b 3d f8 a1 89 3d
       -0.05157709 0.09009163 0.045815814 0.06720346
000260 1d 60 a2 ba c8 30 cc be ce 21 5d 3d 80 e4 6f be
       -0.0012388263 -0.39880967 0.053987317 -0.2342701
000270 65 55 b9 3d 69 b3 84 bb 55 e0 5a 3d 91 96 1b be
       0.09049491 -0.0040497077 0.053436596 -0.15194155
000280 16 e1 02 3e 85 9f f4 be 5d 12 a7 3c 2e 91 e9 bd
       0.12781176 -0.47777954 0.020394498 -0.11404644
000290 1a 1f d1 bd af ac 69 bf ca c0 01 bd bc 5b 23 bd
       -0.1021101 -0.9127912 -0.031678 -0.039882407
0002a0 74 fc a0 bc 3e ed 2c be 8a 53 62 bd 74 c7 19 3c
       -0.019651629 -0.16887376 -0.05525545 0.009385932
0002b0 85 cc 7f be 97 f0 e6 be 69 99 6d 3d c3 90 48 3b
       -0.24980362 -0.4510543 0.05800763 0.0030603863
0002c0 77 78 1e bd 7c 8c bd bd b0 60 4c bc 87 7d 46 3d
       -0.038689103 -0.09255311 -0.012474224 0.048459556
0002d0 58 88 a7 bd 34 26 2d be 27 18 96 3c f3 de 9f bd
       -0.081803024 -0.16909105 0.018322064 -0.07806196
0002e0 e5 8e 06 3a 2c b4 43 3d f1 cc 00 bd d1 25 1d bd
       0.0005132987 0.047779247 -0.031445447 -0.038366143
0002f0 ea 3b fa 3e 49 62 27 3f 6f 8f 07 3d 9f 89 34 bd
       0.48873836 0.65384346 0.033095773 -0.04407656
000300 e2 46 c9 3c be 58 30 be d7 68 f2 3c 24 d8 ac bd
       0.024569932 -0.17221352 0.029591007 -0.08439663
000310 b4 a4 c4 3c d4 92 5e bf 08 9c d8 bc 87 6e 0c bc
       0.024004318 -0.8694279 -0.026441589 -0.008571274
000320 72 1a fd 3d e9 1b 51 be 22 c7 04 3d 02 4e b1 bd
       0.1235856 -0.20420803 0.03241647 -0.08657457
000330 70 af 0a 3e 0e 55 0b bf da 14 19 3e ca 2b a3 3d
       0.13543487 -0.5442666 0.1494936 0.079673365
000340 ce 29 6a 3e 3e 1d 95 bd d9 f6 98 bc 68 28 f3 bc
       0.2286751 -0.07280968 -0.018672394 -0.029682353
000350 90 10 bb 3c b2 f9 8b 3e 3f bc 6a 3d 64 1b c2 bd
       0.022835046 0.2733894 0.05730843 -0.094778806
000360 0e 62 02 bd c0 a0 c2 be cf c3 f0 3b ac 45 3e 3d
       -0.031831793 -0.38013268 0.007347561 0.046453163
000370 1c da bf be 72 2d 85 3e 44 02 37 bc 42 66 33 3c
       -0.37471092 0.26011235 -0.011169974 0.010949673
000380 d5 25 4c 3a 79 ba ae be b7 51 2a bd ba 99 06 bb
       0.000778762 -0.34126642 -0.041581836 -0.0020538406
000390 09 48 28 be 37 c8 6f 3e b2 3d 85 3d f3 e1 b6 bc
       -0.16433729 0.2341622 0.06505908 -0.022324538
0003a0 a1 e0 1b 3e b6 03 21 bf 12 ad c4 bc 12 92 f0 3c
       0.15222408 -0.6289629 -0.024008308 0.029366527
0003b0 4d cb cc bd 25 17 a1 3e 1e cc a1 bd 6b de c1 bd
       -0.09999714 0.3146297 -0.079002604 -0.09466251
0003c0 1a 9a a6 3d 46 11 03 be 14 38 82 3d 7c 56 f2 bd
       0.08134861 -0.12799558 0.06358352 -0.11832902
0003d0 5c 31 f6 3d 1b a8 80 be 68 61 44 3b eb 02 21 be
       0.12021133 -0.25128254 0.0029965285 -0.1572377
0003e0 e7 5a 48 be 4b 4d 02 be ec a6 10 be 7d 03 f6 3d
       -0.19565926 -0.12724797 -0.14126176 0.12012384
0003f0 09 67 5a 3d 70 8b 81 be b1 82 29 be 43 3e d7 3d
       0.05332092 -0.25301695 -0.16553761 0.10509922

layers.0.bias f4 [128]
000000 f5 26 17 be 06 d9 3b 3e 6c b8 1e 3e ae 0c 3c be
       -0.14760955 0.18344507 0.15500039 -0.18364212
000010 f0 9b 1e bd 28 98 3d be c8 b4 48 3e 1a 0e bc bc
       -0.038722932 -0.18515074 0.19600213 -0.022955943
000020 da 95 41 3c 61 69 36 3e fc b0 89 3d 9d 48 2a be
       0.011815513 0.17813636 0.0672321 -0.16629262
000030 87 fa 2f be 3d ce 42 3d 03 b6 14 be 59 5b 1c 3d
       -0.17185412 0.047559965 -0.14522557 0.038173053
000040 6a 5b 95 3d e9 48 49 3e 85 23 00 3e e2 a1 c0 3d
       0.072928265 0.1965672 0.1251355 0.09405877
000050 db f5 2b be 1e dc 3c 3e 62 22 d5 bd d2 bf 1b 3c
       -0.16793005 0.18443343 -0.104069486 0.009506183
000060 c3 0a 36 be 30 75 b3 3d 31 3d 20 bd af 00 21 3e
       -0.17777543 0.08762586 -0.039120857 0.15722917
000070 f0 42 e0 3d 56 66 fc bd 7e 62 f8 3c 4f 5f 3a be
       0.10950267 -0.123242065 0.030320402 -0.1820042
000080 38 76 c0 3a 45 ce 2d 3e 23 0d 1e be b4 a3 a6 3d
       0.001468367 0.16973217 -0.15434699 0.08136693
000090 86 67 44 bd c6 dc 76 3d ac c8 3d 3e 68 78 39 3e
       -0.04795029 0.06026914 0.18533581 0.18112338
0000a0 cf d1 50 3e 5a 1e 16 3e 0d 68 94 3d f9 c6 33 be
       0.20392536 0.14660016 0.072464086 -0.17556371
0000b0 fe 40 99 3d 94 4e 29 3c e3 5b b1 bd 30 73 fb bd
       0.074830994 0.010333676 -0.08660104 -0.1227783
0000c0 d7 c6 36 be 65 94 13 3e 85 25 8b bd 37 56 bc 3d
       -0.17849289 0.14412077 -0.06794266 0.09196132
0000d0 f6 c1 d4 bd ce d9 04 bd 72 e9 b2 ba 45 35 38 be
       -0.103885576 -0.032434277 -0.0013649894 -0.1798907
0000e0 fd 51 2e 3b 05 19 19 be 95 44 1d be 64 96 2e be
       0.0026599162 -0.1495095 -0.15358193 -0.17049557
0000f0 9b 39 5b 3c 38 49 4a bc 84 1a 35 3e e6 da 12 be
       0.013380433 -0.012346558 0.17685896 -0.14341316
000100 6a d2 80 bd 71 22 41 be 9d b6 30 3e 80 75 4d be
       -0.06290133 -0.18860795 0.17257161 -0.20064354
000110 0e 9c 99 bb 23 76 02 3e 0c 9e ac 3c 69 e9 4f be
       -0.0046877926 0.12740378 0.021071456 -0.20303883
000120 cf 98 f6 bb 9e 3a dd 3d 51 35 31 be 57 9e e5 3c
       -0.0075255404 0.10802196 -0.17305495 0.028029604
000130 69 af 5d bd 27 80 88 3d 53 99 21 be 79 4b 12 3d
       -0.054122362 0.06665068 -0.15781145 0.035716508
000140 50 0a 0e 3e c8 5d 7e bb c0 c8 1a 3e 37 2c 19 3e
       0.13871121 -0.0038813222 0.15115643 0.14958273
000150 0e 92 16 be 1d 9c da bd 96 b7 c7 3c 4c 12 82 3c
       -0.14704153 -0.106743075 0.024379533 0.015877865
000160 8e 04 45 3e 1e 0b 61 bd ba 4c fc bc 9f 6f 43 be
       0.19240019 -0.054942243 -0.030798305 -0.19085549
000170 e3 fc 0b bd 28 c9 3e be 0a 9a 11 be 4a a7 08 be
       -0.03417672 -0.18631423 -0.14218917 -0.13345066
000180 ac b3 27 3e 96 f6 d5 3d 59 cd 18 3b bc 4b 76 bd
       0.16377133 0.10447423 0.0023315756 -0.06013082
000190 b6 7b f6 bd a7 30 0a 3e 6d ff 25 3d 0c 4c dd 3c
       -0.12035315 0.13495122 0.040526796 0.027013801
0001a0 36 78 a6 3d c2 29 73 bd 3a 8b 19 3e 0f 53 4f be
       0.08128397 -0.059365995 0.14994517 -0.20246528
0001b0 70 07 fd 3d b2 a2 1f be 48 cf 85 3a 99 eb 86 bd
       0.12354934 -0.15589407 0.0010208869 -0.065879054
0001c0 91 bb 44 3c f4 21 da 3c 17 00 42 be 58 39 fe bd
       0.01200761 0.026627518 -0.18945347 -0.12413281
0001d0 bb 3b 27 3e 3f c1 5a 3d 29 63 42 3e 03 ec 62 bd
       0.16331379 0.05340695 0.18983139 -0.05540086
0001e0 24 1f 1d 3e 00 92 2e be 1d 61 6c bd 92 5d ad 3d
       0.1534391 -0.17047882 -0.057709802 0.08465113
0001f0 ff e5 42 3e a0 45 85 bd ac b4 2f bd 2d cf 2e 3d
       0.19033049 -0.065074205 -0.04289691 0.042678047

layers.1.weight f4 [128]
000000 e7 fa 1b 3f ab a3 83 3f 30 31 b4 3e 71 56 c3 3e
       0.6092972 1.0284323 0.35193777 0.38151887
000010 a0 5e a6 3e d8 96 ef 3e e6 3b b9 3e 62 80 20 3f
       0.32494068 0.46794772 0.3617851 0.62695897
000020 91 cf f0 3e 2c 1c e8 3e 2a 6a 86 3e 63 4b bb 3e
       0.4703336 0.45333993 0.26252872 0.36580953
000030 96 10 cc 3e 06 ce 33 3f 88 86 f6 3e bc 6c d8 3e
       0.39856404 0.7023624 0.48149514 0.42270458
000040 1d 47 b3 3e 1b 0a 44 3e 88 71 49 3e a0 0b cf 3e
       0.35015193 0.1914448 0.19672215 0.40438557
000050 02 40 69 3f 3f dc c7 3e 41 80 8c 3e 6b 69 55 3e
       0.91113293 0.39035222 0.274416 0.20840995
000060 2c 0c ca 3e 7a 4c a2 3e a8 6f 08 3f fd 9b 58 3e
       0.3946241 0.31698972 0.53295374 0.21153255
000070 f8 18 95 3e 11 90 46 3f 9a 24 69 3e e7 29 24 3e
       0.29120612 0.7756358 0.22767869 0.1603161
000080 3e ad cb 3e 97 fb a5 3e f4 87 b8 3e 03 90 80 3e
       0.3978061 0.3241851 0.36041224 0.25109872
000090 14 52 28 3f 9f ca 9e 3e a4 19 5e 3e 87 18 41 3b
       0.6575024 0.31013963 0.21689469 0.0029464082
0000a0 df 1a 7e 3e b6 69 f1 3d a1 7a e6 3e 23 d8 55 3e
       0.24814938 0.11787741 0.45015433 0.20883231
0000b0 2e 6a 76 3e 9d 0d 5d 3e 26 51 ad 3e 97 02 0e 3e
       0.24063942 0.21587224 0.33850974 0.13868175
0000c0 91 82 af 3e c3 06 d5 3e 7b 68 f5 3e ad 31 9e 3e
       0.34279302 0.4160672 0.47931275 0.30897275
0000d0 e5 82 74 3e 5b b7 ff 3e 7b 30 34 3e 6f 99 29 3e
       0.23878057 0.49944577 0.17596619 0.16562437
0000e0 1c 4a 9f 3e 4d 9f 57 3e d4 74 0f 3f 86 7f 78 3e
       0.31111228 0.21056862 0.5603764 0.24267396
0000f0 ed 7a 94 3e dd 56 17 3e b3 1b 94 3e 21 a4 b5 3e
       0.29000035 0.1477923 0.28927383 0.35476783
000100 9c 49 1a 3f 9f 02 6d 3f 01 b3 52 3f 7f a7 dd 3e
       0.6026857 0.92582124 0.8230439 0.43291852
000110 78 d0 8a 3e 9a e6 8c 3e 22 ec 15 3f 60 c6 2d 3e
       0.27112174 0.27519685 0.58563435 0.16970205
000120 c6 1a e9 3e f4 bd af 3e 11 63 8b 3e 42 aa 85 3e
       0.4552824 0.3432461 0.2722402 0.2610646
000130 28 09 be 3e 7a b0 1f 3f a2 25 1b 3f 3f 5d 0c 3f
       0.3711636 0.62378657 0.606043 0.5482978
000140 70 ec b8 3e 2a 09 30 3e 86 fe 99 3e 23 da 0d 3f
       0.36117887 0.17190996 0.30076998 0.55410975
000150 55 25 38 3e a1 07 27 3e 8c e2 25 3f 5e b8 8c 3e
       0.17982991 0.16311504 0.6479881 0.2748441
000160 ab 7f ae 3e 4f 74 0a 3f e8 08 d7 3e b8 82 31 3f
       0.34081778 0.5408372 0.41998982 0.69340086
000170 aa 85 cf 3e 8e 85 7b 3e 39 5e 19 3e 8b aa d1 3e
       0.40531665 0.24562666 0.1497735 0.40950426
000180 80 55 f1 3e 4c 1b 10 3f de e1 52 3e 89 03 cd 3e
       0.47135544 0.5629165 0.20593974 0.4004176
000190 06 ff 09 3f 33 ef 90 3e 70 cc b8 3e 67 e2 10 3f
       0.5390476 0.28307495 0.36093473 0.5659546
0001a0 50 9e 9a 3e de 8f 05 3f 3c aa 8f 3f df 65 a1 3e
       0.30198908 0.5217265 1.1223826 0.31523034
0001b0 f8 b9 6e 3e 54 94 9d 3e b7 be 6d 3e 2f 9c 9f 3e
       0.23313129 0.30777228 0.23217283 0.31173846
0001c0 67 9d ba 3e d7 da da 3e b2 14 2d 3e 05 95 58 3e
       0.36448213 0.42745087 0.16902426 0.21150596
0001d0 2f 53 4d 3e d4 ed e3 3e 71 8a 29 3e f5 35 58 3e
       0.20051263 0.44517386 0.16556717 0.21114333
0001e0 f6 fd e7 3e fc 02 87 3e 7f e0 31 3f d4 5f da 3e
       0.45310944 0.26369464 0.6948318 0.42651236
0001f0 69 32 a6 3e 79 50 4c 3e e7 0b d3 3e c5 94 95 3e
       0.32460335 0.19952573 0.41220018 0.29215065

layers.1.bias f4 [128]
000000 49 cd de be cf 41 09 3f 8a 74 bc be f4 72 02 bf
       -0.43515995 0.5361604 -0.36807662 -0.50956655
000010 2d 1b 4f be 2f e9 cf be 5e e3 91 be 28 64 41 be
       -0.2022521 -0.40607592 -0.2849378 -0.18885863
000020 28 12 ca be 3f a9 ef be 8f bb 4b be b4 89 67 be
       -0.39466977 -0.46808812 -0.19895767 -0.22611123
000030 1c f0 00 be 2a 96 11 3d 00 39 06 bf 00 f7 cf be
       -0.12591594 0.0355436 -0.52430725 -0.40618134
000040 ee 66 9b be e5 38 98 bd c0 2f be 3d 5e 59 b0 be
       -0.30351967 -0.07432727 0.09286451 -0.34443182
000050 f8 c1 a2 be 7b a3 9f be ec 73 40 be 74 ff a0 3e
       -0.3178861 -0.31179413 -0.1879422 0.31444895
000060 86 2b b5 be ee 77 1f be 7b 29 26 be 02 db 95 be
       -0.35384768 -0.15573093 -0.16226761 -0.29268652
000070 51 f3 8d be 74 a4 30 bf db 72 43 be ef 83 eb 3d
       -0.27724698 -0.69000936 -0.19086783 0.11499774
000080 48 db b6 be 93 82 65 be 5f ed 68 be 74 4f 2d be
       -0.35714173 -0.22413091 -0.227468 -0.1692484
000090 53 ba a5 be 52 8a c1 be 01 95 f3 3b 0f 8d 3e bd
       -0.32368717 -0.37800843 0.007433534 -0.046521243
0000a0 26 7f 17 be 0f 95 98 bd 68 8c ae bd ec 76 d2 bd
       -0.14794597 -0.07450306 -0.08522874 -0.10276589
0000b0 63 f4 cd 3d 34 39 48 be 10 84 9c be c9 59 3f 3d
       0.10056379 -0.19553071 -0.30569506 0.046716485
0000c0 69 4a b2 be 03 57 93 be 7f 2e 7b be 5d a8 8a be
       -0.34822395 -0.28777322 -0.24529456 -0.27081576
0000d0 cf d2 46 be af 55 e0 be 7c 30 3d be f3 eb 00 be
       -0.19416355 -0.4381537 -0.18475527 -0.12590007
0000e0 61 d6 c5 be 87 5e 21 be 70 03 05 bf 1e 3c a7 be
       -0.3864012 -0.15758716 -0.5195837 -0.32663053
0000f0 11 25 81 be db f6 72 bd 38 be a1 be 6e f0 80 be
       -0.25223592 -0.05931745 -0.31590438 -0.25183433
000100 87 b1 d3 be d7 9b 62 3e 14 ca 1d bf 3b 37 c3 be
       -0.4134638 0.2212976 -0.6163647 -0.38128075
000110 26 c2 98 be 0d a4 92 be 3e 88 71 be b6 84 cd ba
       -0.29835624 -0.28640786 -0.23587129 -0.001567981
000120 f8 3a 2e bf f9 43 bc be 24 2f 1d be 8b 78 eb 3a
       -0.6805873 -0.3677061 -0.15350014 0.0017965002
000130 e8 4a af 3c ce 76 dc 3c 0c 4d b1 be 51 3e fa bd
       0.021398023 0.02691212 -0.34629095 -0.12218917
000140 11 35 8f be 61 4c 3d be 4a 00 04 bd 31 1a db be
       -0.27970174 -0.18486167 -0.03222684 -0.4279342
000150 63 b7 15 be b0 84 e3 bd 7e 58 9d be 30 88 16 be
       -0.14620738 -0.111092925 -0.30731577 -0.14700389
000160 30 44 a9 be 07 30 19 bf 48 8c 22 3e 7b a5 9e 3e
       -0.33059835 -0.5983891 0.15873826 0.30985627
000170 13 5a 8e be 63 61 73 be 09 11 1a be 95 94 08 bf
       -0.27803096 -0.23767619 -0.15045561 -0.5335172
000180 b5 ca d5 be 26 45 29 be 89 b5 8a bd 82 bd 92 be
       -0.41756216 -0.16530284 -0.06772906 -0.28660208
000190 48 45 0b be b2 bd c0 be 4a 37 a1 be 1b 23 ad be
       -0.13600647 -0.37644726 -0.31487495 -0.33815846
0001a0 60 79 a5 be cb ab 8e be 0f 0c 8b bd 52 13 ed bd
       -0.32319164 -0.27865443 -0.06789409 -0.11575951
0001b0 e8 db 4f be da 02 4a be 6f 97 58 be aa 3c 8f be
       -0.20298731 -0.1972765 -0.21151517 -0.2797597
0001c0 9f 78 5a be 74 75 f7 be f4 ec aa 3a fc fa 10 be
       -0.21335076 -0.48331797 0.0013040588 -0.14158243
0001d0 6c 6d 1b be 6b db 9c 3d 5c ca 8e bd f1 f1 65 bd
       -0.1517846 0.07659038 -0.06972191 -0.056138936
0001e0 97 9a be be 11 22 44 be 77 d0 c6 be d0 b7 d2 be
       -0.37227318 -0.1915362 -0.3883092 -0.41155863
0001f0 46 d4 ba be 92 c3 ef bd 82 0e 0e bf 9e 64 9a bd
       -0.36490077 -0.11707224 -0.5549089 -0.075387225

layers.1.running_mean f4 [128]
000000 90 cc fa bf fe 28 62 3e 4a b0 14 c0 c5 02 ea bf
       -1.9593678 0.2208595 -2.3232598 -1.8282095
000010 48 e7 ea 3f 47 24 d1 c0 8b a2 9c bf 41 63 0b 3f
       1.8351831 -6.5356784 -1.2237104 0.54448324
000020 7b f6 7d c0 f5 17 f7 3f 4e 7a 89 c0 53 bf f6 be
       -3.968169 1.9304186 -4.29618 -0.48192844
000030 d4 21 26 c0 6b 73 90 be 1a da 32 3f b8 3d 34 3f
       -2.5958147 -0.28213057 0.69864047 0.70406675
000040 42 06 a1 c0 57 24 ac 40 97 55 59 bf d8 c1 09 c0
       -5.032014 5.379436 -0.84896225 -2.1524563
000050 ad 0c 55 c0 5e ec 8d 40 17 b9 ee c0 53 8b 12 40
       -3.3288987 4.4351034 -7.460094 2.2897537
000060 ac 1e 4c c0 3e 8c 22 40 d5 a3 d2 3c fd 85 3d 3f
       -3.189372 2.5398097 0.025712887 0.74032575
000070 ce b0 b8 40 01 21 8a 3f 95 c0 3f c0 fc 8b 9c 40
       5.7715826 1.0791322 -2.9961293 4.892088
000080 67 98 36 c0 a8 f5 5a c0 15 ba 36 40 1e 4b c2 bf
       -2.853052 -3.4212437 2.8551075 -1.5179174
000090 62 48 7a bf 18 49 49 40 c8 03 99 40 55 f0 90 3d
       -0.977667 3.1450863 4.7817116 0.0707709
0000a0 ca 35 d8 40 81 2e 01 40 02 5e 40 40 11 8d c6 3c
       6.756566 2.0184634 3.0057378 0.024237188
0000b0 63 dc 4a 40 9b ae 31 40 01 12 a2 bf 1c 94 ea 3f
       3.1697013 2.776282 -1.2661744 1.8326449
0000c0 84 94 c9 3f 52 4d 31 c0 c5 5c e8 bf a5 05 a4 40
       1.5748448 -2.7703443 -1.8153311 5.125689
0000d0 f4 14 dc c0 8e ba c9 bf da 7a 31 c0 0d f4 13 bf
       -6.8775578 -1.5760057 -2.7731233 -0.57794267
0000e0 59 ac da c0 5c 41 8e c0 d1 55 78 c0 0e 66 a9 c0
       -6.8335385 -4.4454784 -3.8802378 -5.293708
0000f0 16 7e fc 3e 09 0a 66 c0 75 80 83 c0 5f a2 36 c0
       0.49314946 -3.5943625 -4.109431 -2.8536603
000100 4d e8 17 3f fa a8 0b be 33 42 1a 40 b9 6d fa 3f
       0.5933884 -0.13638678 2.4102905 1.9564735
000110 55 2b a8 bf 98 6d 21 3e 60 cb 85 3f ce 5b 58 40
       -1.3138224 0.15764463 1.045269 3.3806033
000120 f0 5c e6 c0 ad df ce 3f 33 95 50 40 6c c3 7d c0
       -7.198845 1.616201 3.2591064 -3.9650526
000130 6a 80 65 40 96 4e 1b be 31 be 13 3f 9e aa bf be
       3.5859628 -0.15166697 0.57712084 -0.37434858
000140 65 b4 d0 bf f9 ac d6 c0 51 51 40 bf e8 38 ff 3e
       -1.6305052 -6.708615 -0.7512408 0.49848104
000150 ff 07 22 c1 17 82 d1 3f 11 a3 da 3e d9 f8 90 3d
       -10.126952 1.6367825 0.42702535 0.07078714
000160 f0 e5 2a c0 45 94 a4 c0 1b a4 af 3f cf d1 04 3f
       -2.6702843 -5.1430993 1.3721956 0.5188264
000170 dc d8 66 c0 2f d4 4b 3f 96 df bf 40 c3 ac a6 c0
       -3.606986 0.7962064 5.996043 -5.208589
000180 ce d8 7c c0 64 0f fd 3e fc ee 06 bf b8 9b ed c0
       -3.9507327 0.49425805 -0.5270841 -7.4252586
000190 f9 d2 50 bf b9 e7 0b c1 c3 9d e2 3c f6 b8 63 40
       -0.8157192 -8.744073 0.027663117 3.5581641
0001a0 2c 14 3f bf cf 57 47 bf fc e7 b1 be 73 f7 06 c0
       -0.74640155 -0.7786836 -0.34747303 -2.108853
0001b0 61 02 0c c0 db 37 22 40 b2 98 0f 3f 2d de de 3d
       -2.1876452 2.5346591 0.5609237 0.108822204
0001c0 a8 c0 9b c0 3c 37 99 c0 32 09 fb c0 4b df dc 3f
       -4.8672676 -4.7879925 -7.8448725 1.7255644
0001d0 fa 8d 7a c0 ee fb ba be a6 96 9a c0 e7 08 17 3f
       -3.9149156 -0.36520332 -4.8308897 0.5899796
0001e0 c0 64 30 c0 78 de 85 40 58 57 df bf 2d d3 ab c0
       -2.7561493 4.183407 -1.744853 -5.3695283
0001f0 11 7f 37 c0 09 b8 50 bd 78 84 c2 c0 98 ac a2 40
       -2.8671305 -0.05095676 -6.0786705 5.0835686

layers.1.running_var f4 [128]
000000 93 27 af 40 35 e3 96 3f 33 2a 43 41 dd 5d 36 42
       5.473581 1.1788088 12.197803 45.591663
000010 39 e1 a7 42 bb 2c ca 41 bc 6b 3f 41 25 d2 e0 3f
       83.93989 25.271841 11.963802 1.7564131
000020 a0 e4 e8 41 5a ed 7e 41 9f ea 8f 42 ac ba b3 41
       29.111633 15.932947 71.958244 22.466148
000030 61 d6 9b 41 dc 9e 4e 43 a6 50 44 42 45 df 94 41
       19.479677 206.62054 49.07876 18.609018
000040 4e 74 88 41 c3 d9 97 42 f7 84 e7 40 ee 81 d2 41
       17.05679 75.925316 7.234981 26.313442
000050 ea ef 05 42 b1 7d ba 41 d3 35 9a 41 e7 7a 20 40
       33.48429 23.311373 19.276281 2.5075014
000060 c8 28 3f 41 53 c9 c3 41 b8 d0 f9 3f ef 14 f0 41
       11.947456 24.473303 1.9516821 30.010221
000070 f2 b1 09 43 3d 9b 90 41 c8 ee 85 41 d1 7f 8d 41
       137.6951 18.0758 16.741592 17.68741
000080 d1 05 31 41 db e3 22 42 fa 31 92 41 6a 6d 05 42
       11.06392 40.722515 18.274403 33.35685
000090 12 46 dc 41 df 72 8c 41 3e 38 c6 41 48 c2 f6 40
       27.534214 17.55609 24.777462 7.711216
0000a0 01 6a b7 41 37 ae ab 41 fa f2 ae 41 4b 5a a8 41
       22.92676 21.460066 21.86864 21.044088
0000b0 16 ba 86 41 09 1f 41 42 72 d0 04 41 16 12 47 41
       16.840862 48.280308 8.30089 12.4419155
0000c0 0d 36 11 41 c6 6d 70 40 68 5a 7f 41 09 29 61 41
       9.075696 3.7567 15.959572 14.072518
0000d0 15 cd d3 41 64 60 24 41 34 84 03 42 49 2e 60 41
       26.475138 10.273533 32.879105 14.0113
0000e0 1a 4e 22 41 77 91 9b 42 18 d7 94 41 7d 6a 46 41
       10.144068 77.78411 18.605026 12.400998
0000f0 0a f4 a5 41 fd dd 2c 42 88 ca 8b 41 95 9b 87 42
       20.74416 43.216785 17.473892 67.80387
000100 1e 79 0d 41 42 6f 27 40 12 83 65 41 72 af dc 40
       8.84207 2.6161656 14.3445 6.8964167
000110 cb 69 28 42 a7 a6 c8 41 52 91 5a 41 d7 9c 82 41
       42.103313 25.081373 13.660479 16.326582
000120 67 0f 87 41 27 51 fa 41 e3 49 73 42 ef 12 f8 41
       16.88252 31.289625 60.822155 31.009245
000130 15 bc a7 40 62 3f 97 40 1a e4 3f 40 f7 b8 e8 40
       5.241709 4.726487 2.9982972 7.2725787
000140 f3 85 17 40 ae c8 ed 41 77 7b 5e 40 45 c9 eb 40
       2.3675506 29.722988 3.4762857 7.368319
000150 e6 ca f8 41 9e 67 ce 41 f6 82 43 40 77 f8 70 41
       31.099072 25.800594 3.0548682 15.06066
000160 6e e1 21 42 29 2f 49 41 0a 34 55 40 f1 7f 04 40
       40.470146 12.574014 3.3313012 2.070309
000170 45 f0 7a 41 14 14 57 42 de a1 42 42 ee fc e1 40
       15.68366 53.769608 48.658073 7.062125
000180 62 1a 62 42 21 f1 cf 40 f1 ee 21 42 a8 e5 a3 41
       56.525764 6.4981847 40.48334 20.487137
000190 0c ea 83 42 06 65 a4 41 b9 0a 82 42 b8 25 01 41
       65.95712 20.549328 65.02094 8.071709
0001a0 41 f4 de 40 7d 41 f6 41 46 63 f3 42 32 99 8c 41
       6.967316 30.781977 121.69389 17.574802
0001b0 e3 d1 8c 42 78 6b 1a 42 bc 29 5e 42 97 23 a1 41
       70.409935 38.60495 55.540756 20.142378
0001c0 18 b7 8b 41 25 1c 5d 41 ed ea 48 42 33 b9 e9 41
       17.464401 13.819371 50.22942 29.21543
0001d0 c0 f8 94 41 93 0a 44 3f bc bb 11 42 89 ee f7 41
       18.62146 0.76578635 36.433334 30.991472
0001e0 f6 1b 03 42 06 76 07 42 99 0d 46 40 62 7b f5 41
       32.777306 33.865257 3.09458 30.685246
0001f0 f7 c3 62 40 54 72 0e 42 60 a3 df 40 f1 3d 33 41
       3.5432107 35.61165 6.988693 11.202622

layers.3.weight f4 [128, 130]
000000 47 0b 50 bd 34 ca d6 3c 45 91 91 3c d2 d1 b0 be
       -0.050792005 0.026219465 0.017769465 -0.3453508
000010 0b 8e 56 3c 48 7d 16 3e 04 bb 35 bd 77 7c 32 3d
       0.013095389 0.14696229 -0.044367805 0.04357573
000020 b6 ae e6 3d 41 90 be bd d1 c7 cb bd 83 d8 ca bd
       0.11263792 -0.09304858 -0.09950221 -0.099045776
000030 75 d6 e8 3c 56 fb 56 bd 43 fd 4f 3d ca c8 57 3e
       0.028422574 -0.052485786 0.05077864 0.21072689
000040 3e 47 c2 bd f8 86 a9 be d0 02 58 be e8 7c 7b 3d
       -0.094862446 -0.33110785 -0.21094823 0.061398417
000050 7a 45 41 3e a6 d2 8c 3e 91 90 c2 bd 4b f5 3f be
       0.1887416 0.27504462 -0.0950023 -0.18745916
000060 d7 d2 6f be 3a e8 6b 3e 22 39 77 be 67 cc 87 3e
       -0.23420273 0.23037806 -0.24142888 0.26523134
000070 87 d7 d7 3d 32 8b bf 3c 2d 6f bf 3e 6d fe 98 bd
       0.105391555 0.023381803 0.37389508 -0.07470403
000080 14 6b d2 bd df 86 06 3e 46 82 3f be b5 d2 ac bd
       -0.1027433 0.13137387 -0.18702039 -0.08438627
000090 52 3b af 3d c0 0a 5d 3d 13 65 50 bd 40 16 22 3d
       0.08556236 0.05396533 -0.050877642 0.039572
0000a0 39 4c 38 bc 3e 8c b9 3c 97 69 a7 bd cf e8 16 be
       -0.011248642 0.02264988 -0.081744365 -0.14737247
0000b0 27 c9 50 be 1f 71 7b 3e 6f 15 55 bd 2c 42 1c be
       -0.20389234 0.24554871 -0.052022394 -0.15259618
0000c0 27 7e 1d be 15 59 e4 bc 9f ea 87 bd 54 5b 40 bb
       -0.15380155 -0.027874509 -0.06636547 -0.002935131
0000d0 ce 17 b8 bd 06 1e 33 bd 5b 1e 92 be c2 6e 8a 3b
       -0.089889154 -0.043729804 -0.28538784 0.004224629
0000e0 14 df bf 3e 37 62 62 3e 97 45 b7 bb df 7c 46 bd
       0.37474883 0.22107778 -0.0055930126 -0.04845893
0000f0 f6 b4 47 bb c2 0f 48 bd 90 5a 2c 3e 0c de 98 3d
       -0.0030472851 -0.048843153 0.16831422 0.07464227
000100 c3 7a 9f bc 90 ec 36 bb a7 23 a1 be 3e 9e c6 bd
       -0.019467717 -0.0027911998 -0.31472513 -0.09698151
000110 6b 73 8b be d6 91 97 be 90 3b d3 3d d9 ed 73 bd
       -0.27236494 -0.29603451 0.10314095 -0.059553
000120 1c 56 e0 bd 9c e6 2a 3e 47 a0 9b 3d 77 0b b8 3d
       -0.10953924 0.16689533 0.0759893 0.08986562
000130 dc b7 d8 3d 80 2a ae 3d 0b fc 92 3e 74 c2 b6 be
       0.105819434 0.085042 0.2870792 -0.3569523
000140 4f ef 9f 3e f8 fd 95 3e 15 4a 14 3e ad bf 8e 3e
       0.31237265 0.29295325 0.14481385 0.27880612
000150 ed e9 97 3e 07 6b 99 bd 16 a0 9a 3b 92 93 76 3e
       0.2967066 -0.07491117 0.0047187908 0.24079731
000160 8d 55 c2 3e 4e 40 31 be d0 38 09 bd 18 77 78 bc
       0.37955895 -0.17309687 -0.033501446 -0.015165113
000170 b1 4f c4 3c 06 e0 2e bd 5a 92 23 3e 0d 60 51 3e
       0.023963781 -0.042694114 0.15973797 0.20446797
000180 f9 70 28 3e cb 0c 7a 3c 0c a6 49 be e9 ec 0c be
       0.16449346 0.015261839 -0.19692248 -0.13762249
000190 b9 37 b9 bc 50 0c 5e 3e 0b f7 2e be 77 3a b8 be
       -0.022609578 0.21684384 -0.17086427 -0.35982105
0001a0 74 2e 26 3e 2a d1 3d b9 db b3 39 3d 54 bf 75 3e
       0.16228658 -0.00018102364 0.04533754 0.23998767
0001b0 3a 87 01 3c d3 e4 4a 3d f1 ba 76 be bb 41 69 be
       0.007905776 0.04953463 -0.2409475 -0.2277898
0001c0 59 f1 ba 3d b9 88 7b bd 2c 41 b7 bc 99 d5 bb 3d
       0.09128065 -0.061409686 -0.022369944 0.091716
0001d0 25 2a 54 3e 75 54 e9 bd 6c 94 3b 3e 24 d3 13 3d
       0.20719202 -0.11393062 0.18318337 0.03609003
0001e0 14 13 3c 3d 12 85 ce be 66 d3 b3 3d 7e 96 32 3e
       0.04591663 -0.403359 0.087805554 0.1744022
0001f0 a4 d6 99 3d ed 07 bd bd 1d 93 b9 bd cf 0d b6 be
       0.075116426 -0.09230027 -0.09061263 -0.3555741
000200 cf 9d f6 bd 28 d5 a4 bb ec bf 20 3e ce 7e ed bc
       -0.12041818 -0.005030293 0.15698212 -0.02899113
000210 a8 b0 3f be 7a e8 7d bd bc 18 ac 3d 70 a0 2d be
       -0.18719733 -0.061989285 0.08403155 -0.16955733
000220 93 4d 74 be 74 75 c7 bd 93 1b a0 3d 0e 05 14 3e
       -0.23857717 -0.09739199 0.07817759 0.14455053
000230 5e a5 b0 bd a6 18 6b 3e 0f ff 61 bc 86 ff 86 3d
       -0.08625291 0.22958621 -0.013793721 0.06591706
000240 4d 49 dc 3d 40 74 01 bf a6 0b 3c be e7 4f 3e 3e
       0.107561685 -0.5056801 -0.18363819 0.18585168
000250 09 9f 1f be 6e 53 a7 3c 12 31 33 bd c3 bd 5e bd
       -0.15588011 0.020425525 -0.04374797 -0.05438019
000260 06 f9 dd bb 90 a5 96 be 21 9f 40 3d 24 c1 8c be
       -0.0067740707 -0.2942319 0.047026757 -0.27491105
000270 ca 1f c5 3d b8 54 08 be 20 ba a3 3d 5e 20 5a 3d
       0.09625204 -0.13313568 0.07994485 0.053253524
000280 f2 c2 dc 3e 46 05 7b 3d 0d bc aa 3b fb 79 90 bb
       0.4311748 0.061284326 0.0052104057 -0.0044090725
000290 5d 50 87 bd d3 26 9c 3d 4f d4 88 bc dc c5 21 be
       -0.06607125 0.07624593 -0.0167028 -0.15798134
0002a0 f8 8f ba be c5 1c 93 3d 4c a8 b9 3e 2f fd e9 bd
       -0.36437964 0.07183222 0.36261213 -0.11425244
0002b0 4a 36 c9 bd 49 1b 18 bd 92 a7 59 be d0 28 8f be
       -0.09824808 -0.037135396 -0.21255329 -0.27960825
0002c0 8b fe 8e 3e eb ad 96 3d 5e d6 ed 3e dc 5a 06 3e
       0.27928576 0.07357391 0.46452612 0.13120598
0002d0 b1 1b 66 bd ea 6e a8 be da b8 a5 3d 1b c3 07 3d
       -0.056178752 -0.3289712 0.08091898 0.03314505
0002e0 7e 21 6b bd ae c6 c7 3d 10 15 9d bd 69 c2 c8 3d
       -0.057404988 0.09754692 -0.07670033 0.09802706
0002f0 e3 86 01 be 8c 8f 19 3d 16 b7 2f bc 2b 5a 34 3e
       -0.12649111 0.037490413 -0.010724803 0.17612521
000300 1f 43 75 bc 98 32 82 bd 63 92 d1 be fe eb 11 be
       -0.014969616 -0.06357306 -0.40931997 -0.1425018
000310 47 55 b7 3d 9f 93 e0 be 4f c3 2b 3e b0 00 73 bd
       0.08951812 -0.43862626 0.16773723 -0.059326828
000320 d6 d8 3f 3e c8 50 db 3d 78 0f 2c be b2 32 0d 3e
       0.1873506 0.10708767 -0.16802776 0.1378887
000330 cc d4 4a 3e 93 c5 ca bd 5f 40 78 3e 71 79 a7 3c
       0.19807738 -0.099009655 0.24243306 0.02044365
000340 65 37 6f be 6a 8b e3 3a dd 36 48 be 32 e2 11 bd
       -0.23360975 0.0017360274 -0.19552179 -0.035616107
000350 78 b5 68 bd 0b b9 a1 bd ff 6b 1b be ac 5c 8e bd
       -0.056813687 -0.07896622 -0.15177916 -0.069512695
000360 7b 3f 8b bd 0d 3f 5d be 9c 83 e6 3b c6 30 e7 3d
       -0.06799217 -0.21606083 0.007034732 0.112886
000370 4a ab 24 be 00 ba ff bd ef d5 04 3e fe 61 7a 3d
       -0.16080967 -0.124866486 0.12972234 0.06112861
000380 c3 27 26 bd 5d 80 e8 bc 29 ce 4d 3c 46 72 b3 bd
       -0.040565263 -0.02838152 0.012561359 -0.0876203
000390 a9 94 da 3c 52 db ca bd 82 84 91 3d 2e aa 4e 3e
       0.026682215 -0.09905113 0.07105352 0.20182106
0003a0 4f 77 94 be 57 21 7d bd 25 10 40 be f5 3e af 3d
       -0.28997275 -0.061799373 -0.18756159 0.0855693
0003b0 1b ad 8a 3d 0d da 65 be 89 3e 7c 3e 03 ef af bd
       0.067712985 -0.22446461 0.2463323 -0.0859051
0003c0 f8 d7 fd 3c fa 5e da bc d5 02 d2 bd cd f5 24 3e
       0.030986771 -0.026656616 -0.102544464 0.1610939
0003d0 99 eb 66 bc e6 8a 08 be e7 d1 fc bd 12 f2 4b 3e
       -0.014094257 -0.13334236 -0.12344723 0.19916561
0003e0 2d cd 46 be fd 83 da 3d 23 67 83 3d 7d 35 77 be
       -0.19414206 0.10669706 0.06416156 -0.24141498
0003f0 6c df aa 3c 63 b8 c1 bd 9f bb c5 bd 9f 61 8b bd
       0.020858489 -0.09458997 -0.096549265 -0.06805729

layers.3.bias f4 [128]
000000 01 81 8a 3d 84 4a 65 bd c2 ae 49 3c 5e 57 8b 3d
       0.06762887 -0.055979267 0.012309732 0.06803773
000010 1e 22 71 3d f8 df 1c 39 d0 81 a6 3d df 03 6e bd
       0.058870427 0.00014960754 0.081302285 -0.05810916
000020 82 38 74 bc 1f 24 36 bd f5 3f a5 3d 27 bb 0a bc
       -0.014906051 -0.04446804 0.080688395 -0.008467472
000030 15 5a 3c bd d7 53 24 bd b1 a9 94 bd 37 47 4b bc
       -0.045984346 -0.04011902 -0.072589286 -0.012407116
000040 e4 bd 71 3c eb d0 46 3d 18 b0 a1 b9 b8 8f 9d 3d
       0.014754746 0.048539083 -0.00030839513 0.07693428
000050 d2 8e 10 bd 44 5e b3 bd 15 07 99 3d 29 9e 99 bc
       -0.035292454 -0.08758214 0.07472054 -0.018752174
000060 ef 0f 69 bd d4 ff 31 3b 17 c5 7c 3d a2 3a 59 bd
       -0.05689996 0.0027160542 0.061711397 -0.053034432
000070 c8 23 a7 3d 6d d0 83 3d b7 de 85 bd a9 69 a2 3d
       0.081611216 0.064362384 -0.0653662 0.07930309
000080 d8 a4 a1 3c 84 0a a3 3d 6f 41 86 bb a8 be e3 3c
       0.019731924 0.0796099 -0.0040971558 0.027800873
000090 a0 bf 89 3d 78 59 e5 3a d5 30 8b bd 76 7d 9e bd
       0.06726003 0.0017497977 -0.06796423 -0.077387735
0000a0 de 75 98 3d 88 90 6e bd 82 4c b3 3d b6 a9 a4 bb
       0.074443564 -0.058243304 0.08754827 -0.005025114
0000b0 b0 22 27 3c 69 5b f1 bc f5 af 1b 3d 1c e2 a7 bb
       0.010201141 -0.029462533 0.038009603 -0.00512339
0000c0 15 37 05 bd b2 86 4c bd 89 d2 89 3d fd 42 e1 bb
       -0.032523233 -0.049933143 0.067296095 -0.0068744407
0000d0 d2 bd c0 3c b5 da a3 3d af 3a b2 3d 4d e2 88 bd
       0.023528013 0.080006994 0.08702599 -0.066837884
0000e0 60 5c af bd f5 bd 8b 3d 8f b3 a5 3c f9 d1 ac 3d
       -0.08562541 0.06823341 0.020227222 0.084384866
0000f0 92 8c 96 bd 25 60 3c 3c 51 1a 9a bc e7 9b bc bb
       -0.073510304 0.011497532 -0.018811377 -0.0057558897
000100 c5 ab 2e bd 04 04 12 3d 11 e5 1b bd cd b5 2c 3d
       -0.04264428 0.03564836 -0.03806025 0.042165566
000110 8c ce b1 bd d0 79 1a bd ba 27 98 bc 62 2f a0 bd
       -0.08681974 -0.037713826 -0.01857363 -0.078215376
000120 e4 c0 a0 3d d6 d2 d2 bc ef 89 48 bc e6 f0 a8 3c
       0.07849291 -0.0257353 -0.012239917 0.020622682
000130 bf cc 70 bc 5c c4 47 ba ef a9 75 bc 29 d0 9b 3c
       -0.014697253 -0.00076205074 -0.014994129 0.019020157
000140 c0 56 b2 bc 75 ca b4 3b 81 86 92 bd fd c0 99 bd
       -0.021769881 0.005517299 -0.07154561 -0.07507513
000150 40 40 8a bc 3d 64 1a bd 48 d7 9e bd 44 b0 9d bd
       -0.01687634 -0.03769325 -0.077559054 -0.076996356
000160 d4 56 24 3d 8d c8 93 3d 88 ce 93 bd 16 c0 e7 3c
       0.04012187 0.072159864 -0.07217127 0.028289836
000170 b3 43 aa bd 4e 88 e4 bc 32 05 e0 3c 94 9b 6c 3d
       -0.08313694 -0.027897026 0.027346227 0.05776556
000180 74 89 b2 ba 4b 09 a6 bd 90 f2 fd bc be 57 67 bd
       -0.0013621286 -0.08107241 -0.030999452 -0.05648016
000190 38 3e ad 3d 5a 22 13 bd b1 0e 35 3d 51 3d 37 3c
       0.08459133 -0.035921432 0.044203464 0.011184053
0001a0 3c da 3b 3d 61 0a 6e bb 9c 0e 08 3d 23 ca b4 3b
       0.04586242 -0.0036322104 0.033217058 0.0055172606
0001b0 2d 56 96 ba e8 35 6e 3d 1a 11 42 3d 2d 1d 63 3d
       -0.0011469774 0.058156878 0.04737959 0.055447746
0001c0 d3 e5 0e bb d1 c3 53 bb 7c 14 89 3d f1 78 89 bd
       -0.0021804466 -0.003231276 0.0669336 -0.06712521
0001d0 e8 47 9e 3c 81 2b 04 3c 9b 29 42 bd e6 39 4f bc
       0.019321397 0.008067013 -0.04740296 -0.012648081
0001e0 83 13 65 bd 64 bd 07 bd aa 58 f4 3c 81 86 25 3d
       -0.05592681 -0.0331396 0.029827435 0.040411476
0001f0 0f 6c da bc 5a d6 f5 bc 19 db c7 bc bb 19 db 3c
       -0.026662854 -0.030009437 -0.024396466 0.026745668

layers.4.weight f4 [128]
000000 31 e1 a3 3e 0e f4 6e 3e f3 18 45 3f 95 b3 67 3e
       0.32007745 0.23335287 0.76991194 0.22627099
000010 a5 6d 77 3e 69 a3 59 3f 1b 1d 02 3f 23 a2 9d 3e
       0.2416292 0.8501497 0.5082566 0.30787763
000020 4a 91 8e 3e 11 68 cd 3e e5 63 b5 3e 8e 3f 26 3f
       0.27845222 0.4011846 0.35427776 0.64940727
000030 e4 7a 1e 3e 28 36 ba 3e 34 f6 0f 3f 0b 08 48 3e
       0.15476567 0.36369443 0.5623505 0.19534318
000040 99 5e 79 3e 11 6b 16 3f ec ea 1f 3f b9 a9 82 3e
       0.24352492 0.5875712 0.6246784 0.25520113
000050 39 45 ad 3e 2c 51 fe 3e 82 a7 90 3e 44 3a 20 3f
       0.33841875 0.49671304 0.28252798 0.62588906
000060 b1 43 de 3e ca a7 88 3e 33 5e 88 3e 2a 19 05 3f
       0.4341102 0.26690513 0.26634368 0.5199152
000070 73 2e e0 3e 85 65 e2 3e 48 9e a7 3e b6 3f d5 3e
       0.43785438 0.44218078 0.32737947 0.4165017
000080 54 24 d0 3e 01 3c 90 3e e3 9f 25 3f 4a 45 e9 3e
       0.40652716 0.2817078 0.6469709 0.45560676
000090 48 88 f6 3e bf a5 0e 3e 93 7f 16 3f 01 f9 2e 3f
       0.4815085 0.13930415 0.5878841 0.683487
0000a0 55 bf 1b 3f ed 74 30 3f 4b fe eb 3e 43 77 55 3e
       0.60838825 0.68928415 0.46092448 0.20846276
0000b0 b0 0f 98 3e c7 fb 18 3e 1b 42 98 3e 30 fb e4 3e
       0.2969947 0.14939795 0.29737934 0.4472289
0000c0 e4 d3 f5 3e 2b 39 2d 3f 51 3a 77 3e cf a8 e8 3e
       0.48013222 0.67665356 0.2414334 0.4544129
0000d0 e1 04 43 3e 5b a3 a9 3e a6 94 93 3e 0a 37 54 3e
       0.1904483 0.33132443 0.28824347 0.2072412
0000e0 49 8e 19 3f ea 8c d5 3e 4d 28 14 3e a0 9d 8e 3e
       0.59982735 0.4170907 0.14468499 0.27854633
0000f0 e2 5a 0b 3f 15 5b 31 3e fb 7d a7 3e 11 43 e1 3e
       0.5443555 0.17319901 0.32713303 0.4399648
000100 37 39 01 3f 42 dd 13 3f 21 b9 b4 3e 36 f8 a6 3e
       0.5047793 0.5775949 0.35297492 0.32611245
000110 35 ad 3c 3f c0 f4 c6 3e 83 22 d1 3e f7 86 93 3e
       0.7370179 0.38858604 0.40846643 0.28813908
000120 65 14 89 3e f5 19 1a 3f 88 2f e9 3e 97 8d 5d 3e
       0.26773372 0.6019586 0.45544076 0.21636043
000130 75 e1 99 3e 72 57 33 3e 8a ce e2 3e ac 24 b9 3b
       0.30054823 0.17513826 0.44298202 0.0056501236
000140 25 00 3e b8 05 11 e0 3e fa 98 0b 3f 77 ac c5 bb
       -4.5299665e-05 0.43762985 0.545303 -0.0060325223
000150 e2 82 0d bb fb 50 7c 3e c3 fa 28 3e 3b 4a bc 3e
       -0.0021592905 0.24640267 0.16501908 0.36775383
000160 87 7b 22 3f 03 ae 25 3b 59 56 71 3e 5d 20 75 3e
       0.6346974 0.002528072 0.23568095 0.23938127
000170 70 15 7b 3e 5c 8d e9 3e e5 81 12 3e 3f 59 dc 3e
       0.24519897 0.4561566 0.14307363 0.4303684
000180 e0 95 c9 3e fe 26 ab 3e 33 2d 90 3e a0 6d 51 3e
       0.39372158 0.33428186 0.28159484 0.20451975
000190 9a 9c 6a 3e 63 06 0d 3b 9f 2a a5 3e 5a 14 c1 3e
       0.22911301 0.00215187 0.3225908 0.3771084
0001a0 4f e8 ea 3e 92 9d 38 3f 08 e6 cb 3e c5 36 fa 3e
       0.45880362 0.72115433 0.39823937 0.4886991
0001b0 73 8e 2f 3f 0d 5b 91 3e 80 c1 05 3f c4 0f 73 3e
       0.68576735 0.2838978 0.5224838 0.23736483
0001c0 6a 55 13 3f 83 e8 45 3e c2 ec 26 3f a3 11 d8 3e
       0.57552207 0.19326977 0.65205014 0.42200956
0001d0 cd 7b 9d 3e 46 fd c9 3e 81 6c a0 3e fa 17 6a 3e
       0.30758515 0.39451045 0.31332782 0.22860709
0001e0 dc de 81 3e 8c bc 01 3f 2d af d7 3e 85 dc bc 3e
       0.2536534 0.50678325 0.42125836 0.36886993
0001f0 13 3b c9 3e ac 5c 21 3e 93 f7 b7 3e b7 22 1b 3f
       0.39302883 0.15758008 0.35931072 0.60599846

layers.4.bias f4 [128]
000000 e7 ca c5 be 39 df 89 be e3 e2 e8 bd 06 15 7c bd
       -0.38631365 -0.26928118 -0.113714 -0.061543487
000010 e2 49 73 be e7 f4 a5 be 0b 6c 0a bf 7c 65 6c be
       -0.23758653 -0.32413408 -0.5407111 -0.23085588
000020 9a 10 f4 bc 83 54 27 bf ed 7a 85 be b1 e3 95 be
       -0.029793072 -0.6536333 -0.26070347 -0.29275277
000030 ff fe 54 be 9e 83 cb be a6 8b 73 be 72 ff 43 be
       -0.20800398 -0.39748853 -0.2378374 -0.19140413
000040 4a 14 6e be 70 fc 51 be 52 6a 01 be 17 5e 95 be
       -0.23249927 -0.20506454 -0.12638214 -0.29173347
000050 2a ca 19 bd 40 77 c5 be 34 02 24 be 4a 77 04 be
       -0.037546314 -0.38567543 -0.16016465 -0.1293613
000060 d8 f5 b2 be ee 9d 0d be c3 09 75 be 5d a7 be bd
       -0.3495319 -0.13829777 -0.23929505 -0.09309266
000070 70 35 7b be 8f 99 e1 bd db 80 38 be c9 0e c5 be
       -0.24532104 -0.11015617 -0.18017904 -0.38487843
000080 61 ad 0c bf 54 e6 85 be e0 46 33 be 31 7a 7e be
       -0.54952055 -0.2615229 -0.17507505 -0.248513
000090 b3 d9 cd be 84 24 10 be a8 af c9 be 3f 40 ad be
       -0.40205154 -0.1407643 -0.39391828 -0.33838078
0000a0 c6 9a 98 be b3 0c 64 be 9c ca ac be b6 27 c2 be
       -0.29805583 -0.2227047 -0.3374833 -0.37920922
0000b0 16 d0 ee be 1e e1 93 be 3e a6 0a bf 9c f7 58 be
       -0.46643132 -0.28882688 -0.54159915 -0.21188205
0000c0 85 e7 3a be d0 cc 8d be 76 8e 0c bf 58 a5 2b be
       -0.1825238 -0.27695322 -0.5490488 -0.16762292
0000d0 b3 1b 52 be 22 97 0d be 22 4c 25 bd 97 94 b1 be
       -0.20518379 -0.13827184 -0.04035581 -0.34683678
0000e0 f1 53 f5 bc 44 6b 25 3d 65 f4 79 be bb 5b 93 be
       -0.029947253 0.0403855 -0.24409635 -0.28780922
0000f0 2a b8 a9 be 18 ae af be 98 91 fb bd 9b d5 6d bd
       -0.3314832 -0.3431251 -0.12283629 -0.05806504
000100 84 2f 75 be 06 b5 20 bc 84 36 30 3e f2 4b df be
       -0.23943907 -0.009808784 0.17208296 -0.4361263
000110 e0 e6 e5 bd c4 60 51 3e be 4e 9d be aa cf 04 be
       -0.112256765 0.2044707 -0.30724138 -0.12969843
000120 39 24 91 be 3a fd d3 bd 66 b5 9d be 8f 0f 4a be
       -0.28347948 -0.103510335 -0.3080246 -0.19732498
000130 1f 2c 96 bd 35 66 51 be 14 61 d9 be 51 6c 15 bd
       -0.07332634 -0.20449145 -0.42456877 -0.03648025
000140 4b dc ad bc 35 09 00 bf ac 28 bc be dd 47 87 bd
       -0.021223208 -0.5001405 -0.3674978 -0.06605504
000150 20 68 e5 bb ca 72 52 be df 35 61 be 82 64 c9 be
       -0.007000938 -0.20551601 -0.21993206 -0.39334494
000160 96 44 50 be b0 34 47 bc b0 d3 e2 be 0f 6a a2 bd
       -0.20338663 -0.012158558 -0.4430213 -0.07930385
000170 04 8a ec be e8 28 5e be d1 4f 97 be c3 59 26 be
       -0.46199048 -0.21695292 -0.29553083 -0.16245179
000180 37 c2 3e be 55 d1 80 be 60 c3 55 be 25 6b 1f be
       -0.18628775 -0.25159708 -0.20875311 -0.15568216
000190 69 01 83 be e9 7a 23 bc 24 67 23 be 4f 1a 55 be
       -0.25587013 -0.0099780345 -0.15957314 -0.20810817
0001a0 9f 80 61 be a4 ab 55 bd dc 6c 78 bd 30 40 80 be
       -0.22021721 -0.052165642 -0.06065069 -0.2504897
0001b0 2a 2c a7 be fb de 9a bd 3a 0c c4 bc c9 67 a6 be
       -0.32650882 -0.075620614 -0.023931611 -0.32501057
0001c0 5e 5a c9 bd 18 dc dc be c3 0c c5 be 7a 37 ea be
       -0.09831689 -0.43136668 -0.384863 -0.4574545
0001d0 0e 45 d7 bd 9c 06 91 be bd 70 b2 be c3 01 c7 be
       -0.10511218 -0.28325355 -0.34851637 -0.38868532
0001e0 92 48 47 3d 10 31 dc be 54 1c 5c be 66 48 22 bf
       0.048653193 -0.43006182 -0.21495181 -0.6339172
0001f0 59 a3 c3 be c3 08 6a be ea 2b 31 bf ce d6 33 be
       -0.38210562 -0.22854905 -0.6920763 -0.1756241

layers.4.running_mean f4 [128]
000000 d2 41 15 bd 0f 90 b7 be 3c 71 00 bf b6 17 f5 be
       -0.036439724 -0.35852095 -0.5017278 -0.47869653
000010 67 9e 92 3d 47 ae d9 be 44 98 e8 be 8f 78 f2 be
       0.07159119 -0.42515776 -0.4542867 -0.47357604
000020 a7 c3 99 be ed 5c 81 3d 66 7e 61 be 09 60 59 be
       -0.30032083 0.06316552 -0.22020873 -0.21228041
000030 ee 78 b6 be d9 b3 67 bd f2 41 6e be 0d 47 dc be
       -0.35639137 -0.056568 -0.23267344 -0.43022957
000040 68 78 d3 3b e4 2d 09 be 35 e3 c0 be d9 f1 91 3e
       0.0064535625 -0.13396412 -0.37673345 0.28504828
000050 1e 22 b1 be 49 bf 31 bd b0 09 02 bf 19 b7 b4 be
       -0.34596342 -0.043395314 -0.5079603 -0.35295942
000060 7f 2d e1 3c 23 e1 cc be 7b 71 8f be 0b aa 11 be
       0.027487515 -0.40015516 -0.28016266 -0.14225022
000070 a3 3f d1 3c b1 4b 92 be 5b e4 ce be 1e d6 cc be
       0.02554304 -0.28573373 -0.40408596 -0.40007108
000080 78 57 d3 3c 66 9d 7a be e9 a8 f7 be f7 cb 8a be
       0.025798544 -0.24474105 -0.48371056 -0.27108738
000090 2f b5 c1 be 15 6b 4d 3e f0 50 2b bf 78 a7 90 be
       -0.37833545 0.2006038 -0.66920376 -0.2825277
0000a0 1b e5 c2 be 79 94 37 be aa 75 81 be b6 6a 12 3d
       -0.3806542 -0.17927732 -0.25285083 0.0357463
0000b0 ea c1 ee be f3 82 af be cb 4c 80 bd b4 f9 c5 bc
       -0.4663232 -0.34279594 -0.06264647 -0.02416692
0000c0 ac d9 39 bf 15 3f 02 be 01 74 14 3f 5c 89 d4 bd
       -0.72597766 -0.12719376 0.5798951 -0.10377762
0000d0 1b 60 3b be 91 ae 26 3d 62 e7 c3 3d e2 b0 2f 3e
       -0.1829838 0.040693823 0.09565617 0.17157319
0000e0 52 d9 c0 be 00 06 2e 3d d4 08 2c be 3a 3b be be
       -0.37665802 0.04248619 -0.16800243 -0.3715456
0000f0 cb 69 84 be df 55 cb 3d d1 c4 8d be 4c 63 0c 3e
       -0.25861964 0.09928488 -0.27689222 0.13709754
000100 71 6a b2 be c3 97 88 be a6 b2 aa be 8d 17 37 3e
       -0.34846833 -0.26678285 -0.33339423 0.17880078
000110 9b f8 3e bf 6a 8b b0 be 26 16 ee be 1e 6b 15 bf
       -0.7459809 -0.34481364 -0.46501273 -0.5836657
000120 0a e8 9a 3e 93 af 55 bc 2c a0 72 be e5 fb 88 bd
       0.30255157 -0.013042348 -0.23693913 -0.0668867
000130 7d 11 06 be 82 f2 5f bb aa 2d a7 3d ae 5d d9 3d
       -0.13092609 -0.0034171646 0.081630066 0.10613571
000140 75 d0 6e be 02 8d 84 be 9b 34 a8 be 2f 85 cd bd
       -0.23321708 -0.2588883 -0.32852635 -0.100351684
000150 e8 74 18 3e b2 c6 cc 3e d2 6e d9 be 7e 33 70 be
       0.14888346 0.39995342 -0.42467362 -0.23457143
000160 13 f7 f7 be 0d 0a b8 3d 7f 18 ba be 66 78 1e be
       -0.4843069 0.08986292 -0.36346814 -0.15475616
000170 4d 41 b9 3e 31 32 53 bd d0 9e 06 3f 96 4d eb be
       0.36182633 -0.051561538 0.5258608 -0.4595763
000180 51 50 24 bf 3b 01 84 3e 44 a0 e2 bd bf 5a b8 be
       -0.64185053 0.2578219 -0.110657245 -0.36006734
000190 53 ce e7 bd 38 f7 a7 bd fd f6 a0 be 26 5b 47 be
       -0.1131865 -0.0820145 -0.31438437 -0.19468364
0001a0 19 0b cf be 52 af 9a be 1b 0f 79 be 84 29 7a be
       -0.40438154 -0.30211884 -0.24322169 -0.244299
0001b0 7d eb ac be 6d 04 0d be d9 83 6a be a9 d6 46 bd
       -0.33773413 -0.1377122 -0.22901858 -0.04854456
0001c0 d5 57 94 be 26 67 97 be 95 4f 24 be ac 11 0e be
       -0.2897326 -0.29570884 -0.16045983 -0.13873929
0001d0 21 a2 bb be bb ae c0 be b6 4a 2a be d8 32 dc be
       -0.36647132 -0.3763331 -0.16630062 -0.4300754
0001e0 19 7f 07 bf 2e 0b 51 3e 27 35 8b bd 08 da 97 bd
       -0.5292831 0.20414421 -0.067972474 -0.07414633
0001f0 fc cc bb be e6 cd 8d 3e a2 f0 26 3e 37 a3 40 bf
       -0.36679828 0.2769615 0.16302732 -0.75249046

layers.4.running_var f4 [128]
000000 87 c5 bd 3d 22 15 7c 3d 23 65 5d 3e aa 5b e0 3d
       0.09266191 0.06154359 0.21620612 0.109549835
000010 25 52 aa 3d 66 c6 3f 3e bd 01 6a 3e 2a b0 6a 3e
       0.08316449 0.18728027 0.22852226 0.22918764
000020 d8 cd 56 3e c2 d1 55 3d 61 f3 71 3e 1c b3 1d 3e
       0.2097696 0.052201994 0.23627998 0.15400356
000030 9e e1 83 3d 62 1e 43 3d 71 a0 46 3e 4a d8 17 3e
       0.064395174 0.047636397 0.19397141 0.14828601
000040 98 73 ac 3d 4f 5d fa 3d fa cd 47 3e 9a 13 59 3d
       0.08420485 0.122248285 0.19512168 0.05299721
000050 e7 f4 7c 3e d8 8e 0a 3e 3a 70 96 3e 94 4b bd 3d
       0.24702798 0.13531053 0.29382497 0.09242931
000060 61 53 c7 3d a2 e1 a6 3e 53 fc d8 3d b0 09 28 3e
       0.097327 0.3259402 0.10595002 0.16409945
000070 81 ea d3 3d 24 e3 e2 3d db da 2d 3e b3 90 22 3e
       0.103474624 0.1107848 0.16978018 0.15875511
000080 99 f6 80 3d 3b d8 d1 3d 2f c1 e3 3e 33 26 49 3e
       0.06297035 0.10246321 0.44483325 0.19643478
000090 25 33 64 3d 57 2a af 3d a0 39 0a 3e 13 29 63 3e
       0.055712838 0.085529976 0.13498545 0.22183637
0000a0 aa 10 85 3e 02 77 5b 3e b4 95 0a 3e 06 5d 50 3d
       0.25989276 0.21432117 0.1353367 0.050869964
0000b0 01 57 92 3d ca b6 a9 3d bf 50 92 3d 18 b4 47 3e
       0.07145501 0.08286817 0.07144307 0.19502294
0000c0 4a e2 16 3e f0 5a 41 3e ed 4e db 3d 61 41 f0 3d
       0.1473476 0.18882346 0.10708413 0.1173122
0000d0 6b 30 be 3d 47 3e 1a 3e 52 b9 b9 3d c6 85 2b 3d
       0.09286579 0.1506282 0.0906855 0.041875623
0000e0 19 f2 14 3e d5 46 1b 3e 02 8f 83 3d d3 c0 ef 3d
       0.14545478 0.15163739 0.06423761 0.117067
0000f0 b6 50 37 3e bd 64 58 3d 4e c0 e1 3d ae 44 bf 3d
       0.17901883 0.052830447 0.11023007 0.093392715
000100 d5 f8 32 3e 05 7d 36 3e e9 69 8f 3e d1 73 92 3d
       0.17477734 0.17821129 0.2801049 0.071509965
000110 14 12 33 3e a2 9d 38 3e 6a cd bb 3e d6 c8 3c 3e
       0.17487365 0.18028882 0.36680156 0.18435988
000120 71 cf c9 3d cf 86 35 3e a5 ee 05 3e 01 e4 b6 3d
       0.098540194 0.17727207 0.13079317 0.08930207
000130 99 28 e9 3d fe 51 95 3d f7 c7 05 3e 77 51 67 3c
       0.113846965 0.072910294 0.13064562 0.014118544
000140 7d f9 5b 3c ce 56 cd 3d 29 26 cd 3d 2a 28 18 3d
       0.013426182 0.10026322 0.10017044 0.03714768
000150 e3 b2 13 3c 6d 6d 95 3d 8d 3a c7 3d 8d e9 5c 3d
       0.009014818 0.07296262 0.097279646 0.05393367
000160 59 82 32 3e fd af c5 3c 93 67 79 3d 29 53 80 3e
       0.17432536 0.02413177 0.06088979 0.25063446
000170 74 14 ae 3d fc 48 ac 3d a3 3f 03 3e 2d 43 80 3e
       0.08499995 0.08412358 0.12817244 0.2505125
000180 5b a3 5a 3e 59 ab 19 3e 04 85 a2 3d d6 84 d2 3d
       0.21351378 0.1500677 0.07935527 0.10279243
000190 c9 14 86 3d c5 59 c9 3c 4d de bf 3d 5f a0 d4 3d
       0.06546933 0.024578938 0.093685724 0.10382151
0001a0 75 0a 91 3e e2 a4 f9 3d f3 f6 f4 3d d4 16 ee 3d
       0.2832829 0.12189652 0.11961164 0.11625448
0001b0 17 f7 b6 3e 6e ff 38 3e 3e 3c 30 3e 7b 0a 3a 3d
       0.3573539 0.18066189 0.1721048 0.04542015
0001c0 a8 ab 81 3e 1e 04 5c 3d 72 05 b5 3d 0e 69 44 3e
       0.25326276 0.053714864 0.08838929 0.191807
0001d0 04 2d 76 3e 1c 64 9a 3d 4e a2 ba 3d ca 6e b0 3d
       0.2404061 0.075386256 0.091129884 0.08614881
0001e0 89 3b 17 3e 56 17 3a 3e c9 57 4f 3e 17 d6 a6 3d
       0.14768805 0.18172964 0.20248331 0.08146303
0001f0 ab f3 03 3e 9f a5 30 3d d4 cd 2d 3d 79 d7 d1 3e
       0.1288592 0.0431267 0.04243262 0.40984705
