results/checkpoint_0_actor_local.pt (torch_old, 28074 bytes, 14 tensors)

layers.0.weight f4 [64, 24]
0	0x3e3a55fe	0.18196866
1	0x3e186057	0.148805
2	0xbd0906b0	-0.033453643
3	0x3e57bff8	0.21069324
4	0x3ea016e9	0.3126748
5	0xbdae6ded	-0.085170604
6	0x3c8fae89	0.01753928
7	0x3deca366	0.11554603
8	0x3da1694f	0.07881414
9	0x3c8d87c2	0.017276648
10	0x3bb30501	0.005463243
11	0x3cff6209	0.031174676
12	0xbe5c0e38	-0.21489799
13	0x3e7c72c0	0.24653149
14	0xbc030d98	-0.0079988465
15	0x3d96aa7a	0.073567346
16	0x3e8d750d	0.27628365
17	0xbe13c6e1	-0.14431335
18	0xbdef81b4	-0.11694661
19	0xbd68d422	-0.05684293
20	0xbf031f8a	-0.5122
21	0x3ed6473d	0.41851225
22	0x3deff713	0.117170475
23	0xbe368117	-0.17822681
24	0x3db4524a	0.08804758
25	0x3efad360	0.4898939
26	0x3d09c190	0.03363186
27	0x3dc1a635	0.094555296
28	0x3e26d9b1	0.1629398
29	0xbee30510	-0.443398
30	0xbbd04f2e	-0.006357095
31	0x3e1aa2ae	0.1510112
32	0x3e0fc547	0.14040099
33	0x3f2e10dd	0.6799448
34	0xbd1a07f1	-0.03760523
35	0x3e24fbf6	0.1611174
36	0x3e3ea41b	0.18617289
37	0xbe49b606	-0.19698343
38	0x3d4cca1c	0.049997434
39	0x3dc17b62	0.094473615
40	0x3c215562	0.009847017
41	0x3f013985	0.5047839
42	0xbd4bf3bf	-0.049793
43	0xbe870372	-0.26369816
44	0x3e21a0f3	0.15784054
45	0x3ee4d15f	0.44690987
46	0xbbdad7c0	-0.0066785514
47	0xbec52caa	-0.38510638
48	0x3e45f1dd	0.19330545
49	0x3d2da8f8	0.04239747
50	0x3d113d86	0.035459064
51	0xbdab465e	-0.08363031
52	0xbd373eb0	-0.044737518
53	0x3e35e405	0.17762764
54	0xbd362c08	-0.044475585
55	0xbdd52d78	-0.10409063
56	0x3ec35c42	0.38156325
57	0xbd504af9	-0.05085275
58	0xbd8baedc	-0.06820461
59	0xbc75b5ff	-0.0149970045
60	0xbe2262eb	-0.15858047
61	0x3e96d2df	0.29457757
62	0x3d8ddea7	0.06927233
63	0xbd86b6fd	-0.06577871
64	0x3e83d3df	0.25747582
65	0xbe253c8a	-0.16136375
66	0x3d0232aa	0.0317866
67	0x3e98c06b	0.29834303
68	0xbe81c2bc	-0.25343883
69	0x3f0a3627	0.5398888
70	0x3cf12324	0.029435702
71	0x3e93e482	0.28885275
72	0x3c7295d1	0.014806227
73	0x3c8c617b	0.017136326
74	0xbd1ca322	-0.038241513
75	0xbd8532e1	-0.06503845
76	0x3efdd2a8	0.4957478
77	0x3db4ecaa	0.088342026
78	0x3c9fa00f	0.019485502
79	0x3cab6349	0.020921366
80	0x3e0ba380	0.13636589
81	0xbc43fd31	-0.011962221
82	0xbc9a94a3	-0.018869704
83	0xbd10d6e9	-0.035361204
84	0x3f1043bb	0.5635335
85	0x3da885f7	0.08228677
86	0x3cd4837b	0.025941601
87	0xbdc54278	-0.096318185
88	0x3e40d8a6	0.18832645
89	0xbd7ae03c	-0.061249003
90	0x3bd5abfa	0.0065207453
91	0x3b239015	0.0024957706
92	0x3f002ea3	0.5007116
93	0x3ea69c65	0.32541195
94	0xbd351a6c	-0.04421465
95	0xbe22562c	-0.15853184
96	0xbd409f70	-0.04702705
97	0xbe8f785c	-0.28021514
98	0x3c1df9e0	0.009642094
99	0xbc4bdff0	-0.012443528
100	0x3e94dd44	0.29075062
101	0xbe8a7bcc	-0.27047575
102	0xbc1bd0a3	-0.009510192
103	0x3cda62e6	0.026658487
104	0x3d4bcd71	0.04975647
105	0xbe4c60e0	-0.1995883
106	0xbbfa043a	-0.0076298984
107	0xbdb6dec4	-0.08929208
108	0xbe564e50	-0.20928311
109	0x3d6085c9	0.054815087
110	0x3c078e43	0.008273664
111	0x3d42912e	0.047501735
112	0x3e0a829c	0.13526386
113	0xbea1c12f	-0.315927
114	0x3d0e9814	0.034813
115	0xbda75470	-0.08170402
116	0xbec62e90	-0.387074
117	0x3f258b8c	0.64666057
118	0xbd037163	-0.032090556
119	0xbcd23338	-0.025659189
120	0xbe01f1df	-0.12689923
121	0x3ef4bd35	0.47800604
122	0xbd939691	-0.07206453
123	0x3d254f20	0.040358663
124	0x3ca54627	0.020175053
125	0xbf6db1e2	-0.9284955
126	0x3d8d0abf	0.06886815
127	0xbbf7b105	-0.007558944
128	0xbde19e94	-0.110165745
129	0x3e9cf1ad	0.30653134
130	0x3d86bc5d	0.06578896
131	0xba97f125	-0.0011592252
132	0x3aaa3e05	0.0012988454
133	0xbebdcf07	-0.37072012
134	0xbdd39abd	-0.10332248
135	0x3e0ae3a3	0.13563399
136	0xbe7d8ebf	-0.24761485
137	0x3e60069d	0.21877523
138	0xbd4e954a	-0.050435342
139	0xbdb3c9b5	-0.08778707
140	0xbdb723fb	-0.089424096
141	0x3e711d31	0.23546292
142	0x3d2206f4	0.039557412
143	0xbe8fb1a6	-0.28065223
144	0xbde1bf76	-0.110228464
145	0x3ea689ab	0.32526907
146	0x3c6ea2ec	0.014565211
147	0x3e54d622	0.2078481
148	0xbd976b84	-0.07393554
149	0xbdafca77	-0.08583539
150	0xbd3471c1	-0.044053797
151	0x3d304d8e	0.043042712
152	0x3df1751c	0.11789915
153	0x3e87b5ba	0.26505834
154	0x3d867f25	0.0656722
155	0x3dace94e	0.08442937
156	0x3e9b8f58	0.303828
157	0x3d098d50	0.03358203
158	0xbd94cfc1	-0.072661884
159	0x3d3ce2f8	0.04611489
160	0x3dfc9662	0.12333371
161	0x3e8e70fe	0.2782058
162	0x3db38b2d	0.0876678
163	0xbe25e8ef	-0.16202138
164	0x3e34e207	0.17664348
165	0x3f6e927f	0.93192285
166	0xbda77475	-0.08176509
167	0xbe8d3df8	-0.2758634
168	0x3e122346	0.14271268
169	0xbe5479a6	-0.2074953
170	0x3b634883	0.0034680672
171	0xbe2e41c6	-0.17017278
172	0x3e33cba8	0.17558157
173	0xbf11fb1b	-0.5702378
174	0x3cac82dc	0.021058492
175	0xbd0b47ff	-0.034004208
176	0x3e2c9289	0.16852774
177	0xbe4ae8a7	-0.19815312
178	0xbd252e7e	-0.04032754
179	0x3dec2bf9	0.115318246
180	0xbe25872a	-0.16164842
181	0xbce1b47b	-0.02755188
182	0xbcd3f6c1	-0.025874497
183	0x3da64187	0.08117967
184	0xbc38dbb8	-0.011282854
185	0xbdf9e678	-0.122021616
186	0xbcc1147e	-0.023569342
187	0x3e9889f7	0.2979276
188	0xbe81fb47	-0.25387022
189	0x3efc7d8c	0.49314535
190	0xbdfea3bf	-0.12433576
191	0x3e6c8d93	0.23100881
192	0xbcf8c06b	-0.03036519
193	0x3d0037ac	0.031303093
194	0x3db389b0	0.08766496
195	0xbe60650e	-0.2191355
196	0x3e032dc0	0.12810421
197	0xbf3f3592	-0.74691117
198	0xbb66e6b4	-0.0035232725
199	0xbe4729ff	-0.19449614
200	0x3c33a937	0.010965637
201	0xbd380c8f	-0.04493385
202	0xbccd3449	-0.025049346
203	0x3dcaf480	0.09909916
204	0x3dcc7dd3	0.099849366
205	0xbf274abb	-0.65348405
206	0x3dacf1ac	0.08444533
207	0x3bafc1ff	0.0053637023
208	0x3d8dc274	0.069218546
209	0x3cb275dc	0.021784715
210	0x3d8bc714	0.068250805
211	0xbde053bb	-0.1095347
212	0x3e6ae6bc	0.2293958
213	0xbf0bf5d4	-0.5467198
214	0xbd1be744	-0.03806235
215	0xbdac9663	-0.084271215
216	0x3e7722b4	0.24134332
217	0xbcadd1e8	-0.021218255
218	0x3d403745	0.04692771
219	0x3d9532ab	0.07285055
220	0xbd9fe702	-0.07807733
221	0xbe292aca	-0.16520229
222	0xbd98d202	-0.07461931
223	0xbb7e8f66	-0.0038842796
224	0xbc0d8e2a	-0.008639852
225	0xbdb4e1b6	-0.088321134
226	0x3c6054b9	0.013692074
227	0x3e3686fe	0.17824933
228	0xbef50d1b	-0.4786156
229	0xbdd808c0	-0.10548544
230	0xbb3bf80f	-0.002868179
231	0x3de1abbb	0.11019083
232	0xbdfb4756	-0.122694656
233	0xbe588e13	-0.21147947
234	0xbc8ef226	-0.01744945
235	0xbd9ed30f	-0.077551
236	0xbf13e9a9	-0.5777841
237	0x3d5c2782	0.053748615
238	0xbd73dabf	-0.059534784
239	0xbc045360	-0.008076519
240	0x3d017b42	0.03161169
241	0xbe87d2fb	-0.26528153
242	0xbe0559b7	-0.13022505
243	0x3d6ada4e	0.057337098
244	0xbd256ab9	-0.04038498
245	0xbf3b1d01	-0.7309113
246	0x3dd8f9d0	0.10594523
247	0xbd9135b7	-0.070903234
248	0x3c7eb002	0.015544893
249	0xbdba93b7	-0.091102056
250	0xbdb69fa5	-0.089171685
251	0xbe1c5aa5	-0.15268953
252	0x3df09c66	0.11748581
253	0xbef8b04a	-0.48571998
254	0x3daf477f	0.08558559
255	0xbe063237	-0.13105093

layers.0.bias f4 [64]
0	0x3e490a64	0.1963287
1	0xbdb013c6	-0.085975215
2	0xbe2d2eae	-0.16912338
3	0xbda7f1b6	-0.082003996
4	0x3de4d5a4	0.11173561
5	0x3dd77c1a	0.10521717
6	0x3e28917e	0.16461751
7	0xbdbff102	-0.093721405
8	0x3cae3c9d	0.021269137
9	0x3e47299b	0.19449465
10	0x3e1f6b33	0.15568237
11	0x3e17e7ff	0.14834593
12	0x3c1f5b9d	0.009726432
13	0x3e41c4f6	0.18922791
14	0xbe3d04d2	-0.1845887
15	0xbe014423	-0.12623648
16	0x3da4face	0.0805565
17	0x3d57bf34	0.05267258
18	0xbe187bbc	-0.14890951
19	0x3dd6a3c5	0.10480455
20	0xbe0e1cc0	-0.13878155
21	0xbe040c03	-0.12895207
22	0x3df9f888	0.12205607
23	0x3e466d09	0.19377531
24	0xbe381290	-0.17975831
25	0x3d1746b3	0.03693266
26	0xbc71e936	-0.0147650745
27	0xbe4ef846	-0.20211896
28	0xbe40add2	-0.18816307
29	0x3e111fb0	0.14172244
30	0xbdc329e4	-0.095294744
31	0x3dee7c74	0.11644831
32	0xbdaac8a0	-0.083390474
33	0x3dcbf4d7	0.09958809
34	0xbdd098fc	-0.101854295
35	0x3e14b6e8	0.14522898
36	0x3d1e2f50	0.03861934
37	0x3e419950	0.1890614
38	0x3c555f64	0.013023231
39	0xbe1f9f72	-0.15588167
40	0x3b0d22c2	0.002153561
41	0xbe071505	-0.13191612
42	0x3e3c52af	0.18390916
43	0xbe3061c0	-0.17224789
44	0x3e1b0a4c	0.15140647
45	0x3dee46bd	0.11634586
46	0xbd316220	-0.04330647
47	0xbe07e3df	-0.1327052
48	0x3da659d3	0.08122601
49	0xbd840c95	-0.06447712
50	0x3e0b4345	0.1359988
51	0x3df7a732	0.12092437
52	0xbe3ffa74	-0.18747884
53	0xbd0bf54f	-0.03416949
54	0xbc708a0a	-0.014681349
55	0x3ddfc210	0.10925686
56	0xbdbd8756	-0.09254329
57	0xbdbe8411	-0.093025334
58	0x3d96ec6e	0.07369314
59	0xbda98434	-0.08277169
60	0xbe416a51	-0.18888213
61	0x3cbbdff8	0.022933945
62	0x3dc59678	0.0964784
63	0xbc8bdfb9	-0.017074453

layers.1.weight f4 [64]
0	0x3edcc51a	0.43119127
1	0x3ef6be7d	0.48192206
2	0x3f0de729	0.5543085
3	0x3f415c4f	0.75531477
4	0x3f612802	0.8795167
5	0x3ea23f00	0.3168869
6	0x3ec66c21	0.3875437
7	0x3e900ee8	0.28136373
8	0x3e624c92	0.22099522
9	0x3f0218d6	0.50819147
10	0x3eb98529	0.36234406
11	0x3ec4da3f	0.3844776
12	0x3f0a27b2	0.5396682
13	0x3e7f0567	0.24904405
14	0x3f0180bf	0.50587076
15	0x3f034d7c	0.51290107
16	0x3ef78754	0.48345435
17	0x3efada3e	0.4899463
18	0x3ee948c7	0.45563337
19	0x3ec27c94	0.3798567
20	0x3e9e2ebb	0.30895028
21	0x3ed87107	0.42273733
22	0x3f5fa4f8	0.873611
23	0x3f50722b	0.81424206
24	0x3f67ae43	0.9050028
25	0x3f3616d7	0.711286
26	0x3f2a27e9	0.6646715
27	0x3ee491fb	0.44642624
28	0x3eb71e97	0.35765526
29	0x3f61df21	0.8823109
30	0x3e8d55b5	0.27604452
31	0x3ed80e0b	0.42198214
32	0x3e1b6ff8	0.15179431
33	0x3f0aa46c	0.5415714
34	0x3f11dcf3	0.56977767
35	0x3f07fc0e	0.5311898
36	0x3f1eea54	0.62076306
37	0x3e841dbf	0.25803944
38	0x3e62c7c8	0.22146523
39	0x3e9382ed	0.28810826
40	0x3e859d4d	0.26096573
41	0x3ed593ec	0.41714418
42	0x3f3e5318	0.7434554
43	0x3f2cfc89	0.6757284
44	0x3e84a20c	0.25904882
45	0xbe17551b	-0.14778559
46	0x3f0dc2c4	0.55375314
47	0x3e909e2a	0.2824567
48	0x3f20e4cf	0.62849134
49	0x3f3a2be4	0.7272322
50	0x3f3b35ee	0.73129165
51	0x3ebd4431	0.36966088
52	0x3f2d7205	0.67752105
53	0x3f269ac3	0.650799
54	0x3e86a993	0.2630125
55	0x3f34ae96	0.70578897
56	0x3dc39240	0.09549379
57	0x3f0c70fe	0.5485991
58	0x3f1ba845	0.60803634
59	0x3ead6518	0.3386619
60	0x3f5f17d2	0.8714572
61	0x3f11c2be	0.5693778
62	0x3f10b309	0.56523186
63	0x3eb14122	0.34620005

layers.1.bias f4 [64]
0	0xbe20567d	-0.15657993
1	0xbe8246e9	-0.25444725
2	0xbe719e5a	-0.23595563
3	0xbe3a2a22	-0.18180135
4	0xbea562e0	-0.32301998
5	0xbb818306	-0.003952387
6	0xbdfd7746	-0.12376265
7	0x3d260576	0.04053255
8	0xbe9941b7	-0.2993295
9	0xbe0914df	-0.13386868
10	0xbccee97f	-0.025257824
11	0xbe11d5dd	-0.14241739
12	0xbf0ac079	-0.5419994
13	0xbda9dde0	-0.082942724
14	0xbe987f34	-0.29784548
15	0xbee41b74	-0.44552195
16	0x3cada56e	0.021197047
17	0xbe57c2fe	-0.21070477
18	0xbe0dedb7	-0.13860212
19	0xbefb287a	-0.4905432
20	0xbe0bb649	-0.13643755
21	0xbe8bc8f1	-0.27301744
22	0xbf37d13c	-0.7180364
23	0xbd35cacd	-0.04438286
24	0xbeebe29f	-0.46071336
25	0xbe5a2e7a	-0.21306792
26	0xbeae4fdb	-0.340453
27	0xbe9d58cd	-0.30731812
28	0x3d781559	0.060567234
29	0xbee513c9	-0.44741657
30	0x3c76fc0f	0.015074744
31	0xbe6842ee	-0.22681782
32	0x3d835f16	0.064146206
33	0xbef3f3be	-0.47646898
34	0xbe4ecd6f	-0.20195554
35	0xbdb4da58	-0.08830708
36	0xbf09ad6c	-0.53780246
37	0xbe0db53a	-0.13838664
38	0xbd66f256	-0.056383453
39	0xbe913451	-0.28360227
40	0xbe35f1e5	-0.17768057
41	0xbf50b478	-0.81525373
42	0xbe17ef6e	-0.14837429
43	0xbee35618	-0.44401622
44	0xbc9cda8d	-0.019147182
45	0x3e3076e4	0.17232853
46	0xbed5357c	-0.41642368
47	0xbe2f9282	-0.17145732
48	0xbf187c60	-0.5956478
49	0xbe9f1309	-0.3106921
50	0xbed9f170	-0.42567015
51	0xbe4df352	-0.2011235
52	0x3c8c5b44	0.017133363
53	0xbeaf371d	-0.34221736
54	0xbf0f9515	-0.56086856
55	0xbf119bae	-0.56878173
56	0x3e8ce9bd	0.27522078
57	0x3e238696	0.15969309
58	0xbe3741e1	-0.17896225
59	0xbedfb43f	-0.43692204
60	0x3dd585fe	0.104259476
61	0x3db54cf9	0.08852572
62	0x3c91e653	0.017810022
63	0xbf1391ea	-0.5764452

layers.1.running_mean f4 [64]
0	0xc01a4cec	-2.410945
1	0xc0568061	-3.3515856
2	0xc05e3f9a	-3.472632
3	0xbfc05b31	-1.502783
4	0x3f1422c6	0.5786556
5	0x3eb52468	0.35379338
6	0x3f583733	0.8445923
7	0xc0385351	-2.8800852
8	0xc09b77c5	-4.8583703
9	0xbfa21b50	-1.2664585
10	0xbf961b1e	-1.1727026
11	0x4114bc25	9.295934
12	0x3e906cb3	0.2820793
13	0x411c021d	9.750516
14	0x3dab9dab	0.08379682
15	0xbd61573b	-0.05501483
16	0xbf877639	-1.0582954
17	0x3f349915	0.70546085
18	0xbe8b8aed	-0.2725443
19	0xbfb8c549	-1.4435207
20	0x3e164276	0.1467379
21	0x3f3e5c47	0.74359554
22	0x3f680298	0.9062896
23	0xbecfbb4b	-0.4057258
24	0xc01cd60b	-2.4505641
25	0xbffbb9b4	-1.9666047
26	0x3fc88156	1.566447
27	0xc01a9b1a	-2.4157166
28	0x3f861f78	1.0478354
29	0x3f6af04b	0.9177291
30	0xbf8497e8	-1.0358858
31	0xc0074fdc	-2.1142492
32	0x3fcbf0bb	1.593284
33	0x406a44dc	3.6604528
34	0xc023af49	-2.5575736
35	0x3efb5532	0.49088436
36	0xbfce8f9f	-1.613758
37	0xc0296a24	-2.6471033
38	0x3c68fee2	0.014220925
39	0xc08e522b	-4.4475303
40	0xc0e43760	-7.1317596
41	0xbfb049d3	-1.3772529
42	0x3f0092a7	0.50223774
43	0xc0cb6dcf	-6.3571544
44	0xc0aafb59	-5.343182
45	0xc0b6a71f	-5.7079005
46	0xc0cb47e9	-6.352528
47	0x40d1bb63	6.5541244
48	0xbfdeba5c	-1.7400622
49	0xbebfe72f	-0.37481067
50	0x3ecdf21c	0.40223777
51	0xc08752c8	-4.228855
52	0x3d656a16	0.056009375
53	0x3fd893cc	1.6920104
54	0xc0cc9d85	-6.3942285
55	0x40a638dd	5.1944413
56	0x40d9af8f	6.8026805
57	0x3faa8447	1.3321618
58	0x402d83fc	2.7111807
59	0x3f83aff8	1.0288076
60	0xbf304431	-0.6885405
61	0xc079fb9f	-3.9059827
62	0x3f9f8082	1.2461092
63	0xc0a902f2	-5.2816095

layers.1.running_var f4 [64]
0	0x41155f4b	9.335765
1	0x41c2f43b	24.369253
2	0x417eaf11	15.917741
3	0x42baf49d	93.47776
4	0x40b31dbd	5.59738
5	0x410f3f6f	8.952987
6	0x41723391	15.137589
7	0x418aff1a	17.374561
8	0x42073f68	33.81192
9	0x42436987	48.853054
10	0x410ea4a8	8.915199
11	0x41aae250	21.360504
12	0x40fdd644	7.9324055
13	0x41b042e9	22.032671
14	0x42fa2c86	125.08696
15	0x427525f9	61.287083
16	0x42829a4a	65.301346
17	0x402fa38b	2.7443569
18	0x421cd876	39.211388
19	0x42579f20	53.905396
20	0x41deb61f	27.838926
21	0x419ec326	19.845287
22	0x418f0896	17.879192
23	0x408bf655	4.37382
24	0x412e5f60	10.898285
25	0x4230dbac	44.214523
26	0x40cc1cc3	6.378511
27	0x42050980	33.259277
28	0x41bba1f4	23.454079
29	0x4140232c	12.008587
30	0x4182ebfe	16.36523
31	0x422ba3fc	42.91014
32	0x41e70f05	28.882334
33	0x423f1844	47.773697
34	0x419cd259	19.602709
35	0x4129bf91	10.609269
36	0x412ee198	10.930077
37	0x424d805a	51.375343
38	0x40ca8628	6.3288765
39	0x41a09403	20.072271
40	0x410158aa	8.0841465
41	0x415d8c8a	13.846811
42	0x412d26c7	10.821967
43	0x4179b69b	15.607081
44	0x41c4dd95	24.608194
45	0x4193e155	18.485025
46	0x41a20a6a	20.255085
47	0x421e6e23	39.607555
48	0x41a96706	21.175304
49	0x4231a6ca	44.41288
50	0x41084edb	8.519252
51	0x425e3ac2	55.55738
52	0x3fb9ec81	1.45253
53	0x41220b0e	10.127699
54	0x41af5514	21.916542
55	0x4269a083	58.40675
56	0x4160a1dc	14.039516
57	0x401e2d44	2.4715128
58	0x41891d5d	17.139338
59	0x4287787b	67.73531
60	0x40800624	4.0007496
61	0x412f2daf	10.948653
62	0x416285b6	14.157644
63	0x41270d22	10.440706

layers.3.weight f4 [64, 64]
0	0xbdb65568	-0.08903009
1	0x3d1a2555	0.03763326
2	0x3da6fb1a	0.081533626
3	0x3e2aa71a	0.16665307
4	0xbed130f3	-0.40857658
5	0x3e6e8aa6	0.23295078
6	0xbcccf8cc	-0.02502098
7	0x3db46093	0.088074826
8	0xbd3b56ab	-0.04573695
9	0x3c5d8b99	0.013522052
10	0x3e160f9a	0.14654389
11	0x3e15af38	0.14617622
12	0x3e0ba38a	0.13636604
13	0x3e88f400	0.26748657
14	0x3d92878d	0.071547605
15	0x3e4bb371	0.1989267
16	0xbe80f184	-0.25184262
17	0xbe8a4c15	-0.2701117
18	0x3e36256d	0.17787714
19	0xbdf7fe9e	-0.12109111
20	0xbcb2ef52	-0.021842632
21	0xbe0c6f9d	-0.13714452
22	0xbd1c71b0	-0.03819436
23	0x3d88b660	0.0667541
24	0x3d3d3dac	0.046201393
25	0xbe6d5866	-0.23178253
26	0xbd867071	-0.06564415
27	0xbe092ca4	-0.13395935
28	0xbec18b9e	-0.37801832
29	0x3df1f06f	0.11813437
30	0xbd5f4078	-0.05450484
31	0xbe3d78b8	-0.18503082
32	0x3d4a8abe	0.04944872
33	0x3daec0ce	0.08532868
34	0x3de35654	0.1110045
35	0x3e80392d	0.25043622
36	0x3e253fdf	0.16137646
37	0x3debfd01	0.11522866
38	0xbda514c7	-0.080606036
39	0x3e1dfa1c	0.1542744
40	0xbdbe6be0	-0.09297919
41	0x3edcb937	0.43110058
42	0xbe77c1d1	-0.24195029
43	0xbeb0655a	-0.34452325
44	0xbde9247b	-0.11383911
45	0xbe5af941	-0.21384145
46	0x3da944a2	0.08265044
47	0x3e475195	0.19464715
48	0x3ecb16c1	0.39665797
49	0xbdb95e56	-0.09051196
50	0x3da2eb0a	0.079549864
51	0x3b524605	0.0032085192
52	0x3e68796a	0.22702566
53	0xbe0c36d0	-0.13692784
54	0xbf39fe98	-0.72654104
55	0x3de02966	0.10945396
56	0xbd8e0f30	-0.069364905
57	0xbd715748	-0.05892113
58	0xbdb5403c	-0.08850142
59	0xbf2b276e	-0.6685704
60	0x3d8bce8c	0.06826505
61	0xbd82aca4	-0.06380585
62	0x3e22a9b4	0.15885049
63	0xbd0a19d4	-0.033716038
64	0x3d63e02c	0.05563371
65	0x3c14f741	0.009092153
66	0x3c9b015e	0.01892155
67	0x3e196f87	0.1498395
68	0x3bcb679d	0.00620742
69	0xbe617ecf	-0.2202103
70	0x3e0512a6	0.12995395
71	0x3cd89357	0.026437445
72	0x3efa31b0	0.48866034
73	0x3e7bc4b7	0.2458676
74	0xbb8e103e	-0.0043354323
75	0x3d3e8d6a	0.04652158
76	0x3d7627c5	0.06009652
77	0x3eac79d2	0.33686692
78	0xbcf10757	-0.029422445
79	0x3e5f7b9c	0.21824497
80	0x3db036de	0.08604215
81	0xbe188240	-0.14893436
82	0x3dfedf63	0.124449514
83	0x3d863bc9	0.06554372
84	0x3d73f34c	0.059558198
85	0x3d1860c0	0.037201643
86	0x3c16a59c	0.009194758
87	0x3dbd7af9	0.09251971
88	0x3e6aab7b	0.22916977
89	0xbe47ea3b	-0.19522946
90	0x3cc4811a	0.023987342
91	0x3cff06b1	0.03113112
92	0xbd7c7aea	-0.061640657
93	0xbebef3e0	-0.37295437
94	0x3e93de23	0.28880414
95	0xbe011d20	-0.12608767
96	0x3c89e2ef	0.016831843
97	0xbe331115	-0.17486985
98	0x3e517cfb	0.20457833
99	0x3e82a41c	0.2551583
100	0x3da1be57	0.078976326
101	0x3d019697	0.031637754
102	0xbd9f3291	-0.07773317
103	0xbe229173	-0.15875797
104	0xbdbfed47	-0.09371429
105	0xbc1b4788	-0.009477504
106	0x3ebddd70	0.37083006
107	0x3e3310f3	0.17486934
108	0x3df6984b	0.12040766
109	0xbda3921c	-0.079868525
110	0x3e44f1e0	0.19232893
111	0x3c9f67df	0.01945871
112	0x3d54bdf9	0.051938985
113	0x3e292d47	0.16521178
114	0x3d8df093	0.069306515
115	0xbdc6b1ed	-0.097019054
116	0x3e0c85df	0.13722943
117	0xbda0078d	-0.0781394
118	0xbdcab6d5	-0.09898154
119	0xbe8d8b26	-0.27645224
120	0xbd4e5306	-0.050372146
121	0x3e88c092	0.2670942
122	0x3e43d36f	0.19123624
123	0xbe8d9e0f	-0.27659652
124	0xbe5d5858	-0.21615732
125	0x3d22bbe8	0.039729983
126	0x3c8ad3d8	0.016946718
127	0x3d1640fe	0.036683075
128	0x3dc21f78	0.094786584
129	0x3e2d63b8	0.16932571
130	0x3bb60c5c	0.0055556726
131	0x3c955ef5	0.018233756
132	0xbeb732f4	-0.35781062
133	0xbd640671	-0.055670206
134	0x3e0330b3	0.12811546
135	0xbe891863	-0.26776418
136	0xbde281c8	-0.1105991
137	0x3c7df811	0.015501038
138	0x3e4c65e4	0.19960743
139	0x3e67829b	0.22608416
140	0xbcdda733	-0.027057266
141	0xbe7ea486	-0.24867448
142	0x3eaa1e9e	0.33226484
143	0x3e3db418	0.18525732
144	0xbe30d255	-0.17267735
145	0xbd72c8c7	-0.059273507
146	0xbe09a595	-0.13442071
147	0xbeb4a43d	-0.35281554
148	0xbde5bd03	-0.11217692
149	0x3b02a9b9	0.0019937588
150	0x3d1e691e	0.038674466
151	0x3e31760b	0.17330186
152	0xbda65d6e	-0.08123289
153	0xbd3c89fa	-0.046030022
154	0xbda93789	-0.082625456
155	0xbc1492b8	-0.009068184
156	0xbe5d5ef3	-0.21618252
157	0xbe4305a2	-0.19045117
158	0x3bcf9901	0.006335378
159	0xbd8ed7fe	-0.06974791
160	0xbe53c28f	-0.20679687
161	0xbcbae9e8	-0.022816613
162	0xbe015404	-0.12629706
163	0x3e70f7c3	0.23532014
164	0xbd8f61e6	-0.070010945
165	0x3d90b635	0.07066003
166	0x3b292bd4	0.0025813477
167	0x3e24f093	0.16107397
168	0x3cd9a9ab	0.026570162
169	0xbf3c70e2	-0.73609746
170	0xbc8d6de3	-0.017264312
171	0x3ae388c8	0.001735949
172	0x3e479f23	0.194943
173	0xbe1e2858	-0.15445077
174	0x3dcd84d4	0.100351006
175	0x3e4b698c	0.19864482
176	0xbe81fa7e	-0.25386423
177	0xbb43c0b9	-0.002986951
178	0xbe51097f	-0.20413779
179	0xbda4381d	-0.08018515
180	0x3d1550c9	0.036453996
181	0xbea9c77b	-0.33160004
182	0xbfa14771	-1.2599927
183	0xbe2301c5	-0.15918644
184	0xbdda9254	-0.10672441
185	0x3e1b9b58	0.15195978
186	0xbdb41b53	-0.08794274
187	0x3f04ad6d	0.51827127
188	0xbeb3c0e1	-0.35108092
189	0xbd0873fa	-0.03331373
190	0xbca2a314	-0.019853152
191	0xbefb916c	-0.49134386
192	0x3d55eb0e	0.05222612
193	0xbe1cc86d	-0.15310831
194	0xbeae73c0	-0.34072685
195	0xbc9b0b2e	-0.01892623
196	0x3dd26fa4	0.102752
197	0xbdfbe11e	-0.12298797
198	0xbee4b128	-0.4466641
199	0x3ec0a1d7	0.37623474
200	0x3daa5c53	0.08318391
201	0x3e41c913	0.1892436
202	0xbe1ab2ab	-0.15107219
203	0xbdaf2a8c	-0.08553037
204	0x3e3f37eb	0.18673675
205	0x3e669baf	0.22520326
206	0xbd5e056e	-0.054204397
207	0x3db5cc02	0.08876802
208	0xbd956abc	-0.072957486
209	0x3ea0e72c	0.3142637
210	0x3cdad698	0.026713654
211	0xbe8e4499	-0.2778671
212	0xbe7c91cf	-0.24664997
213	0xbdb0e932	-0.086382285
214	0x3c182f40	0.009288609
215	0x3e16dffc	0.14733881
216	0x3e0f461a	0.13991585
217	0xbea21cf9	-0.3166273
218	0x3dbc00ee	0.09179865
219	0xbe35ad1b	-0.17741816
220	0xbe332c7d	-0.1749744
221	0x3d71dacf	0.059046563
222	0xbd03814a	-0.03210572
223	0xbe84fd30	-0.25974417
224	0x3e1f7aac	0.1557414
225	0xbe543741	-0.20724203
226	0xbdbc6522	-0.09198977
227	0x3e72474d	0.23660012
228	0x3e038995	0.12845452
229	0xbd2af534	-0.04173775
230	0xbe5569da	-0.2084116
231	0xbdcd84b4	-0.10035077
232	0xbe2b665d	-0.16738267
233	0xbcbe1533	-0.023203468
234	0xbb63401a	-0.0034675659
235	0xbc9ee18f	-0.019394664
236	0xbd4290a7	-0.047501232
237	0xbee2cdea	-0.44297725
238	0xbe040358	-0.128919
239	0x3d7f781b	0.0623704
240	0x3c48e162	0.012260767
241	0xbd370233	-0.04467983
242	0x3cbc447a	0.02298187
243	0x3cfb51b6	0.030678611
244	0x3d42a35e	0.04751908
245	0x3e53715b	0.2064871
246	0x3e06116a	0.1309258
247	0xbe6d2e54	-0.23162204
248	0x3dad1f21	0.08453203
249	0x3dca38bf	0.09874105
250	0x3cc287ac	0.023746334
251	0x3ec5085f	0.3848295
252	0x3e2d553e	0.16927049
253	0xbe0b4059	-0.13598765
254	0x3e5c5a58	0.21518838
255	0xbc22fa14	-0.009947319

layers.3.bias f4 [64]
0	0x3dc609db	0.096698485
1	0xbc0de392	-0.008660214
2	0xbdc67ed9	-0.09692163
3	0x3d28c3d6	0.04120239
4	0xbb126502	-0.0022338037
5	0x3dd9d2f0	0.10635936
6	0xbdf65226	-0.12027387
7	0x3dcb4732	0.09925689
8	0x3dcb439b	0.09925004
9	0xbd8d0410	-0.068855405
10	0x3cbcd4f3	0.02305076
11	0x3da54930	0.080706
12	0xbdb2a011	-0.087219365
13	0xbd77a237	-0.060457435
14	0xbdc11e3b	-0.09429594
15	0xbde2a0d3	-0.11065831
16	0x3e00d543	0.12581353
17	0xbd02c586	-0.031926654
18	0x3d06cd7e	0.032910816
19	0x3c964886	0.018345129
20	0x3d6828e5	0.056679625
21	0xbd9c112e	-0.07620464
22	0xbd72f383	-0.059314262
23	0x3c58e11c	0.013237264
24	0xbdafba6a	-0.085804775
25	0xbcacfea5	-0.021117518
26	0xbc93187d	-0.017956013
27	0x3dbf7368	0.09348184
28	0xbdf9c3eb	-0.121955715
29	0x3d1e23fe	0.038608544
30	0xbdfcc844	-0.12342885
31	0xbd8aa030	-0.067688346
32	0x3c847dff	0.01617336
33	0xbde8083a	-0.11329694
34	0xbd6335ad	-0.05547111
35	0xbdc2305a	-0.094818786
36	0x3d466c48	0.04844311
37	0x3d240312	0.04004199
38	0x3dddb81e	0.10826133
39	0x3bb6322e	0.005560181
40	0xbdcc59d7	-0.09978073
41	0x3c6fe5ad	0.014642161
42	0xbc8d9295	-0.01728181
43	0xbca85c96	-0.02055196
44	0xbc8c8eba	-0.017157901
45	0x3da6aec8	0.08138806
46	0xbcab4349	-0.020906108
47	0xbca9c3de	-0.02072328
48	0x3cb80f31	0.022468181
49	0xbc284512	-0.010270374
50	0xbda8abba	-0.08235879
51	0xbd12bcef	-0.035824712
52	0x3dc7e8f8	0.09761232
53	0xbdd52837	-0.10408061
54	0xbcc5be7f	-0.024138687
55	0xbd0653c1	-0.032794718
56	0xbdb2db4b	-0.08733233
57	0x3de2fac1	0.11082984
58	0xbd8b410e	-0.067995176
59	0xbcbb7113	-0.022881066
60	0xbd0e0dd5	-0.03468116
61	0x3d59ef45	0.0532067
62	0x3c29ecee	0.01037143
63	0xbd6ea0d8	-0.05825886

layers.4.weight f4 [64]
0	0x3f7c3dc9	0.98531777
1	0x3fac5fc3	1.3466724
2	0x3f1104cf	0.5664796
3	0x3f2f8596	0.6856321
4	0x3fcf6008	1.6201181
5	0x3f99021f	1.1953772
6	0x3fa528ec	1.2903113
7	0x3fc0e1a0	1.5068855
8	0x3f7b4660	0.9815426
9	0x3fa38d56	1.2777507
10	0x3f9d8a2d	1.2307793
11	0x3f40ffb3	0.75390166
12	0x3fc9ec7c	1.5775294
13	0x3fcdea6b	1.6087164
14	0x3fb8ca2d	1.4436699
15	0x3f1d4fad	0.614497
16	0x3fde59ef	1.7371196
17	0x3fa7f27a	1.3120873
18	0x3fc9032b	1.5704092
19	0x3fa4048b	1.2813886
20	0x3fa39720	1.2780495
21	0x3fa7666f	1.3078135
22	0x3fcbf980	1.5935516
23	0x3fc7e261	1.561596
24	0x3fa19fec	1.2626929
25	0x3fb85e84	1.4403844
26	0x3fbba382	1.4659274
27	0x3f8f4d63	1.1195492
28	0x3f9b6a68	1.2141848
29	0x3fd4bf1a	1.662082
30	0x3f86a463	1.0518917
31	0x3f89c48e	1.0763109
32	0x3ff50d28	1.914464
33	0x3f85b3e2	1.0445521
34	0x3f913a3e	1.1345899
35	0x3f866f27	1.0502671
36	0x3f765f83	0.9623949
37	0x3f37ab64	0.71745896
38	0x3fcc9347	1.5982445
39	0x3fc3c46d	1.5294319
40	0x3fa99706	1.3249214
41	0x3fc404be	1.5313947
42	0x3f7fdce8	0.9994645
43	0x3fa3306a	1.274915
44	0x3f8916a0	1.071003
45	0x400068c1	2.0063937
46	0x3f9588bc	1.1682353
47	0x3effdd5c	0.4997357
48	0x3fc9ab84	1.5755467
49	0x3f1eddad	0.62057
50	0x3fa25740	1.2682877
51	0x3f9662d0	1.1748905
52	0x3f9b0e0a	1.2113659
53	0x3fe3dcb2	1.7801726
54	0x3fc18c4b	1.5120939
55	0x3f9e95b1	1.2389432
56	0x3f5e0fa5	0.8674262
57	0x3f6b83d0	0.91998005
58	0x3fde5132	1.7368529
59	0x3f9dff8b	1.234361
60	0x3fdb2d7a	1.7123253
61	0x3fa601b8	1.2969275
62	0x3fa37de4	1.2772794
63	0x3f8dfa97	1.1092099

layers.4.bias f4 [64]
0	0xbd3454f3	-0.044026326
1	0xbf0ab511	-0.54182535
2	0x3e39e2ea	0.18152967
3	0x3d64e8a4	0.055885926
4	0x3d67d291	0.056597296
5	0xbefaf13c	-0.49012172
6	0xbf3cf037	-0.7380404
7	0xbec2786c	-0.379825
8	0xbe5857ed	-0.21127291
9	0x3d33e655	0.043920834
10	0xbf46fd54	-0.777303
11	0x3ea35103	0.31897745
12	0xbf0baa9e	-0.54557216
13	0xbebf22db	-0.3733128
14	0xbeea65e9	-0.45780876
15	0x3d6b3818	0.057426542
16	0xbf5d194e	-0.86366737
17	0xbefeed2b	-0.4979032
18	0xbea6d02a	-0.32580692
19	0x3c9f5d1c	0.019453578
20	0xbeafc009	-0.343262
21	0xbd52f432	-0.051502414
22	0xbeb0f337	-0.34560558
23	0x3e24d274	0.16095906
24	0xbeaed2ca	-0.34145194
25	0x3e96dd5d	0.29465762
26	0xbea01b9c	-0.31271064
27	0xbf240cdf	-0.6408214
28	0x3e7ab0d5	0.24481519
29	0xbec8a6e5	-0.3918983
30	0xbeb5ab26	-0.35482138
31	0xbe4e9a54	-0.20176059
32	0xbd6cb921	-0.05779374
33	0xbeac1537	-0.33609936
34	0xbe50df94	-0.20397788
35	0xbe80d048	-0.25158906
36	0xbf06860f	-0.5254831
37	0x3e0fe1ee	0.14051029
38	0xbf1b6655	-0.6070302
39	0xbbd4938a	-0.0064873146
40	0xbf11b210	-0.56912327
41	0x3c945c84	0.018110521
42	0x3dceec9d	0.10103724
43	0x3ed31577	0.41227314
44	0xbe7c8918	-0.24661672
45	0xbccf090c	-0.025272869
46	0xbf18bd43	-0.5966379
47	0xbd8e4ee7	-0.06948643
48	0xbe378fe8	-0.1792599
49	0xbdbd9a7a	-0.0925798
50	0xbe34edd2	-0.17668846
51	0x3dd676ed	0.10471902
52	0xbe63867a	-0.22219267
53	0xbecde54f	-0.4021401
54	0xbec9a1cc	-0.39381254
55	0xbf04e1ef	-0.5190725
56	0x3e3cfd8b	0.18456094
57	0xbf38cae6	-0.721846
58	0x3dd1b611	0.102398045
59	0xbe67f242	-0.22651008
60	0x3eae4803	0.34039316
61	0xbca685c0	-0.020327449
62	0xbeb6a7c9	-0.35674885
63	0xbe8a4166	-0.2700302

layers.4.running_mean f4 [64]
0	0xbb26d841	-0.0025458487
1	0x3eb44c7a	0.35214597
2	0xbeef635f	-0.46755502
3	0x3d67a904	0.05655767
4	0x3edec149	0.4350684
5	0x3ea8bfd2	0.32958847
6	0xbd197417	-0.037464228
7	0xbc5a8941	-0.013338388
8	0x3e2cfd97	0.16893612
9	0x3d1c16a7	0.03810754
10	0xbe0766f8	-0.13222873
11	0xbef7ed7e	-0.4842338
12	0xbe9773fc	-0.29580677
13	0x3e15500c	0.14581317
14	0xbe0e2c40	-0.13884068
15	0x3e14b816	0.14523348
16	0x3f0f9402	0.56085217
17	0x3ea7384e	0.32660145
18	0x3e40ed2f	0.18840478
19	0x3e89cd39	0.26914385
20	0x3df7f012	0.12106337
21	0xbe255ba7	-0.16148244
22	0xbeb71084	-0.35754788
23	0xbd03682f	-0.03208178
24	0x3c75a48b	0.014992843
25	0xbe116f4d	-0.14202614
26	0xbdf52bff	-0.11971282
27	0x3e373ce2	0.17894319
28	0xbf16117a	-0.5862042
29	0xbdf4fe1d	-0.11962531
30	0x3d1f38b9	0.038872454
31	0xbf185eea	-0.5951983
32	0xbd856140	-0.065126896
33	0xbe787682	-0.24263957
34	0xbc920e51	-0.017829092
35	0x3f03fbf1	0.5155631
36	0x3db8890b	0.09010514
37	0x3da7fcc4	0.08202508
38	0xbe49f11c	-0.19720882
39	0xbe8a2c1b	-0.26986775
40	0xbce8a7aa	-0.028400261
41	0x3eff017c	0.4980582
42	0xbdec6675	-0.1154298
43	0xbf07cb86	-0.5304493
44	0xbe7230bc	-0.23651403
45	0xbdd41091	-0.10354722
46	0xbe96a231	-0.29420617
47	0xbeaaf332	-0.33388668
48	0xbebbaef0	-0.36656904
49	0xbe76077a	-0.2402629
50	0x3f006d68	0.5016694
51	0xbed287e1	-0.41119292
52	0x3ef3b53c	0.47599208
53	0x3e8a4ed5	0.2701327
54	0xbddcdac8	-0.10783917
55	0x3dd27e2f	0.10277974
56	0xbe6b8a09	-0.23001875
57	0x3f184f87	0.5949635
58	0x3d1d43b7	0.038394656
59	0x3e242926	0.16031322
60	0xbdf33d9a	-0.11876984
61	0xbcce4468	-0.025179103
62	0x3e1f4c0f	0.15556358
63	0x3e731bcf	0.23741077

layers.4.running_var f4 [64]
0	0x3dc012a2	0.09378554
1	0x3dd50782	0.104018226
2	0x3e162613	0.14662962
3	0x3e311a14	0.17295104
4	0x3e08b50d	0.13350315
5	0x3e45d965	0.1932121
6	0x3dca19fd	0.09868238
7	0x3dca8ecc	0.098905176
8	0x3e326d92	0.1742461
9	0x3e35f158	0.17767847
10	0x3e0dcc53	0.13847475
11	0x3e09dfca	0.13464275
12	0x3dc3b503	0.095560096
13	0x3e34fb77	0.17674051
14	0x3dd61484	0.10453132
15	0x3e34013b	0.17578594
16	0x3d7baa69	0.061441813
17	0x3d8c985d	0.068649985
18	0x3e0f05b7	0.13967024
19	0x3d37d08f	0.04487663
20	0x3db08644	0.08619359
21	0x3e27efb6	0.16400036
22	0x3d5c35ac	0.053762123
23	0x3dc65430	0.09684026
24	0x3e159605	0.14608009
25	0x3e2f2812	0.1710513
26	0x3de4cbb3	0.11171665
27	0x3d9178dd	0.07103131
28	0x3d8cf832	0.06883277
29	0x3d5809d6	0.052743755
30	0x3e0decca	0.13859859
31	0x3e5e8648	0.21730912
32	0x3d96e93c	0.07368705
33	0x3e446847	0.19180404
34	0x3d657f54	0.056029633
35	0x3e1cdeeb	0.15319411
36	0x3df362b4	0.118840605
37	0x3e83a59e	0.25712293
38	0x3dc68fcf	0.09695398
39	0x3d7b1a57	0.061304417
40	0x3da79ebe	0.081845745
41	0x3e33000e	0.1748049
42	0x3d89f7cd	0.067367174
43	0x3e0c0bbe	0.13676354
44	0x3da425f7	0.08015054
45	0x3dd23a5d	0.10265038
46	0x3deea84f	0.11653196
47	0x3db8e022	0.09027125
48	0x3e86046c	0.2617525
49	0x3e16f6d6	0.14742598
50	0x3dfbd7d8	0.12297028
51	0x3dce4a16	0.100727245
52	0x3dc8719f	0.097872965
53	0x3de4f144	0.1117883
54	0x3e562297	0.20911632
55	0x3e2ab0f8	0.1666907
56	0x3e5b5401	0.21418764
57	0x3df6fb60	0.12059665
58	0x3e3aa4c7	0.1822692
59	0x3de1cce4	0.11025408
60	0x3d892333	0.06696167
61	0x3e83b951	0.25727323
62	0x3dacfac1	0.08446265
63	0x3d816d6e	0.063197

layers.6.weight f4 [2, 64]
0	0x3ea42e03	0.32066354
1	0xbe8ff856	-0.28119153
2	0xbee3e9d4	-0.44514334
3	0xbebcc43d	-0.36868468
4	0x3b1967ee	0.0023407894
5	0x3f0ead2e	0.55733
6	0xbf4fed7e	-0.8122176
7	0x3ed54090	0.4165082
8	0x3edfeda3	0.4373599
9	0xbe67fc1a	-0.22654763
10	0x3f3b5b6c	0.73186374
11	0xbe2451ce	-0.16046831
12	0x3e933d53	0.28757724
13	0x3eb65c0e	0.35617107
14	0xbf1af594	-0.6053097
15	0xbe9d7ac2	-0.3075772
16	0xbd14b9ce	-0.03631001
17	0xbeda6138	-0.42652297
18	0x3f1b68c7	0.6070675
19	0xbd4dbf9c	-0.05023156
20	0x3e86fe7e	0.26366037
21	0xbe8f8ec9	-0.28038624
22	0x3e162443	0.1466227
23	0x3d547e76	0.051878415
24	0xbed71b02	-0.42012793
25	0xbebf5b19	-0.3737419
26	0x3e5bafdb	0.21453802
27	0x3e005cd6	0.12535414
28	0x3d7cde6d	0.06173556
29	0x3de38599	0.11109466
30	0x3ee6bb1b	0.45064625
31	0xbe6cb9d3	-0.23117761
32	0x3d8af150	0.06784308
33	0x3ec943ad	0.39309445
34	0x3eac79fc	0.33686817
35	0xbf2026af	-0.62559026
36	0x3f083a37	0.5321383
37	0xbeda7dfd	-0.42674246
38	0xbe975623	-0.29557905
39	0x3d2bcc93	0.041943144
40	0xbee167d2	-0.4402452
41	0xbeaa3d01	-0.33249667
42	0x3dbe4c05	0.09291843
43	0xbe02b1b1	-0.12763096
44	0xbe8d2097	-0.27563927
45	0x3a907571	0.0011021328
46	0xbf448150	-0.76759815
47	0xbe8c6042	-0.2741719
48	0x3e7d2fe4	0.247253
49	0x3eb5087d	0.3535804
50	0xbe3dd5aa	-0.18538538
51	0x3e2d4601	0.16921236
52	0xbd14a647	-0.036291387
53	0x3a80e517	0.0009833899
54	0x3e8a0ebd	0.2696437
55	0x3eb99204	0.36244214
56	0x3f136846	0.57580984
57	0x3ec55b37	0.38546154
58	0x3e7c49b2	0.24637488
59	0xbeaa3693	-0.33244762
60	0x3d3bcbe2	0.045848735
61	0xbf115edf	-0.56785387
62	0x3f5d13e1	0.8635846
63	0x3e3eb02f	0.18621896
64	0x3db44c7e	0.08803652
65	0x3e1c1b79	0.15244855
66	0xbceb0371	-0.028688164
67	0x3ea36d1c	0.3191918
68	0xbf61de9d	-0.88230306
69	0x3e2e9b86	0.17051515
70	0xbf4d5070	-0.8020086
71	0x3ef15286	0.47133273
72	0x3e4b0fdf	0.19830273
73	0xbe984700	-0.2974167
74	0xbe49e9d4	-0.19718105
75	0x3e93ea23	0.2888957
76	0xbf28f26a	-0.65994895
77	0xbe59467e	-0.21218297
78	0x3de58ef0	0.11208904
79	0xbf01ab55	-0.50652057
80	0x3fd5dd9a	1.6708252
81	0xbe6ed38e	-0.23322889
82	0x3dd518fe	0.104051575
83	0xbfb33a39	-1.4002143
84	0x3e9bf97b	0.30463776
85	0x3d93e16c	0.0722073
86	0xbf4b0f0f	-0.7931985
87	0x3f42d1dc	0.7610147
88	0xbee0a6c7	-0.4387724
89	0xbea254ba	-0.31705266
90	0xbf0c31a7	-0.54763263
91	0xbf0aaf2f	-0.5417356
92	0x3fa47f28	1.2851305
93	0x3f53ef09	0.82786614
94	0xbe5438dc	-0.20724815
95	0xbf217b78	-0.63079023
96	0xbf98a32d	-1.1924797
97	0x3f68fdfd	0.91012555
98	0xbef05419	-0.4693916
99	0xbe34c9d0	-0.1765511
100	0xbf9f2071	-1.2431775
101	0x3eed77e4	0.46380532
102	0xbec53c4c	-0.38522565
103	0x3f79ef63	0.976309
104	0x3dbf3346	0.093359515
105	0xbe7b871f	-0.24563263
106	0x3f4360dd	0.76319677
107	0xbf5796da	-0.84214556
108	0xbf8c5137	-1.0962285
109	0x3f6b7109	0.9196935
110	0x3eb17504	0.34659588
111	0xbec38c53	-0.38192996
112	0xbeec07c7	-0.46099684
113	0xbe4523de	-0.19251963
114	0xbf3eb0c6	-0.74488485
115	0xbf367afd	-0.71281415
116	0x3f9c266e	1.2199228
117	0x3f89d43f	1.0767897
118	0xbe19c8b9	-0.15017976
119	0xbd8c6278	-0.06854719
120	0xbde9c97d	-0.11415384
121	0x3fb783dc	1.4337115
122	0xbf1fe64c	-0.6246078
123	0x3e2c6aff	0.16837691
124	0x3f80aa4a	1.0051968
125	0x3f0d0707	0.5508885
126	0x3d149902	0.036278732
127	0xbf21e167	-0.6323456

layers.6.bias f4 [2]
0	0x3d6b9120	0.05751145
1	0xbdeafad9	-0.11473627
