results/checkpoint_0_critic_target.pt (torch_old, 149155 bytes, 5 tensors)

layers.0.weight f4 [128, 24]
000000 98 30 8f be b9 3e 4d be c2 7c 8a bd 7d ef bb bc
       -0.27966762 -0.20043458 -0.06762077 -0.022941345
000010 e8 dd ff bd b1 66 8d be 60 7a da bc 4a cf 89 3d
       -0.12493497 -0.2761741 -0.026669681 0.067289904
000020 eb f2 76 bd a6 80 5a bd 34 7c 04 be a4 c6 c3 bd
       -0.06029026 -0.053345345 -0.12938005 -0.09559372
000030 2c 37 43 bc 98 82 c3 bd f2 a8 48 be d8 25 d5 bd
       -0.0119150095 -0.09546393 -0.19595698 -0.10407609
000040 ed 8d b1 bd da 36 f5 bc 09 fb fb bd 13 2f 01 be
       -0.08669648 -0.029933382 -0.123037405 -0.12615614
000050 e2 8b 23 bd 8a 5f 59 bd d5 d0 95 3b 3b 71 32 be
       -0.039928325 -0.05306963 0.004572014 -0.17426006
000060 92 44 e2 bd a7 4b 92 bd 64 2f 6e bd d6 11 37 be
       -0.11048235 -0.07143336 -0.058150664 -0.17877898
000070 13 c4 71 3b 9e 05 10 be 0b 92 75 bc 54 6d ab bd
       0.003689055 -0.14064643 -0.014988433 -0.08370462
000080 a8 34 9d bd d2 e7 8e 3c 55 02 6f be 21 ba 0a bd
       -0.07676059 0.017444525 -0.23340733 -0.033868913
000090 91 4e 0b bd 05 b5 21 be d8 82 39 bd 68 92 1d be
       -0.034010474 -0.1579171 -0.045290798 -0.15387881
0000a0 72 e9 15 be 66 18 f9 bd 53 8a 9f bd f8 6a ae bd
       -0.14639834 -0.12162857 -0.07790055 -0.085164964
0000b0 f4 55 47 be b9 da f2 bd 8b 3b 32 be 63 6e ce bd
       -0.19466382 -0.11858124 -0.17405526 -0.10079648
0000c0 50 ee e3 bd af d5 f6 bd d4 ee 07 3e 08 3a 1a be
       -0.11129439 -0.12052476 0.132747 -0.150612
0000d0 33 b8 19 3d 79 8f 59 bd 7b 25 5b be 41 eb c2 bc
       0.03752918 -0.05311534 -0.21401016 -0.023793818
0000e0 72 e0 8c be 43 09 01 3e d7 d6 ba bd e3 8c c2 bd
       -0.27514988 0.1260119 -0.09123009 -0.09499528
0000f0 8c a5 09 bd 8f c3 ea bd 17 87 2d be db a1 42 be
       -0.033605143 -0.11463081 -0.16946064 -0.19007055
000100 5f bd 31 be 31 6d 15 3d 14 f1 b4 bc 35 6f 99 3c
       -0.17357396 0.036481086 -0.022087611 0.018729785
000110 4c 57 47 bd 94 6c 11 bd e8 f3 2f be 50 c1 f0 bc
       -0.048667237 -0.03550394 -0.17182887 -0.029389054
000120 6a 08 7c bd 2a 0f 0c be 79 84 85 be ae 09 2d be
       -0.06153146 -0.1367766 -0.2607763 -0.16898224
000130 99 cf 51 be cd 7f bf bb 93 01 28 be 6f f0 85 bd
       -0.20489348 -0.0058440925 -0.1640685 -0.0654
000140 15 df 2e be 20 12 cd bd 1c 47 66 bb f6 d1 e8 bd
       -0.17077287 -0.10013223 -0.00351376 -0.11368172
000150 e4 76 eb bd 4d f6 02 bd 5c b9 0d bd c4 dc a4 bd
       -0.11497286 -0.031973172 -0.0346006 -0.0804992
000160 1f d4 60 3d dc 6b d4 bc 4a 2d 8e bd da 8e 4a be
       0.054889794 -0.025930338 -0.06942232 -0.19781056
000170 64 c6 4a be 10 69 d7 bd 35 f9 4f be 1f 12 84 bd
       -0.19802243 -0.10518086 -0.20309909 -0.06448769
000180 55 b6 51 bd 62 8e fc bd bc 49 42 bd 20 46 1f be
       -0.051199276 -0.12331845 -0.0474336 -0.15554094
000190 dd 0e d6 bd 30 83 4b be 49 6c 29 be 4b ed d1 bd
       -0.10452054 -0.19874263 -0.16545214 -0.10250338
0001a0 ef df f1 bd bf 17 14 3d f5 62 25 bd 19 2c c1 bd
       -0.1181029 0.03615546 -0.040377576 -0.09432239
0001b0 0b 0a a3 3c 1f ad e6 3c 94 7e 4c bd a2 d3 1e bc
       0.01990225 0.028158722 -0.0499254 -0.009694012
0001c0 04 47 ce bd 44 5d d3 bc f7 20 24 be 55 20 dd bd
       -0.10072139 -0.025801308 -0.160282 -0.107971825
0001d0 1f 67 21 bd 4d a5 a7 bb c8 78 b4 be 63 2a 4c be
       -0.039404985 -0.005116141 -0.352484 -0.19938044
0001e0 70 79 36 be 1a db 32 3d ac 04 1c be da b1 0c be
       -0.17819762 0.043665983 -0.15236157 -0.1373972
0001f0 45 ab 55 bd 88 e2 89 be 13 36 3e be 5d 1f af bd
       -0.05216529 -0.26930642 -0.18575315 -0.08550904
000200 e2 bc 38 be af 63 fd bd 2a 5e 79 be 1a 34 5e be
       -0.18040803 -0.12372529 -0.24352327 -0.21699563
000210 9f c3 3e be 75 b3 2b be e3 49 36 3c df 0e 0b be
       -0.18629311 -0.16767676 0.011126014 -0.13579892
000220 73 ba 6b be b3 2d 78 bd dd c7 d5 3b 69 75 66 bd
       -0.23020343 -0.060590457 0.0065240697 -0.056264315
000230 91 f0 a6 bd bf 67 2d be ae a4 3b bd cd 51 2f be
       -0.08151353 -0.16934107 -0.045811348 -0.17121048
000240 01 0a 15 bc 1d 6a 09 bd 76 54 95 bd e5 6c 88 3c
       -0.009096623 -0.033548463 -0.072915 0.016653487
000250 13 34 77 bc 14 9f e3 bd 01 20 22 be 7d 9e 36 be
       -0.015088099 -0.11114326 -0.15832521 -0.17833896
000260 d8 93 6e bd ee 53 0c be 60 9e 1f be 92 3c 0f be
       -0.058246464 -0.13703892 -0.15587759 -0.1398795
000270 a7 fd 09 3d 38 59 ca bd 63 64 1b bd 27 4d fd bd
       0.033689167 -0.098802984 -0.037937533 -0.12368231
000280 c9 9e 1f be 06 ef 32 be 9c f0 ab bc d9 85 fa bb
       -0.15587915 -0.17473993 -0.020988755 -0.0076453504
000290 76 3a 82 3d 2c e5 0e 3e f7 cc 72 3d f3 a4 0f 3d
       0.06358807 0.1395461 0.0592775 0.035069417
0002a0 49 0c 96 3d c2 66 b0 bc 4f 39 4d bd 0f 87 e8 3d
       0.07326562 -0.021533374 -0.05010348 0.113538854
0002b0 43 94 bb bd 77 2f d6 bd 43 6a 07 be 08 77 83 3d
       -0.09159138 -0.10458272 -0.1322413 0.06419188
0002c0 f1 3d 91 bd 0a 82 74 be 90 bb 40 3c 2f bb 34 be
       -0.070918925 -0.23877731 0.011763468 -0.1764953
0002d0 67 78 6f be 26 0e 7f bd 77 c3 49 be 59 3d 03 bc
       -0.23385774 -0.062269352 -0.1970347 -0.008010232
0002e0 6a d4 b8 bc 26 10 0d be 2b 9b a6 bc ba 22 7c bc
       -0.022562224 -0.13775691 -0.020337662 -0.015389139
0002f0 f3 41 d4 bd 6f 93 fb bb 76 22 d7 bd 2e 55 07 bd
       -0.10364141 -0.0076774876 -0.1050462 -0.033040218
000300 30 97 1b bd 37 49 4c 3d 66 e2 0e be 50 f8 64 be
       -0.03798598 0.04987451 -0.13953552 -0.22360349
000310 17 5d 66 be 07 62 bc 3b 0d e4 95 bd 30 76 0c be
       -0.22496448 0.0057489905 -0.07318888 -0.1371696
000320 ac 91 52 bd dd 5e 10 be 9d 7f 96 bd 84 15 a2 bc
       -0.051408455 -0.14098687 -0.07348559 -0.01978565
000330 38 38 dc 3c 2e 98 ec bd b6 d9 36 bd 4b 0d ab bd
       0.026882276 -0.115524635 -0.04464122 -0.08352145
000340 2a 50 17 bd d4 b0 28 bd c0 5a df bd 74 a9 d7 bd
       -0.036941685 -0.04118426 -0.10905981 -0.105303675
000350 fc e9 e8 bd 72 9e d4 3d 17 3b 5b bd 15 90 80 3d
       -0.11372754 0.103817835 -0.05352315 0.062774815
000360 3f e2 bd 3d 27 4e 29 be ac e8 26 be 44 eb 0f be
       0.09271669 -0.16533719 -0.16299695 -0.1405459
000370 55 7b a7 bd 3e 77 bf 3d 46 6c eb bd 98 31 41 be
       -0.081778206 0.093489155 -0.11495261 -0.18866575
000380 39 3d 84 bd e3 34 1a be 83 d2 f3 bd eb 15 43 be
       -0.0645699 -0.15059237 -0.11905386 -0.1905133
000390 e7 a6 62 bd 65 11 19 bb e7 37 8f be 1b d7 93 be
       -0.05533495 -0.0023356315 -0.27972338 -0.2887505
0003a0 b4 7a a9 3c 19 ba 21 bd 06 7f 4c bd e3 2e e4 3c
       0.020688392 -0.039484117 -0.049925826 0.027854389
0003b0 a4 e2 8b be ff 6c a8 bd 5e 00 31 be 29 c6 72 bd
       -0.2732135 -0.08223914 -0.17285296 -0.05927101
0003c0 fb 39 4b bd 77 e6 0a bd 00 31 ef bc 61 cb 09 be
       -0.04961584 -0.033911195 -0.02919817 -0.13456489
0003d0 b4 35 1a be 62 fa 38 be 90 b3 42 3d d8 47 21 be
       -0.15059549 -0.18064263 0.047534525 -0.15750062
0003e0 eb a3 e6 3b 21 3a 70 3c 6b 25 a1 3d 72 1f 6e be
       0.0070385835 0.0146622965 0.07868465 -0.23254183
0003f0 a9 bf 7b be e9 f5 7c bd 92 31 96 bd 3f 85 13 be
       -0.24584831 -0.061757956 -0.073336735 -0.14406298

layers.0.bias f4 [128]
000000 cb 09 05 be a1 e7 94 3d 9e d3 47 be 73 08 fa bd
       -0.12992017 0.07270742 -0.1951432 -0.12208643
000010 95 83 89 bd 33 11 8d 3d 1c 7a b5 3d 2d 5c 17 be
       -0.067145504 0.06888046 0.08861181 -0.14781256
000020 01 75 29 3c f6 b1 90 bd cd 8f d0 bd d7 74 00 3c
       0.010342837 -0.07065193 -0.10183678 0.007840357
000030 ab d8 e7 3d f0 77 12 3e 84 af 49 3e 7f b1 d3 3d
       0.11320623 0.14303565 0.1969586 0.10336589
000040 e9 e8 14 3e b1 25 99 3d 97 9d a6 3d 95 25 f9 bc
       0.14541973 0.07477892 0.081355266 -0.030413428
000050 ba b1 ad bd 8c e0 05 be 0e 12 9a 3c d1 3b ff 3d
       -0.08481164 -0.13073939 0.018807437 0.12462581
000060 a3 87 28 be f6 57 2e be bb 06 33 3e 91 47 46 3e
       -0.16457991 -0.17025742 0.17483036 0.19363238
000070 ea f8 47 be d5 b2 fe bd cb 95 32 bd 18 ec 13 be
       -0.19528547 -0.12436453 -0.043599885 -0.14445531
000080 a0 d5 a6 3c 51 34 4d bd 30 b8 4d 3d 67 c7 1d bc
       0.020365536 -0.05009872 0.050224483 -0.009630061
000090 7c fb 95 3d 66 22 3d bd e7 0f f6 3c 0b ff d8 bc
       0.073233575 -0.046175383 0.03003688 -0.026488801
0000a0 3c 31 75 3d 3a b0 02 bc dd 98 ee 3d c9 b3 db bd
       0.059861407 -0.007976586 0.1165025 -0.10727651
0000b0 a8 8a 8e 3d 63 c7 c3 bb b8 61 e0 3d 21 fa 2f be
       0.0696004 -0.0059746965 0.10956138 -0.1718526
0000c0 bd 23 0d be 58 d7 2c bd 93 38 cd 3d 38 dd 01 3e
       -0.13783164 -0.042197555 0.10020556 0.12682045
0000d0 80 97 46 3d 9d fd bc bd 42 36 0f 3e e0 e2 07 be
       0.048484325 -0.092280604 0.13985541 -0.1327014
0000e0 f8 84 24 3d 80 fc fd 3d 3f 56 3e 3e 3d c6 7f ba
       0.04016587 0.12401676 0.18587588 -0.0009757018
0000f0 01 32 aa bd 99 c2 b7 3d 69 46 47 3e 8c 18 2a be
       -0.08310319 0.089726634 0.19460453 -0.16610926
000100 90 4a 55 be 32 44 12 bd 14 1a c5 bd 5f d6 de bd
       -0.20829225 -0.035709567 -0.09624115 -0.10880732
000110 3b 93 17 be af f6 07 3d b0 ee f3 bd 5a d7 dd 3d
       -0.14802258 0.03319424 -0.119107604 0.10832091
000120 e4 49 3f 3e 3f 55 46 be d6 05 ae 3c e7 6b 43 3e
       0.18680531 -0.19368456 0.021243017 0.1908413
000130 25 b6 43 3e ca cb 82 bd ba be e8 3d 09 f3 b7 3d
       0.19112451 -0.06386526 0.11364503 0.08981902
000140 c5 f8 18 3e 20 aa d5 bc 95 88 28 bd b9 7b 98 bd
       0.14938648 -0.026082098 -0.04114588 -0.07445473
000150 17 e0 36 3d 40 39 5e 3d 96 3d 99 bd d2 5d 1c be
       0.044647302 0.054253817 -0.0748245 -0.15270165
000160 ad 32 40 3e 92 9b f6 bd 49 47 9c 3b 80 bc b2 bd
       0.18769331 -0.120413914 0.00476924 -0.0872736
000170 17 74 63 bd f0 50 5f be 70 d5 b5 bd ec 62 9a 3d
       -0.055530634 -0.21808219 -0.088786006 0.07538399
000180 95 02 0c 3e f7 e7 2e 3e 07 c8 a7 bd c2 78 00 be
       0.1367286 0.17080675 -0.08192449 -0.12546065
000190 89 1a 31 be 71 f6 86 bd b3 ed 3e be 5b e6 06 be
       -0.17295279 -0.06589974 -0.18645363 -0.13173811
0001a0 71 42 af bd d6 9a 3c 3e a9 c9 f8 bd 2e 46 11 be
       -0.085575946 0.1841844 -0.121478386 -0.14186928
0001b0 bd 34 41 bd 98 d9 04 3e dd 63 5d bd 7c ef 32 38
       -0.047169436 0.1297363 -0.054050315 4.2661544e-05
0001c0 39 82 f7 3d ae 22 c3 3d 92 0d 1e 3e 00 e9 ef bd
       0.12085385 0.09528099 0.15434864 -0.11714363
0001d0 67 35 32 3e 70 5c 3c be a8 80 0e be 10 a4 df bc
       0.17403184 -0.18394637 -0.13916266 -0.02729991
0001e0 ff ee 88 3d fd 53 f0 bc a4 ad 37 3e 24 45 79 3c
       0.0668621 -0.029336924 0.17937332 0.015214238
0001f0 28 61 a1 bd 64 76 ee bc 54 95 a5 3b 9d 65 12 3d
       -0.07879859 -0.029109187 0.0050532017 0.035741437

layers.2.weight f4 [256, 130]
000000 22 f5 09 bd 7b ca b4 bd 40 9b 94 3c fe bd 35 be
       -0.033681042 -0.088276826 0.018140435 -0.17748258
000010 c6 7e 11 bd 6e fe ee bd 3b 9f 15 be 51 db 68 be
       -0.03552129 -0.11669622 -0.14611523 -0.22739913
000020 fb 0c 2d bd 00 3e 62 39 eb 58 95 bd e5 ab af bd
       -0.042248707 0.00021576136 -0.072923504 -0.08577708
000030 ed 25 19 be fe bc 38 be c4 1e a0 bd f5 ff 66 bd
       -0.14955874 -0.18040845 -0.07818368 -0.056396443
000040 92 74 aa 3d fa 76 87 bd 87 bf 5d be 83 2f 9e bd
       0.08323015 -0.0661449 -0.21655093 -0.07723906
000050 4c fe e0 bc b2 e4 9a bc c3 4d 58 bd 1f 41 9c bc
       -0.027465008 -0.018907879 -0.052808534 -0.01907402
000060 72 7e ee bc e1 c4 bc bd 30 c0 a5 bd 52 82 d0 bc
       -0.029113028 -0.09217239 -0.080932975 -0.025452767
000070 34 82 5d bc 2f 8c f2 bc 96 3c 90 bc 18 c9 72 bd
       -0.013519812 -0.02960786 -0.017607015 -0.05927381
000080 18 83 da bd bf 6b 53 bd c4 16 88 bc 7b dc d7 3c
       -0.106695354 -0.051616427 -0.016612418 0.02635025
000090 66 1d a5 bd 00 ac 86 38 72 f2 35 3d 30 ff a0 bd
       -0.08062248 6.4216554e-05 0.044420667 -0.07861173
0000a0 4a 75 d6 3d b3 b4 af bd 1c 48 f8 bc 4f ba de bd
       0.1047159 -0.085793875 -0.030307822 -0.10875379
0000b0 40 2d d4 bd a4 f9 df bd d5 73 d1 bd 00 71 dc bc
       -0.10360193 -0.10936287 -0.10227171 -0.026909351
0000c0 06 f8 91 bc 6d 31 d1 bd 17 6b 31 bd 54 2e 0c bd
       -0.017818462 -0.10214505 -0.04331502 -0.03422387
0000d0 d4 49 0a be ea af c2 bd c4 5d 03 bc 80 7b 0f 3c
       -0.13504726 -0.09506209 -0.008017961 0.008757472
0000e0 eb 47 1f be f5 4b 16 be 80 5b ea bc a2 86 01 be
       -0.15554778 -0.14677413 -0.028608084 -0.12649015
0000f0 38 52 d4 bd 6a ae 0a be f2 bb a1 bc 95 d7 d0 bd
       -0.103672445 -0.13543096 -0.01974294 -0.10197369
000100 07 cd 88 bc db 0e 61 bd f8 6d a2 3c 53 79 a9 3c
       -0.016699327 -0.054945808 0.019827828 0.020687735
000110 e0 e9 d0 bc da 05 d5 bc aa 9a 05 be 80 f0 43 bc
       -0.025502145 -0.026003767 -0.13047281 -0.011959195
000120 ad 27 18 be a6 93 de bd 35 5b ab bd 5c 94 fc bd
       -0.14858885 -0.108680055 -0.08367006 -0.12332985
000130 7e c4 c3 bd 36 b2 19 be f0 5d 42 bc 82 0b 1e 3d
       -0.09558962 -0.15009388 -0.011863217 0.038585193
000140 6c a7 84 bd 4d 98 2b bd 55 51 be bd 8e c9 29 be
       -0.06477246 -0.041893292 -0.092928566 -0.16580793
000150 2c f1 eb bd c6 d7 7d bd 2a bc 8a bc 30 da e2 bd
       -0.11520609 -0.061973356 -0.016935427 -0.11076772
000160 1f a1 82 bd ce 5a f9 3c 05 27 bb bd b5 3a a4 bd
       -0.06378388 0.030438807 -0.09138302 -0.0801901
000170 f3 68 13 bd 9f 32 79 bd 2a 69 50 bd 9a ad d7 bd
       -0.03598876 -0.06083929 -0.050881542 -0.10531159
000180 2e 30 17 bd 25 21 e4 bd ae ba 06 be 5d 6a 00 3c
       -0.036911182 -0.11139134 -0.1315715 0.007837859
000190 5e 47 a3 bd 0a 93 7c bc fc f8 56 bd 38 1e 89 3c
       -0.079725966 -0.015415916 -0.052483544 0.016738042
0001a0 4b 24 36 be 14 53 ac 3c c1 ed 63 3d c2 95 86 3c
       -0.17787282 0.021035708 0.05564666 0.016428832
0001b0 8a e1 37 bd 0e b0 15 be 4a bb 1e bd 7c 78 53 be
       -0.044892825 -0.14617941 -0.03875283 -0.2065143
0001c0 40 4e c1 3a a1 e7 07 be 18 8e 88 bd 3e 2c 04 be
       0.0014748052 -0.13271953 -0.06667727 -0.12907502
0001d0 ee 98 94 bc 2d 5d 96 bd a2 2b a8 bd f8 11 0d be
       -0.018139329 -0.073419906 -0.08211447 -0.13776386
0001e0 80 3e ef b9 92 3f ea bc a4 0f c7 bd 7b 7d d7 bd
       -0.00045632198 -0.028594766 -0.0971978 -0.105219804
0001f0 c0 b4 82 bd 91 8e b9 bd 8c 31 9a bd cb dd 31 be
       -0.063821316 -0.090603955 -0.075289816 -0.17369764
000200 05 e9 eb bc 55 72 72 bd 00 f5 9c bc 7d 69 ef bd
       -0.028797636 -0.059191067 -0.019159794 -0.11690042
000210 31 ff a1 bd 57 cd 37 bd 5a 17 13 be c4 c2 31 be
       -0.07910002 -0.04487356 -0.14364377 -0.17359453
000220 98 c5 2d bd a4 6f 92 bd 56 80 65 bd 4e ea 02 be
       -0.04242477 -0.071502 -0.056030594 -0.12784693
000230 d1 4d 52 bd 38 a4 b0 bd 5d 5c ec bb 6b f8 a8 bd
       -0.051343743 -0.08625072 -0.007213159 -0.08250507
000240 fb b2 09 3c 83 cf ed bb 48 cf 77 3d ce 61 17 3d
       0.008404489 -0.0072574033 0.060500413 0.03695851
000250 0f d8 45 3d 5c 80 90 3b 48 93 ac bd 63 75 d0 bd
       0.048301753 0.004409833 -0.08426529 -0.1017864
000260 56 34 af 3d fc 78 79 3d 5a eb 89 bd 00 84 1d b9
       0.08554904 0.060906395 -0.06734343 -0.0001502186
000270 86 e4 e9 bd a6 48 6f bd e0 12 93 bd cb 5b e0 bc
       -0.114205405 -0.058418892 -0.071813345 -0.02738752
000280 4c 09 32 bd ce c2 94 3d e2 0b 93 bd ec 18 a0 3c
       -0.043465897 0.072637185 -0.07180001 0.019543134
000290 2a 4a 17 3c 6c 17 bf 3d 22 26 5d bc d5 cd 17 be
       0.009233991 0.09330639 -0.013497861 -0.14824612
0002a0 94 fc 94 3c d2 6e b6 bd 84 9b c2 3d 2f d5 70 bd
       0.018186845 -0.08907856 0.095023185 -0.058797058
0002b0 28 12 8a bd 23 91 ed bc ed c0 81 bd 8f 7e 0d be
       -0.06741744 -0.02899987 -0.06335626 -0.1381781
0002c0 6e af 4c bd 66 58 2d be 2d 8b 5a 3d 08 a8 57 bc
       -0.04997199 -0.16928253 0.053355385 -0.01316262
0002d0 a0 ef 37 bd dd 8a 2f be 69 ee b8 bd b9 97 47 3d
       -0.04490626 -0.17142816 -0.09029848 0.04872868
0002e0 33 9d 32 be fd f0 7e bd 1a 17 f3 bd f1 fc b0 bd
       -0.17442779 -0.062241543 -0.11869641 -0.08641995
0002f0 a0 d0 60 bc 5f 59 b3 bd 22 0a a8 bd 79 85 01 3e
       -0.013721615 -0.087572806 -0.08205058 0.12648572
000300 d8 e4 f9 bc 2d a7 cc 3c 6e 06 cc bd 71 82 10 be
       -0.030504629 0.02498206 -0.09962164 -0.1411226
000310 ba 78 a6 bc a7 b2 c6 bb d2 a4 b5 bc 60 30 fb bd
       -0.020321239 -0.0060637775 -0.022173319 -0.12265086
000320 fc 5f 1e be 78 3f b5 bd 92 d2 cd bc 0f 0d 68 bd
       -0.15466303 -0.08849996 -0.025124822 -0.05665308
000330 c1 69 e1 bc 14 53 e3 bd 00 0f 8f 3d ba d2 17 3e
       -0.027516248 -0.1109983 0.06985283 0.1482648
000340 e1 af 4b 3d 44 0b 9d 3c 3d ab eb bd e3 b7 45 3d
       0.049728278 0.01917041 -0.115072705 0.04827107
000350 4e ca 86 bd 80 d3 4a ba 11 1d d7 bc ec 0a 44 bd
       -0.06581555 -0.00077372044 -0.026258977 -0.04786198
000360 45 95 98 3c f1 71 26 3c 3a 9b 07 be 75 57 81 bd
       0.018625865 0.010159002 -0.13242808 -0.06315509
000370 9b 19 e2 bc ea f1 02 be d5 fb 3b be 7d 79 36 3d
       -0.0276001 -0.12787595 -0.18357785 0.044549454
000380 f6 1a 11 be b8 48 2e 3d 24 7d b5 bd e7 9e 88 bb
       -0.14170441 0.04254982 -0.08861759 -0.0041693333
000390 05 49 8c 3d 97 65 ab bd 7a c8 b1 3d b8 c5 1b be
       0.06849865 -0.08368986 0.08680816 -0.15212142
0003a0 a1 81 09 bd 22 94 74 bd 84 ed d7 bc 2c 77 9a bd
       -0.03357089 -0.059711583 -0.026358373 -0.075422615
0003b0 c9 48 e8 3c 55 30 8d bc a5 97 ec bc 21 36 92 bd
       0.02835502 -0.01723496 -0.028880903 -0.071392305
0003c0 79 e7 5f bd a3 c0 f9 bd 6c bf a0 bd e6 94 96 bd
       -0.05466411 -0.12194946 -0.07849011 -0.07352619
0003d0 2c a3 59 bd ce 64 a8 bd 60 f7 f2 bc e5 0b e8 bd
       -0.05313413 -0.08222352 -0.029658973 -0.11330394
0003e0 dc b5 ee bc 6a 39 42 bd 6b 88 f4 bd 1e a7 81 bc
       -0.029139452 -0.047418036 -0.11940082 -0.015826758
0003f0 b3 15 02 3d 1f 8e bc bd 74 b9 8f 3c 9e c9 42 bd
       0.031758975 -0.09206795 0.017544486 -0.04755556

layers.2.bias f4 [256]
000000 d7 64 b8 bd 9d ae e9 bd 47 80 18 bd 99 bc ba 3d
       -0.09003609 -0.11410258 -0.03723171 0.091180034
000010 44 09 a7 3d ac 0c 43 bd e3 99 d9 bd 73 5e 8c bd
       0.08156064 -0.047619507 -0.10625055 -0.06853952
000020 e3 7d bb bd d2 53 d0 3c 0c 51 89 ba 93 82 a2 bd
       -0.0915487 0.025430594 -0.0010476424 -0.07935061
000030 9b 5e 9e bd 2f 8a a0 bc 2e f7 d5 3d 9e cb dd bd
       -0.07732888 -0.019597141 0.104475364 -0.108298525
000040 2b d8 a7 bd dd 08 c7 bd b1 0f cd bd 31 b8 f7 bd
       -0.08195528 -0.097184874 -0.100127585 -0.120956786
000050 74 00 06 3c 9d 41 de 3b fd 81 8e 3c fc 58 84 3b
       0.008178819 0.006782724 0.017395968 0.004038928
000060 df 00 d3 bd 5f 5f 66 bd d4 67 65 bc 52 65 d2 bd
       -0.103029005 -0.056243297 -0.014001805 -0.102732316
000070 40 e0 bd bd f6 5e fd bd a1 22 fb bd 1f c0 ca 3c
       -0.09271288 -0.12371628 -0.12262464 0.024749814
000080 44 50 a6 3c 87 98 cc 3d 60 da 57 bd 40 9d 9c bd
       0.020301946 0.0999003 -0.052698493 -0.076471806
000090 0b 90 c4 bd 13 29 c4 bd df 92 db bd 2f ce 63 3c
       -0.095977865 -0.09578147 -0.10721373 0.0139041385
0000a0 3a 7b 22 bc c4 20 df bd f2 2c 45 ba c1 2b 36 3d
       -0.009917075 -0.108949214 -0.0007521651 0.04447532
0000b0 ed fe cf bd 42 f1 a0 bd 4e 37 9d bd 89 71 55 3c
       -0.10156045 -0.07858516 -0.07676564 0.013027557
0000c0 9c ce 82 bd 5d ef ac bd bb 4a ae bd ee c0 2b bd
       -0.06387064 -0.084440924 -0.085103475 -0.04193204
0000d0 5d 89 82 bd ec 6c d9 bd b5 b7 3c 3d 52 0b 02 3e
       -0.06373856 -0.10616478 0.046073634 0.12699631
0000e0 a3 d0 94 bc 28 0a c0 bd 59 ec 86 bd 2d 5f bb 3d
       -0.018165892 -0.09376937 -0.065880485 0.09149013
0000f0 1d 1b 9d bd 43 04 26 be 07 9e f4 bd aa 12 c8 bd
       -0.07671187 -0.16212563 -0.11944204 -0.09769185
000100 ca 78 fb bd c0 fe a4 bd de 9c 94 bd 89 13 26 3d
       -0.12278898 -0.08056402 -0.072564825 0.040545974
000110 f3 e1 a8 bc a2 97 89 3b 5e 50 7d bd db c1 48 3d
       -0.020615553 0.0041989842 -0.061844222 0.049013
000120 2e e1 c2 3c 8a 89 9f bd 64 60 2b 3d 57 c8 4d bc
       0.023789015 -0.07789905 0.041839972 -0.012559972
000130 05 52 ae bd 6f 3a a7 bc 89 47 ae 3d 5c ba 13 bd
       -0.08511738 -0.020413605 0.08509738 -0.036066398
000140 e9 ca 12 3d b9 f4 e3 bd 66 ae 97 bd 8e e6 63 bd
       0.03583804 -0.111306615 -0.07406311 -0.055639796
000150 bc 2d 95 bd 5a de 5f bb 83 46 80 bd 0f 9b 84 bd
       -0.07284114 -0.0034159631 -0.06263449 -0.064748876
000160 2f 55 5a 3d ba fc a3 bd dd 91 01 be 3f 6c b3 3d
       0.053303894 -0.08007188 -0.12653299 0.08760881
000170 db 1d fb bc 5f 5d 11 be 6a b5 85 bd 48 f8 85 bd
       -0.030653885 -0.14195774 -0.065287426 -0.065414965
000180 d9 95 65 3d 7a 0f cb bd 86 c2 13 be cb 2d 4c 3b
       0.05605111 -0.09915061 -0.14429674 0.0031155224
000190 90 39 71 3d 82 ff 21 bd 6b a6 be bd 83 3a 8d bd
       0.058892787 -0.039550312 -0.093090855 -0.06895926
0001a0 68 17 a4 3d a4 86 51 3d fa 5d 12 be 5e e5 c9 bd
       0.08012277 0.051153794 -0.14293662 -0.098582014
0001b0 ee 0a e2 ba c6 5e 0d 3d 00 fc 44 bd 8d 19 9f bd
       -0.0017245689 0.03451421 -0.04809189 -0.07768545
0001c0 68 c5 aa bd 72 45 c3 bd 9e 28 3c bb 9b be ff 3c
       -0.083384335 -0.0953473 -0.0028710733 0.031218817
0001d0 5c 6c a1 bb 6e 51 24 bd 82 62 a5 bd f4 53 83 ba
       -0.0049262475 -0.04011672 -0.080754295 -0.0010019527
0001e0 0e 91 dd bd d5 c6 cb 3c 25 ed c9 bd 5d 10 52 bd
       -0.108186826 0.024875084 -0.09859685 -0.051285136
0001f0 a2 e5 80 bc 8a 50 92 3d 30 b0 a8 bd 53 33 9b 3c
       -0.015734497 0.07144268 -0.0823673 0.018945372
000200 e0 b1 83 bd f1 fd 1d bb ee f6 b4 bd 57 8d c8 3c
       -0.06430411 -0.002410766 -0.088361606 0.024481459
000210 03 de bb bd 9c 7c 60 bd bc 80 02 bd 1a ca f1 bc
       -0.09173205 -0.054806337 -0.031861052 -0.029515315
000220 05 b5 bd bd 4e f4 69 bd b1 cb d2 3d f1 e6 83 bd
       -0.09263042 -0.057117753 0.10292757 -0.06440533
000230 dd f4 4d 3d ad 6c be bd a7 b8 a3 bd 0c f9 d7 bd
       0.050282348 -0.09298072 -0.07994204 -0.10545549
000240 b0 47 28 bd 2d 8f 01 be f0 33 f1 bd f8 db 01 bd
       -0.04108399 -0.12652273 -0.117774844 -0.03170392
000250 6c 8a d0 bd 77 3f bf bd a7 aa aa bd de 7c db bd
       -0.10182652 -0.09338277 -0.083333306 -0.10717176
000260 eb 75 d7 3d 08 97 a3 bd 18 0b 74 3d 56 31 c5 3c
       0.10520538 -0.07987791 0.059580892 0.024071377
000270 15 29 81 bd cc 0f b7 bd 52 10 2d 3c d5 40 f7 bd
       -0.06306664 -0.0893856 0.010562973 -0.120729126
000280 ef c7 a9 3d 72 50 a8 bd e2 bb 92 ba 66 1e c7 bd
       0.082900874 -0.08218469 -0.001119491 -0.09722595
000290 ec 98 d8 3c 53 88 ce 3b c1 4c 0b be 50 69 cd 3c
       0.026440106 0.006302872 -0.13603498 0.025074631
0002a0 52 ce 95 bd 63 58 9a bd a4 58 97 bd fa ad 2e 3d
       -0.07314743 -0.0753639 -0.07389954 0.042646386
0002b0 56 10 36 bd 86 cb 18 be 9c be 6f bd 91 1b bb bd
       -0.044449173 -0.14921388 -0.05853139 -0.09136117
0002c0 0c fe 5c bd 33 f3 af 3d 06 45 6b bd d5 dc aa 3d
       -0.053953215 0.085913084 -0.057438873 0.083429016
0002d0 d2 c1 b8 bd 92 51 a3 3b 11 2a 5b bd 4c 82 d8 bd
       -0.09021343 0.004984089 -0.053506915 -0.10571727
0002e0 f2 64 a6 bd 91 d9 4c bd 3b c7 7c bd 2a 26 de bd
       -0.081247225 -0.050012175 -0.06171344 -0.10847123
0002f0 4e 7f 9c bd 54 1e c0 ba 2b 4b d9 bc 73 ff 61 3d
       -0.07641469 -0.0014657476 -0.0265251 0.055175256
000300 d2 3f a1 bc 8c d4 94 bd 1e 2f 84 bd 2c ac e1 bd
       -0.019683752 -0.072671026 -0.064542994 -0.11019167
000310 8f 12 00 be 14 da da 3c 50 30 8a bd d5 bc 84 bd
       -0.1250708 0.026715316 -0.06747496 -0.06481329
000320 fd 30 71 bc ec 02 03 be cd 0d 30 3d 8b a0 a9 bd
       -0.014721152 -0.12794083 0.04298191 -0.08282574
000330 fd ca a0 bd 94 58 7d bd 97 da 36 bd d5 c9 31 be
       -0.07851217 -0.061852053 -0.044642057 -0.17362149
000340 07 27 90 bd a8 01 89 bd b9 75 a5 3d 87 bd c2 bd
       -0.07038694 -0.06689769 0.080790944 -0.09508806
000350 d4 e9 07 3d 0e 6c 08 be 06 7a cd 3d 05 2e 4b bd
       0.03318198 -0.1332247 0.1003304 -0.049604435
000360 bc 87 52 bd 7d 4e a5 bd 8e f8 1f bd 36 24 b3 bc
       -0.051398978 -0.08071611 -0.0390554 -0.021867853
000370 ff 5f 28 bd 69 c3 ad bd ae 0d 75 bd c5 1d 8e 3d
       -0.041107174 -0.08484537 -0.0598275 0.06939272
000380 75 a5 43 3d 8c 40 aa bd 1b a8 29 bd 38 89 af 3d
       0.047765214 -0.083130926 -0.041420083 0.08571094
000390 17 39 02 be f1 ab 86 3c b5 a7 5f bd ed ea fc bd
       -0.1271709 0.01643941 -0.054603297 -0.12349496
0003a0 5f 5c a0 3b d0 09 4f bd 5d 25 75 bd 08 91 b5 bd
       0.004893824 -0.050546467 -0.059850086 -0.08865553
0003b0 a0 fe 52 bd 32 fc a8 bd 0c 91 91 3d 89 b2 4d 3d
       -0.05151236 -0.082512274 0.071077436 0.050219093
0003c0 63 b1 c6 bd b8 99 99 bd 27 09 c3 bd ed cd 17 be
       -0.097018026 -0.07500023 -0.0952323 -0.14824648
0003d0 92 25 cf 3c 00 82 7b bd 23 d1 d2 3c d0 77 e8 bd
       0.02528647 -0.061403275 0.02573449 -0.113509774
0003e0 a0 4d a8 bd e9 bc be bd 06 19 9a bd 85 e3 dd bc
       -0.08217931 -0.093133755 -0.07524304 -0.027086029
0003f0 29 e4 b4 b9 03 08 a4 bd 73 02 c2 bd 71 c5 d3 bd
       -0.00034502268 -0.080093406 -0.094731234 -0.10340393

layers.4.weight f4 [1, 256]
000000 6e a3 1a c0 29 8f 0a c0 c6 78 ad bf 1f 9f 93 3e
       -2.416225 -2.1649878 -1.3552482 0.28832337
000010 59 be 68 bf 94 02 1d bf bf 43 68 c0 cc d1 3d bf
       -0.9091545 -0.6133206 -3.629135 -0.7414825
000020 26 15 e6 bf 5b 84 d4 bf fd e2 2b be 49 6b 81 bf
       -1.7975204 -1.6602892 -0.16785808 -1.0110866
000030 83 d2 bc bf 8f 77 a7 3d f6 d9 62 3f 55 78 22 bf
       -1.4751743 0.08177101 0.8861383 -0.6346486
000040 86 5c 49 c0 9f 08 0f c0 a6 71 e8 bd 7b a9 f5 bf
       -3.1462722 -2.2349012 -0.11349802 -1.9192346
000050 02 ef 30 3f 1c fd 57 3e c0 ae 47 bf 9a cd 28 c0
       0.69114697 0.21092647 -0.7800102 -2.637549
000060 66 24 a3 be 86 64 a4 be 57 ef f6 bf 6d 91 af bf
       -0.31863707 -0.32107943 -1.9291791 -1.3716255
000070 f9 69 a7 bf 72 50 28 bf 4d 22 13 c0 ac a9 14 3f
       -1.3079215 -0.6574775 -2.2989686 0.580714
000080 19 93 2d 3f af e1 4e 3f 20 9e 1d c0 c8 66 b0 bf
       0.6780258 0.80813116 -2.4627762 -1.3781366
000090 0f 24 14 bf 6a a6 cc bf eb ed d8 bf ff d0 30 bf
       -0.5786752 -1.5988286 -1.6947607 -0.690689
0000a0 87 0e a2 3e e6 ca c3 bf af 1e 28 c0 2b 85 12 c0
       0.31651708 -1.5296295 -2.6268728 -2.289378
0000b0 0b a0 01 c0 1c da da be 04 68 dd bf bd eb a2 3e
       -2.0253932 -0.4274453 -1.7297368 0.3182048
0000c0 86 e9 78 bf 47 dd 47 bf 32 91 87 bf b4 4c 35 c0
       -0.9723133 -0.7807202 -1.0591185 -2.8328066
0000d0 a6 b8 23 c0 2c e1 eb bd 4e c7 a9 3f 2d 6b 0d 3f
       -2.558145 -0.115175575 1.3263948 0.5524166
0000e0 b3 72 b7 bf 55 44 b7 bf 3c 75 b5 bf 82 6e 18 bf
       -1.4331878 -1.4317728 -1.4176402 -0.5954362
0000f0 3f 18 2c c0 e3 18 c3 bf b5 62 23 c0 0b 76 01 bf
       -2.6889799 -1.524197 -2.5528996 -0.50570744
000100 e8 ef 6d bf 7f 5c 42 bf be 93 ad bf a0 b3 9f bf
       -0.9294419 -0.7592239 -1.3560712 -1.2476692
000110 f3 a7 3a 3f 03 c2 2d bf 78 a3 e3 bf 2f d3 8a bf
       0.7291252 -0.67874163 -1.7784262 -1.0845698
000120 aa 52 fa bd 3e 21 8a bf 4c d6 19 c0 72 83 55 c0
       -0.12222798 -1.0791395 -2.4037046 -3.3361478
000130 e6 60 55 bf 58 a5 4c c0 40 eb b3 3d 25 55 0e 3d
       -0.8335098 -3.1975918 0.08785105 0.03474917
000140 60 ea 57 bf 2a b5 cb bf a1 f8 8a bf 34 1c 61 bf
       -0.84342 -1.5914662 -1.0857126 -0.8793366
000150 38 f5 b5 bf cb 98 ac bf e2 7d 16 c0 bf 72 02 c0
       -1.421546 -1.3484129 -2.3514333 -2.0382535
000160 3e 98 39 3e b9 39 b1 bf dc 1f 98 bf cd e1 0e 3f
       0.18124482 -1.384574 -1.1884723 0.55813295
000170 c7 4a 50 bf 55 f7 f7 bf 08 b9 92 bf 95 c2 9c bf
       -0.813641 -1.9372355 -1.1462717 -1.2246882
000180 c0 90 bd 3e d8 94 0a c0 e8 e3 e8 be 2a 6d aa be
       0.37024498 -2.1653347 -0.4548638 -0.3328641
000190 42 7c d3 3e 58 9b aa bf 09 22 07 bf b8 63 c1 bf
       0.4130574 -1.3328657 -0.5278631 -1.5108557
0001a0 5f 9e 4e 3e 02 e1 90 bf 32 db 0b c0 80 23 c1 bf
       0.20177601 -1.1318667 -2.1852536 -1.5088959
0001b0 7d 4a b8 3e fc 12 31 3f 88 e2 26 c0 c1 ad 9d bf
       0.3599433 0.6916959 -2.6075764 -1.231865
0001c0 fb ed ab bf 41 cb a2 bf 4c b1 da 3e 35 ce 80 bf
       -1.3432001 -1.2718278 0.42713392 -1.0062929
0001d0 51 e6 e6 3e b7 63 f1 bf 38 39 8a bf 2b 10 ec bf
       0.45097592 -1.8858556 -1.0798712 -1.8442434
0001e0 e6 c6 2d c0 db f3 11 bd be 58 b3 bd 83 6e d4 bf
       -2.7152648 -0.03563295 -0.087571606 -1.6596226
0001f0 b9 6f b9 3e 9d a7 74 3e 02 57 92 bf 4c 84 df 3e
       0.3621805 0.23892064 -1.1432803 0.43655622
000200 46 26 16 c0 24 ea 0b c0 f8 7a 9d bf 10 7f 55 3e
       -2.346086 -2.1861658 -1.2303152 0.20849252
000210 b7 b7 b8 be 46 73 86 bf 26 43 8b bf ae 1c 27 3e
       -0.36077663 -1.0503929 -1.0879867 0.16319534
000220 07 cd 00 c0 20 77 cc be c4 a1 9a 3f a6 f5 a0 bf
       -2.0125139 -0.39934635 1.2080617 -1.2574966
000230 c2 d5 7f 3f 3e 1a 08 bf eb 4c 97 bf 5d 70 dc bf
       0.99935544 -0.5316504 -1.1820349 -1.722179
000240 97 f8 3a be 79 22 f2 be 57 55 af be 53 09 65 c0
       -0.18258892 -0.47291926 -0.34244797 -3.578694
000250 bc dd dc bf b3 85 16 c0 0f f8 66 bf 6d 72 c8 be
       -1.7255168 -2.3519104 -0.9022226 -0.391498
000260 12 78 48 3f 2f e6 ef bf 26 d1 a6 be 3c a5 13 c0
       0.7830821 -1.8742121 -0.32581443 -2.30696
000270 04 cb 77 bf 2f 0b cb bf e7 f0 b0 be a4 1e 13 be
       -0.9679415 -1.5862788 -0.34558794 -0.14367157
000280 97 4c 8d 3f 48 3b fb bf 32 e5 9f bf b6 8b dc bf
       1.1038998 -1.9627466 -1.249182 -1.7230136
000290 e3 e4 f6 bf a5 52 a0 3e 8a e1 2f c0 22 d6 61 bf
       -1.9288601 0.31313053 -2.7481408 -0.88217366
0002a0 17 14 71 bf 66 64 f6 bf 2f c2 fa bf 63 0b 94 3e
       -0.9417128 -1.9249389 -1.959051 0.28914937
0002b0 24 30 05 bf 68 29 10 c0 b0 93 87 be 22 dd 44 be
       -0.5202658 -2.2525272 -0.26479864 -0.1922498
0002c0 31 dd e0 bd ca ea cd 3e 86 fa b1 3e b2 6d 86 3f
       -0.10979689 0.40218192 0.34761447 1.0502226
0002d0 a3 f8 9e bf 41 91 46 bf 66 ff c7 bf ed e6 d2 bf
       -1.2419628 -0.7756539 -1.5624816 -1.6476723
0002e0 de 29 88 bf cc 5d 24 bf 72 65 fb be 06 43 c1 bf
       -1.0637777 -0.6420562 -0.49100834 -1.5098579
0002f0 2d f0 64 bf a4 c6 03 c0 8d 8f b4 bf 33 27 ba bf
       -0.8942898 -2.058999 -1.4106308 -1.4543213
000300 51 95 b9 bf 57 c3 3b bf bb 9f 3c c0 7f e9 30 bf
       -1.4498693 -0.7334494 -2.9472492 -0.69106287
000310 a9 73 c4 bf c9 83 1e 3f 76 49 9b be 68 26 5e 3f
       -1.5347797 0.6191984 -0.30329484 0.86777353
000320 b1 76 cb bf 58 1e 2c bf ea c1 a7 bf 89 c9 b6 be
       -1.5895597 -0.672338 -1.3106053 -0.35700634
000330 be ca 4a bf 28 9d aa bf 3e 2a d7 bf 1f 3e e0 bf
       -0.7921561 -1.332921 -1.6809766 -1.7518958
000340 e5 4f 2c c0 55 83 99 bf 85 41 29 3f de b4 46 be
       -2.6923764 -1.1993204 0.661156 -0.19404933
000350 75 8e b1 bf 22 b0 e1 bf 8d 9d 48 3e 3d b3 4f bf
       -1.38716 -1.7631876 0.19591351 -0.8113287
000360 55 c9 08 c0 a0 66 88 bf d9 6e f7 bf 30 56 7c bf
       -2.1372883 -1.0656319 -1.9330703 -0.9856901
000370 dc 38 91 bf db 97 a0 bf 91 63 d0 bf ce 6f 8a 3f
       -1.1345477 -1.2546343 -1.6280385 1.081537
000380 60 37 0c be ea a8 32 c0 c5 85 d3 be a9 cc 96 bf
       -0.13692999 -2.7915597 -0.41312996 -1.1781207
000390 07 b9 92 bf c5 1a 0a bf d6 38 b3 bf e8 80 80 bf
       -1.1462716 -0.539471 -1.400172 -1.0039339
0003a0 a8 45 4a bf 00 30 37 bf ec 6f 51 bf 8f 3e 9c bf
       -0.79012537 -0.7155762 -0.81811404 -1.2206591
0003b0 f8 50 29 c0 ff 93 55 bf 5c 26 42 3f 57 fe 25 be
       -2.645567 -0.8342895 0.7583978 -0.16210304
0003c0 97 16 db bf 10 ef 25 bf 7a da 82 bf c4 3a b0 bf
       -1.7116269 -0.64817905 -1.0222924 -1.3767934
0003d0 e9 62 a9 bf 82 84 74 c0 69 49 45 bf 4b 5b d9 be
       -1.323331 -3.8205876 -0.7706514 -0.42452464
0003e0 b6 6c e3 be 42 b9 bb bf 84 04 18 be 08 64 1e 3e
       -0.44418877 -1.4665911 -0.14845473 0.15467846
0003f0 95 8c 26 c0 69 0b f4 bf 2b f1 27 bd f9 1e 02 c0
       -2.6023304 -1.9065982 -0.04100148 -2.0331404
