results/checkpoint_0_critic_local.pt (torch_old, 149155 bytes, 5 tensors)

layers.0.weight f4 [128, 24]
0	0xbe8ee907	-0.2791216
1	0xbe50cd4a	-0.20390812
2	0xbd8362f4	-0.06415358
3	0xbcbddcda	-0.0231766
4	0xbdfda3d0	-0.123847604
5	0xbe8e3236	-0.27772683
6	0xbcbe144c	-0.023203038
7	0x3d895360	0.06705356
8	0xbd785087	-0.06062367
9	0xbd6d7874	-0.0579762
10	0xbe059556	-0.13045248
11	0xbdc3b106	-0.09555249
12	0xbc239f9d	-0.009986785
13	0xbdc506d6	-0.096204445
14	0xbe49c1d1	-0.19702841
15	0xbdd51035	-0.10403482
16	0xbdb27377	-0.087134294
17	0xbd0eecc2	-0.03489376
18	0xbdfc0c88	-0.12307078
19	0xbe01c4c0	-0.1267271
20	0xbd1b24f3	-0.037877034
21	0xbd5e0b67	-0.054210093
22	0x3b94acb9	0.0045371917
23	0xbe3306b5	-0.17483027
24	0xbde241ce	-0.110477075
25	0xbd92480e	-0.071426496
26	0xbd6e2dc6	-0.05814912
27	0xbe370df7	-0.17876421
28	0x3b71d85d	0.0036902644
29	0xbe10053b	-0.14064495
30	0xbc758d78	-0.014987342
31	0xbdab6971	-0.08369721
32	0xbd9d3325	-0.07675771
33	0x3c8eebd1	0.01744643
34	0xbe6efeb5	-0.2333935
35	0xbd0ab739	-0.03386614
36	0xbd0b4ac6	-0.034006856
37	0xbe21b6c5	-0.15792377
38	0xbd397fa8	-0.045287758
39	0xbe1d9089	-0.15387167
40	0xbe15e57f	-0.14638327
41	0xbdf916e2	-0.12162568
42	0xbd9f8c8a	-0.077904776
43	0xbdae6cab	-0.085168205
44	0xbe4752b4	-0.19465142
45	0xbdf2dd0b	-0.11858567
46	0xbe323ded	-0.17406435
47	0xbdce6fb5	-0.100799
48	0xbde11b5e	-0.10991548
49	0xbdfbe0fb	-0.12298771
50	0x3e09592d	0.13412924
51	0xbe1ef4d9	-0.1552309
52	0x3d18f14c	0.037339494
53	0xbd5c9d37	-0.05386087
54	0xbe59b9f2	-0.21262339
55	0xbce8c4dd	-0.028414184
56	0xbe8c6a8a	-0.27425033
57	0x3e0012a6	0.12507114
58	0xbdb8bc26	-0.090202615
59	0xbdc27383	-0.09494688
60	0xbd09f0b0	-0.033676803
61	0xbdebfc31	-0.11522711
62	0xbe2c7975	-0.16843207
63	0xbe4294dd	-0.190021
64	0xbe30caa8	-0.17264807
65	0x3d14f17c	0.03636311
66	0xbcc3306e	-0.023826804
67	0x3cbdecc5	0.02318419
68	0xbd47b82b	-0.04875962
69	0xbd133151	-0.035935704
70	0xbe31bb5e	-0.17356631
71	0xbccc4270	-0.024934024
72	0xbd833ee2	-0.06408478
73	0xbe0e2812	-0.13882473
74	0xbe85f37e	-0.26162332
75	0xbe2b457d	-0.16725726
76	0xbe4f5508	-0.2024728
77	0xbb523bac	-0.0032079024
78	0xbe28dfec	-0.1649167
79	0xbd82688a	-0.063675955
80	0xbe31afbf	-0.17352198
81	0xbdce1138	-0.10061878
82	0xbb00175c	-0.0019545173
83	0xbde02756	-0.10945003
84	0xbde6dc97	-0.11272543
85	0xbcf0e64b	-0.029406687
86	0xbd0755e1	-0.033040885
87	0xbd9c3255	-0.076267876
88	0x3d532cf3	0.05155654
89	0xbccb207d	-0.024795765
90	0xbd9176ff	-0.07102775
91	0xbe472243	-0.19446664
92	0xbe48a652	-0.19594696
93	0xbdd2635c	-0.102728575
94	0xbe519d88	-0.2047025
95	0xbd7a73bc	-0.06114553
96	0xbd5aa806	-0.053382896
97	0xbdf937a2	-0.12168814
98	0xbd40468a	-0.04694227
99	0xbe1f40fa	-0.1555213
100	0xbdd4f9be	-0.10399197
101	0xbe49fa9b	-0.19724505
102	0xbe28eb22	-0.16495946
103	0xbdd1e350	-0.102484345
104	0xbdf19859	-0.11796636
105	0x3d1a7ce8	0.037716776
106	0xbd225d54	-0.039639786
107	0xbdc2104b	-0.09475764
108	0x3c9daec6	0.019248378
109	0x3ce36485	0.027757892
110	0xbd4978e2	-0.04918755
111	0xbc25f905	-0.010130172
112	0xbdce0d82	-0.1006117
113	0xbcc8a3de	-0.0244922
114	0xbe24933b	-0.16071789
115	0xbde0320b	-0.10947045
116	0xbd23cb17	-0.039988603
117	0xbbb32262	-0.0054667452
118	0xbeb4b18a	-0.35291702
119	0xbe4db2ec	-0.20087785
120	0xbe354f0d	-0.17705937
121	0x3d41b282	0.04728938
122	0xbe1a9ea8	-0.15099585
123	0xbe0c2f82	-0.13689998
124	0xbd5a6d68	-0.053326994
125	0xbe8add68	-0.27122045
126	0xbe3ccff0	-0.18438697
127	0xbdae1b1b	-0.08501264
128	0xbe37492b	-0.17899005
129	0xbdf52c94	-0.11971393
130	0xbe7ac578	-0.24489391
131	0xbe5f8e52	-0.21831635
132	0xbe3edb0d	-0.18638249
133	0xbe2eb3d6	-0.1706079
134	0x3c1fc78b	0.009752165
135	0xbe0c696e	-0.13712093
136	0xbe6a3664	-0.22872311
137	0xbd681143	-0.056657087
138	0x3bae8ec6	0.0053270785
139	0xbd6d0154	-0.057862595
140	0xbda7190a	-0.08159073
141	0xbe30920b	-0.17243211
142	0xbd408b2a	-0.047007717
143	0xbe30f45a	-0.17280713
144	0xbc116d3d	-0.008876142
145	0xbd00f993	-0.031488013
146	0xbd9571a2	-0.07297064
147	0x3c82fbc0	0.015989184
148	0xbc6e14ca	-0.014531324
149	0xbde2ded9	-0.11077661
150	0xbe222e50	-0.1583798
151	0xbe374c03	-0.1790009
152	0xbd6c9b1d	-0.057765115
153	0xbe0a0223	-0.13477378
154	0xbe1e5567	-0.15462266
155	0xbe0fe408	-0.14051831
156	0x3d067e59	0.03283534
157	0xbdcb4311	-0.09924901
158	0xbd1641f7	-0.036684003
159	0xbdfe9c05	-0.12432102
160	0xbe1eb55a	-0.15498868
161	0xbe30399f	-0.1720948
162	0xbcaaec94	-0.020864762
163	0xbc043aed	-0.00807069
164	0x3d8078b3	0.062730215
165	0x3e0e6e25	0.13909204
166	0x3d734dff	0.059400555
167	0x3d0de659	0.034643505
168	0x3d95b87b	0.073105775
169	0xbcbc2d0a	-0.022970695
170	0xbd4d6b9a	-0.050151445
171	0x3dede15c	0.116152495
172	0xbdbc1060	-0.09182811
173	0xbdd63ac8	-0.104604304
174	0xbe077690	-0.13228822
175	0x3d88d1b4	0.06680623
176	0xbd8e0586	-0.06934647
177	0xbe73a920	-0.23794985
178	0x3c4cca2b	0.0124993725
179	0xbe349490	-0.17634797
180	0xbe6e30e0	-0.23260832
181	0xbd82b195	-0.06381527
182	0xbe4901e3	-0.19629626
183	0xbc00dcc4	-0.007865135
184	0xbcb02465	-0.02150173
185	0xbe0b6986	-0.13614473
186	0xbcbe42ef	-0.023225276
187	0xbc5c3dc3	-0.0134424595
188	0xbdd1b3ee	-0.10239397
189	0xbc177d3e	-0.009246169
190	0xbddd0bdb	-0.10793277
191	0xbcfeb73a	-0.031093229
192	0xbd1d1c3b	-0.038357
193	0x3d474d2a	0.048657574
194	0xbe0dff46	-0.1386691
195	0xbe663562	-0.22481301
196	0xbe657d05	-0.22410972
197	0x3bd5e55b	0.0065275854
198	0xbd941e76	-0.072323725
199	0xbe0db37f	-0.13838004
200	0xbd4ba814	-0.04972084
201	0xbe0f4deb	-0.13994567
202	0xbd95a0f1	-0.07306088
203	0xbca633ba	-0.020288337
204	0x3cceb688	0.025233522
205	0xbdef5009	-0.11685187
206	0xbd351cbd	-0.04421686
207	0xbdac1490	-0.084023595
208	0xbd103588	-0.0352073
209	0xbd25c4d8	-0.040470928
210	0xbde070e5	-0.10959033
211	0xbddcf5cd	-0.1078907
212	0xbdec5eba	-0.11541505
213	0x3dd1d84e	0.10246335
214	0xbd5d6807	-0.054054286
215	0x3d768550	0.06018573
216	0x3db7c507	0.08973127
217	0xbe2d6980	-0.16934776
218	0xbe26384c	-0.16232413
219	0xbe142055	-0.14465459
220	0xbdaeb611	-0.0853082
221	0x3dc60713	0.09669318
222	0xbdea0c18	-0.11428088
223	0xbe45669d	-0.19277425
224	0xbd868984	-0.06569198
225	0xbe1c8dc7	-0.15288459
226	0xbdf3c046	-0.119019076
227	0xbe44c61e	-0.192162
228	0xbd68221c	-0.056673154
229	0xbac1154e	-0.0014731081
230	0xbe8f3320	-0.27968693
231	0xbe94af09	-0.2903979
232	0x3ca025a9	0.019549208
233	0xbd2aebfb	-0.041728955
234	0xbd48deb7	-0.049040522
235	0x3cf1824c	0.029481076
236	0xbe8c9140	-0.27454567
237	0xbda702c5	-0.08154825
238	0xbe3017d9	-0.17196597
239	0xbd6c1b40	-0.057643175
240	0xbd5350c9	-0.051590715
241	0xbd0f64ab	-0.035008114
242	0xbcf25666	-0.029582214
243	0xbe08d3e0	-0.13362074
244	0xbe19fd71	-0.15038086
245	0xbe3c4fa4	-0.18389755
246	0x3d411fe4	0.047149554
247	0xbe205041	-0.15655614
248	0x3bec86c2	0.007218213
249	0x3c5f210c	0.013618719
250	0x3da0eca3	0.07857635
251	0xbe6e08b3	-0.23245506
252	0xbe7b445e	-0.24537799
253	0xbd8398b5	-0.06425611
254	0xbd966965	-0.07344321
255	0xbe136ecf	-0.14397739

layers.0.bias f4 [128]
0	0xbe0474ab	-0.1293513
1	0x3d94e578	0.0727033
2	0xbe487070	-0.19574142
3	0xbdf52915	-0.119707264
4	0xbd8ad12e	-0.06778179
5	0x3d891217	0.066929035
6	0x3db3ae30	0.08773458
7	0xbe18c416	-0.14918551
8	0x3c14dc6c	0.009085756
9	0xbd8e52dd	-0.06949399
10	0xbdd2aec0	-0.10287237
11	0x3c009963	0.00784907
12	0x3ddbd822	0.107345834
13	0x3e122f4b	0.14275853
14	0x3e494150	0.19653821
15	0x3dcf57a7	0.1012414
16	0x3e155c0b	0.14585893
17	0x3d9a6db0	0.075404525
18	0x3da832aa	0.082127884
19	0xbcfaf2f9	-0.030633437
20	0xbdaeff33	-0.08544769
21	0xbe05f3b2	-0.13081244
22	0x3c8ebb8e	0.017423417
23	0x3dffc3bf	0.124885075
24	0xbe284459	-0.16432323
25	0xbe2d6184	-0.1693173
26	0x3e33858d	0.17531414
27	0x3e46169e	0.19344565
28	0xbe490ea8	-0.19634497
29	0xbdfdd745	-0.12394575
30	0xbd3615a9	-0.04445425
31	0xbe13d07e	-0.14435002
32	0x3ca8533f	0.020547507
33	0xbd495468	-0.04915276
34	0x3d499f76	0.04922434
35	0xbc529ad9	-0.012854301
36	0x3d903660	0.07041621
37	0xbd3ead20	-0.046551824
38	0x3cfa93f1	0.030588122
39	0xbccd31ff	-0.025048254
40	0x3d6e3d07	0.05816367
41	0xbbbe7db1	-0.0058133234
42	0x3dee9788	0.11649996
43	0xbddacff1	-0.10684193
44	0x3d966aca	0.07344587
45	0xbbcf3597	-0.006323527
46	0x3ddf92d0	0.10916674
47	0xbe314b4d	-0.17313881
48	0xbe0bbe97	-0.13646923
49	0xbd2fabcd	-0.04288845
50	0x3dcddf02	0.10052301
51	0x3e029d9c	0.12755436
52	0x3d44c123	0.048035752
53	0xbdbd2273	-0.09235086
54	0x3e0e4c48	0.13896286
55	0xbe09369d	-0.1339974
56	0x3d1f866c	0.038946554
57	0x3e0077c9	0.12545694
58	0x3e400d0b	0.18754975
59	0xbaff80fa	-0.0019493394
60	0xbdac748a	-0.084206656
61	0x3db69063	0.08914258
62	0x3e478954	0.1948598
63	0xbe291cc0	-0.16514874
64	0xbe558fae	-0.2085559
65	0xbd146669	-0.03623048
66	0xbdc4a93a	-0.0960259
67	0xbddef063	-0.10885694
68	0xbe179156	-0.14801535
69	0x3d09a58a	0.033605136
70	0xbdf73875	-0.12071315
71	0x3ddf1718	0.10893077
72	0x3e3f0220	0.18653154
73	0xbe472ce9	-0.19450726
74	0x3cab35ba	0.020899642
75	0x3e410778	0.18850505
76	0x3e40636f	0.18787931
77	0xbd81fc26	-0.063469216
78	0x3de7bb98	0.113150775
79	0x3dbec16e	0.093142375
80	0x3e1840c6	0.14868459
81	0xbcc9f569	-0.024653153
82	0xbd2a2380	-0.04153776
83	0xbd97585b	-0.07389899
84	0x3d39c337	0.045352187
85	0x3d541eab	0.05178706
86	0xbd9b76a2	-0.07590987
87	0xbe1c8acb	-0.1528732
88	0x3e4196c0	0.18905163
89	0xbdf505e5	-0.11964015
90	0x3bb1e334	0.005428696
91	0xbdb3754a	-0.087626055
92	0xbd62bb44	-0.05535437
93	0xbe5e7977	-0.21726023
94	0xbdb1fab6	-0.086903974
95	0x3d9ade3c	0.07561919
96	0x3e0ba206	0.13636026
97	0x3e2ee48e	0.17079374
98	0xbda8d04c	-0.082428545
99	0xbe00c6d5	-0.12575848
100	0xbe31e727	-0.17373334
101	0xbd89bb0c	-0.067251295
102	0xbe3ebb35	-0.18626101
103	0xbe079e57	-0.13243996
104	0xbdb3f214	-0.08786407
105	0x3e3cbf0e	0.18432257
106	0xbdfa72e7	-0.12228947
107	0xbe124c36	-0.14286885
108	0xbd5449b4	-0.0518281
109	0x3e03aaef	0.12858175
110	0xbd61570d	-0.05501466
111	0xb8d30a0e	-0.00010063137
112	0x3df33d79	0.11876959
113	0x3dc12a6d	0.0943192
114	0x3e1ca15b	0.15295927
115	0xbdea96db	-0.11454555
116	0x3e31ed1c	0.17375606
117	0xbe3c8d7f	-0.18413351
118	0xbe0ed489	-0.13948263
119	0xbce0b924	-0.027432032
120	0x3d87e140	0.0663476
121	0xbce91dc7	-0.028456582
122	0x3e367726	0.17818889
123	0x3c62a6ab	0.013833682
124	0xbd9e13d2	-0.07718624
125	0xbcedb931	-0.02901897
126	0x3bc11a34	0.0058930162
127	0x3d145d7c	0.036221966

layers.2.weight f4 [256, 130]
0	0xbd09f522	-0.033681042
1	0xbdb4ca7b	-0.088276826
2	0x3c949b40	0.018140435
3	0xbe35bf8e	-0.17748854
4	0xbd117ec6	-0.03552129
5	0xbdeeffca	-0.11669882
6	0xbe15a031	-0.1461189
7	0xbe68db51	-0.22739913
8	0xbd2d0cfb	-0.042248707
9	0x39623e00	0.00021576136
10	0xbd955975	-0.07292453
11	0xbdafabe5	-0.08577708
12	0xbe1925ed	-0.14955874
13	0xbe38bcfe	-0.18040845
14	0xbda020e1	-0.07818771
15	0xbd66fff5	-0.056396443
16	0x3daa7492	0.08323015
17	0xbd8776fa	-0.0661449
18	0xbe5dbf87	-0.21655093
19	0xbd9e2f83	-0.07723906
20	0xbce0fe4c	-0.027465008
21	0xbc9ae4b2	-0.018907879
22	0xbd584ebf	-0.052809473
23	0xbc9cc2ab	-0.019135794
24	0xbcee7e72	-0.029113028
25	0xbdbcc4e1	-0.09217239
26	0xbda5c02d	-0.08093295
27	0xbcd08252	-0.025452767
28	0xbc5d8234	-0.013519812
29	0xbcf292e9	-0.029611068
30	0xbc903c96	-0.017607015
31	0xbd72c918	-0.05927381
32	0xbdda8318	-0.106695354
33	0xbd536b9a	-0.05161629
34	0xbc8816c4	-0.016612418
35	0x3cd7dbe0	0.026349962
36	0xbda51d66	-0.08062248
37	0x3886ac00	6.4216554e-05
38	0x3d35f272	0.044420667
39	0xbd9a7ced	-0.07543359
40	0x3dd6754a	0.1047159
41	0xbdafb4b3	-0.085793875
42	0xbcf8481c	-0.030307822
43	0xbddeb909	-0.108751364
44	0xbdd42d40	-0.10360193
45	0xbddff9a4	-0.10936287
46	0xbdd17334	-0.102270514
47	0xbcdc7100	-0.026909351
48	0xbc91f806	-0.017818462
49	0xbdd131b2	-0.10214557
50	0xbd316b17	-0.04331502
51	0xbd0c2e54	-0.03422387
52	0xbe0a49d4	-0.13504726
53	0xbdc2afea	-0.09506209
54	0xbc035dc4	-0.008017961
55	0x3c0f7b80	0.008757472
56	0xbe1f4781	-0.1555462
57	0xbe164bf5	-0.14677413
58	0xbcea5b80	-0.028608084
59	0xbe018865	-0.12649687
60	0xbdd4528d	-0.10367308
61	0xbe0aaeb1	-0.13543202
62	0xbca1bbf2	-0.01974294
63	0xbdd0d76e	-0.1019734
64	0xbc8a09fc	-0.016850464
65	0xbd610edb	-0.054945808
66	0x3ca26df8	0.019827828
67	0x3ca97910	0.02068761
68	0xbcd0e9e0	-0.025502145
69	0xbcd508ee	-0.026005235
70	0xbe059aaa	-0.13047281
71	0xbc43f080	-0.011959195
72	0xbe1827a2	-0.14858869
73	0xbdde93a6	-0.108680055
74	0xbdab7e9a	-0.08373757
75	0xbdfc945c	-0.12332985
76	0xbdc3c47e	-0.09558962
77	0xbe19b22f	-0.15009378
78	0xbc425df0	-0.011863217
79	0x3d1e0b6c	0.03858511
80	0xbd84a897	-0.064774685
81	0xbd2b99b1	-0.04189462
82	0xbdbe50f8	-0.09292787
83	0xbe29c98e	-0.16580793
84	0xbdebf291	-0.11520875
85	0xbd7dd7c6	-0.061973356
86	0xbc8abc2a	-0.016935427
87	0xbde2da30	-0.11076772
88	0xbd82a11f	-0.06378388
89	0x3cf958e7	0.0304379
90	0xbdbb2705	-0.09138302
91	0xbda43ab5	-0.0801901
92	0xbd1368f3	-0.03598876
93	0xbd79329f	-0.06083929
94	0xbd50692a	-0.050881542
95	0xbdd7b007	-0.105316214
96	0xbd17302e	-0.036911182
97	0xbde4207e	-0.1113901
98	0xbe06bb18	-0.13157308
99	0x3bf9e524	0.0076261926
100	0xbda34715	-0.07972542
101	0xbc7c9264	-0.015415762
102	0xbd56f8fc	-0.052483544
103	0x3c891e38	0.016738042
104	0xbe36244b	-0.17787282
105	0x3cac5314	0.021035708
106	0x3d6aeeb9	0.05735657
107	0x3c869a38	0.01643096
108	0xbd37e18a	-0.044892825
109	0xbe15b00e	-0.14617941
110	0xbd1ebb70	-0.038752973
111	0xbe53787c	-0.2065143
112	0x3ac14e40	0.0014748052
113	0xbe07e7a1	-0.13271953
114	0xbd888e18	-0.06667727
115	0xbe042c3e	-0.12907502
116	0xbc9498ee	-0.018139329
117	0xbd965d2d	-0.073419906
118	0xbda82ba2	-0.08211447
119	0xbe0d11f8	-0.13776386
120	0xb9ef3e80	-0.00045632198
121	0xbcea3eea	-0.028594453
122	0xbdc70ff9	-0.097198434
123	0xbdd77d7b	-0.105219804
124	0xbd82b4c0	-0.063821316
125	0xbdb98e58	-0.09060353
126	0xbd9a318c	-0.075289816
127	0xbe31df07	-0.17370234
128	0xbceab89f	-0.028652487
129	0xbd74241d	-0.059604753
130	0xbc9c5b3f	-0.019086478
131	0xbdef697d	-0.11690042
132	0xbda09d2d	-0.07842479
133	0xbd37cacc	-0.044871137
134	0xbe11f6c1	-0.14254285
135	0xbe31c3d2	-0.17359856
136	0xbd30cf83	-0.04316665
137	0xbd926fa4	-0.071502
138	0xbd5da01d	-0.054107774
139	0xbe02ea4e	-0.12784693
140	0xbd524dd1	-0.051343743
141	0xbdb0a438	-0.08625072
142	0xbbe643f0	-0.0070271417
143	0xbda8fa86	-0.082509086
144	0x3bea95f2	0.007158988
145	0xbbee8c36	-0.007279898
146	0x3d77cf48	0.060500413
147	0x3d18630b	0.03720383
148	0x3d45ef2a	0.048323788
149	0x3bbf1931	0.0058318605
150	0xbdac9348	-0.08426529
151	0xbdd095cb	-0.10184821
152	0x3dafdb9c	0.08586809
153	0x3d7a9855	0.06118043
154	0xbd89eb5a	-0.06734343
155	0xb91d8400	-0.0001502186
156	0xbde9e486	-0.114205405
157	0xbd6f4840	-0.058418512
158	0xbd93103d	-0.071808316
159	0xbce063a8	-0.02739127
160	0xbd32094c	-0.043465897
161	0x3d94c2ce	0.072637185
162	0xbd930be2	-0.07180001
163	0x3ca018ec	0.019543134
164	0x3c11c02c	0.008895915
165	0x3dbf176c	0.09330639
166	0xbc5d18c2	-0.013494672
167	0xbe17cfaf	-0.14825319
168	0x3c94fc94	0.018186845
169	0xbdb73f01	-0.08947564
170	0x3dc48daf	0.095973365
171	0xbd644674	-0.05573125
172	0xbd8a0f18	-0.0674116
173	0xbcecf50c	-0.028925441
174	0xbd84d530	-0.06485975
175	0xbe0d62d1	-0.13807227
176	0xbd431d9d	-0.047635663
177	0xbe2d5866	-0.16928253
178	0x3d711a13	0.058862757
179	0xbc3dc223	-0.01158193
180	0xbd37efa0	-0.04490626
181	0xbe2f2b24	-0.171063
182	0xbdb8edf0	-0.09029758
183	0x3d4c998d	0.049951125
184	0xbe329d28	-0.17442763
185	0xbd7eec7e	-0.062237255
186	0xbdebe252	-0.115177765
187	0xbdb10c50	-0.086449265
188	0xbc61e91d	-0.013788489
189	0xbdb45eb6	-0.08807127
190	0xbda80a43	-0.08205082
191	0x3dffd041	0.12490893
192	0xbcf8636f	-0.030320851
193	0x3cccf48e	0.025018957
194	0xbdcc066e	-0.09962164
195	0xbe1085f2	-0.14113596
196	0xbca678ba	-0.020321239
197	0xbc1aabda	-0.009440387
198	0xbcb5a4d2	-0.022173319
199	0xbdfeb75f	-0.12437319
200	0xbe1e5ffc	-0.15466303
201	0xbdb52bb6	-0.08846228
202	0xbccdd292	-0.025124822
203	0xbd680b54	-0.05665143
204	0xbce16d4c	-0.027517937
205	0xbde35772	-0.11100663
206	0x3d8ef90c	0.06981096
207	0x3e18d63d	0.14925475
208	0x3d4c8314	0.049929693
209	0x3ca5ea83	0.020253425
210	0xbde92464	-0.11383894
211	0x3d45bb11	0.048274104
212	0xbd86ccf0	-0.065820575
213	0xba4ad380	-0.00077372044
214	0xbcd718a9	-0.026256876
215	0xbd440aec	-0.04786198
216	0x3c976ec6	0.018485438
217	0x3c268eaa	0.01016585
218	0xbe0798d2	-0.1324189
219	0xbd815a25	-0.06316022
220	0xbce21938	-0.027599916
221	0xbe02f148	-0.12787354
222	0xbe3c15a9	-0.18367638
223	0x3d367842	0.04454828
224	0xbe111826	-0.14169368
225	0x3d237dc0	0.039914846
226	0xbdb57d24	-0.08861759
227	0xbb889f94	-0.004169414
228	0x3d8b0a16	0.06789033
229	0xbdabc7d3	-0.08387723
230	0x3db254db	0.08707591
231	0xbe1bcdc1	-0.15215208
232	0xbd098197	-0.033570852
233	0xbd748fd5	-0.05970748
234	0xbcd7e4ec	-0.026354276
235	0xbd9784f8	-0.07398409
236	0x3ce8a185	0.028397331
237	0xbc817d47	-0.015806807
238	0xbcec9268	-0.028878406
239	0xbd9b620e	-0.07587062
240	0xbd5feb12	-0.05466754
241	0xbdf9c0a3	-0.12194946
242	0xbda0bf6c	-0.07849011
243	0xbd968f91	-0.07351602
244	0xbd59a87b	-0.05313919
245	0xbda864ce	-0.08222352
246	0xbcf52da3	-0.029928988
247	0xbde80daf	-0.11330735
248	0xbceeb5dc	-0.029139452
249	0xbd33a43b	-0.043857794
250	0xbdf48af1	-0.119405635
251	0xbc6309f9	-0.013857358
252	0x3d08261c	0.03323947
253	0xbdbc7b7d	-0.09203241
254	0x3c8fb974	0.017544486
255	0xbd42c302	-0.047549255

layers.2.bias f4 [256]
0	0xbdb76c32	-0.089561835
1	0xbdea86ee	-0.11451517
2	0xbd189274	-0.037249044
3	0x3db79edc	0.08965847
4	0x3daa35bf	0.083110325
5	0xbd452db0	-0.048139274
6	0xbdd99d4f	-0.10625707
7	0xbd8f4e08	-0.06997305
8	0xbdbb8574	-0.091563135
9	0x3cd67d00	0.026182652
10	0xba9adf1e	-0.0011815762
11	0xbda28562	-0.07935597
12	0xbda22ae1	-0.07918335
13	0xbca2bcf3	-0.019865489
14	0x3dd53e6f	0.10412299
15	0xbdddd26a	-0.10831149
16	0xbda8fabc	-0.08250949
17	0xbdce2aad	-0.100667335
18	0xbdcd1434	-0.10013619
19	0xbdf7bbf9	-0.120964
20	0x3c27ffc0	0.010253847
21	0x3bcb502e	0.0062046265
22	0x3c824257	0.015900774
23	0x3aa6acd5	0.0012716303
24	0xbdd33419	-0.10312671
25	0xbd665fc3	-0.05624367
26	0xbc6afd03	-0.014342549
27	0xbdd42a03	-0.103595756
28	0xbdbde3aa	-0.09271939
29	0xbdfd61d8	-0.12372178
30	0xbdfc1a94	-0.12309757
31	0x3cd42f97	0.025901599
32	0x3ca857ca	0.020549674
33	0x3dcb3bc5	0.099235095
34	0xbd5811d0	-0.052751362
35	0xbd9ca840	-0.07649279
36	0xbdc5af02	-0.09652521
37	0xbdc5b400	-0.09653473
38	0xbddb97c3	-0.107223056
39	0x3c5daeae	0.013530416
40	0xbc2001fe	-0.0097661
41	0xbde54def	-0.11196505
42	0xba75da25	-0.00093785144
43	0x3d3bdc38	0.045864314
44	0xbdd320b2	-0.103089705
45	0xbda0f23f	-0.07858705
46	0xbd9c9f5c	-0.07647583
47	0x3c0e0fdf	0.008670776
48	0xbd82cfd7	-0.063872986
49	0xbdb03b32	-0.086050406
50	0xbdaa57b9	-0.08317513
51	0xbd2aa2d0	-0.041659176
52	0xbd842c82	-0.06453802
53	0xbdd97018	-0.10617083
54	0x3d40727f	0.046984192
55	0x3e02bf82	0.12768367
56	0xbc87a768	-0.016559318
57	0xbdc2a51b	-0.095041476
58	0xbd82b021	-0.0638125
59	0x3dbc57db	0.091964446
60	0xbd9db87d	-0.07701204
61	0xbe25443f	-0.16139315
62	0xbdf4a01d	-0.11944602
63	0xbdcb9d24	-0.099420816
64	0xbdfc8e9f	-0.1233189
65	0xbda503e9	-0.080573864
66	0xbd9ad7eb	-0.07560714
67	0x3d283f8e	0.041076235
68	0xbcb1e775	-0.021716813
69	0x3ae4981f	0.0017440355
70	0xbd822746	-0.06355147
71	0x3d43fb47	0.04784706
72	0x3cb753f5	0.022378901
73	0xbd9f898a	-0.07789905
74	0x3d2d0596	0.042241655
75	0xbc518f0c	-0.012790453
76	0xbdafde69	-0.08587343
77	0xbcac015a	-0.020996738
78	0x3daea562	0.08527638
79	0xbd1a74e8	-0.037709147
80	0x3d120347	0.035647657
81	0xbde8bf71	-0.113646396
82	0xbd97f2d2	-0.07419361
83	0xbd725c24	-0.059169903
84	0xbd963466	-0.07334213
85	0xbb8647b2	-0.004097902
86	0xbd804f26	-0.06265096
87	0xbd837215	-0.06418244
88	0x3d5ba4b1	0.05362386
89	0xbda41072	-0.08010949
90	0xbe019433	-0.1265419
91	0x3db31aa5	0.087453164
92	0xbcfef312	-0.031121764
93	0xbe115e32	-0.14196089
94	0xbd85e49c	-0.065377444
95	0xbd8c19f8	-0.06840891
96	0x3d64984f	0.055809315
97	0xbdcbf9e3	-0.099597715
98	0xbe13c26a	-0.14429632
99	0x3b6944c6	0.003559397
100	0x3d6c4b76	0.057689153
101	0xbd1e2819	-0.03861246
102	0xbdc4c81b	-0.096084796
103	0xbd8e8a48	-0.06959969
104	0x3da4a2a0	0.08038831
105	0x3d55bffd	0.052185047
106	0xbe12633f	-0.14295672
107	0xbdcc47ac	-0.09974608
108	0x3a9d29bc	0.0011990587
109	0x3d10a7d0	0.03531629
110	0xbd421c3c	-0.047390208
111	0xbda0625d	-0.07831261
112	0xbdad33b7	-0.084571294
113	0xbdc1694a	-0.094439104
114	0xba8e552d	-0.0010859125
115	0x3d097363	0.033557307
116	0xbb6d9a7a	-0.0036255405
117	0xbd2462b4	-0.040133193
118	0xbda5b1b9	-0.080905385
119	0xbaed1f8e	-0.0018091069
120	0xbdde0b6c	-0.10842022
121	0x3cc75dba	0.024336684
122	0xbdcea8a6	-0.10090761
123	0xbd5e4102	-0.054261215
124	0xbc8d1537	-0.01722203
125	0x3d91e7fe	0.07124327
126	0xbdaad1a3	-0.08340766
127	0x3c993cb9	0.018705713
128	0xbd862a92	-0.065510884
129	0xbb26716b	-0.0025397192
130	0xbdb4fb44	-0.088369876
131	0x3cc79956	0.024365108
132	0xbdbbe497	-0.091744594
133	0xbd5e8f98	-0.05433616
134	0xbd0708f9	-0.03296754
135	0xbd05f429	-0.032703552
136	0xbdb99d54	-0.09063211
137	0xbd6fc7c5	-0.058540124
138	0x3dcf3d09	0.101190634
139	0xbd86be2a	-0.0657924
140	0x3d4d0754	0.050055817
141	0xbdbe6c88	-0.092980444
142	0xbda3b8cc	-0.079942316
143	0xbdd88db9	-0.105739065
144	0xbd29ded0	-0.041472256
145	0xbe023e6c	-0.12719125
146	0xbdf1340c	-0.11777505
147	0xbcf99b14	-0.030469455
148	0xbdcffc16	-0.101555035
149	0xbdbf41d5	-0.09338728
150	0xbdae7b87	-0.08519655
151	0xbde3b21a	-0.111179546
152	0x3dd88c84	0.10573676
153	0xbda5f4e5	-0.081033505
154	0x3d75b4e0	0.05998695
155	0x3cc8d02b	0.024513325
156	0xbd763b67	-0.060115244
157	0xbdb7323e	-0.0894513
158	0x3c038e51	0.008029536
159	0xbdf749ca	-0.12074621
160	0x3da8568f	0.08219635
161	0xbda84c1b	-0.08217641
162	0xbadbacc6	-0.0016759865
163	0xbdc71fe1	-0.09722877
164	0x3ccbe8b1	0.02489123
165	0x3bdec708	0.0067986287
166	0xbe0d239e	-0.13783118
167	0x3cd08c80	0.02545762
168	0xbd9663e2	-0.0734327
169	0xbd994f7a	-0.07485862
170	0xbd975a12	-0.073902264
171	0x3d27503f	0.040848013
172	0xbd361357	-0.044452038
173	0xbe19fbaa	-0.15037408
174	0xbd748405	-0.059696216
175	0xbdbb2038	-0.091370046
176	0xbd5d0191	-0.053956572
177	0x3dad0646	0.08448462
178	0xbd755863	-0.059898745
179	0x3da748d4	0.08168188
180	0xbdb6c04d	-0.08923397
181	0x3b72bdc7	0.0037039386
182	0xbd5712d9	-0.05250821
183	0xbdd901aa	-0.105960205
184	0xbda784ea	-0.08179648
185	0xbd4dc45d	-0.050236095
186	0xbd80c358	-0.06287259
187	0xbddc6bd5	-0.10762755
188	0xbd9c839e	-0.076422915
189	0xbab52c56	-0.0013822417
190	0xbcdd7e1e	-0.027037676
191	0x3d62e531	0.055394355
192	0xbca525ed	-0.020159686
193	0xbd95acf2	-0.07308377
194	0xbd88c1ab	-0.06677564
195	0xbde4a892	-0.11164965
196	0xbe001375	-0.12507422
197	0x3cde097f	0.027104137
198	0xbd8ba9d6	-0.06819503
199	0xbd83cde2	-0.064357534
200	0xbc794d0c	-0.015216123
201	0xbe01d140	-0.12677479
202	0x3d32af6e	0.043624334
203	0xbda79ea8	-0.08184558
204	0xbda23aae	-0.079213485
205	0xbd7d889a	-0.06189785
206	0xbd3e6ec1	-0.046492342
207	0xbe2ff146	-0.17181882
208	0xbd902ca5	-0.07039765
209	0xbd89095d	-0.06691239
210	0x3da7cf62	0.08193852
211	0xbdc2c815	-0.09510819
212	0x3cf9bbbe	0.03048503
213	0xbe086ef1	-0.13323571
214	0x3dc6168e	0.09672271
215	0xbd3af51f	-0.045643922
216	0xbd5a1841	-0.053245787
217	0xbd9f2014	-0.0776979
218	0xbd215378	-0.039386243
219	0xbcaa1887	-0.020763649
220	0xbd2fd53f	-0.042927977
221	0xbdadcc09	-0.08486182
222	0xbd7f912b	-0.062394302
223	0x3d8c5898	0.068528354
224	0x3d499379	0.049212907
225	0xbdaa40a2	-0.08313109
226	0xbd3a0882	-0.04541827
227	0x3db29d01	0.08721352
228	0xbe023d0d	-0.12718602
229	0x3c76e2be	0.015068708
230	0xbd5f0565	-0.054448504
231	0xbdfceefa	-0.12350269
232	0x3b1a484a	0.0023541623
233	0xbd57d6fc	-0.05269526
234	0xbd752936	-0.059853755
235	0xbdb599cf	-0.08867227
236	0xbd5710eb	-0.05250637
237	0xbdaa017e	-0.08301066
238	0x3d8f6d63	0.07003286
239	0x3d49b3c6	0.04924371
240	0xbdc3e33e	-0.095648274
241	0xbd99c022	-0.075073496
242	0xbdc31299	-0.095250316
243	0xbe1a50ea	-0.15069929
244	0x3cb7d73a	0.022441495
245	0xbd7b93e1	-0.061420325
246	0x3cca26cd	0.024676705
247	0xbde8993e	-0.11357354
248	0xbdab1fab	-0.083556496
249	0xbdbf0646	-0.093273684
250	0xbd9a1d90	-0.0752517
251	0xbd029366	-0.03187885
252	0xb9cdf5b8	-0.00039283722
253	0xbda4156b	-0.08011898
254	0xbdc46417	-0.09589403
255	0xbdd3f6a8	-0.1034978

layers.4.weight f4 [1, 256]
0	0xc01ab379	-2.4172041
1	0xc00a71ff	-2.1632078
2	0xbfad7537	-1.3551396
3	0x3e942933	0.28937683
4	0xbf68a0c1	-0.9087029
5	0xbf1ce28e	-0.61283195
6	0xc0684278	-3.629057
7	0xbf3db142	-0.740986
8	0xbfe6109b	-1.7973818
9	0xbfd46676	-1.6593769
10	0xbe2bd455	-0.16780217
11	0xbf816809	-1.0109874
12	0xbfbcad58	-1.47404
13	0x3da7e5d1	0.08198131
14	0x3f62dd1f	0.88618654
15	0xbf227613	-0.63461417
16	0xc0493c3c	-3.1443014
17	0xc00ec82e	-2.230968
18	0xbde86bb3	-0.11348667
19	0xbff5a5ec	-1.919126
20	0x3f305c73	0.68891066
21	0x3e57d295	0.21076424
22	0xbf473280	-0.7781143
23	0xc0289f4d	-2.634723
24	0xbea5f8b4	-0.32416308
25	0xbea4635d	-0.32107058
26	0xbff6b359	-1.9273483
27	0xbfaf5b14	-1.369967
28	0xbfa767ef	-1.3078593
29	0xbf284e5b	-0.6574456
30	0xc0130873	-2.2973907
31	0x3f1504de	0.5821055
32	0x3f2d51fa	0.6770321
33	0x3f4eca34	0.8077729
34	0xc01d9b7b	-2.4626148
35	0xbfb06515	-1.3780848
36	0xbf152495	-0.58258945
37	0xbfcc8675	-1.5978533
38	0xbfd8e986	-1.6946266
39	0xbf307c4f	-0.6893968
40	0x3ea59b4a	0.3234504
41	0xbfc3ba39	-1.5291206
42	0xc028216b	-2.6270397
43	0xc0124f4b	-2.2860897
44	0xc001753b	-2.0227802
45	0xbedad5c8	-0.42741227
46	0xbfdde197	-1.733447
47	0x3ea1b0b6	0.31580132
48	0xbf78e682	-0.97226727
49	0xbf479126	-0.77955854
50	0xbf8740d4	-1.0566659
51	0xc0354bda	-2.8327546
52	0xc023b52b	-2.5579326
53	0xbdebdc46	-0.11516623
54	0x3fa9bb88	1.3260355
55	0x3f0d8bba	0.5529133
56	0xbfb788c8	-1.4338617
57	0xbfb70967	-1.4299744
58	0xbfb5524c	-1.416574
59	0xbf1830f6	-0.5944971
60	0xc02c11ad	-2.6885788
61	0xbfc3207c	-1.5244288
62	0xc0236019	-2.5527403
63	0xbf0107be	-0.5040244
64	0xbf6dea74	-0.9293587
65	0xbf425826	-0.75915754
66	0xbfad85a1	-1.3556405
67	0xbf9f8baf	-1.2464503
68	0x3f3b651e	0.7320117
69	0xbf2cfa3d	-0.67569333
70	0xbfe34b6b	-1.7757391
71	0xbf8a7e99	-1.0819885
72	0xbdfaa945	-0.12239317
73	0xbf8a213e	-1.0791395
74	0xc019ad3e	-2.4011989
75	0xc0555dd8	-3.3338528
76	0xbf55fdbc	-0.8359029
77	0xc04ca45f	-3.1975324
78	0x3db49a77	0.08818524
79	0x3d130f46	0.035903238
80	0xbf57ff81	-0.84374243
81	0xbfcba646	-1.5910118
82	0xbf8af53f	-1.0856093
83	0xbf620983	-0.88295764
84	0xbfb5f297	-1.4214658
85	0xbfac983c	-1.3483958
86	0xc0167c6e	-2.3513446
87	0xc002754d	-2.0384095
88	0x3e394e36	0.18096241
89	0xbfb13779	-1.3845054
90	0xbf981cf5	-1.1883837
91	0x3f103e3a	0.5634495
92	0xbf4f64dd	-0.8101328
93	0xbff7f4b8	-1.9371557
94	0xbf92ba50	-1.1463108
95	0xbf9ca267	-1.2237061
96	0x3ebe29db	0.37141308
97	0xc00aa1ed	-2.1661332
98	0xbee8e0bf	-0.45483968
99	0xbeaa082f	-0.3320937
100	0x3ed3d1b5	0.4137093
101	0xbfaad065	-1.3344847
102	0xbf06be7d	-0.5263441
103	0xbfc15bcf	-1.5106143
104	0x3e4cd321	0.20002414
105	0xbf910451	-1.1329442
106	0xc00bd81d	-2.1850655
107	0xbfc0aa23	-1.5051922
108	0x3eb9c726	0.3628475
109	0x3f311d6a	0.6918551
110	0xc026e512	-2.6077313
111	0xbf9daa72	-1.2317641
112	0xbfabde25	-1.3427168
113	0xbfa2f0fb	-1.2729791
114	0x3ed990cf	0.42493293
115	0xbf807d75	-1.0038286
116	0x3ee75469	0.45181587
117	0xbff15f93	-1.8857292
118	0xbf8a37be	-1.0798261
119	0xbfebde1e	-1.842716
120	0xc02dc4e2	-2.7151418
121	0xbd1322a2	-0.0359217
122	0xbdb03065	-0.086029805
123	0xbfd4365d	-1.657909
124	0x3eb93d3e	0.36179537
125	0x3e7466f9	0.23867406
126	0xbf931ed7	-1.1493787
127	0x3edd55c8	0.43229508
128	0xc0162107	-2.3457658
129	0xc00be550	-2.1858711
130	0xbf9d76f5	-1.2301928
131	0x3e56eb5d	0.20988221
132	0xbeb8b509	-0.3607562
133	0xbf86abae	-1.0521142
134	0xbf8b3711	-1.087618
135	0x3e28fefa	0.16503516
136	0xc000d34c	-2.0128965
137	0xbecbfbe9	-0.3984063
138	0x3f9a88ca	1.2072995
139	0xbfa0db02	-1.2566836
140	0x3f7f47e6	0.99719083
141	0xbf081644	-0.53158975
142	0xbf974886	-1.1819007
143	0xbfdc6d3a	-1.7220833
144	0xbe3abfb5	-0.18237193
145	0xbef17591	-0.4716001
146	0xbeaf53f4	-0.3424374
147	0xc064b304	-3.5734262
148	0xbfdcda07	-1.7254037
149	0xc016817c	-2.351653
150	0xbf65f93e	-0.8983344
151	0xbec7ee2b	-0.39048895
152	0x3f48d7f2	0.78454506
153	0xbfefbb15	-1.8728968
154	0xbea71414	-0.32632506
155	0xc0135fe0	-2.3027267
156	0xbf7805e9	-0.9688402
157	0xbfcb094a	-1.586221
158	0xbead21dc	-0.33814895
159	0xbe131add	-0.14365716
160	0x3f8d5bc8	1.1043634
161	0xbffb3b7a	-1.9627526
162	0xbf9fc6bf	-1.2482527
163	0xbfdc8764	-1.7228818
164	0xbff6ca09	-1.9280406
165	0x3e9d5af6	0.3073346
166	0xc02fd81e	-2.7475657
167	0xbf613a14	-0.87979245
168	0xbf70f091	-0.94117075
169	0xbff5e067	-1.9209107
170	0xbffabf81	-1.9589692
171	0x3e93e3dc	0.2888478
172	0xbf052d39	-0.5202213
173	0xc010252e	-2.2522693
174	0xbe874240	-0.26417732
175	0xbe44d928	-0.19223464
176	0xbde0dae5	-0.10979251
177	0x3ece20eb	0.4025949
178	0x3eb49226	0.35267752
179	0x3f86696b	1.0500921
180	0xbf9f3a21	-1.2439615
181	0xbf46ba89	-0.7762838
182	0xbfc816ae	-1.5631921
183	0xbfd2e2d0	-1.6475468
184	0xbf882600	-1.0636597
185	0xbf244ea0	-0.6418247
186	0xbefad8fb	-0.48993668
187	0xbfc1646b	-1.510877
188	0xbf64ef51	-0.8942767
189	0xc003ae61	-2.0575182
190	0xbfb48a18	-1.4104643
191	0xbfba20a4	-1.4541211
192	0xbfb95d68	-1.448163
193	0xbf3b0ddf	-0.7306804
194	0xc03c9e1a	-2.9471498
195	0xbf309bd2	-0.6898776
196	0xbfc46f62	-1.5346491
197	0x3f1e6ba3	0.6188299
198	0xbe9aed88	-0.30259347
199	0x3f5e2f00	0.86790466
200	0xbfcb7334	-1.5894532
201	0xbf2c43ad	-0.67290765
202	0xbfa7a946	-1.3098533
203	0xbeb66ed0	-0.35631418
204	0xbf4a8cd5	-0.7912114
205	0xbfaa6629	-1.3312427
206	0xbfd705c5	-1.6798636
207	0xbfe047b5	-1.7521883
208	0xc02c4efd	-2.692321
209	0xbf998174	-1.1992631
210	0x3f29523e	0.66141117
211	0xbe46aef9	-0.19402684
212	0xbfb15b91	-1.3856069
213	0xbfe1abf4	-1.7630601
214	0x3e4972da	0.19672719
215	0xbf4fc281	-0.81156164
216	0xc008c417	-2.1369684
217	0xbf88bd21	-1.0682718
218	0xbff762bd	-1.9327008
219	0xbf7c8420	-0.98639107
220	0xbf911fdb	-1.1337847
221	0xbfa095f2	-1.254576
222	0xbfcfcdc8	-1.6234674
223	0x3f8a867a	1.0822289
224	0xbe0aa271	-0.13538529
225	0xc032a5e6	-2.7913756
226	0xbed21d5f	-0.41038033
227	0xbf96a105	-1.1767889
228	0xbf92b789	-1.146226
229	0xbf099499	-0.5374237
230	0xbfb2f3d0	-1.3980656
231	0xbf808066	-1.0039184
232	0xbf4a0606	-0.7891544
233	0xbf380510	-0.71882725
234	0xbf516dfc	-0.8180845
235	0xbf9c3b5f	-1.2205619
236	0xc029472f	-2.6449697
237	0xbf5590c0	-0.83423996
238	0x3f41e136	0.7573427
239	0xbe1f26dc	-0.15542167
240	0xbfda799d	-1.7068363
241	0xbf25eb6b	-0.64812344
242	0xbf82d64d	-1.022165
243	0xbfb02345	-1.3760763
244	0xbfa93b8d	-1.3221298
245	0xc07482f9	-3.820494
246	0xbf446292	-0.76712906
247	0xbed9581f	-0.42450044
248	0xbee41f6a	-0.44555217
249	0xbfbbb720	-1.466526
250	0xbe18010d	-0.14844151
251	0x3e1f8bb4	0.15580636
252	0xc0265d49	-2.5994437
253	0xbff4073e	-1.906471
254	0xbd26bd19	-0.04070768
255	0xc0021b17	-2.0329034
