results/checkpoint_actor_target.pt (torch_old, 150837 bytes, 10 tensors)

layers.0.weight f4 [128, 24]
0	0xbe03f283	-0.1288548
1	0xbeac089d	-0.3360032
2	0x3dcfdbbf	0.10149335
3	0x3b15a27a	0.002283244
4	0x3e3f7c53	0.1869977
5	0xbd70ef14	-0.058821753
6	0x3ca5022a	0.020142633
7	0x3bfd07a3	0.0077218576
8	0x3e43c5d6	0.19118437
9	0xbe201ca4	-0.15635926
10	0xbdf191f3	-0.11795416
11	0x3d8daed5	0.06918112
12	0x3eb0b8bc	0.3451594
13	0xbe433a80	-0.19065285
14	0xbd18fad2	-0.037348576
15	0x3e3e0d9a	0.18559876
16	0xbd51e97b	-0.051248055
17	0xbe8c508f	-0.2740521
18	0x3d05c2a4	0.032656327
19	0x3e45524e	0.19269678
20	0x3d8c1fe1	0.06842018
21	0xbe14e5a6	-0.14540729
22	0xbd38ebdb	-0.045146804
23	0x3b697452	0.003562231
24	0x3d8a04d6	0.06739204
25	0xbe16b31e	-0.14716765
26	0xbd75e0ab	-0.060028713
27	0x3d019bfa	0.03164289
28	0xbe33ac06	-0.1754609
29	0xbd521049	-0.051285062
30	0xbcbcd50a	-0.023050804
31	0xbba014ac	-0.004885277
32	0xbd90e592	-0.07075037
33	0xbca1d8fd	-0.019756788
34	0xbd92c6f8	-0.071668565
35	0xbe292603	-0.16518407
36	0xbe599807	-0.212494
37	0xbe516b87	-0.20451175
38	0xbe1bde3e	-0.15221497
39	0xbe59f513	-0.21284895
40	0xbe20103a	-0.1563119
41	0xbde72f68	-0.11288339
42	0x3d1e7afe	0.038691513
43	0xbdcedcec	-0.10100731
44	0xbbdc8801	-0.00673008
45	0x3c9ad075	0.018898228
46	0xbd077170	-0.033067167
47	0xbe0383e4	-0.12843281
48	0xbe6ec861	-0.23318626
49	0xbdf92e09	-0.12166984
50	0xbdefce9d	-0.1170933
51	0xbe4dd932	-0.20102385
52	0xbdb92d36	-0.090418264
53	0xbc9e02e1	-0.019288482
54	0xbce514c5	-0.027964005
55	0xbceec14c	-0.029144906
56	0xbd6fc0b9	-0.058533404
57	0xbe16dd22	-0.14732793
58	0xbdbbf176	-0.091769144
59	0xbda5f4f2	-0.0810336
60	0xbe26a8ba	-0.16275302
61	0xbdcce258	-0.10004109
62	0xbdffb9cd	-0.124866106
63	0xbe477f68	-0.19482195
64	0x3e086eab	0.13323466
65	0x3a14c4f1	0.00056750985
66	0xbe266801	-0.16250612
67	0xbe059445	-0.13044842
68	0xbda5984a	-0.080856875
69	0xbe99f446	-0.30069178
70	0xbddc6577	-0.107615404
71	0xbe262d47	-0.1622821
72	0x3c1d1905	0.009588485
73	0xbe0c9446	-0.13728437
74	0xbcf11606	-0.029429447
75	0x3e270251	0.16309477
76	0xbdfb9ccc	-0.12285766
77	0xbe4118f0	-0.18857169
78	0x3db22901	0.08699227
79	0x3da98ea7	0.08279162
80	0x3c6476ef	0.013944372
81	0xbd39676f	-0.045264658
82	0xbc9ad76a	-0.018901546
83	0xbd354fcc	-0.044265553
84	0xbd009fee	-0.03140252
85	0xbe85b4a4	-0.2611438
86	0x3d954790	0.0728904
87	0x3cbf807c	0.023376696
88	0xbeda3159	-0.42615774
89	0xbcedf9f3	-0.02904985
90	0xbeb9c89e	-0.3628587
91	0x3ce522b3	0.027970647
92	0x3e199605	0.14998634
93	0xbe7de926	-0.2479597
94	0xbe89a2cf	-0.26882026
95	0xbd1c15e2	-0.038106807
96	0xbd9e071e	-0.07716201
97	0xbdc7a2a9	-0.09747822
98	0xbd59ee73	-0.05320592
99	0xbdf56f76	-0.1198415
100	0x3c0bd567	0.008534766
101	0xbde20ff4	-0.11038199
102	0xbe765e29	-0.24059357
103	0x3d24b0b5	0.040207583
104	0xbde4e9da	-0.11177416
105	0xbd8759db	-0.066089354
106	0x3b51fa21	0.0032039958
107	0xbccaa9bc	-0.024739139
108	0x3db2e0e3	0.087343
109	0xbd3e7e76	-0.04650732
110	0xbdb543f0	-0.08850849
111	0xbdb2ff97	-0.08740156
112	0xbc3f4a54	-0.011675436
113	0xbc88ac86	-0.016683828
114	0x3d3d597c	0.046227917
115	0x3cbac7be	0.022800323
116	0xbe14c503	-0.14528279
117	0x3b2b8b5c	0.0026175594
118	0x3d8a8d2c	0.06765208
119	0x3e1b33d0	0.15156484
120	0xbe28ad5d	-0.16472383
121	0x3e3902f3	0.18067531
122	0xbe804e4c	-0.25059736
123	0xbd81f5cd	-0.06345711
124	0xbcaedacd	-0.021344567
125	0xbcc21344	-0.023690827
126	0xbd86b479	-0.06577391
127	0xbe79412c	-0.24341267
128	0xbe6ac4c5	-0.22926624
129	0xbdfcb800	-0.12339783
130	0x3c829806	0.015941631
131	0xbdbd37c0	-0.09239149
132	0xbe7b53e4	-0.2454372
133	0xbc9bc127	-0.019013
134	0x3dd97114	0.10617271
135	0x3cfa1c67	0.030531121
136	0xbca96368	-0.020677283
137	0xbd98f7c8	-0.074691355
138	0xbd89579f	-0.067061655
139	0x3bfb0d97	0.007661532
140	0xbd8669b8	-0.06563133
141	0xbe82f73b	-0.25579247
142	0xbd9ab6c2	-0.075543895
143	0xbce96f44	-0.028495438
144	0xbcc2313d	-0.02370512
145	0xbdc90bbd	-0.09816692
146	0xbe199c89	-0.1500112
147	0xbd9766b6	-0.073926374
148	0x3db97793	0.0905601
149	0x3d2ffd1d	0.042965997
150	0xbe4adebd	-0.1981153
151	0xbe1c4494	-0.15260535
152	0xbda8a31a	-0.08234234
153	0xbc6da610	-0.014504924
154	0xbe95c7aa	-0.29253894
155	0x3c764973	0.01503216
156	0x3c00ca41	0.007860721
157	0x3d07b46f	0.03313106
158	0xbe4a3603	-0.19747166
159	0x3da13859	0.078720756
160	0x3cf64576	0.030062418
161	0xbe58df95	-0.2117904
162	0x3d368d05	0.04456808
163	0xbd5d1841	-0.05397821
164	0xbdeedc1d	-0.11663077
165	0x3b5cc31b	0.0033685628
166	0xbd9a7fe7	-0.07543927
167	0x3b9dfdf5	0.004821534
168	0xbdf7f914	-0.12108055
169	0x3d49f77d	0.04930829
170	0xbd3b3b19	-0.045710657
171	0xbf289491	-0.65851694
172	0xba4584c8	-0.00075347396
173	0xbdaf0756	-0.08546321
174	0xbd7b41c7	-0.061342027
175	0xbf269cb2	-0.6508285
176	0xbc9e7886	-0.01934458
177	0x3ddea204	0.10870746
178	0xbe572497	-0.21010052
179	0xbe523baf	-0.2053058
180	0x3d16c98b	0.0368133
181	0xbde076d3	-0.10960164
182	0xbdaa8fca	-0.08328207
183	0xbec87657	-0.39152786
184	0x3ee01a3a	0.4377001
185	0xbdaa614a	-0.08319338
186	0xbde06fcd	-0.10958824
187	0xbe296001	-0.16540529
188	0xbd347c0b	-0.04406361
189	0xbdd844dd	-0.1056001
190	0xbe519339	-0.20466317
191	0xbdc4042a	-0.09571107
192	0x3b953f4b	0.0045546643
193	0xbbb4bb83	-0.005515517
194	0xbc580a74	-0.013186086
195	0xbd4d3cea	-0.05010692
196	0xbd2ebcaf	-0.04266041
197	0xbe3ee2ab	-0.18641154
198	0xbd7b1ad5	-0.061304886
199	0xbd2c993f	-0.042138334
200	0xbdd08b90	-0.101828694
201	0xbe67d391	-0.226393
202	0xbe0c350a	-0.13692108
203	0xbe76d83b	-0.24105923
204	0xbbb55176	-0.0055333925
205	0xbe3a6d60	-0.18205786
206	0xbd08895f	-0.033334132
207	0xbe393137	-0.1808518
208	0xbd8fc71e	-0.070204005
209	0xbc534284	-0.0128942765
210	0xbdd756c7	-0.10514598
211	0xbe1afa57	-0.1513456
212	0xbcec1b77	-0.02882169
213	0xbd19d761	-0.037558917
214	0xbd936138	-0.071962774
215	0xbdc50e6e	-0.09621893
216	0xbc900ccc	-0.017584227
217	0xbdb31ec6	-0.08746104
218	0xbe30f356	-0.17280325
219	0x3ed42aa4	0.41438782
220	0xbdf93b7c	-0.12169549
221	0xbe3bc57b	-0.18337052
222	0xbd21b5a5	-0.03947987
223	0x3f1f88a5	0.6231788
224	0xbc9ddcee	-0.019270387
225	0x3d4783d4	0.048709705
226	0xbd5ff464	-0.05467643
227	0xbe9ad194	-0.3023802
228	0xbe4b3a20	-0.19846392
229	0xbe4f1d87	-0.20226108
230	0xbad6bb8e	-0.00163828
231	0xbee8f8fa	-0.45502454
232	0x3e4202a1	0.18946315
233	0x3e04a168	0.12952197
234	0xbd179dc3	-0.037015688
235	0x3c7ce7cd	0.015436125
236	0x3d1229f4	0.03568454
237	0xbdd35830	-0.10319555
238	0x3d43053a	0.047612406
239	0xbe0bbd47	-0.13646422
240	0xbe025eb9	-0.12731446
241	0x3e812f36	0.25231332
242	0x3d948e60	0.072537184
243	0x3ec2f41f	0.38076875
244	0x3e7e7b12	0.24851635
245	0xbe469d7f	-0.19396017
246	0xbc9a952a	-0.018869955
247	0x3ed154c1	0.40884975
248	0xbd973a37	-0.073841505
249	0xbd607c28	-0.054805905
250	0xbbc77baa	-0.00608774
251	0xbe89dec9	-0.26927784
252	0xbd44d331	-0.04805297
253	0x3e6ce454	0.23133975
254	0x3d3b9986	0.04580071
255	0xbec34445	-0.38138023

layers.0.bias f4 [128]
0	0xbe015b14	-0.126324
1	0x3dad73e0	0.08469367
2	0xbe46678c	-0.19375437
3	0xbdeb3d7a	-0.11486335
4	0xbd2ab9a5	-0.04168095
5	0x3db3452c	0.08753428
6	0x3db3e518	0.087839305
7	0xbe1a8cf7	-0.15092836
8	0x3d0dea8c	0.03464751
9	0xbd88890e	-0.06666766
10	0xbdc6b9b4	-0.09703389
11	0xbc26ad8c	-0.010173213
12	0x3dea4f31	0.11440886
13	0x3e2a7354	0.16645557
14	0x3e45d4ec	0.19319504
15	0x3e077a1d	0.13230176
16	0x3e12f2b0	0.1435039
17	0x3d8a6fe0	0.0675962
18	0x3d962fc2	0.07333328
19	0xbda7aa6b	-0.081868015
20	0xbdc1590f	-0.09440815
21	0xbe05101e	-0.1299443
22	0xbbc3bf5c	-0.0059737395
23	0x3dd412d5	0.103551544
24	0xbe1b7f51	-0.15185286
25	0xbe1170e6	-0.14203224
26	0x3e2946bc	0.1653089
27	0x3e0d3eac	0.13793439
28	0xbe25a4d8	-0.16176164
29	0xbe1f9363	-0.15583567
30	0xbd941b60	-0.07231784
31	0xbe15a70b	-0.14614503
32	0x3cf33436	0.029687982
33	0xbd78a335	-0.06070252
34	0x3d6455d0	0.0557459
35	0x3c1c1a2d	0.009527725
36	0x3dd3b5f6	0.10337441
37	0xbd51122d	-0.051042724
38	0x3d0ad52d	0.033894707
39	0xbd0b6eb8	-0.034041137
40	0x3d43eda8	0.04783407
41	0xbb254156	-0.0025215945
42	0x3e0950de	0.13409755
43	0xbdd35c1f	-0.10320305
44	0x3d9af287	0.0756579
45	0xbd2bbf5d	-0.041930545
46	0x3ddf0baf	0.108909
47	0xbe1d41d2	-0.1535714
48	0xbe150851	-0.14553954
49	0xbd3728a8	-0.044716507
50	0x3dc64df0	0.09682834
51	0x3dac28d6	0.08406226
52	0x3d51c9c6	0.051217817
53	0xbdb74d3c	-0.08950278
54	0x3e0f6587	0.14003573
55	0xbdffbdd8	-0.12487382
56	0x3d45563a	0.048177935
57	0x3de716f7	0.11283677
58	0x3e45d33a	0.19318858
59	0x3c925f6d	0.017867768
60	0xbdaa16b5	-0.08305112
61	0x3db07e38	0.08617824
62	0x3e397a3f	0.1811304
63	0xbe314eda	-0.17315236
64	0xbe4db709	-0.20089354
65	0xbcc820b6	-0.02442966
66	0xbdd11c29	-0.10210449
67	0xbdc0d0e5	-0.094148435
68	0xbe0f8c86	-0.14018449
69	0x3d17d748	0.037070543
70	0xbdc29af5	-0.09502212
71	0x3de2b554	0.11069742
72	0x3e3d43cb	0.18482892
73	0xbe38dbaa	-0.18052545
74	0x3c58c0fd	0.013229606
75	0x3e4190b0	0.1890285
76	0x3e4d6db0	0.20061374
77	0xbd4af953	-0.04955418
78	0x3dfaa2f0	0.12238109
79	0x3dcb9fa0	0.099425554
80	0x3e0fc7a4	0.14041
81	0xbc95782a	-0.018245775
82	0xbd2be66e	-0.0419678
83	0xbdbc613e	-0.09198235
84	0x3cf37cf1	0.029722663
85	0x3d5a258d	0.053258467
86	0xbda08a50	-0.07838881
87	0xbe1f28ab	-0.15542857
88	0x3e448f1c	0.19195217
89	0xbdfadb04	-0.12248805
90	0xbc8efb1d	-0.017453725
91	0xbdbffa29	-0.09373886
92	0xbd375827	-0.044761803
93	0xbe4e3b9b	-0.20139925
94	0xbdbe8034	-0.093017966
95	0x3d86a725	0.06574849
96	0x3e0fceee	0.14043781
97	0x3e46795f	0.19382237
98	0xbd9737d0	-0.07383692
99	0xbdfcc5d1	-0.12342418
100	0xbe3784fe	-0.17921826
101	0xbd8f1fde	-0.069885
102	0xbe316984	-0.17325407
103	0xbdf86fe4	-0.121307164
104	0xbd8a0a59	-0.06740255
105	0x3e4f453b	0.20241253
106	0xbe08b478	-0.13350093
107	0xbe18c1ce	-0.1491768
108	0xbd36dd5c	-0.0446447
109	0x3df7ef88	0.12106234
110	0xbcf288bc	-0.029606216
111	0xbb096dd3	-0.0020970001
112	0x3e13d5ce	0.14437029
113	0x3df0c5d6	0.11756484
114	0x3e297418	0.16548193
115	0xbdf54fa2	-0.119780794
116	0x3e207e64	0.15673214
117	0xbe47f61d	-0.19527479
118	0xbe073424	-0.13203484
119	0xbbee2d66	-0.0072685955
120	0x3d906b2e	0.07051693
121	0xbc9d1568	-0.019175246
122	0x3e4473aa	0.19184747
123	0xbca1e186	-0.019760858
124	0xbdb7b6d7	-0.08970421
125	0xbd0e0181	-0.034669403
126	0xbce02b1a	-0.027364302
127	0x3ccd8bd1	0.025091084

layers.1.weight f4 [128]
0	0xbe713bab	-0.23557918
1	0x3d46e63c	0.048559412
2	0x3d457e94	0.048216417
3	0xbea577ce	-0.32317966
4	0xbdafa578	-0.085764825
5	0xbe00d108	-0.12579739
6	0xbe3289c8	-0.17435372
7	0xbf078dc3	-0.52950686
8	0xbc7fa093	-0.015602249
9	0xbe800572	-0.25004154
10	0xbf7edbcf	-0.9955415
11	0x3e5dc14b	0.21655767
12	0xbe28d2d6	-0.16486678
13	0xbeefd102	-0.46839148
14	0xbcf998a4	-0.030468293
15	0xbf353a3c	-0.70791984
16	0xbe26b735	-0.16280825
17	0x3e962c81	0.2933083
18	0x3c1da3f0	0.009621605
19	0xbe816459	-0.25271872
20	0xbeec8e34	-0.46202242
21	0xbf0f4de6	-0.5597824
22	0xbdc95e75	-0.098324694
23	0xbf26e3be	-0.65191257
24	0xbf0bf1fa	-0.546661
25	0xbe07a2e4	-0.13245732
26	0xbc864c9c	-0.016393952
27	0xbd99f9ad	-0.07518325
28	0xbeac3708	-0.33635736
29	0xbe239d1a	-0.15977898
30	0xbea2a7f6	-0.3176877
31	0xbd1760f4	-0.036957696
32	0x3e39771c	0.18111843
33	0x3de8a294	0.11359134
34	0xbe5ab7ce	-0.21359178
35	0xbf29ce04	-0.6632998
36	0x3dba6ba3	0.09102561
37	0xbe94f68c	-0.2909435
38	0xbe6e3b2c	-0.2326476
39	0xbee0a7d5	-0.43878046
40	0xbe2fb943	-0.17160515
41	0x3d1ea07b	0.038727265
42	0xbdc18717	-0.094495945
43	0xbe795e0c	-0.24352282
44	0xbece3ff3	-0.40283164
45	0xbe2da45d	-0.16957231
46	0xbe99b77d	-0.30022803
47	0xbd31084e	-0.04322081
48	0x3ec5bbb1	0.3861976
49	0xbe73c653	-0.23806123
50	0xbd06ac02	-0.032878883
51	0xbeda9676	-0.42692918
52	0x3e530c97	0.20610271
53	0xbd9a1b1e	-0.075247034
54	0xbea1f603	-0.31633005
55	0x3e001886	0.12509355
56	0xbe7e0ecf	-0.24810337
57	0xbe2fba24	-0.17160851
58	0xbe7be0a2	-0.2459741
59	0x3de38af8	0.111104906
60	0xbd877316	-0.06613748
61	0xbe19a54d	-0.15004463
62	0xbedd486b	-0.43219313
63	0xbe9b7c88	-0.30368447
64	0xbe19083c	-0.14944547
65	0x3d10a560	0.035313964
66	0xbe270020	-0.16308641
67	0xbdecd3ad	-0.115638115
68	0xbd1236a3	-0.035696637
69	0xb9809b0e	-0.00024529587
70	0xbef13e11	-0.47117665
71	0xbf1543ad	-0.5830639
72	0xbdb5d53f	-0.08878564
73	0xbe7cafbd	-0.24676414
74	0xbeec63b0	-0.46169806
75	0xbe4aee8c	-0.19817561
76	0xbeb45c11	-0.3522649
77	0xbe8452af	-0.25844333
78	0xbc040cb8	-0.008059673
79	0xbed40306	-0.41408557
80	0xbe70bfd9	-0.23510684
81	0x3e71f36b	0.23628013
82	0xbde69aac	-0.1125997
83	0x3ecad6e2	0.39617068
84	0xbe758b18	-0.23978841
85	0x3d3f7dc1	0.046750788
86	0xbd863032	-0.06552161
87	0x3d0aded3	0.033903908
88	0x3e02140b	0.12702958
89	0x3cd6c92d	0.026218975
90	0xbf301af0	-0.68791103
91	0x3d819f97	0.063292675
92	0xbe187cfe	-0.1489143
93	0xbe07051f	-0.13185547
94	0x3c7a7674	0.0152870305
95	0x3e0ce086	0.13757524
96	0xbe965dde	-0.2936849
97	0xbed97348	-0.42470765
98	0xbf1ae602	-0.60507214
99	0xbef87f68	-0.48534703
100	0xbe94a91a	-0.29035264
101	0xbdc95105	-0.098299064
102	0xbe2de929	-0.16983475
103	0xbf431cf0	-0.7621603
104	0xbd7dec23	-0.061992776
105	0x3e112df6	0.14177689
106	0xbe15ba82	-0.14621928
107	0xbe43fbbd	-0.19139
108	0xbf14125b	-0.5784051
109	0xbddfe184	-0.109316856
110	0xbe0f7f9e	-0.14013526
111	0xbf04805d	-0.51758367
112	0x3e214fb0	0.15753055
113	0xbefef2ef	-0.4979472
114	0xbd89264f	-0.0669676
115	0xbe2d3f1a	-0.16918603
116	0xbd3b0dbd	-0.0456674
117	0xbee2ddea	-0.44309932
118	0xbebcaade	-0.3684911
119	0xbe7a93f1	-0.24470498
120	0x3e9dc785	0.30816284
121	0xbe7b51f5	-0.24542983
122	0xbe8d0e6e	-0.2755007
123	0x3d6d64de	0.057957523
124	0xbe418448	-0.18898118
125	0x3dd8eeee	0.10592447
126	0xbf0361c7	-0.5132107
127	0xbd4f054e	-0.05054217

layers.1.bias f4 [128]
0	0x3c488bdf	0.012240379
1	0x3c902102	0.017593864
2	0x3c0f684a	0.008752892
3	0x3d75fb04	0.06005384
4	0x3c52f0c1	0.012874783
5	0x3d10f44c	0.03538923
6	0x3d06803e	0.032837145
7	0x3ded9ef6	0.11602585
8	0xbc03f346	-0.008053606
9	0x3c6f12d1	0.0145918885
10	0x3ebe92b2	0.37221295
11	0x3cea2de8	0.028586343
12	0x3d2c8518	0.042119116
13	0xbcd8fd78	-0.02648805
14	0xb8c1a3a7	-9.23344e-05
15	0x3d398d08	0.045300514
16	0x3c03c00a	0.008041391
17	0x3e85de09	0.26145962
18	0x39beca8e	0.0003639054
19	0x3d741d9f	0.05959856
20	0x3d5ebf50	0.05438167
21	0x3cd1b129	0.025597172
22	0x3b555211	0.0032550136
23	0xbcb4956d	-0.022043908
24	0xbc3b0123	-0.011413845
25	0x3c7a9373	0.015293944
26	0xbc236fd3	-0.009975391
27	0xbc0e12df	-0.008671491
28	0xbcbd3844	-0.023098119
29	0x3cdf2ae9	0.02724214
30	0x3d4b751e	0.04967224
31	0xbb17fa48	-0.002318995
32	0x3c382a81	0.0112406025
33	0x3cd4a8ee	0.025959458
34	0xbb9dca80	-0.0048153996
35	0xbc237786	-0.009977227
36	0x3a16c963	0.0005752055
37	0x3beaaed2	0.0071619535
38	0x3bded5fd	0.0068004117
39	0x3d8410cb	0.064485155
40	0x3c995be1	0.01872057
41	0x3c83feb4	0.016112663
42	0xba82736d	-0.0009952612
43	0x3c03d8bb	0.008047278
44	0x3d3768b6	0.044777595
45	0x3c908e86	0.017646085
46	0x3e6191c7	0.22028266
47	0xb94ce14a	-0.00019538883
48	0xbcd93602	-0.02651501
49	0x3c121ba7	0.008917726
50	0xb9bbd5a4	-0.00035826594
51	0xbd64120e	-0.05568128
52	0x3da43df5	0.0801963
53	0xbbd2f63d	-0.0064380453
54	0x3d2e7c20	0.042598844
55	0x3cd0118a	0.025398988
56	0x3d52fd0f	0.051510867
57	0x3d1e21d9	0.0386065
58	0xbbd5dea8	-0.006526787
59	0x3c4e90dc	0.012607779
60	0xbca580ad	-0.020202959
61	0x3d458551	0.048222844
62	0x3db1ea7d	0.08687303
63	0x3d10543a	0.035236575
64	0xbc7d2fbe	-0.015453277
65	0x3ca7bce7	0.020475818
66	0x3cb18786	0.021671068
67	0x3cc2f668	0.023799136
68	0x3d14de0e	0.03634458
69	0x3b20e60c	0.002455118
70	0x3d0775e6	0.03307142
71	0xbd3387f5	-0.04383083
72	0x3c6e0f4e	0.014530016
73	0x3a1392ec	0.0005629498
74	0x3d2c0055	0.041992504
75	0x3cde30bb	0.027122846
76	0x3d2c570f	0.042075213
77	0x3e068845	0.1313792
78	0xbc128640	-0.0089431405
79	0x3d9b4ada	0.07582636
80	0x3a991e72	0.0011682047
81	0x3da17843	0.07884266
82	0x3ce92170	0.028458327
83	0x3c430ec1	0.011905373
84	0xbd392745	-0.045203466
85	0x3e423c89	0.18968405
86	0x3e29d016	0.16583285
87	0x3c9cfa15	0.019162217
88	0x3d0bf31a	0.034167387
89	0x3b60a5aa	0.003427843
90	0xbd78465c	-0.060613975
91	0xb9cc6af9	-0.00038989613
92	0x3b06984e	0.0020537558
93	0x3d053300	0.03251934
94	0x3c699bc2	0.014258327
95	0x3b55751d	0.0032571026
96	0x3cefcb87	0.029271854
97	0xbd276e34	-0.040876582
98	0xbda7c2cc	-0.081914514
99	0x3d3a68b7	0.04551002
100	0x3c55aae0	0.013041228
101	0xb9a5cee9	-0.00031625413
102	0x3c7035e1	0.014661283
103	0xbdc622e4	-0.096746236
104	0xbc49dd5f	-0.012320845
105	0x3d28ab9b	0.04117928
106	0x3c70c754	0.014695961
107	0x3c14288d	0.009042871
108	0x3e13e5b1	0.14443089
109	0x3c5973a6	0.013272202
110	0x3cc5cc92	0.024145398
111	0x3c507aa7	0.012724555
112	0x3cc3866a	0.023867805
113	0x3e166581	0.14687158
114	0xbc130c14	-0.008975048
115	0xbc39af52	-0.0113333035
116	0xbc8a4ed8	-0.016883299
117	0xbc26d367	-0.010182238
118	0x3c6f88f8	0.014620058
119	0x3e010739	0.12600411
120	0x3dd2de1c	0.1029627
121	0xbc8a3b21	-0.016873898
122	0x3ce21d7e	0.027601954
123	0x3c4bfb55	0.012450059
124	0x3dc6715f	0.096895926
125	0x3cafbd2c	0.021452509
126	0x3d969ac3	0.07353737
127	0xbbc026b2	-0.005863988

layers.1.running_mean f4 [128]
0	0xbfc39daf	-1.5282496
1	0xc0ef719d	-7.482619
2	0xc1870399	-16.876757
3	0xc175a4b7	-15.352714
4	0xc0b5d987	-5.6828036
5	0xc103817e	-8.219114
6	0xc19ee42a	-19.861408
7	0xc1a2df81	-20.359133
8	0xc137ef65	-11.495946
9	0xc0f1df09	-7.558476
10	0xbf375fd5	-0.71630603
11	0xc1615c94	-14.085102
12	0xc10e6b17	-8.901145
13	0xc16b19c5	-14.693791
14	0xc198ecdf	-19.11566
15	0xc13b2ad9	-11.697961
16	0xc12f4f74	-10.956898
17	0xc19f776f	-19.933317
18	0xc10965ee	-8.587385
19	0xc083f148	-4.1232033
20	0xc197d2f7	-18.97801
21	0x41455a22	12.334505
22	0xc04412a7	-3.0636384
23	0xc0bc4050	-5.8828506
24	0xc0e2440b	-7.070806
25	0xc135af9f	-11.355376
26	0xc15c37c3	-13.763614
27	0xc0fe0fb1	-7.9394155
28	0xc0e1703e	-7.0449514
29	0xc0c700b3	-6.2188354
30	0xc1559a12	-13.350115
31	0xc142d11a	-12.17605
32	0xc18baf28	-17.460526
33	0xc125d525	-10.364537
34	0xc0c534c0	-6.162689
35	0xc11c2b50	-9.760574
36	0xc1a48c00	-20.56836
37	0xc125a1b0	-10.3519745
38	0xc1700cbf	-15.003112
39	0xc12b26bd	-10.696958
40	0xc0df37d1	-6.9755635
41	0xc18d5b52	-17.66959
42	0xc104eef2	-8.308336
43	0xc129d1ea	-10.613749
44	0xbfbf0f75	-1.4926592
45	0xc13516fa	-11.3181095
46	0x40e3ab18	7.1146355
47	0xc0d56bb7	-6.669399
48	0xc19cc25e	-19.594906
49	0xbfd6c930	-1.6780148
50	0xc144e944	-12.30695
51	0xc15f65c3	-13.962344
52	0x3f8b13f9	1.086547
53	0xc0c5e2e2	-6.1839457
54	0x4145c859	12.361413
55	0xc14bc473	-12.735461
56	0xc1840121	-16.500551
57	0xc189e21b	-17.235403
58	0xc11e40a8	-9.890785
59	0xc13b0f00	-11.691162
60	0xc1af818a	-21.938251
61	0xc1418718	-12.095482
62	0xc11514f3	-9.317615
63	0xc1b5b81e	-22.714901
64	0xc1777620	-15.466339
65	0xc19ab9fa	-19.340809
66	0xc0e07bfb	-7.0151343
67	0xc17558bb	-15.334163
68	0xbfd8e110	-1.6943684
69	0xc113be12	-9.233904
70	0xc1bff7e7	-23.996046
71	0xc04e0a55	-3.2193806
72	0xc03a1fea	-2.9081979
73	0xc1167bcb	-9.405223
74	0xc169349d	-14.575345
75	0xc11f9fdb	-9.976527
76	0xc15327c8	-13.197212
77	0x3f182d82	0.5944444
78	0xc1184b88	-9.51844
79	0xc1815316	-16.16557
80	0xc0b502f7	-5.656612
81	0xbf12a1fb	-0.5727841
82	0xc1a47e53	-20.561682
83	0xc156c889	-13.423959
84	0x4168810c	14.531506
85	0x400f360a	2.2376733
86	0xc1770869	-15.439553
87	0xc13577f0	-11.341782
88	0xc1431da2	-12.194735
89	0xc19d6ec9	-19.679094
90	0xc13fab63	-11.979342
91	0xc188b6c9	-17.08925
92	0xc13c1c55	-11.756917
93	0xc1aa260d	-21.26858
94	0xc149a23d	-12.602109
95	0xc1755bb8	-15.334892
96	0xc1a6a8ba	-20.832386
97	0xc113bba7	-9.233314
98	0x40af0bcf	5.4701915
99	0xc1b29904	-22.324715
100	0xc03912f6	-2.8917823
101	0xc0f6f8cf	-7.717872
102	0xc19377eb	-18.433554
103	0xc1035188	-8.207405
104	0xc0ec493a	-7.383939
105	0xbf8abbf8	-1.0838614
106	0xc00b4030	-2.1757927
107	0xc05d874e	-3.4613833
108	0x412eb1a3	10.918368
109	0xc0a88631	-5.266381
110	0xc0a7b652	-5.241006
111	0xc113a588	-9.227913
112	0xc1891c7e	-17.138912
113	0xc0d8ef09	-6.779179
114	0xc1175d54	-9.460285
115	0x40017834	2.0229616
116	0xc1544b99	-13.268456
117	0xc127542b	-10.458049
118	0x411ca51a	9.790308
119	0x4017dc89	2.3728354
120	0xc18029cc	-16.020409
121	0xc1818f30	-16.194916
122	0x3feb3d5d	1.8378102
123	0xc177968f	-15.474257
124	0x402f197c	2.7359304
125	0xc11c9033	-9.785205
126	0xc19d5e67	-19.671095
127	0xc0ec669e	-7.3875265

layers.1.running_var f4 [128]
0	0x419c7582	19.557377
1	0x41a42359	20.51726
2	0x4206570b	33.585003
3	0x421d23cf	39.28497
4	0x41921f30	18.265228
5	0x41acfa7f	21.622313
6	0x42b3c4de	89.88451
7	0x4244d8f7	49.21188
8	0x41a4f699	20.620409
9	0x417b55b9	15.708428
10	0x4157d7f7	13.490226
11	0x41fe883c	31.81652
12	0x418826ad	17.018885
13	0x4246623e	49.59594
14	0x4239e696	46.47518
15	0x41dc7881	27.55884
16	0x41e78cce	28.943752
17	0x427b4572	62.817818
18	0x4163fecd	14.249707
19	0x417f3d11	15.952409
20	0x4262649d	56.598255
21	0x41c44a6d	24.53634
22	0x419c1595	19.510538
23	0x42115169	36.329502
24	0x4103989f	8.224761
25	0x42409f41	48.15552
26	0x41de5882	27.793217
27	0x414720a0	12.445465
28	0x421cc884	39.195816
29	0x41c48f1f	24.569883
30	0x428d0068	70.50079
31	0x41f4a1bb	30.57897
32	0x4250c064	52.18788
33	0x42408166	48.126366
34	0x41bb5c7d	23.42016
35	0x41fda1c1	31.703981
36	0x428f8864	71.76639
37	0x418f50e6	17.914501
38	0x4251b3c3	52.42555
39	0x41d6e5e8	26.862259
40	0x41f60f46	30.757458
41	0x425e9574	55.64595
42	0x413c05ab	11.751384
43	0x41b7897e	22.942135
44	0x41708de8	15.034645
45	0x41a60ca4	20.756172
46	0x416e80dd	14.906461
47	0x41823a51	16.278475
48	0x424e48b6	51.571007
49	0x4102181b	8.130885
50	0x41e9ea7b	29.239492
51	0x4242f4d7	48.7391
52	0x41c2bc05	24.341806
53	0x4106fc35	8.436574
54	0x41b95acf	23.16934
55	0x41c03b65	24.029001
56	0x4293ece1	73.962654
57	0x4282db12	65.42787
58	0x42517ff2	52.374947
59	0x41d7e25b	26.985525
60	0x428a868a	69.26277
61	0x41ab9103	21.445807
62	0x4236c0a7	45.688137
63	0x4278e1eb	62.220623
64	0x4236ba92	45.682198
65	0x4255bb4a	53.4329
66	0x414dfab2	12.873705
67	0x420e3a09	35.556675
68	0x40c9b289	6.303044
69	0x41bf9d78	23.951889
70	0x42beb1b6	95.34709
71	0x417093b4	15.03606
72	0x41198071	9.593858
73	0x42808e2e	64.277695
74	0x41f7b18a	30.961689
75	0x41bb4130	23.40683
76	0x41c67d05	24.811045
77	0x41ae6466	21.799023
78	0x41775225	15.457555
79	0x4287a82a	67.828445
80	0x416b400e	14.703138
81	0x412f923f	10.973205
82	0x42b74b8d	91.64756
83	0x41d8777e	27.058346
84	0x41eee960	29.863953
85	0x40fd8936	7.9229994
86	0x42339efb	44.905254
87	0x419d9e70	19.702362
88	0x41bb78f5	23.434061
89	0x423af3b4	46.73799
90	0x41e46639	28.549913
91	0x422f210c	43.782272
92	0x41ea1130	29.258392
93	0x42a1baff	80.86523
94	0x421b227f	38.783688
95	0x420b4b6a	34.823647
96	0x4245e298	49.471283
97	0x41e69365	28.82197
98	0x415492b8	13.28582
99	0x4290f4d9	72.47822
100	0x41414709	12.079843
101	0x416ac9a6	14.674231
102	0x42145693	37.084545
103	0x414c7714	12.779072
104	0x41e251d7	28.28996
105	0x410ba258	8.727135
106	0x41102db7	9.011161
107	0x41a9281f	21.14459
108	0x41b69fd9	22.82805
109	0x41f7ede4	30.991158
110	0x4101b883	8.107547
111	0x41a99aad	21.200525
112	0x425f9807	55.898464
113	0x42162b45	37.542255
114	0x41965930	18.793549
115	0x40c9c1d6	6.3049116
116	0x423f11e2	47.767464
117	0x41c66b25	24.802317
118	0x416a8911	14.6584635
119	0x41988cd7	19.06877
120	0x42516cb1	52.356144
121	0x429e4f27	79.154594
122	0x40b28d4c	5.579748
123	0x423e20ef	47.53216
124	0x41b3d330	22.478119
125	0x417d205e	15.820402
126	0x425f55c9	55.833775
127	0x41aad86b	21.355673

layers.3.weight f4 [256, 128]
0	0xbdb4ca7b	-0.088276826
1	0x3c949b40	0.018140435
2	0xbe2262ca	-0.15857998
3	0xbd117ec6	-0.03552129
4	0xbdeef128	-0.11667091
5	0xbe128b74	-0.1431101
6	0xbe68db51	-0.22739913
7	0xbd1375a4	-0.036000863
8	0x39623e00	0.00021576136
9	0xbd81d362	-0.06339146
10	0xbdafabe5	-0.08577708
11	0xbe1925ed	-0.14955874
12	0xbe38bcfe	-0.18040845
13	0xbd9856a7	-0.074384026
14	0xbd66fff5	-0.056396443
15	0xbd9464bc	-0.07245776
16	0xbd8776fa	-0.0661449
17	0xbe5dbf87	-0.21655093
18	0xbd9e2f83	-0.07723906
19	0xbce0fe4c	-0.027465008
20	0xbc9ae4b2	-0.018907879
21	0xbcffba7c	-0.031216852
22	0xbce1506a	-0.027504165
23	0xbd3b7968	-0.04577008
24	0xbdbcc4e1	-0.09217239
25	0xbda5c030	-0.080932975
26	0xbcd08252	-0.025452767
27	0xbc5d8234	-0.013519812
28	0x3bd711a0	0.0065633804
29	0xbc903c96	-0.017607015
30	0xbd72c918	-0.05927381
31	0xbd84b518	-0.064798534
32	0xbd536bbf	-0.051616427
33	0xbc8816c4	-0.016612418
34	0x3cd7dc7b	0.02635025
35	0xbda51d66	-0.08062248
36	0x3886ac00	6.4216554e-05
37	0x3d35f272	0.044420667
38	0xbd6607c1	-0.05615974
39	0xbd83cec8	-0.06435925
40	0xbdafb4b3	-0.085793875
41	0xbcf8481c	-0.030307822
42	0xbde430c5	-0.111421145
43	0xbdd42d40	-0.10360193
44	0xbddff9a4	-0.10936287
45	0xbd932ea3	-0.071866296
46	0xbcdc7100	-0.026909351
47	0xbdea1d29	-0.11431343
48	0xbda9678e	-0.082717046
49	0xbd316b17	-0.04331502
50	0xbd0c2e54	-0.03422387
51	0xbe0a49d4	-0.13504726
52	0xbdc2afea	-0.09506209
53	0xbc035dc4	-0.008017961
54	0x3c0f7b80	0.008757472
55	0xbdfdbdad	-0.123896934
56	0xbe164bf5	-0.14677413
57	0xbcea5b80	-0.028608084
58	0xbe015157	-0.12628685
59	0xbdaf106f	-0.08548056
60	0xbe042f38	-0.12908638
61	0xbca1bbf2	-0.01974294
62	0xbdc04ecc	-0.09390029
63	0xbe24c248	-0.16089737
64	0xbd610edb	-0.054945808
65	0x3ca26df8	0.019827828
66	0x3ca97953	0.020687735
67	0xbcd0e9e0	-0.025502145
68	0xbc019cd8	-0.00791093
69	0xbe059aaa	-0.13047281
70	0xbc43f080	-0.011959195
71	0x3d4e0b96	0.050304018
72	0xbdde93a6	-0.108680055
73	0xbda0e9e4	-0.07857111
74	0xbdfc945c	-0.12332985
75	0xbdc3c47e	-0.09558962
76	0xbe19af0e	-0.15008184
77	0xbc425df0	-0.011863217
78	0x3d1e0b82	0.038585193
79	0xbd50925e	-0.050920837
80	0xbd268878	-0.04065749
81	0xbdbe5155	-0.092928566
82	0xbe29c98e	-0.16580793
83	0xbdd0a7ea	-0.10188277
84	0xbd7dd7c6	-0.061973356
85	0xbc8abc2a	-0.016935427
86	0xbde2da30	-0.11076772
87	0x3ccfc058	0.025360271
88	0x3d4b2332	0.04959411
89	0xbdbb2705	-0.09138302
90	0xbda43ab5	-0.0801901
91	0xbd1368f3	-0.03598876
92	0xbd79329f	-0.06083929
93	0xbd50692a	-0.050881542
94	0xbdb8a942	-0.09016658
95	0xbe5d6936	-0.21622166
96	0xbde42125	-0.11139134
97	0xbe057180	-0.13031578
98	0x3c8c00b0	0.017090172
99	0xbda3475e	-0.079725966
100	0xbc7c930a	-0.015415916
101	0xbd56f8fc	-0.052483544
102	0x3c891e38	0.016738042
103	0xbe087c1c	-0.13328594
104	0x3cac5314	0.021035708
105	0x3d30a61a	0.043127157
106	0x3c091c68	0.008368589
107	0xbd37e18a	-0.044892825
108	0xbe15b00e	-0.14617941
109	0xbd14d108	-0.03633216
110	0xbe53787c	-0.2065143
111	0xbe159a91	-0.14609744
112	0xbe07e7a1	-0.13271953
113	0xbd888e18	-0.06667727
114	0xbe042c3e	-0.12907502
115	0xbc9498ee	-0.018139329
116	0xbd965d2d	-0.073419906
117	0xbda82ba2	-0.08211447
118	0xbe0d11f8	-0.13776386
119	0xbd8b0c53	-0.0678946
120	0xbcea3f92	-0.028594766
121	0xbdac0afe	-0.08400534
122	0xbdd77d7b	-0.105219804
123	0xbd82b4c0	-0.063821316
124	0xbdb98e91	-0.090603955
125	0xbd9a318c	-0.075289816
126	0xbe31cb88	-0.17362797
127	0xbdc0840e	-0.094001874
128	0xbd5d475d	-0.054023135
129	0xbd62d74e	-0.05538111
130	0xbdef697d	-0.11690042
131	0xbde2f5df	-0.110820524
132	0xbd84aa2b	-0.064777695
133	0xbe3410ae	-0.17584488
134	0xbe19f0b6	-0.1503323
135	0x3bf3ea90	0.0074437335
136	0xbd926fa4	-0.071502
137	0xbd8b254b	-0.067942224
138	0xbe02ea4e	-0.12784693
139	0xbd524dd1	-0.051343743
140	0xbdb0a438	-0.08625072
141	0xbd0b2944	-0.0339749
142	0xbd7a61b6	-0.06112834
143	0xbd9c8df4	-0.07644263
144	0xbd05f13c	-0.032700762
145	0x3d77cf48	0.060500413
146	0xbc4bf758	-0.012449108
147	0x3cb73294	0.022362985
148	0xbd4c9ef5	-0.04995628
149	0xbdac9348	-0.08426529
150	0xbd865163	-0.06558492
151	0xbdc5044a	-0.09619959
152	0x3d13316e	0.03593581
153	0xbd89eb5a	-0.06734343
154	0xb91d8400	-0.0001502186
155	0xbde9e486	-0.114205405
156	0xbd6f48a6	-0.058418892
157	0xbdad78c7	-0.08470302
158	0x3c46ed50	0.012141541
159	0xbda8def2	-0.082456484
160	0x3d94c2ce	0.072637185
161	0xbd930be2	-0.07180001
162	0x3ca018ec	0.019543134
163	0xbbab4b88	-0.00522751
164	0x3dbf176c	0.09330639
165	0xbcf205ca	-0.029543776
166	0xbe138b1c	-0.14408535
167	0xbd4a5870	-0.049400747
168	0xbdc0ddaf	-0.09417283
169	0x3d6c4b04	0.057688728
170	0xbd7efc3c	-0.06225227
171	0xbd8e9872	-0.069626704
172	0xbd9bd07d	-0.07608125
173	0xbd59af89	-0.05314592
174	0xbe3c325b	-0.18378584
175	0xbdd4774b	-0.10374316
176	0xbe2d5866	-0.16928253
177	0x3ced4c04	0.028966911
178	0x3af20200	0.0018463731
179	0xbd37efa0	-0.04490626
180	0xbe30dbfa	-0.17271414
181	0xbdb8ee69	-0.09029848
182	0xbb8238f0	-0.0039740726
183	0xbdef67e6	-0.11689739
184	0xbd9a24f8	-0.075265825
185	0xbe0c0553	-0.13673906
186	0xbdb91961	-0.09038044
187	0x3c868e08	0.016425148
188	0xbdc914a4	-0.0981839
189	0xbdc7e89e	-0.09761165
190	0x3d75d474	0.060017064
191	0xbe1b6aea	-0.15177503
192	0x3caebbec	0.021329843
193	0xbdcc066e	-0.09962164
194	0xbdf457d4	-0.119308144
195	0xbca678ba	-0.020321239
196	0xbd297d3c	-0.0413792
197	0xbcb5a4d2	-0.022173319
198	0xbdb3f695	-0.08787266
199	0xbe17e401	-0.1483307
200	0xbdcb5d64	-0.09929922
201	0xbccdd292	-0.025124822
202	0xbd822cec	-0.063562244
203	0xbc5efb70	-0.013609752
204	0xbdba1111	-0.090852864
205	0x3d8c1724	0.06840351
206	0x3e0df644	0.13863474
207	0xbdf98eea	-0.12185462
208	0xbcbf35da	-0.023341108
209	0xbe251c74	-0.16124135
210	0x3cef9b60	0.029248893
211	0xbd5bf746	-0.053702615
212	0xba4ad380	-0.00077372044
213	0xbcfc1340	-0.030770898
214	0xbd440aec	-0.04786198
215	0xbd9ad1fe	-0.07559584
216	0xbcf966da	-0.030444551
217	0xbe221ef4	-0.1583212
218	0xbce3b6e2	-0.027797166
219	0xbce2199b	-0.0276001
220	0xbdfb0386	-0.122565314
221	0xbe2fd0b2	-0.17169455
222	0x3d5a4652	0.05328972
223	0xbdc371e2	-0.09543206
224	0x3db84f98	0.08999556
225	0xbdb57d24	-0.08861759
226	0xbae6f040	-0.0017619208
227	0x3d7ab09e	0.06120359
228	0xbdfa1313	-0.12210669
229	0x3d0993da	0.033588268
230	0xbe04faa0	-0.12986231
231	0xbde09b6c	-0.10967144
232	0xbd7cece2	-0.061749347
233	0xbd40b1bc	-0.0470445
234	0xbda33fb8	-0.07971138
235	0x3c4982c0	0.01229924
236	0xbd42ba41	-0.047540907
237	0xbc97aa14	-0.018513717
238	0xbdb1276e	-0.08650099
239	0xbc533cdf	-0.012892931
240	0xbdf9c0a3	-0.12194946
241	0xbda0bf6c	-0.07849011
242	0xbda5c59d	-0.08094332
243	0xbd49fb04	-0.049311653
244	0xbda864ce	-0.08222352
245	0xbd22ab34	-0.039714053
246	0xbdd162bd	-0.10223911
247	0xbb493286	-0.003070028
248	0xbd425b0d	-0.047450114
249	0xbdd187bd	-0.10230968
250	0xbd5977b0	-0.05309266
251	0xbc981906	-0.01856662
252	0xbdc92c70	-0.09822929
253	0x3c8fb974	0.017544486
254	0xbd92792a	-0.071520165
255	0xbdafc2cf	-0.08582079

layers.3.bias f4 [256]
0	0xbd098cbf	-0.03358149
1	0xbd84a22c	-0.06476244
2	0xbd97a784	-0.07404998
3	0x3c2efeb8	0.010680847
4	0x3cb8cdb0	0.022559017
5	0x3bd37e80	0.006454289
6	0xbce9b914	-0.028530635
7	0xbd422b24	-0.047404423
8	0xbce7350e	-0.02822354
9	0xbc61c9c8	-0.013781019
10	0x3d2a8ac3	0.04163624
11	0x3d52a86d	0.051430155
12	0x3d63986c	0.055565283
13	0xbceb4d1b	-0.02872329
14	0x3d24d5cf	0.040242966
15	0x3d4ed3f2	0.050495096
16	0x3d6939d8	0.05693993
17	0xbcccba40	-0.024991155
18	0x3d818a89	0.063252516
19	0x3d816f31	0.06320036
20	0x3d81d8a9	0.06340153
21	0x3cfe1d93	0.031019961
22	0x3d60cd91	0.054883543
23	0x3cced2d8	0.025247023
24	0xbd36355f	-0.044484492
25	0x3be7b0c0	0.007070631
26	0xbd2f93d9	-0.042865608
27	0x3d60ba09	0.054864917
28	0x3d1b67b7	0.037940707
29	0xbc3938a1	-0.011305005
30	0x3d381f5f	0.044951793
31	0x3d0d755b	0.034535747
32	0xbda085e0	-0.07838035
33	0x3d8f6574	0.070017725
34	0xbd07c5c4	-0.03314759
35	0xbdb4dfe9	-0.0883177
36	0x3c0ebc20	0.008711845
37	0x3d78ed6e	0.060773306
38	0x3c4db158	0.012554489
39	0xbcadbb38	-0.021207437
40	0xbd9ae63e	-0.075634465
41	0x3c86d8e4	0.016460843
42	0xbc312eb8	-0.010814361
43	0x3d8b8159	0.068117805
44	0x3cc5995c	0.024120979
45	0xbd929db0	-0.07158983
46	0x3d8831ae	0.06650101
47	0x3d39c540	0.045354128
48	0x3d036b02	0.032084472
49	0xbd5f8273	-0.054567765
50	0x3cc34eb0	0.023841232
51	0xbce24388	-0.027620092
52	0x3d4421a1	0.047883634
53	0xbd67b727	-0.056571152
54	0xbd8899e0	-0.06669974
55	0x3d8ee48c	0.069771856
56	0xbbc67790	-0.0060567334
57	0x3d6ccfd3	0.057815384
58	0x3d60ba09	0.054864917
59	0xbd7dbfe0	-0.061950564
60	0xbc12eff8	-0.008968346
61	0xbd1e367a	-0.03862617
62	0xbd85491c	-0.06508085
63	0x3d20de2e	0.039274387
64	0x3a9c5840	0.0011928156
65	0xbcf7eb9e	-0.030263718
66	0xbbd64f80	-0.006540239
67	0xbd96a818	-0.0735628
68	0x3c8345d8	0.016024515
69	0x3c83d128	0.016090944
70	0x3c582318	0.013191961
71	0xbbce78f0	-0.006301038
72	0xbce85786	-0.028362047
73	0xbd9b3405	-0.07578281
74	0x3d2ce83d	0.042213667
75	0x3d947659	0.072491355
76	0x3d8f51ec	0.06998047
77	0xbd83865b	-0.06422111
78	0x3b865d10	0.0041004494
79	0x3c8cdffc	0.017196648
80	0x3d8700fd	0.065919854
81	0xbcd3f1a0	-0.025872052
82	0xbd279cc2	-0.04092098
83	0xbd493194	-0.049119547
84	0x3d881a3e	0.0664563
85	0x3ca82450	0.020525128
86	0xbd2243ce	-0.039615445
87	0x3d22c2ba	0.039736487
88	0x3d274492	0.040836878
89	0x3c658c6e	0.014010532
90	0x3c958870	0.018253535
91	0x3d14cc49	0.036327634
92	0x3d89df60	0.067320585
93	0x3d879186	0.06619553
94	0x3c988fac	0.018623196
95	0xbd184fb9	-0.037185404
96	0x3d038782	0.032111652
97	0xbd887f58	-0.06664914
98	0xbd23aa0e	-0.0399571
99	0x3ba16300	0.004925132
100	0xbcf0bbc0	-0.029386401
101	0x3d3796a6	0.044821404
102	0xbbb11550	-0.005404152
103	0x3d88d1d7	0.06680649
104	0xbbd21dd0	-0.0064122453
105	0xbdad6332	-0.08466186
106	0xbd14ca9e	-0.036326043
107	0xbd3578f5	-0.044304807
108	0xbd7c8419	-0.061649416
109	0xbc349718	-0.011022352
110	0x3d0cc1aa	0.03436438
111	0x3c827ede	0.015929636
112	0xbd90370a	-0.07041748
113	0x3d321862	0.043480285
114	0xbdae90b8	-0.08523697
115	0xbc7b8969	-0.015352585
116	0x3d331263	0.043718707
117	0x3d095a8f	0.03353363
118	0x3d6198b2	0.055077262
119	0xbd46fc1c	-0.048580274
120	0x3d82e632	0.063915625
121	0xbd11ed69	-0.035626803
122	0xbccdcaec	-0.025121175
123	0x3d448f01	0.04798794
124	0x3d654ded	0.05598252
125	0xbd0bf80a	-0.034172095
126	0x3d8c44aa	0.06849034
127	0xbb183574	-0.002322522
128	0x3d64c91d	0.05585586
129	0x3be70950	0.0070506707
130	0xbd46eb2e	-0.04856413
131	0x3c37ae17	0.01121094
132	0xbd8cbe36	-0.06872217
133	0x3d696ca0	0.05698836
134	0x3d3ccab3	0.046091747
135	0xbd34922a	-0.044084705
136	0x3cb80eec	0.022468053
137	0xbc379550	-0.0112050325
138	0x3e809f41	0.251215
139	0x3d821b11	0.06352819
140	0xbc942364	-0.018083282
141	0x3d4323b8	0.047641486
142	0xbd92fb71	-0.07176865
143	0xbbd70100	-0.0065613985
144	0x3cb68e18	0.022284552
145	0x3d5b37dc	0.05352007
146	0xbc7f63d8	-0.015587769
147	0xbd5d5b2c	-0.054042026
148	0xbd26b094	-0.04069574
149	0x3d8c8ee2	0.0686319
150	0x3cf84576	0.030306559
151	0x3d236e6d	0.039900232
152	0xbd33ee81	-0.043928627
153	0xbd6f1dae	-0.058377914
154	0xbd3b9344	-0.04579474
155	0x3e41ab1c	0.1891293
156	0xbca4c12c	-0.020111643
157	0xbd410004	-0.047119156
158	0xbd7904df	-0.06079566
159	0xbcdd240f	-0.026994733
160	0xbc779a08	-0.0151124075
161	0x3cfb286c	0.030658923
162	0xbd15ad0e	-0.03654199
163	0x3d8fceed	0.0702189
164	0x3bee1d90	0.0072667077
165	0x3e367915	0.17819627
166	0xbd9171c6	-0.07101779
167	0x3cef2965	0.029194543
168	0x3c034850	0.008012846
169	0x3d028c5a	0.03187213
170	0x3d0eb9ee	0.034845285
171	0x3d0174f4	0.031605676
172	0x3d31d212	0.04341323
173	0xbd4ca61d	-0.049963105
174	0x3d0ee9a8	0.0348908
175	0xbc5c28b0	-0.013437435
176	0xbd03df88	-0.032195598
177	0x3b8c8c10	0.0042891577
178	0x3d114dbe	0.03547453
179	0x3d699b81	0.057033066
180	0x3d67caa7	0.05658975
181	0x3ccea8fb	0.02522706
182	0x3d606be9	0.05479041
183	0xbc7c03c0	-0.015381753
184	0x3ced7bb5	0.028989652
185	0xbd996861	-0.07490612
186	0x3d0f8008	0.03503421
187	0xbda3f1cc	-0.080051035
188	0xbccc4200	-0.024933815
189	0x3d7a83af	0.06116074
190	0x3d1754bb	0.03694604
191	0xbd1a7892	-0.03771264
192	0x3d304f58	0.043044418
193	0xbd252294	-0.04031618
194	0xbd9c0bc8	-0.076194346
195	0x3d851c9c	0.064995974
196	0xbce1aa12	-0.027546916
197	0x3d651b25	0.05593409
198	0x3d64b97c	0.055840954
199	0x3cd26be8	0.02568622
200	0x3bc33b29	0.00595798
201	0x3a9eb980	0.0012109727
202	0x3c042c40	0.008067191
203	0xbc8f045c	-0.017458133
204	0x3ce09128	0.027412966
205	0x3c3048f0	0.010759577
206	0xbd8dcdf3	-0.06924047
207	0x3e27a1b8	0.16370285
208	0x3d02347c	0.031788334
209	0xbda8f1be	-0.08249234
210	0xbd5fa787	-0.054603126
211	0x3cb51efc	0.022109501
212	0xbd0530b3	-0.032517146
213	0xbdaceb00	-0.0844326
214	0x3d1b63cf	0.03793698
215	0x3d80128e	0.06253539
216	0x3d726970	0.059182584
217	0x3a23b500	0.00062449276
218	0x3c4b5790	0.012411013
219	0xbc2d77b0	-0.010587618
220	0x3d86ddd5	0.0658528
221	0xbcf18c72	-0.029485915
222	0x3ac91880	0.0015342385
223	0x3d0851da	0.033281185
224	0xbd599c18	-0.05312738
225	0x3d17fcb4	0.03710623
226	0xbcd2995c	-0.025707893
227	0x3d192595	0.037389357
228	0x3cdc129d	0.026864344
229	0x3d360c1d	0.044445146
230	0xbc7a3690	-0.015271798
231	0x3cc0d4d8	0.023538992
232	0xbd5469b4	-0.05185862
233	0xbc5fbc21	-0.013655693
234	0x3d52beea	0.0514516
235	0x3d90ad96	0.07064359
236	0xbc717b28	-0.014738835
237	0xbd1c4480	-0.038151264
238	0x3bba4170	0.0056840703
239	0x3d611bb1	0.05495805
240	0xbcd6d7ea	-0.026226003
241	0x3c66e4c8	0.014092632
242	0xbd9ffbd0	-0.07811701
243	0x3d3c8c33	0.046032142
244	0x3d8a0a58	0.06740254
245	0x3d595b4b	0.05306558
246	0x3d1cfa10	0.038324416
247	0x3e1f75f7	0.15572344
248	0xbd31bbf8	-0.04339215
249	0x3d8c8afa	0.06862445
250	0xbdb29626	-0.08720045
251	0xbac21a18	-0.0014808802
252	0x3d906745	0.07050947
253	0xbd03ff81	-0.03222609
254	0x3c9f1f60	0.01942414
255	0xbd04252c	-0.032262012

layers.5.weight f4 [2, 256]
0	0xbf095016	-0.53637826
1	0x3f3e93bd	0.7444418
2	0xbf7109e0	-0.94155693
3	0x3e880146	0.26563472
4	0xbf4a6b07	-0.7906956
5	0xbf1973b5	-0.5994218
6	0x3c4e6693	0.012597698
7	0xbd99243b	-0.074776135
8	0xbf9381a7	-1.1523942
9	0xbe8a1de1	-0.2697592
10	0xbf5217e5	-0.8206771
11	0xbea2ed85	-0.31821838
12	0xbf8d9883	-1.1062168
13	0xbe1167ea	-0.14199796
14	0xbf536fa6	-0.82592237
15	0xbf7f699b	-0.99770516
16	0xbff904de	-1.945461
17	0xbfac8f2e	-1.3481195
18	0x3eab9465	0.33511654
19	0xbfb63715	-1.423556
20	0xbf880e86	-1.0629432
21	0xbe4a0586	-0.1972867
22	0xbf578e59	-0.8420158
23	0xbf9b26eb	-1.2121252
24	0xbf974548	-1.1818018
25	0xbf191394	-0.597955
26	0x3f087108	0.5329747
27	0xbe6ff86e	-0.23434612
28	0xbfe165ea	-1.7609227
29	0xbfcd0b4b	-1.6019071
30	0xbf573481	-0.8406449
31	0x3f2ead60	0.682333
32	0xbfb57a40	-1.4177933
33	0xbe1aa07e	-0.15100285
34	0x3be383ad	0.006943187
35	0x3e73dc9f	0.23814629
36	0xbee3dad5	-0.44502893
37	0xbf8a4108	-1.0801096
38	0xbf6a0cca	-0.91425765
39	0xbe9c57b2	-0.30535656
40	0xc00b4578	-2.176115
41	0x3f940218	1.1563139
42	0xbf93db40	-1.1551285
43	0xbf562310	-0.8364725
44	0xbff65a50	-1.9246311
45	0xbf9e3f90	-1.2363148
46	0xbeb14959	-0.34626272
47	0xbeb51604	-0.3536836
48	0xbbb858fd	-0.0056258426
49	0xbf9d7950	-1.2302647
50	0x3e8a2d81	0.26987842
51	0x3f2f1fe5	0.6840804
52	0x3e977fb4	0.29589617
53	0xbf0c576e	-0.5482091
54	0x3dcd0243	0.10010197
55	0xbfbff34d	-1.4996125
56	0xbf2836bd	-0.65708524
57	0xbe898588	-0.2685969
58	0xbf318fa9	-0.69359833
59	0xbe40d013	-0.18829374
60	0xbfa989ef	-1.3245219
61	0xbfe8af4a	-1.8178494
62	0xbff3e8d8	-1.9055433
63	0xbfe5272f	-1.7902583
64	0xbe24ac9f	-0.16081475
65	0xbfea99ea	-1.8328221
66	0xbf33c22c	-0.7021816
67	0xbf9a56c3	-1.2057728
68	0xbef24a88	-0.47322488
69	0x3b71478c	0.0036816327
70	0xbf47d58e	-0.78060234
71	0xbf263884	-0.64929986
72	0xbf2aaded	-0.6667164
73	0xbf7860ce	-0.9702271
74	0xbe4bbaf7	-0.1989554
75	0xbf2381f5	-0.63870174
76	0xbf0036b0	-0.50083447
77	0xbf176844	-0.5914347
78	0xbfbe3215	-1.4859034
79	0xbf6e4f73	-0.9308998
80	0xbf820b71	-1.0159742
81	0xbf4f243c	-0.80914664
82	0xbf722ee4	-0.946028
83	0x3f6bf514	0.92170835
84	0xbfee910d	-1.8638016
85	0xbf7d4d4c	-0.9894607
86	0xbf4a1b52	-0.7894794
87	0xbf482dda	-0.78194964
88	0xbf30fa4b	-0.69131917
89	0xbf4d40d0	-0.8017702
90	0x3d905a6b	0.07048496
91	0xbfb03bd0	-1.3768253
92	0xbfe7a397	-1.8096799
93	0xbfa093f3	-1.254515
94	0xbf1f960b	-0.6233832
95	0xbeeb957b	-0.46012482
96	0xbfa10308	-1.257905
97	0xbf930372	-1.1485426
98	0xbf5db880	-0.8660965
99	0xbf2958ac	-0.6615093
100	0xbf412cd0	-0.75459003
101	0xbf93d248	-1.1548548
102	0xbfaa3cb3	-1.3299774
103	0xbf88ed2f	-1.0697383
104	0xbfd15f85	-1.6357275
105	0xbe57e44b	-0.2108318
106	0x3d83f218	0.0644266
107	0xbf94fccc	-1.1639647
108	0xbf1f03d8	-0.6211524
109	0xbff6b730	-1.9274654
110	0xbf5cddbe	-0.8627585
111	0xbfb7e4c7	-1.4366692
112	0xbf2f4831	-0.6846953
113	0xbe400ea6	-0.18755588
114	0xbf9c5f5f	-1.2216605
115	0xbf82992d	-1.0202996
116	0xbe9afe3e	-0.30272096
117	0xbe189cdc	-0.14903587
118	0xbf28a662	-0.6587888
119	0x3ea39658	0.3195064
120	0xbffed913	-1.9909996
121	0xbf269b5c	-0.6508081
122	0xbfa11041	-1.2583085
123	0xbf099cf9	-0.53755146
124	0xbf20806b	-0.6269595
125	0xbf18154b	-0.5940749
126	0xbfa654a0	-1.2994576
127	0xbf724f33	-0.946521
128	0xbf0f3a7c	-0.55948615
129	0xbf747220	-0.9548664
130	0x3edc1b18	0.4298942
131	0xbf47afcd	-0.78002626
132	0xbe113c01	-0.14183046
133	0xbe4adc4f	-0.19810604
134	0xbf7da862	-0.99085057
135	0xbde4fd46	-0.111811206
136	0xbf5cacc5	-0.86201125
137	0x3e280685	0.16408737
138	0x3e47a7b5	0.19497569
139	0xbf82ea1a	-1.0227692
140	0xbf6c471c	-0.92296004
141	0xbe25b08f	-0.16180633
142	0xbfcc11a8	-1.5942888
143	0xbfd57808	-1.6677256
144	0x3d01510f	0.031571444
145	0xbf184304	-0.5947726
146	0xbce11556	-0.027475994
147	0xbfe5f82d	-1.7966362
148	0xbf17b6fd	-0.5926359
149	0x3b26390c	0.0025363592
150	0xbf0696c6	-0.5257381
151	0xbe8b90f9	-0.27259043
152	0xbfd6ac64	-1.677136
153	0xbf9caa7b	-1.2239527
154	0xbef98227	-0.4873211
155	0x3f356f30	0.70872784
156	0xbf8c2e5b	-1.0951647
157	0xc036361f	-2.8470533
158	0xbf8bbd35	-1.0917116
159	0xbfec4157	-1.845744
160	0xbf7d81ac	-0.9902599
161	0xba8c38fb	-0.0010698134
162	0xbf41cfe0	-0.7570782
163	0xbfce33c9	-1.6109554
164	0xbfb3c05d	-1.404308
165	0x3f120e19	0.5705276
166	0xbec2f8c1	-0.3808041
167	0xbea5b08f	-0.32361266
168	0xbf9acfe2	-1.2094691
169	0xbe459663	-0.19295649
170	0xbfd7f4c6	-1.6871574
171	0xbfaee410	-1.3663349
172	0xbf8128e0	-1.0090599
173	0xbd16a732	-0.036780544
174	0xbe9e7d31	-0.30954888
175	0xbf0bfa73	-0.5467903
176	0xbf2bce5c	-0.67111754
177	0x3f1fbc41	0.6239663
178	0xbfa1b504	-1.2633367
179	0xbfd6bb69	-1.6775943
180	0xbfb3646b	-1.401502
181	0x3dc00369	0.093756504
182	0xbfa4b68e	-1.2868211
183	0xbee8aa0c	-0.45442235
184	0xbf4419d2	-0.766019
185	0xbf1b0864	-0.6055968
186	0xbe285f2a	-0.16442552
187	0xbf89491f	-1.072544
188	0xbeed54a5	-0.4635364
189	0xbeb7fc37	-0.35934612
190	0xbf806978	-1.0032187
191	0xbed47f7c	-0.41503513
192	0xbd48b96d	-0.04900496
193	0xbf6ec583	-0.9327013
194	0xbdcdd32a	-0.10050042
195	0xbe980484	-0.29690945
196	0xc008ee08	-2.1395283
197	0x3e828873	0.25494727
198	0xbee2b9c3	-0.4428235
199	0x3ed3015e	0.4121198
200	0x3c7188f4	0.014742125
201	0xbf2a8904	-0.6661532
202	0xbf89f3b2	-1.0777495
203	0xbf2eac97	-0.682321
204	0xbf7bba18	-0.9833083
205	0x3f3f8bae	0.7482251
206	0xbfcce172	-1.60063
207	0x3fb76fe6	1.4331024
208	0x3e54e2d1	0.20789649
209	0xbf0bf1ac	-0.54665637
210	0x3e903a8d	0.2816967
211	0xbfe5cd4d	-1.7953278
212	0xbf6d5669	-0.92709976
213	0xbf7266fa	-0.9468838
214	0xbfbb1d01	-1.4618226
215	0xbfdc223d	-1.7197949
216	0xbefd0839	-0.49420336
217	0x3efba365	0.49148098
218	0xbfe97859	-1.8239852
219	0xbfafa154	-1.3721108
220	0xbfd67518	-1.6754484
221	0xbfb13222	-1.3843424
222	0x3edfbd7b	0.4369925
223	0xbddfab46	-0.1092134
224	0xbfc0be6f	-1.5058116
225	0xc0426c20	-3.0378494
226	0xc01ff41b	-2.499274
227	0xbf4536fa	-0.7703701
228	0xbfb22451	-1.3917333
229	0xbdc17607	-0.0944634
230	0xbfc61f3a	-1.547828
231	0xbf601507	-0.87532085
232	0xbe5665c0	-0.20937252
233	0xbf1398cc	-0.57655025
234	0xbf5dbd7e	-0.8661727
235	0x3eaef3b0	0.34170294
236	0xbfb6f521	-1.4293557
237	0xbff62294	-1.9229302
238	0xbf93a88a	-1.1535809
239	0xbf19eccd	-0.60126954
240	0xbe5bf259	-0.21479167
241	0xbfbf67cd	-1.4953552
242	0xbf045d6c	-0.5170505
243	0xbec4f3a9	-0.38467148
244	0xbf736b41	-0.9508553
245	0xbf66960e	-0.90072715
246	0xbf49cade	-0.78825176
247	0x3f576cf1	0.84150606
248	0xbe9cab25	-0.30599323
249	0xbfeb7fe2	-1.8398402
250	0xbf82069b	-1.0158266
251	0xbf9af195	-1.2104975
252	0xbf5b0ce4	-0.85566545
253	0xbec59f07	-0.3859789
254	0xbf97bcbc	-1.1854472
255	0x3f8f8e40	1.1215286

layers.5.bias f4 [2]
0	0x3da5bc85	0.08092598
1	0x3e19514c	0.14972419
