results/checkpoint_1_actor_local.pt (torch_old, 148135 bytes, 6 tensors)

layers.0.weight f4 [128, 24]
00000000: 6799 f9bd 0d04 1f3e 1185 b5be 43c6 dfbe
00000010: 5636 68be 87d7 e7bd 4bd1 64be 1c97 0abe
00000020: d0fb 47be fb67 a33c 2555 7e3d a40e 22be
00000030: 120c 15be 8163 05be d250 de3c 3362 493d
00000040: 669d 90bd e8b3 eebc 56f3 61be d089 68be
00000050: 99e5 61be 2c30 66be cf31 83be f26f 82be
00000060: 21d3 993e ce4d efbd e255 9d3b e8fc afbd
00000070: 9a22 86be 3050 143c 643d 3fbd e86f 08be
00000080: 2d10 443e 6a09 54be a611 afbe 977a 5b3c
00000090: bdf2 b3be e717 213a 178e 47be 426b c3bd
000000a0: 45a7 8b3e 597b 92be 8d18 453d 15d2 6bbd
000000b0: 87a5 6cbe ba98 113c a892 2f3d da70 c03d
000000c0: 07ee 78be f633 ddbe 4475 01be f3aa efbe
000000d0: 1555 b33d a86b 92be 7193 72be 1580 88be
000000e0: 8fa1 b5bd 7c46 b0be 2aef 9cbd 7016 0dbe
000000f0: 5261 6cbd f636 b9be 999a d4bb 49d0 6d3d
00000100: c211 94be 7db9 89be add7 87be 3ace 1bbe
00000110: bdf0 bdbc 3cf4 79be 1ad5 a7be 018a 3dbe
00000120: 7cde c3bc b117 8bbc f585 e5bd efbc b1bc
00000130: 1bcf 1dbe aabd 7ebe 520c 1fbe ec7e 9e3d
00000140: 1139 193d dbd0 473d 0742 3b3d 68a4 c4bc
00000150: e09f 713c fd95 30be ce7a bdbd b768 a33c
00000160: 1ae3 193c 0a52 4a3d 708d 323d db93 18be
00000170: d8e3 4cbe 21c5 8abd 7784 debd 4738 41be
00000180: 2c70 5d3d 2521 0cbc f802 e2bc d713 09be
00000190: 5419 05be 8476 85be 1236 16be 9b7e 5ebd
000001a0: ff15 d6bd d870 aabd e416 e9bd be15 b2bd
000001b0: b950 bcbd 99fc 8fbd 44b6 00be c731 2abe
000001c0: 7016 31be 4616 43be dcbc f8bd 6dde 423e
000001d0: 6d8f dabc d213 b53d 0c6e a0be 13db 2f3e
000001e0: 9e5c 2ebe f42d 93bc 73a6 3cbe f11b 24be
000001f0: 5d00 b23d b384 a33d 0777 b0bd b9db f4bc
00000200: 6b7c cabe f914 933d e7af 48be e8ad 1bbe
00000210: 2130 a83d 8fb2 92bc 98fe 8dbe 531c 16be
00000220: 4cea b0bd 4bb1 073e d7bd 6fbe 0de1 a8bd
00000230: d031 f53d 26cb cabd a333 1dbe e115 0b3d
00000240: 07e5 69be 26f0 02bd 399f 6d3d 0594 36be
00000250: 771a 5dbe d57e 1bbf 511c a2bc 0220 bcbe
00000260: 49b3 49be 1b52 adbd f925 b6bd d593 d9bd
00000270: 2679 46be 54c2 08bf 17d6 54bd 4c31 12be
00000280: 997b a3be c3c6 10bd 0a82 1bbd b20c b4be
00000290: 3c8c 56be e391 33bf 35b6 f2bd 2d74 ccbe
000002a0: 195e 2bbe b4e1 d8bd 72b9 083e 1375 efbd
000002b0: 9548 613c abdf cbbd f0f9 7c3d 3cd0 13be
000002c0: 0ca9 69be d1b6 19be 8dec 16be bf65 80be
000002d0: 6bc5 a9bd c6bb 9cbd 39a0 6ebd 9195 a1bd
000002e0: 23b6 25be 3daa 05be bc66 0dbe 285b 753c
000002f0: 0b42 0cbe b7bb 58be c34a 2fbe 895d cabd
00000300: 757e 0ebd 73cc d2bc b97f 94be dae1 21be
00000310: 09b0 d0bd 5571 3bbe 09ca 70be c87a 42be
00000320: 4737 39bd 1dd2 bdbd c2db dcbd d2ab 883d
00000330: b4ee 7fbe b329 33be 7f8e 0c3c 724d 5ebc
00000340: 2ca9 0b3d 7e64 24be cf12 41be 8b3c 2ebe
00000350: ecbf 56be b0e0 cebd e228 c6bd 5af1 d1bd
00000360: 1def b9bd b126 98be f25c 59be 00b4 d8bd
00000370: bc8e 7fbd d7ed 85bd 2824 f2bd bc03 30be
00000380: 068d a3bd be93 4ebe dcf3 6abe 59d6 cbbe
00000390: 44e4 5d3d bc90 19be 026b d5be 84c9 73be
000003a0: ade7 efbd 19d2 26be 9720 4c3d e7ad 903d
000003b0: 8883 d93d 7f53 48bd 5e85 2bbd 8dc9 023c
000003c0: 4655 023e b94b 383e f957 9f3b c05e c6bd
000003d0: 30c5 a1be 2ab3 74be 5956 d73c beab 023d
000003e0: 7239 9ebc f12a a83e de7d 84be 96c6 f5bd
000003f0: ebb5 2abe 6b0f 73be a373 97bd 9094 99be
-0.12187462 0.15528889 -0.35453084 -0.4370595 -0.22676978 -0.113204055 -0.22345464 -0.13534206
-0.19529653 0.019947043 0.06209292 -0.15825897 -0.14555386 -0.13026239 0.027138148 0.049165916
-0.07061271 -0.02913852 -0.22065482 -0.22708821 -0.22060241 -0.22479314 -0.25623938 -0.25476032
0.3004389 -0.11684762 0.004801498 -0.0859316 -0.26198274 0.009052321 -0.046689406 -0.13323939
0.19146796 -0.20706716 -0.34193152 0.013395927 -0.35146132 0.00061452243 -0.19487797 -0.09541942
0.27276054 -0.28609732 0.048119117 -0.057573397 -0.23110019 0.0088865105 0.04286447 0.09396525
-0.2430955 -0.43203706 -0.1264239 -0.4681011 0.087564625 -0.2859776 -0.23689057 -0.2666022
-0.088687055 -0.34428775 -0.076628044 -0.1377809 -0.05771 -0.36174744 -0.006488156 0.058059964
-0.28919798 -0.2689933 -0.26531735 -0.15215388 -0.023186082 -0.24409574 -0.3277977 -0.18509676
-0.0239098 -0.01697907 -0.11207191 -0.021696536 -0.15411036 -0.24877039 -0.15532044 0.07739052
0.03740794 0.048783164 0.045717265 -0.024004176 0.01474759 -0.17244716 -0.09251939 0.019947393
0.009392524 0.049394645 0.043591917 -0.14900152 -0.2000879 -0.067758806 -0.108651094 -0.18869124
0.054062054 -0.008552824 -0.027589306 -0.13386475 -0.12997943 -0.26066983 -0.14669064 -0.05431996
-0.10453414 -0.083223045 -0.11381319 -0.08695553 -0.09195084 -0.07030601 -0.12569529 -0.16620551
-0.17293715 -0.19051465 -0.12145397 0.19030161 -0.026679719 0.08841671 -0.3133396 0.17173414
-0.17027518 -0.017966248 -0.1842287 -0.16026284 0.086914755 0.07984295 -0.08616453 -0.029889928
-0.39548048 0.071817346 -0.19598351 -0.15203059 0.08212305 -0.017907409 -0.27733302 -0.14659242
-0.086384386 0.13251226 -0.23412262 -0.0824605 0.119723916 -0.09902029 -0.15351729 0.033956412
-0.22841273 -0.031967305 0.058013175 -0.17829902 -0.21592127 -0.60740405 -0.019788893 -0.3674317
-0.19697298 -0.08462926 -0.088939615 -0.106239 -0.19382152 -0.5342152 -0.051961984 -0.14276618
-0.31930235 -0.035345804 -0.03796581 -0.35165936 -0.20951933 -0.7014448 -0.118511595 -0.39932385
-0.16735114 -0.105899245 0.13351992 -0.11692252 0.013750215 -0.09954771 0.061761796 -0.14434904
-0.22818393 -0.15011145 -0.14738674 -0.25077626 -0.082896076 -0.076530024 -0.05825827 -0.07889856
-0.16182761 -0.13053222 -0.13808721 0.014975347 -0.13697068 -0.21165358 -0.17118363 -0.09881122
-0.034788568 -0.025732255 -0.29003695 -0.15808812 -0.10189826 -0.18304951 -0.2351457 -0.1899215
-0.045218732 -0.092685916 -0.10784103 0.06673397 -0.24993402 -0.17496376 0.008578896 -0.013568269
0.03409688 -0.1605396 -0.18854831 -0.17015283 -0.2097165 -0.101014495 -0.096757665 -0.10251112
-0.0907881 -0.2971702 -0.21226862 -0.10581207 -0.06239198 -0.06539505 -0.118233025 -0.17188925
-0.079858825 -0.20173547 -0.22944587 -0.39811972 0.05417277 -0.14996618 -0.41683203 -0.23807341
-0.117141105 -0.16291083 0.049835768 0.07064419 0.10620791 -0.048907753 -0.041875236 0.007982624
0.12727842 0.17997636 0.004862782 -0.09686041 -0.31595755 -0.2389647 0.026286291 0.031902067
-0.019314501 0.32845262 -0.2587728 -0.12000768 -0.16670959 -0.2373635 -0.07395103 -0.29996157

layers.0.bias f4 [128]
00000000: 5097 e7bd 0f27 fb3d 5bd6 8dbe 8f41 05be
00000010: 64a4 c1bd d8f6 303d 8164 cf3d 3cbd 09bc
00000020: 87b4 133d b7c0 1dbe 86de 16be 24b8 ecbc
00000030: d6e8 ed3d 1471 d13d ecd4 453e 467f 073e
00000040: 6836 fd3d fdf6 083b 08b4 ee3c f491 d83a
00000050: 4d47 0abe 1453 21be 20af c3bb 7408 953d
00000060: 5705 31be 1004 1fbe 629b 7c3e bcf9 7c3e
00000070: 5559 18be 48b2 37be ad70 af3c 5a44 87bd
00000080: 8549 4b3d 35a1 f7bd 75c6 573e 28a7 8d3d
00000090: 4bf7 103e 8042 a33d fd8e 873c 9429 b3bd
000000a0: fb97 123e 0e64 33bd 0e87 573e 284e 07be
000000b0: 0765 4d3e f157 8bbd 5a8b fa3d 4d3f 3dbe
000000c0: b8cd f6bd 18c9 57bb b425 e93d 2ba4 c73d
000000d0: c8de b83d bca1 03be 94e4 ef3d 314b 1ebc
000000e0: e581 bb3c 1635 483e a25c 473e 9391 e83c
000000f0: bc61 f23d a73d 7d3d 6f97 713e 93e5 3bbe
00000100: a017 2ebe 43ec d5bc 552f 26be b9f5 1dbe
00000110: 54ee 2fbe 4d8e ae3c da56 883c b936 383e
00000120: bee2 293e 6eb7 1abe 9dd5 4ebc 088a ac3e
00000130: b56a 363e d588 18bc 648c d93d 0c48 b43d
00000140: 3678 683c f656 1ebd c955 473d 1fb7 c9bd
00000150: b6d8 50bc afb6 023e f81b 4cbd 51de 1abe
00000160: ac7b 863e bf4a 02be 7005 83bd 9a10 d4bd
00000170: 6b4d 90bd 886a b2bd 9d4f 43bd fb01 063e
00000180: 2ffd 463e 1e0e 383e a422 cabd 937d 23be
00000190: 60d8 75be 0d77 bbbd 68b0 b7bd e72f 0dbe
000001a0: 4fb3 63bd bef4 873e fab6 e8bd 17a9 41be
000001b0: ecc2 7abd 0d40 7b3e 43be be3d 2091 483d
000001c0: 813d 023e bf40 073e 4223 013e 6fb7 e6bc
000001d0: 9323 2d3e a4b8 33be 1d30 e2bd 7754 033e
000001e0: 2961 663d 8867 cf3b 9587 843e a7b7 e73d
000001f0: f58c d43c dedf 97bb edcf 7ebd e63c d03c
-0.113081574 0.12263309 -0.27702603 -0.1301329 -0.09455183 0.04320416 0.101265915 -0.008406933
0.036060836 -0.15405546 -0.14733323 -0.028896399 0.116166756 0.10226646 0.19319504 0.13232145
0.12363893 0.002089917 0.02913858 0.001652299 -0.13503762 -0.15754348 -0.0059718043 0.07277003
-0.17287193 -0.15528893 0.24668649 0.24704641 -0.14877827 -0.17939103 0.021416033 -0.06604834
0.04963066 -0.12091295 0.21071799 0.06916648 0.14156835 0.07971668 0.016547674 -0.08748165
0.14315788 -0.04379659 0.21047613 -0.13213408 0.2005807 -0.06803883 0.122336105 -0.18481179
-0.120509565 -0.0032926258 0.113841444 0.097481094 0.09026867 -0.12854666 0.1171352 -0.009661482
0.022889087 0.195515 0.1946893 0.028389728 0.118350476 0.061826374 0.23592924 -0.18349294
-0.170012 -0.026113635 -0.16228993 -0.15425767 -0.17180759 0.021308089 0.016642977 0.17989625
0.16590402 -0.15109035 -0.012624172 0.3369906 0.17814143 -0.009309967 0.106224805 0.08802804
0.014188817 -0.03865715 0.048665795 -0.09849381 -0.01274698 0.12765001 -0.04983136 -0.1512387
0.2626623 -0.12723826 -0.063975215 -0.10354729 -0.07046016 -0.087117255 -0.047683347 0.13086693
0.1943252 0.17974135 -0.098698884 -0.15965872 -0.24008322 -0.091535665 -0.08969194 -0.13787805
-0.055590924 0.2655391 -0.11363025 -0.18912159 -0.06122105 0.24536152 0.09313633 0.048966527
0.12718774 0.13208292 0.12611106 -0.02816364 0.16908102 -0.17550904 -0.11044333 0.1282519
0.056245003 0.0063294806 0.2588469 0.11314326 0.02594612 -0.0046348413 -0.062210012 0.025419664

layers.2.weight f4 [256, 128]
00000000: ba3c 82bc 2737 16be 622b 00bd f46b 133b
00000010: 6520 5abd 99e8 e5bd 0847 813c 1c80 02be
00000020: c0c5 f83a 4d81 493d e3d4 2ebe 5c26 30bc
00000030: 89ae 1fbe d023 ecbd 34a5 e7bd b4ff 4cbd
00000040: f4bd d7bd 5cac 4dbd 2c4d 08bd 1352 dfbb
00000050: 4f11 15bd ca85 e8bd e993 87bd aee4 0dbe
00000060: 5669 9e3d 88ec 2abc 4e00 83bc 3489 3cbe
00000070: 7898 39bc 40ca c4bd f408 913c 2c03 e0bd
00000080: 75a0 6cbe 4829 94bd 9e6c cabd 807e ba3a
00000090: 324e 0fbd d00c 5cbd e052 0abe 5c45 5abd
000000a0: 7b52 073c 908e 31bd 4841 1ebe e4dc c5bd
000000b0: 0333 c73d 812c 95bd a848 2c3c 8ca4 27bd
000000c0: 1fcc 7dbd 1bcf 94bd 2364 0cbe b04f 3cbd
000000d0: 00e9 f03b a262 23be 6cbf 8abd 2504 edbc
000000e0: 4b7a b5bd ec4d e03c 2ac8 30bd 10b4 f13d
000000f0: c207 e2bd 9419 adbd 8925 60bd 93d4 5cbd
00000100: db0d f5bd 6ed2 a5bc 80cb 613b be2b f9bc
00000110: f5cc 78bd b4a1 a7bc 4deb c63c e7e6 ecbc
00000120: ae52 fdbd fbcb 33bc 90a7 acbd 5bbe b2bd
00000130: 906c 0c3c f450 6abe f2c1 4b3d ef6a 98bd
00000140: 92ad 1fbd 844f d0bd 517d 74bd 9643 003d
00000150: 876b 90bd 04ba b9bd ac6f d0bd b896 a4bd
00000160: be3b efbd 5c59 e43c 86f8 e8bc 24e0 92bd
00000170: 08d4 0d3d 8bf9 f4bd 6724 63be 563c b2bd
00000180: 0c18 6cbd f6a3 dcbc 64b0 70bd aa34 0b3d
00000190: a6f9 d9bd 04f6 6cbd 867e 2dbe 268b abbd
000001a0: ec60 05bd 6854 27bc 3de7 bfbd 422b c8bc
000001b0: 7a61 d9bc d8ff 01be 7150 ebbd 4588 febc
000001c0: 2cff a53d d57a b93d 34f4 26be 4d68 f6bd
000001d0: 2289 adbd 8a37 03bd 56a5 093d e284 9cbd
000001e0: 14bf b2bd 328d 78bd 3596 c0bc d01c 20be
000001f0: 4c43 a03d 79b6 72bd f256 38bd 93f1 69bd
00000200: f0c1 02bd b4e6 b43c b8b6 123c 70e2 f2bd
00000210: fa98 1bbd 6b15 7fbd 4e71 96bd a029 f8bc
00000220: 5a52 a0bc 2425 76bc 4bb5 bbbd c0e3 643d
00000230: 0eb6 aabd beb9 07be fa46 08bd 4612 08be
00000240: 98b7 98bd 6e6d 40bd 005c 9d3a d0bb 89bd
00000250: 35df abbd 5bcf 25be 76df d6bc 7bad 35be
00000260: bc8f 7cbd ade2 03bd b9ab 74bd f897 b4bd
00000270: f8ec c0bd 6d04 9fbd df16 b5bd 18f7 15bc
00000280: b27b d93d 3800 5c3d 3c47 efbd 70c3 e8bd
00000290: 7efa 633d 1f11 36be 2ad0 07be 6963 b8bd
000002a0: 7c6a 86bd b088 d73b dcb7 5abd c0a0 1dbe
000002b0: aa7c b9bd 5ed2 89bd 84ae 45bd bc24 81bc
000002c0: ec12 69bc 549b efbd 806c 49bb 8c04 d6bd
000002d0: 68eb c3bb edf6 63bd 9902 abbd 69db 783d
000002e0: b46d 00bd 604b b0bd 8d01 b0bd 3061 6f3d
000002f0: 271b ccbd c8e6 99bd c672 9cbd d6f9 11be
00000300: 91e5 13bd f0ed 55bb 9216 bdbd 062a 5cbd
00000310: e8ed 9fbc 10f3 a23b b04c a1bd f10e a4bd
00000320: 824b fdbc 89c1 85bd 3681 ecbd 7558 02be
00000330: 339c 72be 56bb 7ebd 2080 163c 23c1 c9bd
00000340: 38d7 0cbe b452 39bc 8921 5cbd c40a 98bc
00000350: 72c1 a3bd 75c3 99bd 45ae cdbc 00f6 c0b8
00000360: 2fa9 113c 98ca 493c eebd c0bd bc67 c73c
00000370: ea9c 05bd 55a5 56bd 9097 e53b c07f 993d
00000380: 6104 eabd 5d2d 85bd 1cfa 03bd 70fc a1bd
00000390: d21d e1bd 0869 fdbc 72b5 cfbd 8fc3 02be
000003a0: 0e1e b9bc b8ae e43c e704 b2bd 3c32 66bd
000003b0: 6fdc 1ebd ad39 44bd cc45 dbbd 1356 f8bd
000003c0: 7c1d 9f3d c24c 42be be29 00bd 3e57 c1bd
000003d0: ca51 70bd 357a 27be 412f cabd b4d1 ffbc
000003e0: 6403 f8bc dfc8 a0bd 99c8 3dbe 639c 11bc
000003f0: 238e 2ebd 6268 0b3d aac4 eabc fcbf adbc
-0.015898097 -0.14669476 -0.031291373 0.0022494765 -0.05325355 -0.11226005 0.01578094 -0.12744182
0.0018979833 0.049195576 -0.17073397 -0.010751333 -0.15593924 -0.11530268 -0.11310807 -0.050048545
-0.105342776 -0.050213203 -0.03327672 -0.006815204 -0.03639346 -0.11353643 -0.066200085 -0.13856766
0.07734935 -0.01043237 -0.015991356 -0.18411714 -0.011327855 -0.096088886 0.017704464 -0.10938105
-0.23108084 -0.07234436 -0.09883998 0.0014228374 -0.034986682 -0.053723156 -0.13508177 -0.053288803
0.008259411 -0.04334885 -0.1545459 -0.09661272 0.097265266 -0.07283879 0.0105153695 -0.04092841
-0.061962243 -0.07266065 -0.13710074 -0.045974433 0.0073519945 -0.15955594 -0.06774792 -0.02893264
-0.08861216 0.027380906 -0.04315964 0.11801922 -0.11036636 -0.08452144 -0.054723296 -0.053913664
-0.11965533 -0.020241942 0.003445357 -0.030416366 -0.060742337 -0.020462848 0.024282122 -0.028918697
-0.123692855 -0.010973926 -0.084303975 -0.08727714 0.008570805 -0.22882444 0.049745508 -0.07442271
-0.03898389 -0.101714164 -0.059689824 0.031314455 -0.07051759 -0.09068683 -0.1017755 -0.0803656
-0.11681317 0.027874641 -0.028438818 -0.07171658 0.034626037 -0.11961659 -0.22181855 -0.087029144
-0.05764012 -0.026933651 -0.05876197 0.03398577 -0.1064332 -0.057851806 -0.16942796 -0.0837615
-0.032563135 -0.010212995 -0.09370277 -0.02443469 -0.026535738 -0.12695253 -0.11489952 -0.031070838
0.08105311 0.090566315 -0.16304094 -0.120316125 -0.08473422 -0.032035388 0.033604942 -0.07642533
-0.087278515 -0.06068153 -0.023509124 -0.15635991 0.07825336 -0.05925605 -0.045004793 -0.05711515
-0.031923234 0.022082664 0.008954696 -0.11859596 -0.037987687 -0.062276285 -0.0734583 -0.030293286
-0.019570518 -0.015023503 -0.09165438 0.05588126 -0.083355054 -0.13254449 -0.033270814 -0.13288221
-0.07456893 -0.04697936 0.0012005568 -0.067252755 -0.08392183 -0.16192381 -0.026229601 -0.17741959
-0.061660513 -0.032198597 -0.05973408 -0.08818048 -0.09420198 -0.07764516 -0.08842253 -0.00915315
0.10619296 0.053711146 -0.11683509 -0.11365402 0.05565881 -0.17779969 -0.13263002 -0.09003336
-0.06563279 0.0065775737 -0.053398 -0.15393353 -0.09056981 -0.067295775 -0.048262134 -0.015764587
-0.014225703 -0.11699548 -0.0030734837 -0.10450086 -0.0059789903 -0.05565541 -0.08350105 0.06075612
-0.03135462 -0.08608127 -0.08594046 0.058442295 -0.099661164 -0.07514721 -0.07639079 -0.14255461
-0.036107603 -0.0032643043 -0.092328206 -0.053751014 -0.019522622 0.004972823 -0.07875955 -0.08010662
-0.030919794 -0.065310545 -0.115480825 -0.12729056 -0.23692398 -0.062190376 0.009185821 -0.09851291
-0.13753974 -0.011311222 -0.05374292 -0.018559821 -0.07995881 -0.075079836 -0.025107512 -9.2010945e-05
0.008890434 0.0123163685 -0.09411226 0.024341457 -0.032620348 -0.052403767 0.007006593 0.074950695
-0.114266165 -0.06502793 -0.032220945 -0.07909477 -0.10992016 -0.030933872 -0.1014203 -0.12769912
-0.022597339 0.027915344 -0.08692341 -0.05620025 -0.03878444 -0.047906566 -0.10706672 -0.12125792
0.077692956 -0.18974593 -0.03128981 -0.09440468 -0.05867175 -0.16355212 -0.09872294 -0.031227924
-0.030275054 -0.07850813 -0.18533553 -0.008887383 -0.04261602 0.034035094 -0.02865823 -0.02120971

layers.2.bias f4 [256]
00000000: a560 5c3d cf77 b4bc 744d 1bbd b4a2 31bd
00000010: c381 f73b bb50 303d 7ca3 6e3b a374 80bd
00000020: 4ee7 ffbc d4f5 5dbd 6b03 ebbd 20a6 573c
00000030: 3a36 153d fe89 ba3d ee4d 3cbd 4621 813c
00000040: dd8a 9cbd 0929 453d 8202 9fbd a450 dcbd
00000050: 1839 88bd bee9 f9bc 4376 33bd 9939 4b3d
00000060: eb29 9b3c b369 c23d 8da5 0dbd a121 35bd
00000070: d4dd 05bd 1b1f 7c3c 611f 9bbd b575 8abd
00000080: 0473 0bbd f796 d9bd e8f6 be3d 7a17 303e
00000090: 2843 273b 0e26 313d 99e8 ea3c 051d 64bd
000000a0: f5ed a13c 2c54 f73c fb85 203d 354b c53b
000000b0: 9347 ecbd 9084 43bc e3bd 483c 8ec4 ec3a
000000c0: 5f96 17bd c9a3 a0bc eb16 60bd 9922 a43b
000000d0: 1a8c adbd 7d8f 1d3e 49ff ca3c d564 353b
000000e0: 24c1 e6bc 8052 bf3a da88 9fbd ea6b f439
000000f0: 9438 b2bd 8a75 b7bd cca1 acbc 8271 9fbd
00000100: 9ad8 aabc eb70 2a3d e856 a03c 296d 67bd
00000110: 66ef 2ebb d23a 163d f072 633c b0b4 b6bc
00000120: 6753 213d 67ca 76bc 58c3 eabd 3940 16be
00000130: 7274 613d f446 50bd ea8f ddbd bb1d b8bd
00000140: 89c3 96bc 6ecd 2c3d ae5f 5bbd 29d5 6a3e
00000150: 2242 c53c 4bb1 8d38 5371 0fbd 129a e13b
00000160: df31 253d 53a6 3ebd 3c80 00be 98dd e4bc
00000170: 3006 643b c6c7 ae3c 4889 bebd b9d0 f0bd
00000180: a88e 5cbd 637d 253d 06c8 54bc 2018 89bc
00000190: f41a 6cbc 75c2 c33d c4bd 13bd d082 0c3e
000001a0: 5203 eabc d7b4 f93c cb01 c2bd bafb 4bbc
000001b0: 1b81 86bd 3993 b3bc f220 383d 1634 dfbb
000001c0: dd95 86bc 98cd 573e c7f3 2bbc 2cf1 ccbd
000001d0: e768 453d 40a3 fa3b 475f 26bc ce3a 90bd
000001e0: b6aa c53d a468 03bd 4d1d 80bd ee70 c13c
000001f0: 6cde 60bc 382d 8cba e8dc 98bc ba14 a5bd
00000200: cb18 a9bd 84da b5bd 49f6 bcbd 8757 3fbc
00000210: d2e8 15bc abb2 8fbc 9822 17bd 6a2a 5dbd
00000220: 90d1 88bd a221 8bbc 72fa d73c fe27 493d
00000230: 2f7a 33bb df01 6ebd 9b91 953c 5479 b7bc
00000240: 9cf3 483d bc2d 82bd 8d0b a33b 8b83 c43c
00000250: 639a b13c fb99 933c 67e0 383d b726 28bc
00000260: 07fd 5fbd a32f 2cbd d993 2fbd 0923 6c3d
00000270: b8ec d93c 13b6 bebd 6515 cb3c 6206 043d
00000280: 6420 debd 712d 383d 6053 25bd 9f5f 2fbe
00000290: fb0d 5bbd a252 c13e 52da 6dbd c322 d8bc
000002a0: dc34 a7bd c3e6 adbc 1a45 90bd 4c24 48bc
000002b0: 0baf 18bc ae9d 92bd 3781 88bd 0a20 ad3c
000002c0: f51d b83c 62f4 80bd 3fd7 ff3c dd0c 79bd
000002d0: f4e7 babc 911f a9bd 3585 afbd f792 3e3d
000002e0: aab8 8abc b417 923c 0acc 873d e074 44be
000002f0: f8ef 12bc 84e7 89bd 7154 8ebd aaf8 e5bc
00000300: a759 37bd 49c7 2fbd 2024 22bd e975 d0bd
00000310: 4ccc 19bd 841d bcbb ba2b 82bd 090e 173c
00000320: fff4 8fbd 0534 9bbd 35f6 8d3d 1524 ad3c
00000330: 2799 9a3d 1686 83bd b3ae d7bc ee92 b93d
00000340: a431 bb3d e25a 68bd e287 c6bc e3af 84bd
00000350: 5ca7 ee3c 0616 a53c ce43 22bd 21e4 0e3d
00000360: 8d41 efbb 6451 403c a04e 953c 569a 913c
00000370: dc7d d73c 384e 273d e357 c13c dee7 67bd
00000380: 8ebd 47bc 8108 d6bd 0eaa 23bd 0063 a13b
00000390: 2ace 35be 24d3 88bc 83a2 053e 11a7 663d
000003a0: 601b 9abc 3263 adbd fc07 51be 5994 59bd
000003b0: 21f6 8ebd 7c7f 2ebd 1851 bdbc 0357 79bb
000003c0: 72e9 0ebe 80df 80bc 0992 d8bd b73a d4bc
000003d0: 714c 033c 1606 383d 0cce 553d e8fb 46bd
000003e0: e1c9 f03c e366 3cbd 5741 a0bd e467 2d3d
000003f0: 3ebd 453d 8725 67bd ef00 273d 3bea 3a3b
0.053803105 -0.022029785 -0.037915662 -0.043368056 0.0075533106 0.04304574 0.0036413362 -0.06272247
-0.031238224 -0.054189518 -0.11475261 0.013162166 0.036428668 0.09108351 -0.045972757 0.015762936
-0.076436736 0.048134837 -0.0776415 -0.107575685 -0.06651515 -0.030506965 -0.043813955 0.049615476
0.018940886 0.09492817 -0.03458171 -0.044221524 -0.032682255 0.0153882755 -0.075743444 -0.06760732
-0.034045234 -0.106244974 0.093244374 0.17196456 0.0025522206 0.043249182 0.028675364 -0.055691738
0.019766787 0.030191503 0.039190274 0.0060209283 -0.11537089 -0.011933461 0.012252304 0.0018063949
-0.03700864 -0.019609349 -0.054709356 0.005009007 -0.08473988 0.15386768 0.024779933 0.0027678509
-0.028168269 0.001459673 -0.07789774 0.0004661971 -0.08702198 -0.08957966 -0.021073245 -0.07785322
-0.020855237 0.041611593 0.01957269 -0.056500588 -0.0026692986 0.03667719 0.013882384 -0.022302955
0.03938618 -0.015062905 -0.1146304 -0.14672936 0.05504269 -0.050848916 -0.10818465 -0.08990046
-0.018403785 0.0421881 -0.053558044 0.22932877 0.024079386 6.756427e-05 -0.035020184 0.0068848217
0.040330764 -0.046545338 -0.12548918 -0.027937695 0.0034793727 0.021335494 -0.09303528 -0.11758561
-0.053846985 0.04040278 -0.012987142 -0.016735137 -0.014410723 0.09558574 -0.036069646 0.13721776
-0.028566036 0.030481739 -0.09472998 -0.012450153 -0.06567594 -0.021920787 0.044953294 -0.006811629
-0.016428882 0.21074522 -0.010495133 -0.100069374 0.048195746 0.0076488554 -0.010154552 -0.07042466
0.09651701 -0.032082215 -0.06255589 0.02361342 -0.0137249045 -0.0010694629 -0.018660024 -0.08060594
-0.08256682 -0.08879569 -0.09226663 -0.011678583 -0.009149747 -0.01754125 -0.036898226 -0.053995527
-0.06680596 -0.01698381 0.026364539 0.049110405 -0.002738606 -0.058107253 0.018257907 -0.022396721
0.04906045 -0.063563794 0.004975742 0.023988506 0.021680063 0.01801776 0.04513588 -0.010263137
-0.054684665 -0.042037617 -0.042865608 0.0576506 0.026602134 -0.09312072 0.024790475 0.03223265
-0.10846022 0.04496521 -0.040362716 -0.1712632 -0.05348013 0.37758356 -0.058069535 -0.026383763
-0.08164379 -0.0212282 -0.0704443 -0.012215685 -0.009319077 -0.07158981 -0.06665271 0.021133441
0.022475222 -0.06296612 0.031230567 -0.060803283 -0.022815682 -0.08257974 -0.08570329 0.046526875
-0.016933758 0.017833568 0.06630714 -0.1918521 -0.008968346 -0.06733611 -0.069497 -0.028072674
-0.044763234 -0.042914663 -0.039585233 -0.101787396 -0.03754835 -0.005740823 -0.063559964 0.009219655
-0.07029151 -0.07578281 0.06931726 0.02113537 0.07548743 -0.06422059 -0.02632842 0.09061228
0.091403276 -0.056727298 -0.024234716 -0.0647886 0.029132538 0.020152103 -0.039615445 0.03488553
-0.0073015154 0.011738155 0.018225968 0.017773788 0.026305132 0.04084608 0.023601478 -0.05661761
-0.012191189 -0.10450841 -0.0399571 0.004925132 -0.17754427 -0.016702242 0.13050275 0.05631167
-0.018811882 -0.08466186 -0.20413202 -0.05311999 -0.06980539 -0.042602047 -0.023109958 -0.0038046248
-0.1395624 -0.015731573 -0.10574729 -0.025906904 0.0080138305 0.04492768 0.052198455 -0.04858008
0.029393138 -0.045996558 -0.078249626 0.042335406 0.04827618 -0.056432273 0.040772375 0.002852096

layers.4.weight f4 [2, 256]
00000000: fa97 c93c 64ea a2bf 68b0 8cbf 2065 f0be
00000010: a1a1 b0be 3d4e 6cbf bfd0 01bf 06e8 cbbf
00000020: c00e debf 0370 d93e a5ea bf3d f467 01bf
00000030: 5cd8 d1be b502 1cbf fe40 47bf b69d 02bf
00000040: 50c1 c6bd 01bd 37bf 71ac 3cbf 839f 313e
00000050: a7a3 56bf f656 a53e c977 2bc0 2e23 07bf
00000060: 6c51 893e 047d 00be 0895 bebe 9b83 99bf
00000070: 1650 6bbf c885 793e 306e 6bbe 990b 88bf
00000080: 034a 89bf 6d50 7dbf 3f98 6a3f e3c4 54bf
00000090: 7e69 98bf b5c8 45bf 5f50 28bf 4fda 7f3e
000000a0: 8e6c 20c0 def4 a7bf 1908 ad3d 6e23 22bf
000000b0: 90e8 19bc d8eb 69be 1434 febf 396f 9bbf
000000c0: 0add 24bf 289d 04c0 4d0f 6dbe 13ce a6bf
000000d0: 3f60 12bf 512c 4a3f d7d0 99bf 7728 0dbf
000000e0: efb8 02bf 3532 9ebf 46f6 babf 9188 8ebf
000000f0: 5be1 74bf aafa 87bf 8a77 45bf 62df 6abe
00000100: bb44 5abf 7bf1 d1be 4e9b 4ebf 1842 1abf
00000110: 83c8 95bd 0c56 763e 9681 aebe 250b 7b3e
00000120: 78b0 813e 8c10 323e e5ec 2cbf 7763 883f
00000130: 2069 e1bf de3c a5bf 60dd 90bf 1026 c8bf
00000140: c77e e6be da79 a1bf 4eb1 eebf e500 76be
00000150: 8af7 873d e9ff b23e 87db c1bf 76b9 153e
00000160: e112 e5bf 9838 53bf 54db 1f3e d2b3 01be
00000170: bae1 67bf ea7b c4bf 2f3b 55bf 91dd 10c0
00000180: 5609 9cbf e336 0ec0 da59 8cbe db52 a1bf
00000190: 1ad9 94bf 1385 0abf 50cb debf 4f79 383f
000001a0: ef18 0cbf 3a66 27be 6035 81be bb42 1ebf
000001b0: 2542 a1bf 4c33 56bf 85b6 e6be 486f b13e
000001c0: 40ba 23bf a40d 1b3d f147 e43e e91c 66bf
000001d0: 412f aebf 5ee3 eabd 6f88 7bbf bbeb 46bf
000001e0: a21a 4ebf 4204 bdbd 8d1b 2f3f d3c7 22bf
000001f0: bd13 643f 1073 88be 9169 233f 5f57 883e
00000200: c2ab aabf ee78 353f 89aa b4bf 3239 c4be
00000210: 80a8 98bf b19e 40bf 5850 4e3e 5388 4abf
00000220: 643d 4bbf 9be4 b73e d2a0 42bf a970 7bbf
00000230: 3959 12bf 8845 f5bf 346e efbe a79b 94bf
00000240: cf08 9abf b3dc 68bf 98b8 58bf cbd1 2fc0
00000250: 8597 403b 9914 16bf 2e0f 813d b83e a3bf
00000260: 651a 6cbd 0c93 19bf 1f0f a9be f626 81be
00000270: f412 afbe 1f2e 85bf f2a6 13bf 2769 84bf
00000280: 8ba0 6abe 285c fa3e 9bbb e3bf bdea 0ebf
00000290: b7d7 263f 16e8 3bbf b814 e2bf 73e5 38bf
000002a0: 5fe3 a53e 6bb5 0cbf bed0 6fbf ba24 7c3e
000002b0: f328 0bbd 35dd 22bf 76bf 36bf ab8e 3cbf
000002c0: df8d 0cbf a791 a7bf 5cd7 3fbf df59 21bf
000002d0: 76fa cdbf d3ad 42be 81de c6be e6d6 afbf
000002e0: 4f89 94bf 1dbb 8bbf e857 28bf a372 c9bf
000002f0: 0377 64bd 8e21 fdbe d237 b43e 2a85 afbf
00000300: 371f acbf bba7 4cbf e49f d1bc ff5d 19c0
00000310: e50c ccbf 0643 97bf 1883 c4bf f4b1 0dbf
00000320: 37b0 d4bf 39d1 aabe 2825 9cbf af80 9dbf
00000330: 0c94 c43e cc1d b8bf 9f5c 1dbf 7045 13bb
00000340: 7b9d 5e3e abb4 353c 3f0b b4bd f719 73bf
00000350: 2d4f 8abe 1e46 efbf 3287 ffbf bd4e 95bf
00000360: 361c c0bf a7fa f23e 93c8 f03e c23f 1abd
00000370: c058 d1be db86 a2bf 102a bdbe 3d3f 603e
00000380: a37d 86be cd65 133d ea72 e1bf d523 e93d
00000390: da05 cebf 20a6 dbbe 61c5 a3be 6111 0fbf
000003a0: dc01 bfbe eb94 8ebf 7b5f 0b3f 47cd 07c0
000003b0: 46de fbbe ce17 82bf 4fc3 34bf f0a5 6bbf
000003c0: c3e6 a93f 4bf9 b1bf c131 7ebf f83a 16bf
000003d0: c640 4fbe ba60 0c3e 58d7 88bf 31e4 99bf
000003e0: b54a ccbe 2664 4abf 4b36 48bf e4e1 1fbe
000003f0: 443d 85bf aac9 5ebe 4732 06bf 852a 74bf
0.0246086 -1.272778 -1.0991335 -0.46952152 -0.34498313 -0.9230688 -0.50709146 -1.5930183
-1.7348251 0.4246827 0.09370927 -0.50549245 -0.40985382 -0.6094163 -0.77833545 -0.510219
-0.0970484 -0.7177277 -0.73700625 0.17346005 -0.83843464 0.32292908 -2.679186 -0.52788055
0.26819932 -0.1254769 -0.37223077 -1.1993288 -0.91919076 0.2436744 -0.22991252 -1.0628539
-1.0725712 -0.98950845 0.9163856 -0.83112925 -1.1907194 -0.7725938 -0.65747637 0.24985622
-2.5066257 -1.3121603 0.0844881 -0.6333531 -0.009393826 -0.22843874 -1.9859643 -1.2143317
-0.6439978 -2.072092 -0.23150368 -1.3031639 -0.5717811 0.7897387 -1.2016858 -0.5513987
-0.51063436 -1.2359072 -1.4606407 -1.1135427 -0.95656365 -1.0623372 -0.7713553 -0.22936776
-0.85261124 -0.41004547 -0.80705726 -0.602571 -0.07313635 0.24056262 -0.3408324 0.2451597
0.25329947 0.17389125 -0.6754897 1.0655354 -1.7610207 -1.29092 -1.1317558 -1.5636616
-0.45018598 -1.2615311 -1.8647859 -0.24023779 0.06639011 0.3496087 -1.514512 0.14621529
-1.7896386 -0.8250823 0.15611011 -0.12666252 -0.90578806 -1.5350316 -0.8329343 -2.2635233
-1.2190349 -2.2221 -0.274123 -1.260341 -1.1628754 -0.54109305 -1.7405796 0.720601
-0.54725546 -0.1634759 -0.25236034 -0.6182057 -1.2598311 -0.8367202 -0.45061126 0.34655213
-0.6395607 0.037854806 0.44586137 -0.89887863 -1.3608171 -0.11469148 -0.98255056 -0.77703446
-0.8050939 -0.09229328 0.68401414 -0.6358616 0.8909262 -0.26650286 0.63832957 0.2662916
-1.3333666 0.7088765 -1.4114543 -0.38324887 -1.1926422 -0.75242144 0.20147836 -0.79114264
-0.7939055 0.359166 -0.7602664 -0.9821878 -0.5716739 -1.9161844 -0.46763766 -1.1610001
-1.2033938 -0.9096176 -0.8465667 -2.7471797 0.0029387188 -0.5862518 0.063017234 -1.2753515
-0.05764236 -0.5999 -0.3301935 -0.25225037 -0.34194148 -1.04047 -0.57676613 -1.034459
-0.22912805 0.48898435 -1.7791628 -0.5582693 0.65172905 -0.7340101 -1.7662573 -0.7222511
0.32400033 -0.5496432 -0.9367789 0.24623385 -0.0339746 -0.63618785 -0.71385896 -0.73655194
-0.5490398 -1.3091325 -0.7493799 -0.6302776 -1.609206 -0.19011621 -0.38841632 -1.3737457
-1.1604403 -1.0916477 -0.65759134 -1.5738109 -0.05577756 -0.49439663 0.35198838 -1.3712513
-1.3447026 -0.79943436 -0.025588937 -2.396362 -1.5941435 -1.1817329 -1.5352507 -0.5534966
-1.6616277 -0.3336275 -1.2198839 -1.2304896 0.383942 -1.4384093 -0.61469454 -0.0022471808
0.21739762 0.011090438 -0.087912075 -0.94961494 -0.2701353 -1.8693273 -1.9963133 -1.1664654
-1.5008609 0.47456858 0.47028026 -0.03765846 -0.40888023 -1.2697405 -0.36946154 0.21899123
-0.26267728 0.035985757 -1.7613194 0.113837875 -1.6095536 -0.4290018 -0.31986526 -0.55885893
-0.37306106 -1.1139196 0.54442567 -2.1219041 -0.4919302 -1.0163515 -0.7061052 -0.92050076
1.3273548 -1.3904203 -0.9929467 -0.5868373 -0.20239553 0.13708773 -1.0690718 -1.2022763
-0.39900747 -0.79059064 -0.78207844 -0.15613514 -1.0409322 -0.21756616 -0.5242047 -0.9537738

layers.4.bias f4 [2]
00000000: 0596 203d f716 533d
0.03920557 0.051535573
