results/checkpoint_critic_local.pt (torch_old, 151857 bytes, 9 tensors)

layers.0.weight f4 [128, 24]
00000000: 10d0 46be 357a 1ebe 7552 3bbe e40f 35be
00000010: 8b8b 46be e9cf 0cbe 7fdf 923d e5d5 c3bd
00000020: 7db2 71be 34cd aebd 77a4 263d 8b4a 40bd
00000030: 7aae cabd be27 17be 48e1 3ebc 5bc6 25be
00000040: 1de8 ad3c 3253 49bc 41c1 f2bd 9781 843c
00000050: eda1 0dbd ee03 07be 71d6 50be 491b 37be
00000060: ad48 4abd 70b7 06be 4b28 21be a00a efbd
00000070: 991e 503d fd1f bebd 508d 21bd b3de cdbd
00000080: bc37 18be 7f74 27be e7bd f9bc 0082 5e3c
00000090: b6fc a63d 3ba3 1b3e fee4 4b3d 9c95 663d
000000a0: b6f4 aa3d 0fac 38bd d8d7 d83c 1cf0 493d
000000b0: 98fe 97bd 7ce8 9abd 0c03 64bd a690 3db8
000000c0: 936b 00bd 4c11 83be 29ff 153d b379 3ebe
000000d0: 3971 7ebe e494 b6bd 454f 30be 7096 8fbc
000000e0: 1a3d 6e3c 57b5 2dbe 4430 ca3c ee63 0bbd
000000f0: 3d6b eabd 0ff4 d4bc a5dd 75bd 4bb0 53bd
00000100: 5fe3 f0bc d4bc 0c3d c8f7 0fbe caa4 6fbe
00000110: 048a 86be 1383 8d3b a90e 98bd ef22 17be
00000120: fa6a 27bd 0651 02be cb8c 1bbd 13d0 053d
00000130: 2b39 823d a4c6 bdbd 829f 15bc e37d febc
00000140: 6212 6bbd 0f53 c8bc 4775 f0bd 3723 75bd
00000150: f0a8 a3bd 38a1 0d3e 9170 7dbd c9a6 dd3d
00000160: 251b a73d 54be b2bd 5438 44be 79e8 b8bd
00000170: e1a8 f0b9 f227 d13d 4106 13be b6ba 0dbe
00000180: a7ee abbd 9f47 e8bd f7c8 d1bd a5ac 17be
00000190: c769 1fbd 3b83 db3c 5ab5 86be 9d44 7cbe
000001a0: e09e 57bc f633 60bb d688 a2bd 4c12 133d
000001b0: 71aa 84be d046 34bd 9224 4fbe 3bca 51bd
000001c0: 16ad 25bd c3ad 82bd 32d6 8ebc 33de 0ebe
000001d0: 33ff 20be 439d 0bbe bedf 723d 935a 26be
000001e0: 9c98 cabb 6cbf 7c3c 098b 893d 5e95 5cbe
000001f0: 76e0 61be c1de ffbb ffca adbd a1fb 01be
00000200: 5755 1e3d d178 bb3d b91c 86be de41 a4bd
00000210: 0752 04be ee0e 2bbe 5b17 68bd fc54 e5bc
00000220: c65f 44be 9f03 de3a acab 2f3d ea31 03be
00000230: b103 12be d1c5 26be 98e1 eebd 6f93 91bb
00000240: 806a 88bd 2203 2abd f917 49bd 1c45 17be
00000250: a180 61be 85e3 b6be 4615 86be e8d6 49bc
00000260: 41ec 82bd 8712 89bd ac99 32be 7e9e 34be
00000270: 0c10 563d 0000 53be 579e c5bd aa37 13be
00000280: 95fb 26be d9ce ea3c 2485 0abc b31c 7dbe
00000290: 520a d3bd e2c1 2bbd 44e6 a0be b585 49be
000002a0: a5cb 3ebe aa98 03be 8716 f0bd 0196 58be
000002b0: b08d 90bd 1f4a 94bb 94ea 6fbd c8a4 b0bd
000002c0: 8e66 463c c394 19be f1ef 06be e14d 0ebd
000002d0: 4d7b 50bd b358 013d 2f46 d1bc 9984 983d
000002e0: e2a1 12bd 804c 963d 0967 75be 20c1 c8bd
000002f0: 5ed8 42bc 6396 f7bd 1a11 8bbe 47a7 dabd
00000300: 5825 f0bd 804d e83b 957e 81be 20bb d9ba
00000310: 024a 06be 0d46 663d 38e5 343d 0f79 14be
00000320: 537c c4bb 996c cfba e247 98bc 8301 213d
00000330: 91d1 36bd 49c8 1abe bcfe 43be 01c3 3abd
00000340: 4dca 1abd 0de5 01be 912e edbd 6478 7b3d
00000350: a2b7 0cbe da28 393d f3dc 4bbe 1d85 bdbd
00000360: 834a a93c 288d 863c b330 c93a efbf 30be
00000370: 29a2 e8bd d74b a03c 09ea 983d 1787 99bd
00000380: 841f 81bc 93d3 e2bd 8e9e 5bbe 88ec 39bd
00000390: fd78 cabd 1adf ac3d 6694 18be 8249 70bd
000003a0: fa3f b7bd 3a6e 9fbc 7d84 a4be 55d4 4abe
000003b0: d666 b3bd 2722 dfbd 0efe 2abe 8787 5abe
000003c0: 2e2c 89bd 2bbe c6bd 06ae 8dbc 7e4b 22be
000003d0: 4fc8 a43b 4f91 87bd 735c 22be 9dcf 30be
000003e0: 0ba8 babd 4a36 31be 5473 10be a835 b8bd
000003f0: b304 19bc c0ca 5e3d 5a30 7c3d 4014 0a3d
-0.19415307 -0.15476306 -0.18293174 -0.17681843 -0.19389169 -0.13751186 0.07171535 -0.095622815
-0.23603244 -0.08535233 0.04068419 -0.04694609 -0.0989656 -0.14761254 -0.011650391 -0.16188948
0.021228844 -0.012287902 -0.118532665 0.016175075 -0.034578253 -0.13185093 -0.20394303 -0.17881502
-0.049385715 -0.13155913 -0.15738027 -0.116719484 0.05081043 -0.09283445 -0.039441407 -0.10052242
-0.14865011 -0.16353033 -0.03048606 0.013580799 0.081536695 0.15198986 0.04977893 0.056295022
0.08347456 -0.045085963 0.02647011 0.04930125 -0.07421607 -0.07563874 -0.05566697 -4.5195826e-05
-0.03135259 -0.25599134 0.036620293 -0.18601112 -0.24847879 -0.089151174 -0.17217739 -0.017527789
0.014540935 -0.16963707 0.024681218 -0.034030847 -0.11446235 -0.025995282 -0.06002583 -0.051681798
-0.029405294 0.034359768 -0.14059365 -0.23402706 -0.26277173 0.004318604 -0.07424671 -0.1475942
-0.040873505 -0.1272622 -0.037976068 0.03266914 0.0635856 -0.09266403 -0.009132268 -0.031065887
-0.057390578 -0.024453668 -0.11741119 -0.059848037 -0.07991207 0.13831031 -0.06187493 0.10822827
0.08159474 -0.087277085 -0.19162112 -0.09028716 -0.00045902192 0.10212697 -0.14357854 -0.13840756
-0.08395129 -0.11341786 -0.10243409 -0.14811952 -0.038919237 0.026795974 -0.26310235 -0.24635549
-0.013160437 -0.0034210659 -0.07936256 0.03590612 -0.25911286 -0.044012845 -0.20228794 -0.051218253
-0.04044827 -0.06380799 -0.01743612 -0.1395195 -0.15722351 -0.1363421 0.05929541 -0.16245489
-0.0061827432 0.015426498 0.06715972 -0.21541354 -0.22058281 -0.0078085368 -0.08485984 -0.12693645
0.038655605 0.09153903 -0.2619379 -0.08020376 -0.12921916 -0.16704914 -0.0566629 -0.027994625
-0.1917716 0.0016938335 0.04288833 -0.1281201 -0.1425922 -0.16286398 -0.11664122 -0.0044426243
-0.06660938 -0.041506894 -0.049095128 -0.14772457 -0.22021724 -0.3572046 -0.26188105 -0.012319304
-0.06392718 -0.06692987 -0.17441434 -0.17638585 0.052261397 -0.20605469 -0.096493416 -0.14376703
-0.16306908 0.028663086 -0.008454595 -0.24717979 -0.10304703 -0.041932948 -0.3142568 -0.19679911
-0.18632372 -0.12851205 -0.11723047 -0.21150972 -0.07058275 -0.0045254375 -0.05857332 -0.086251795
0.012109412 -0.14998154 -0.13177468 -0.03474224 -0.05089884 0.03157873 -0.025546161 0.07447166
-0.035798915 0.0733881 -0.23965086 -0.09802461 -0.011892406 -0.12089231 -0.27161485 -0.10676437
-0.11725873 0.007089317 -0.25291887 -0.0016611554 -0.13114169 0.05621915 0.044163913 -0.14499305
-0.005996266 -0.0015825211 -0.018588964 0.039308082 -0.04463345 -0.15115465 -0.19140142 -0.045596126
-0.037790585 -0.12685032 -0.115811475 0.06139411 -0.13741925 0.045204975 -0.19908504 -0.09253905
0.020665413 0.01642473 0.0015349597 -0.17260717 -0.113590546 0.019567413 0.07466514 -0.074964695
-0.015762098 -0.11075511 -0.21447203 -0.04539159 -0.09886358 0.08440991 -0.1490036 -0.058663853
-0.089477494 -0.01946174 -0.3213233 -0.1980756 -0.08759849 -0.10895186 -0.16698477 -0.21340762
-0.0669788 -0.097042404 -0.017294895 -0.1584911 0.0050287615 -0.06619512 -0.15855579 -0.17266698
-0.09114083 -0.17305866 -0.14106494 -0.08994609 -0.009339499 0.054392576 0.06156955 0.03371072

layers.0.bias f4 [128]
00000000: 9c52 01be 5b76 ad3d 2b6a 46be f445 ebbd
00000010: d8b5 2abd 3e44 b33d 6de3 b33d 8c8e 1abe
00000020: 2dea 0d3d 8287 88bd 2b4e c6bd 026e 27bc
00000030: 1745 ea3d ee67 2a3e f4d4 453e 2e7f 073e
00000040: 4af3 123e 0681 8a3d d225 963d ddbc a7bd
00000050: 74c3 c1bd 0321 05be e4bc c3bb 4a1e d43d
00000060: ea57 1cbe 9d70 11be b546 293e f83d 0d3e
00000070: c99f 25be 8593 1fbe 361b 94bd 7da6 15be
00000080: dd23 f33c 9b98 78bd c856 643d 1017 1c3c
00000090: 74b3 d33d 0027 51bd 2bd6 0a3d 8595 0bbd
000000a0: e5ec 433d 6856 25bb e250 093e ca5b d3bd
000000b0: 99ef 9a3d 11bd 2bbd cb1b e03d f841 1dbe
000000c0: a33d 15be 8021 37bd 754d c63d fc25 ac3d
000000d0: 56cb 513d 6d4d b7bd 7c79 0f3e 5fbc ffbd
000000e0: e839 453d 9a16 e73d 49d3 453e 284a 923c
000000f0: 9616 aabd e583 b03d 0e7b 393e d14d 31be
00000100: b1b6 4dbe 0231 c8bc 731c d1bd 55d0 c0bd
00000110: 1f8c 0fbe d7d7 173d 7b86 c2bd 92fa e23d
00000120: fe43 3d3e efdb 38be 5c58 583c c08e 413e
00000130: b96e 4d3e 27e8 4abd 379f fa3d 7c9a cb3d
00000140: 26c8 0f3e 5485 95bc c8e6 2bbd 2a6e bcbd
00000150: 7c7b f33c a63b 5a3d 289b a0bd 6726 1fbe
00000160: 0a92 443e 09db fabd 8f82 8dbc 77fe bfbd
00000170: f557 37bd c73b 4ebe d580 bebd 41a5 863d
00000180: efcd 0f3e fd86 463e 9852 98bd b6a2 fcbd
00000190: f882 37be c121 8fbd 4f6a 31be 3dae f9bd
000001a0: 500a 8abd da42 4f3e 93b4 08be e1c1 18be
000001b0: 0271 33bd 8cef f73d 33a6 f2bc fd49 03bb
000001c0: 77cd 133e fe79 f03d 2d74 293e a75b f5bd
000001d0: b07d 203e 72ee 47be ae2b 07be 6193 eebb
000001e0: 135c 903d 5518 9dbc e271 443e c1fc a1bc
000001f0: 5ea9 b7bd c626 0ebd 9a6a ddbc aa8d cd3c
-0.12629169 0.0846984 -0.19376437 -0.11487952 -0.041677326 0.087532505 0.087836124 -0.1509344
0.034647156 -0.06666471 -0.09682878 -0.010219099 0.11438959 0.16641209 0.19319516 0.13232109
0.1435062 0.067628905 0.073314324 -0.0819032 -0.09461108 -0.13000874 -0.0059734453 0.1035734
-0.15267912 -0.14203115 0.16530879 0.1379317 -0.16174234 -0.15583618 -0.072317526 -0.14614291
0.029680187 -0.06069241 0.055746824 0.009526983 0.10336962 -0.051062584 0.033895653 -0.03407814
0.047833342 -0.0025228504 0.1340976 -0.10320242 0.07565231 -0.041928355 0.10942801 -0.15357196
-0.14574294 -0.044709682 0.096827425 0.084056824 0.051219307 -0.08950315 0.14011186 -0.12487101
0.048150927 0.11283608 0.1931888 0.017857626 -0.08305089 0.08618907 0.18113348 -0.17314841
-0.20089222 -0.024437431 -0.102105044 -0.09414736 -0.14018296 0.037071075 -0.09498306 0.11082949
0.18482968 -0.18052648 0.01320466 0.18902111 0.20061769 -0.049537804 0.12237399 0.09941575
0.14041194 -0.018252052 -0.041968137 -0.092006996 0.029721968 0.05327954 -0.07842094 -0.15541993
0.19196334 -0.12248809 -0.01727417 -0.09374707 -0.044761617 -0.20139991 -0.093019165 0.065744884
0.14043401 0.19387431 -0.074376285 -0.12335722 -0.17921054 -0.0698886 -0.1732571 -0.121914364
-0.06740248 0.20240346 -0.13350134 -0.14917709 -0.043808945 0.12106237 -0.029620266 -0.0020033114
0.14433847 0.11742018 0.16548224 -0.11980372 0.15672946 -0.19524553 -0.13200256 -0.0072807525
0.07048812 -0.019176641 0.19184068 -0.019773843 -0.08967851 -0.034704946 -0.02702837 0.025091965

layers.1.weight f4 [128]
00000000: 445f 58be 03f9 adbd 3b27 dbbd b147 35be
00000010: ec07 0abe f83d e1bd 6215 67be 9787 60be
00000020: c65f 72bd 4ed1 e2bd 178b bdbd 43d9 22be
00000030: 7d3e 91bd 3d14 c7bd bfa6 bbbc e403 d2bd
00000040: 425f 743c a83c 1cbd d9e2 cd3d dff8 dcbc
00000050: 3b88 623d bcf2 bbbc 55b2 f6bd 647c bcbd
00000060: 0cb8 153e e207 983d 5aab eebd 173e e1bb
00000070: 7239 0abe fab0 9fbd 4070 d9bd 07a3 f63c
00000080: b6e0 18bd 52d4 093e e844 dabd c122 fc3c
00000090: 6ccb 55bc d010 253e 7bd6 47bd 67f8 5bbe
000000a0: b9d0 243d cf3d 03be 04c2 ec3d ced4 97bd
000000b0: edf7 a9bd 8def b3bd 05c1 67bd 2394 88be
000000c0: b918 d2bd 484c 79be 0fa3 813d 9c76 a03c
000000d0: 6a06 8bbd c8ee 86be 5265 16be bd92 c0bb
000000e0: 385f 85be 1a51 b4bd da2a 35be 2b38 1abe
000000f0: adfb 4d3d ccb3 16be 729b 01be 857a d13d
00000100: 7e62 c2bd b629 6e3c e722 14be db90 3bbe
00000110: cead 3abd 12b1 8cbd 7f10 20bd fff2 16be
00000120: 2247 49be f6be 17be 7b83 0ebc c109 d3bd
00000130: 8db1 12bd b4e0 15be 1fc9 ef3d 41bc 643e
00000140: e38e b53c d5ca d7bc c0e8 7ebe c5b7 083d
00000150: f3f1 aebd ffd0 003d 927c 67bd 226a 97bd
00000160: 5022 4bbb 5abb 4fbd 3d5f 5abe b93c 59bc
00000170: a5c1 f8bc f9fd 40be cde1 89be 5231 9f3d
00000180: a738 46be 3e0e 1f3e cf37 13be 68f9 41b9
00000190: fef5 f43d 5d23 29be b87f 853d afc7 2bbe
000001a0: bac5 56bd 86ce d3bd 882e 32bd cfcc babd
000001b0: 4e67 203d b9a9 6fbd 3a31 25bd c68f 0abe
000001c0: 672a 00be 9798 35be ba5c acbd d4a6 12be
000001d0: 4fed 91bd 1633 ccbd be75 2bbc 435c 1bbe
000001e0: b82f 5cbd 717c a8bd 410b 1cbe dcaa 82bd
000001f0: de87 eebc d2d1 11be 563b 323d de08 d3bd
-0.21130091 -0.08494761 -0.10700842 -0.1770313 -0.13479584 -0.10998148 -0.2256675 -0.21926723
-0.059173368 -0.11075078 -0.09255045 -0.15903191 -0.07091997 -0.09720657 -0.02290666 -0.10254648
0.014915289 -0.038143784 0.100530334 -0.02697414 0.0553057 -0.022942893 -0.12045733 -0.09203413
0.1462099 0.074233785 -0.116537765 -0.0068738568 -0.13498476 -0.077974275 -0.10617113 0.030107034
-0.037323676 0.134599 -0.10657674 0.03077829 -0.013048988 0.16119695 -0.04878853 -0.21481477
0.040238116 -0.12816547 0.11560443 -0.07413636 -0.08299241 -0.08785925 -0.056580562 -0.2667552
-0.10258622 -0.24345505 0.06329929 0.019587807 -0.06788333 -0.2635405 -0.14687088 -0.0058768676
-0.2604921 -0.088045314 -0.17692128 -0.15060489 0.050288845 -0.14717025 -0.12656954 0.10228447
-0.09491442 0.014536312 -0.14466439 -0.18316977 -0.04557591 -0.06869711 -0.039078232 -0.14741133
-0.19656041 -0.1481894 -0.00869834 -0.10304595 -0.035813857 -0.14636499 0.11708283 0.22337438
0.02216286 -0.026341835 -0.24893475 0.03337838 -0.08542242 0.031449314 -0.056515284 -0.0739329
-0.0030995794 -0.05071578 -0.21325393 -0.013259106 -0.030365774 -0.18846883 -0.26930085 0.07773079
-0.19357549 0.15532777 -0.14376758 -0.00018498825 0.11960982 -0.16517396 0.06518501 -0.16775392
-0.05243466 -0.103421256 -0.043501407 -0.091210954 0.03916102 -0.05851147 -0.04033015 -0.13531408
-0.12516175 -0.1773399 -0.08416124 -0.14321452 -0.07125341 -0.09970681 -0.010465084 -0.15171914
-0.053756446 -0.0822686 -0.15238668 -0.06380245 -0.02911752 -0.14240196 0.04351362 -0.10304426

layers.1.bias f4 [128]
00000000: 432e 653b 3062 a03c b238 ff3c 3cd7 383d
00000010: b351 8ebb 8a94 953a 5c9e 23bc 2e89 363c
00000020: 2647 063c 7418 b33c 6e24 cf3c 6c0e acbc
00000030: bc8e af3b a948 0fbd aa4f fe3c 40e1 913c
00000040: 0116 0a3d d44b 08bc 008b 483d 3ff8 f83c
00000050: 93cb 493d ca95 233d b234 6b3b f8ee a33c
00000060: db07 b93c 3465 0f3d 6c49 b63c 347a 3bba
00000070: 782b c3bc 5251 1f3d 1697 d8bc c17e f33c
00000080: 2876 8cbc e2c8 f13c 23cd 823c f88c 3a3d
00000090: a9d1 583b 5d06 153d b4fb ba3c fdb7 583c
000000a0: c93e ed3c 670d c2b9 d0ee bd3c d8d4 3ebc
000000b0: ed19 99bb e449 693c 8d39 9bbc f79b cf3c
000000c0: f985 1c3d 7401 223b 9656 2e3d ebf7 023d
000000d0: 22a8 edb9 c57c 043c e149 e03c 2073 d8bb
000000e0: 05c1 4d3c 6bb3 e53c 63a9 2e3c 53fa 3b3c
000000f0: 1eff 203d 1b92 933c d12e 7b3c fbd9 213d
00000100: 3767 4c3b 9702 0c3d 795d dc3a 25ae 8e3b
00000110: 897c b73c 6574 48bb b4d6 a13c b0b7 493a
00000120: 40e1 c1ba 74ec c03a 9b42 bcbb 6963 833c
00000130: 74b9 ac3b 4ddd bc3c e0f1 123d 7157 0d3d
00000140: b0fb 563d 936d e3ba 97be a63c e234 df3c
00000150: fd7e d239 0716 313d b35e 0a3b d00d 593b
00000160: 1e70 b239 e392 303d fb94 7d3c e839 8d3d
00000170: 92f5 1ebc 228f eb3c 14bf 8439 3bb7 1b3d
00000180: 312d 8539 953d 293d 887c df3c dc4f 0cbb
00000190: a95f 203d 32bb 3d3c c43a 0e3d f2b5 21bc
000001a0: a91a 3c3c ffa1 023c dcb8 cd3b 0897 a0bc
000001b0: e3aa 2f3d c4ba cc3c 5cbd 833a 6de7 0f3c
000001c0: 288e 02bd 27be 693c 8618 2dbb d7ec 033d
000001d0: 9262 ba3c b682 cc3b 9305 673d 516d b33c
000001e0: a665 a03c 3b50 9c3c 44a8 0f3d 511e 36ba
000001f0: e8c9 c23b 4113 bcbb bcf0 1a3d 1d66 903c
0.00349702 0.01957807 0.031154964 0.04512714 -0.0043432354 0.0011412066 -0.009986486 0.011141105
0.008195674 0.021862246 0.025285926 -0.02100297 0.0053575914 -0.034981403 0.031043846 0.017807603
0.03371239 -0.00831886 0.048960686 0.03039181 0.04926641 0.03993777 0.0035889563 0.02001141
0.022586754 0.035008624 0.022251807 -0.00071516936 -0.023824438 0.038895912 -0.02643923 0.029723527
-0.017146185 0.029514734 0.015966957 0.045544595 0.0033083952 0.03638302 0.0228251 0.01322746
0.028960602 -0.0003701255 0.023185164 -0.011647426 -0.00467228 0.014238808 -0.01894834 0.025342925
0.038213704 0.0024720104 0.042563044 0.031974714 -0.0004532943 0.008086388 0.027378978 -0.006605521
0.0125582265 0.028039655 0.010660502 0.011473256 0.0393058 0.018014004 0.015330986 0.039514523
0.003118945 0.034182157 0.0016812525 0.0043542557 0.02239825 -0.0030586955 0.019755699 0.0007694913
-0.0014791861 0.0014718906 -0.0057452447 0.016038613 0.005271131 0.023054743 0.0358752 0.03450722
0.05248612 -0.0017351381 0.020354552 0.027246896 0.00040148935 0.043233898 0.0021113574 0.0033119805
0.0003403434 0.043108832 0.015477414 0.0689581 -0.009702103 0.028754774 0.00025319366 0.03801654
0.00025401407 0.041318495 0.02728106 -0.0021409905 0.03915373 0.011580275 0.034724012 -0.009870039
0.011480966 0.007973193 0.0062781405 -0.019603267 0.04288758 0.0249914 0.001005094 0.008783204
-0.031873852 0.014266527 -0.0026412322 0.03220829 0.02275208 0.006241168 0.0564018 0.021902712
0.01957972 0.019081226 0.03507258 -0.00069472665 0.0059444793 -0.0057396 0.03782724 0.017626816

layers.1.running_mean f4 [128]
00000000: 8158 31c1 6ab0 84c0 8b26 1dc1 8b65 5cc1
00000010: 44c1 64c1 0f0a 32c1 93dd bdc1 b62d abc1
00000020: 3a7c 8fc1 aaaa a1c1 7142 37c1 686e 85c1
00000030: 9228 f4c0 083e 78c1 413a 29c1 2a94 8cc1
00000040: 07eb 55c0 a658 74c1 60f7 22c1 9f90 6ec1
00000050: 4763 64c1 84b9 75c1 6e0b 99c1 667f 41c1
00000060: 7fd3 4dc1 4d45 9fc1 9671 99c1 849a 0cc1
00000070: 5480 98c1 8bde 3dc1 a797 41c1 2ea6 36c1
00000080: 5588 a2c1 e9dc 3dc1 615f 84c0 ba1f 30c1
00000090: 6136 81c1 ac75 52c1 abf9 26c1 1ea4 7fc1
000000a0: 0e20 96c1 b648 86c1 3f98 83c1 8568 b7c0
000000b0: 9607 b2c1 7682 8cc1 339f 60c1 295d 16c1
000000c0: d104 42c1 580c 99c1 4d80 12c1 a6fc 7ec1
000000d0: 6f54 4bc1 552d 7ec1 93fb 09c1 1414 f1c0
000000e0: 05c2 32c1 d3b4 8bc1 6515 53c1 bab3 01c1
000000f0: 391c 7cc1 4fc3 35c1 cce2 01c1 f94f 17c1
00000100: 4cd8 2dc1 0a37 42c1 16aa 3ac1 8540 57c1
00000110: 762c 06c1 4d92 0cc1 5fda 69c1 1797 91c1
00000120: 3094 44c1 63be 5cc1 e0e0 93c1 68f2 47c1
00000130: 5b61 17c1 1f1c e9c0 b636 4fc1 3d66 3cc1
00000140: 5c88 7ec1 e73a bbc1 fbd6 66c1 92c1 8ec1
00000150: b20e 41c1 656e 27c1 92b6 96c1 2648 54c1
00000160: e360 6ac1 e407 28c1 4c09 5fc1 a024 a0c1
00000170: a61f b3c1 e2b4 e6c0 7a86 8fc0 10f4 1bc1
00000180: 2dfc 95c1 bd54 3fc1 98a2 b8c1 9b61 83c1
00000190: 2feb 4fc1 9112 b7c0 ef7d 3fc1 5657 87c1
000001a0: 6f56 aec0 76df 08c1 4cca 82c1 2cba 75c1
000001b0: fc5c adc1 b9e8 6bc1 2471 51c1 fa09 59c1
000001c0: 8c80 8cc1 8e37 4cc1 3724 41c1 c00a 5fc1
000001d0: 6a09 48bf 162d 28c1 c9fa 71c1 0254 67c1
000001e0: 01e4 f7c0 645c 40c0 6e58 8bc1 6996 90c1
000001f0: 156d b8c0 312b 1bc1 56ea 77c1 2954 2dc1
-11.084107 -4.146535 -9.82191 -13.774791 -14.297184 -11.127456 -23.73319 -21.39732
-17.935658 -20.208332 -11.453721 -16.67891 -7.6299524 -15.515144 -10.576722 -17.572346
-3.34247 -15.271643 -10.185394 -14.910308 -14.274238 -15.357792 -19.13058 -12.093603
-12.864135 -19.908838 -19.180462 -8.787724 -19.06266 -11.866832 -12.0995245 -11.415571
-20.316568 -11.866433 -4.136643 -11.007746 -16.151552 -13.1537285 -10.435954 -15.977568
-18.765652 -16.785503 -16.449339 -5.7315087 -22.253704 -17.563702 -14.038867 -9.397744
-12.126176 -19.131027 -9.156323 -15.936682 -12.708114 -15.886067 -8.6239195 -7.533701
-11.172368 -17.463293 -13.192723 -8.106379 -15.75689 -11.360183 -8.11787 -9.457025
-10.865307 -12.138437 -11.666525 -13.453252 -8.385855 -8.785718 -14.615813 -18.198774
-12.286179 -13.796481 -18.484802 -12.496681 -9.461268 -7.2846828 -12.950857 -11.7749605
-15.908291 -23.40376 -14.427485 -17.844517 -12.066088 -10.464452 -18.839146 -13.267614
-14.648654 -10.501926 -13.93977 -20.017883 -22.390453 -7.2095804 -4.4851656 -9.747086
-18.748133 -11.958188 -23.079391 -16.422659 -12.994918 -5.7210164 -11.9682455 -16.917645
-5.448051 -8.554556 -16.348778 -15.357952 -21.670403 -14.744317 -13.090122 -13.564936
-17.562767 -12.763563 -12.0713415 -13.9401245 -0.78139365 -10.511007 -15.123727 -14.45801
-7.7465825 -3.005639 -17.418179 -18.073442 -5.7633157 -9.698045 -15.494711 -10.833047

layers.1.running_var f4 [128]
00000000: b0ad 9841 35fd e640 bf8b e141 db42 d141
00000010: 411f 6e42 b37f ef41 2f9e bc42 1ead 6442
00000020: 4d28 5142 8cc9 5f42 30c1 a641 3200 5b42
00000030: e854 c141 49b5 3942 d65e 1e42 a0f6 6642
00000040: 3ec9 fa40 92ec 2442 b603 8041 18a6 2342
00000050: 86fc 2b42 6bce 2f42 8584 2142 f715 db41
00000060: 0b26 bf41 81c7 8342 42fc 4b42 c7a2 9541
00000070: 436a 9442 f4e4 ff41 a347 9e41 0ae2 ed41
00000080: 4468 8842 bf4c dd41 d63e 3741 1540 b641
00000090: 540c 3042 957d a441 6e7a d141 4ff3 2a42
000000a0: 0d35 bd42 8747 2542 2620 2642 bf7d 4241
000000b0: 3052 b942 50d4 8242 56ed 1042 58c7 3f41
000000c0: 7c95 f041 0019 4742 af9e 5c41 3c5c 5f42
000000d0: bce6 c741 0794 1942 f8d5 5d41 d547 a241
000000e0: d64a 9941 7451 9542 db40 d741 91ce 5441
000000f0: fefe 1b42 caf1 f541 8b2a bd41 75e3 0842
00000100: be9c cb41 a91a 2942 eafb 2342 3245 0142
00000110: ddad a041 14cd a441 0d93 d341 0c10 4d42
00000120: d45f e541 cc1c 0042 9ed8 6842 ae4b 0142
00000130: 31a5 5b41 055b fe41 e1e2 4842 2512 df41
00000140: 9b08 3942 7870 be42 186f 2542 55ab 9842
00000150: f3e5 e741 ed88 e541 cbff 5342 3e4e 0b42
00000160: 547f 1e42 b97b 3242 198e c541 accc 7742
00000170: 0264 be42 8a3a 1c41 be61 da40 0e08 a341
00000180: 866c 6742 68bf de41 e0ee bc42 bed5 6c42
00000190: 18c5 a141 c869 7c41 e64e ce41 584e 9c42
000001a0: a343 5641 037c 3641 b135 5042 7ba6 2342
000001b0: 54bf 9b42 385f 4442 3203 1342 e214 1b42
000001c0: febc 5d42 4c63 0f42 dc12 1842 03e4 1642
000001d0: 1cab 8340 d4c1 8d41 37e7 4442 d60d f041
000001e0: dd1a 0a41 af46 9740 0da9 8742 164a 5f42
000001f0: 351e 3e41 4c6c 8a41 5cfa 0f42 1120 8241
19.084808 7.218409 28.193235 26.157644 59.53052 29.937353 94.30895 57.16906
52.289356 55.946823 20.84433 54.75019 24.166458 46.427036 39.592613 57.740845
7.8370657 41.231026 16.001812 40.9122 42.996605 43.95158 40.379414 27.385725
23.893576 65.889656 50.996346 18.704481 74.20754 31.986794 19.784979 29.73537
68.20364 27.662474 11.452841 22.78129 44.01204 20.56132 26.18478 42.737606
94.603615 41.31985 41.531395 12.1557 92.66052 65.41467 36.231773 11.986168
30.07299 49.774414 13.788741 55.840073 24.987663 38.394558 13.864738 20.285074
19.161541 74.65909 26.906668 13.300431 38.999016 30.743061 23.645773 34.222126
25.451534 42.276035 40.99601 32.317574 20.084894 20.600136 26.446802 51.26567
28.671791 32.028122 58.21154 32.323906 13.72783 31.794443 50.22156 27.88386
46.258404 95.219666 41.35849 76.33463 28.98728 28.691858 52.999798 34.82641
39.624344 44.620823 24.694384 61.949875 95.19533 9.764292 6.8244314 20.378933
57.85598 27.84346 94.46655 59.208733 20.221237 15.7758255 25.788525 78.153015
13.391513 11.405276 52.052433 40.91258 77.87369 49.092987 36.75312 38.770393
55.434563 35.84697 38.018417 37.722668 4.1146374 17.719643 49.225796 30.006756
8.631558 4.7273784 67.83018 55.82235 11.882375 17.30288 35.99449 16.265657

layers.3.weight f4 [256, 130]
00000000: 519e 26bd ded0 ddbd 52e1 d5bb b082 50bd
00000010: b091 0abd b5f6 13be 06ec e4bd 81ed 46be
00000020: 8ee5 953d 9a52 b3bd cc0a 483b 6c2a dbbd
00000030: b9fc eabd fc04 d8bd e5c1 b2bd ff8b e0bd
00000040: 1142 60bb 2393 a8bd c545 62bc 5b08 bbbd
00000050: 5461 29be 04b8 773c da5d 94bc 7d8c e5bd
00000060: edde 50bd 5dee 9ebd e854 66bd bac3 bdbd
00000070: ecbb d5bd d922 8cbc b232 5dbd 07f3 b93c
00000080: 2481 07bb 1837 34bd 40b6 c4bc 9dd5 83bd
00000090: 6503 53bd e2e0 b0bd 91b9 afbd c0de eabc
000000a0: 4a8a fbbd 7df9 483c 1dc5 ddbd eb70 fbbd
000000b0: 0390 3ebd 3c5b e5bd a03f bfbd fee9 bfbd
000000c0: 871a 8ebd 380a 29be 9675 e1bd 3d4d 39bd
000000d0: 1932 54bc 859b 2ebd b73d 8bbd 62d5 ccbd
000000e0: 2f1d aebd b888 fe3c b289 c6bc 2f34 70bd
000000f0: fce1 5abe 312c 173c fd32 f73c 2b87 2ebe
00000100: 9cfa fbbc c0c1 8e3d 1726 a3bd cf15 04be
00000110: edf6 85be d7d9 06be 39c0 8abd 444f e1bd
00000120: 0ee1 afbd 23f2 dabd adce ccbd 99c3 a9bd
00000130: 4732 0bbe c897 0dbe d50e ebbd 2e4b ee3c
00000140: 47d8 2ebe 53fa 003d 72b4 48bd b8d4 d5bd
00000150: 9f3b 4fbd 8bd3 72bd 461c cdbd b5c8 88bd
00000160: 06ec 39bd 045a aebd d08f afbc 25c0 6f3d
00000170: 3d85 c2bd 9947 1cbe ac7f a0bd 3b9e bfbd
00000180: 9e45 93bd 0577 94bc 20bd 5dbd 0e95 f7bd
00000190: d1ae f1bd 35b6 18be 21be 14bd 07b4 34be
000001a0: a6fe 3ebd 2a04 fabd a52d d1bd ee26 2bbd
000001b0: 98ad 72bd 8aa7 05bd abd2 e2bd 0ec5 4ebe
000001c0: e3f3 51be 8207 bbbd c86b c2bd 3861 bfbd
000001d0: 8e90 1cbd f522 50be 26be 06be 3854 603c
000001e0: ca61 23be cb19 04be 508e b3bd c32a 71bd
000001f0: 6783 73bd ea5f 86bd 83aa ccbc a971 71b8
00000200: 506f 2abc 906d e1bd dbe4 6abd 713a 0fbe
00000210: 0ff3 98bd 25f7 c2bd 37c3 72bd 3d0a 6bbd
00000220: 6570 e2bc a92a b0bb 372c 05be 7c38 33be
00000230: a2a0 90bd 4440 88bc a85c 9fbd 2811 5cbd
00000240: e202 cdbd c3a6 39bd 00f4 c5bd c832 89bd
00000250: 2a10 f9bd cd14 95bd 81fd 84bd e1eb 18bd
00000260: c8f0 84bd d7ba 973d 1f25 55bd 9a00 d83b
00000270: 736c 1dbe af72 c6bd 821f 1ebd 83ea 28be
00000280: 0a9a f4bd 7260 38bd 6995 bcbd 0296 5fbd
00000290: 9663 16bd ce96 11be f071 92be ed7c b9bd
000002a0: f8c1 6cbe d895 17be 2e6a 03bd 61f1 44be
000002b0: 39f1 6bbd 9d1e 16bd 9d8f eabc b89b 513d
000002c0: 8e9d d33c 0226 ddbd 17dc 74bd cdb4 8b3d
000002d0: 7558 28bd 5de5 33be 232d dcbc 088f 5fbe
000002e0: a326 2c3c aa2f 41bd a9ea fdbb 027f 473d
000002f0: 53d2 01bd 34b3 41bd 2bd0 9abb 63e6 09be
00000300: 821e 0fbe a983 08bd 8843 cebd 5332 98bd
00000310: 41da 8c3d beba 66bd 3094 6cbd 9bd0 15be
00000320: 22c8 07bd 3257 23be 7060 85bd 6e36 47bc
00000330: 397c 8fbc ab69 853b a398 51be 46a1 763c
00000340: 222e 84bc b121 4dbd d307 bbbd 1132 c7bd
00000350: 17b9 d5bd 66a4 36be 3b43 b9bd 8ae9 bdba
00000360: 091e d7bc e81e 15be eef8 733b 25b6 3c3d
00000370: daa5 03be 1d4e 03be 2b4a 7bbd 7712 89bd
00000380: 14ee 3bbd 7f57 cdbd 153d c6bd 4b8f 2cbd
00000390: 8c3a 5abd b189 3dbd d150 3f3d 8beb c2bd
000003a0: 5476 78bc 6717 afbd badd a7bd 3043 f53b
000003b0: 518a ccbc 1555 c33c 9481 d2bd dffe 0cbc
000003c0: 90fc 6dbd 49a6 2bbc 0195 a33c 0566 d0bd
000003d0: f65e 093e 7686 c0bd bf56 6bbd e59b 86bd
000003e0: 1b23 d1bd ba82 14be d169 a4bd caf6 adbd
000003f0: c6ba 1cbe 5b50 d1bd d6c9 e5bb f1a7 a23b
-0.040678326 -0.10830854 -0.0065271044 -0.050905883 -0.033830345 -0.1444958 -0.111778304 -0.19426538
0.07319175 -0.087559894 0.0030524014 -0.10701451 -0.11473984 -0.10547826 -0.08728389 -0.10964202
-0.0034219066 -0.08231189 -0.01381058 -0.09132453 -0.16541034 0.015119556 -0.018111158 -0.11208437
-0.05099385 -0.07760308 -0.056233317 -0.092658475 -0.10436234 -0.01710646 -0.054003425 0.022698892
-0.002067634 -0.043997854 -0.024012685 -0.06437228 -0.05151691 -0.08636643 -0.08580316 -0.028670669
-0.12282236 0.012266514 -0.10828612 -0.12277397 -0.04652406 -0.11199042 -0.093383074 -0.09370802
-0.069386534 -0.16507804 -0.11008756 -0.045239676 -0.012951397 -0.042628784 -0.067988805 -0.10001637
-0.0850166 0.031071052 -0.02423558 -0.058643516 -0.21375269 0.009226845 0.03017568 -0.1704375
-0.030759148 0.06970549 -0.079662494 -0.12898944 -0.26164952 -0.13169037 -0.06774945 -0.11001447
-0.08587848 -0.10690715 -0.10000358 -0.082892604 -0.13593398 -0.13827431 -0.11477438 0.029088583
-0.17074691 0.031488728 -0.04900021 -0.104409635 -0.05059397 -0.059283774 -0.10015158 -0.06678907
-0.045391105 -0.08513263 -0.02143088 0.058532853 -0.094980694 -0.15261687 -0.078368515 -0.09356352
-0.07191013 -0.01812316 -0.05413544 -0.12088977 -0.11800922 -0.14913256 -0.036314134 -0.176468
-0.04662957 -0.122078255 -0.10213784 -0.041785173 -0.059247583 -0.03263048 -0.11075338 -0.20192358
-0.20503192 -0.091322914 -0.09493214 -0.09344715 -0.038223796 -0.20325835 -0.13158473 0.013691954
-0.15955272 -0.12900464 -0.08767378 -0.05887867 -0.059451487 -0.06561263 -0.02498365 -5.7564732e-05
-0.0104025155 -0.110072255 -0.05734716 -0.13987137 -0.07468235 -0.09519795 -0.059268203 -0.05738281
-0.027641485 -0.0053761792 -0.13005148 -0.17502016 -0.07061888 -0.016632207 -0.07781345 -0.0537273
-0.100103155 -0.045325052 -0.0966568 -0.06699139 -0.12161286 -0.07279358 -0.064936645 -0.037334327
-0.06491238 0.07408684 -0.052037355 0.0065918686 -0.15373401 -0.09689843 -0.038604267 -0.16495709
-0.11943443 -0.045013852 -0.09208185 -0.054586418 -0.036716066 -0.14217684 -0.28602552 -0.09057031
-0.23120868 -0.14803255 -0.032083683 -0.19232704 -0.057603095 -0.03665029 -0.028632933 0.051173896
0.025831964 -0.10798265 -0.059780207 0.068215944 -0.041099984 -0.17567964 -0.026876992 -0.21831906
0.010507259 -0.047164597 -0.007748921 0.04870511 -0.03169472 -0.047290042 -0.0047245226 -0.13466792
-0.13976482 -0.033328686 -0.10071474 -0.074314736 0.06877566 -0.056330435 -0.05775851 -0.14630358
-0.033149846 -0.15951231 -0.065125346 -0.012158973 -0.017515289 0.0040714345 -0.20468383 0.015053099
-0.01613528 -0.05008096 -0.09132352 -0.09726346 -0.10435694 -0.1783615 -0.09046026 -0.0014489156
-0.026259439 -0.14562571 0.003722723 0.046072144 -0.12856236 -0.12822767 -0.06135003 -0.06692975
-0.045881346 -0.10026454 -0.09679619 -0.042128842 -0.05327849 -0.04627389 0.046707932 -0.095175825
-0.01516493 -0.085493855 -0.08196588 0.007484816 -0.024968298 0.023844281 -0.10278621 -0.008605688
-0.05810219 -0.010476657 0.019968512 -0.10175709 0.13415131 -0.094006464 -0.057455774 -0.06572703
-0.10211774 -0.14502993 -0.080279954 -0.08494337 -0.15305623 -0.10220405 -0.007012586 0.004963868

layers.3.bias f4 [256]
00000000: 231f b63b b1c2 d73c ee5e c2bc 70f6 76bd
00000010: d935 123d 3b58 82bd 50a8 1d3d 3827 a8bd
00000020: 5e50 903d e0b3 683c 8226 453d a70f 693d
00000030: 434d ab3c 10dc 90bd 59e8 abbd 3ffb 3abb
00000040: 341b 593d 51f9 29bd 993b adbd b112 0bbd
00000050: 858d 4dbd f739 82bd 9df6 89bd 2e78 a6bb
00000060: 243b c33d c698 17bd 6a4e 903c 1b81 3e3d
00000070: ebf4 b2bc 1081 343c 4486 6f3d 4302 47bd
00000080: 5f9c 943d 5e25 8abd 0641 593c fcd5 43bd
00000090: 8682 1d3d 08e1 2ab9 1e88 a3bd a500 bf3d
000000a0: 375e 51bc e47e 213b d5a5 5bbb 0c1a a13c
000000b0: 010a 0e3c 4bcc afbd 787f bbbc 3eea 60bd
000000c0: 3fb5 1abd 4200 703d 6f62 aebd 9c86 c03d
000000d0: 6b8a 56bd b4fc 0c3d d3b6 a4bc dbf0 91bd
000000e0: faf9 97ba 6165 703a 5e14 023d a0d6 7bbd
000000f0: 07f5 29bd 7bbe ae3d 98fc b33c 6d15 5c3d
00000100: 31cd 74b9 447b b0bd 3678 24bd 6808 94bd
00000110: 3aa2 a0bd d049 87bc e34b 20bd 7063 86bd
00000120: 7be4 1d3d 0ffa 10bd 7666 c33d 5660 3cbd
00000130: a95f 213d 9ab5 8b3a 895f 683d 9b36 d2bd
00000140: 13a6 98bd 434d 2d3d d927 963c 6769 4f3c
00000150: 27e7 e53c 89a2 89bd 1714 953d e02e abbc
00000160: 0c67 debb 187a 03bd 4bf0 f43b 4758 913c
00000170: f6de 98ba 15cd db3c b4a9 d63a 50fa 1e3d
00000180: 7fb4 463d aba5 60bd a843 96bc fb04 fb3c
00000190: 5f48 8dbd 522c a33d 23e2 093c 5d4c aebd
000001a0: b865 d63c be53 b9bc 312f 013d 6969 82bc
000001b0: d064 513d 8fed 9c3c 6147 563d 1ef1 313d
000001c0: 26ad d6bd d68e 14bd 92ce 83bd 8dca 8cbd
000001d0: f2cf 333d 4011 543d d989 043e 8b4f 3abd
000001e0: aa36 15bd 80ef b73d 8803 54bc 174a a6bd
000001f0: e569 4f3d ae10 b23d 7b55 c83c ddb9 7fbd
00000200: f529 123c 400e 06bc bfc2 9abd 7576 1abc
00000210: a283 963c b6fa 173d 240c 87bd 38d3 fb3b
00000220: 18f7 89bd 867e 8d3d 4e61 313d 38bd a1bd
00000230: 5a76 86bc 2a00 50bc b047 c3bb ad21 8cbd
00000240: e955 b2bd 501a 77bd e2e0 63bd d868 30bd
00000250: 34bc 88bd fd21 94bc 5f87 dd3c 0696 1e3d
00000260: 92ee 89bc 8867 f1bc 1c79 033d 9562 8d3c
00000270: 6004 14bb 0bdd 26bd 1163 44bb 3c84 80bd
00000280: 4012 c1ba f1bd f1bc 0aa6 b2bd 1422 74bd
00000290: 7549 053d 47d1 e33b dcd1 49bc 79e8 bb3d
000002a0: 7738 09bc cee3 223d c07c aa3c 22b5 0d3d
000002b0: 38fe 02bd 7c5a c0bd ebc1 e8bc cf09 143c
000002c0: cffc 53bd 445f 82bd 7f97 76bb 8b2d 8c3d
000002d0: fe50 93bd 25d6 623d c5f5 933d 13c2 9f3d
000002e0: 0cc8 2d3d f64a d73b cc95 98bc 3067 c53c
000002f0: 8348 0b3d 1cac 043c 806c 99bd 104a 643c
00000300: 3a9c a2bc 8cc5 88bd 5a30 be3c ddd6 6bbd
00000310: 8206 a23d 33a1 2ebd 9bfb 873d a0c0 a03d
00000320: 03e8 7e3d 013c ea3c bb27 9fbc e3ad 933c
00000330: 56d3 213c e1a4 5fbc d6fe f93d 8511 c63c
00000340: 51fd 543c 77cb 18bd 93df 1abd 3ad2 a0bd
00000350: b8cf d73d adc3 1cbd a047 7b3d f763 2ebd
00000360: 554a 543c 0994 b8bd 627e 7cbd a41d ec3c
00000370: 889b 9fbd a2bd 8d3d af74 b23d 27ec 8bbc
00000380: 12cd 6fbd 72cc 5c3c 0696 75bd 76ec 72bd
00000390: 9421 843d 5465 73bd 2ffc 63bd 2806 bdbb
000003a0: 6b36 b2bd 8f6d cfbc 6b43 8d3d c986 a03c
000003b0: 35d6 abbd 8542 3cbc 18d7 013b 4884 35bc
000003c0: 5713 94bd 7009 b53c 3058 00bd 60a9 b03d
000003d0: cda0 483d f3aa a23d d5f3 bebc dc05 c13d
000003e0: b025 36bd 1cb0 943d 0466 7abc 7125 2dbc
000003f0: d832 2b3d ac77 933d f1e3 61bd 4cbf afbd
0.005557911 0.026337953 -0.023726907 -0.060293615 0.035695884 -0.06364485 0.038490593 -0.082106054
0.07046579 0.014203042 0.048132427 0.056899693 0.020910865 -0.070732236 -0.08393926 -0.0028531102
0.05300446 -0.041497532 -0.08458633 -0.033953372 -0.05018379 -0.06358712 -0.06736491 -0.0050802445
0.095327646 -0.03701093 0.017615516 0.046509843 -0.021845302 0.011017099 0.058477655 -0.04858614
0.07256388 -0.067454085 0.013260132 -0.047811493 0.038454555 -0.00016296294 -0.07984947 0.09326295
-0.01277881 0.0024642283 -0.0033515592 0.01966574 0.008669377 -0.08583888 -0.02288793 -0.05491089
-0.037770506 0.058593996 -0.085148685 0.09400675 -0.0523781 0.034420684 -0.020106709 -0.07126018
-0.0011594885 0.000917038 0.031757705 -0.06148398 -0.041493442 0.08532425 0.021971032 0.05373137
-0.00023346093 -0.08617261 -0.040153705 -0.07228166 -0.07843442 -0.016514689 -0.03913487 -0.06561935
0.038547974 -0.035394724 0.09541027 -0.04599031 0.03939787 0.001065898 0.056731734 -0.102643214
-0.07453551 0.04231001 0.018329548 0.012659407 0.028064324 -0.06720454 0.072792225 -0.020896375
-0.0067871865 -0.03209886 0.007474934 0.01774229 -0.0011663127 0.02683119 0.001637748 0.038812935
0.04851198 -0.054845493 -0.018342808 0.030642023 -0.06898569 0.07967438 0.008415732 -0.08510659
0.02617155 -0.02262294 0.031539146 -0.015919404 0.051121533 0.019156246 0.052314166 0.043442838
-0.10482244 -0.03626903 -0.064358845 -0.06874571 0.043899484 0.051774263 0.1294321 -0.045486014
-0.036429085 0.08981228 -0.012940295 -0.081196 0.0506381 0.08694588 0.024454823 -0.062433112
0.008921136 -0.008182108 -0.07556676 -0.009427656 0.018373314 0.03710433 -0.065941125 0.0076850913
-0.067365825 0.06908898 0.043305688 -0.07897419 -0.016413856 -0.012695352 -0.0059594736 -0.06842361
-0.08707792 -0.060327828 -0.055634387 -0.043068737 -0.06676522 -0.018082613 0.027042089 0.038717292
-0.016837392 -0.029468313 0.03209792 0.017258922 -0.0022585616 -0.040738147 -0.0029966275 -0.06275222
-0.001473017 -0.029509516 -0.08723076 -0.059602812 0.032540757 0.006952438 -0.012318101 0.091752
-0.008375279 0.039768033 0.020811439 0.03459657 -0.031980723 -0.093922585 -0.02841278 0.009035542
-0.05175477 -0.06365827 -0.003762692 0.06844624 -0.071931824 0.055380005 0.07224611 0.078006886
0.042427108 0.0065702153 -0.018626116 0.024097055 0.0340047 0.008097675 -0.07491398 0.0139336735
-0.019849885 -0.06678304 0.023216415 -0.057577956 0.079113975 -0.0426342 0.06639787 0.0784924
0.062232982 0.028593065 -0.019428125 0.018027252 0.009877047 -0.01365015 0.12206809 0.024178276
0.012999848 -0.037303414 -0.037810873 -0.078525975 0.10537666 -0.03827255 0.061347604 -0.042575803
0.012957175 -0.090126105 -0.061643966 0.028822728 -0.07793337 0.06920935 0.08713662 -0.01708038
-0.05854518 0.013476478 -0.059957527 -0.059307538 0.06451717 -0.059422806 -0.055660423 -0.005768556
-0.08701786 -0.025320796 0.068976246 0.01959552 -0.08390466 -0.011490469 0.0019812044 -0.011078902
-0.07230251 0.022099227 -0.031334102 0.08626056 0.048981477 0.07942762 -0.023309628 0.09424946
-0.044469535 0.07260153 -0.0152831115 -0.010568009 0.041796535 0.0720056 -0.055149022 -0.08581409

layers.5.weight f4 [1, 256]
00000000: 5024 afbf 8b93 babf a4a6 bebe 3c74 a8bf
00000010: bf80 333f 4918 07c0 1b39 6fbf c5ee 1bbf
00000020: 25d2 323f 5bf0 4bbf 6a70 2bc0 41a2 963f
00000030: b010 b8bf c0d7 b13c 2d57 42bf ed93 88be
00000040: b101 8f3f b0f1 203f e6bc acbf d0c2 97bf
00000050: 9ce6 8fbf fc70 abbf d857 57bf 4f04 98bf
00000060: f3bb e7bf 6071 adbf 9f4d eabf c3e7 53bf
00000070: c9f3 5bbf 2853 39bf 8535 bbbf 41f0 07bf
00000080: 2b85 e7bf 4098 60bf 9160 d1bf 17f5 8fbf
00000090: 23bc 05c0 20d9 7fbf 4626 eebe 3d98 c6bf
000000a0: e3ef 36c0 5195 edbf fad7 253f 267d ddbf
000000b0: cef4 ffbc afd0 08c0 d038 0dbf c87b 16c0
000000c0: 1e9c 95bf f9b9 063f f0d2 df3e beb1 0cbf
000000d0: 51b1 2bbf b2f6 5cc0 58d4 12bf acff 60be
000000e0: 9968 c4bf 85f3 dcbf 2b3d 23c0 b2c1 3ec0
000000f0: 21cc c0bf fbb5 1dbf 1dcb 7d3e 9b52 9dbf
00000100: 666a 383f 7508 79bf ba53 65bf 897c 19bf
00000110: 703d 7cbf 87d2 ddbe a805 32bd 3dc4 a4be
00000120: 7b52 8a3e a7da 50bf a3e9 38c0 3aca b1bf
00000130: 2625 debf 6ea2 ddbf 8876 fa3e fbe4 c4bf
00000140: 196a e8bf 2ae0 31c0 f46d 10c0 d9e4 00c0
00000150: e148 86bf 5c58 12c0 ab57 dfbf 46e7 13bf
00000160: 0824 32bf 2140 553e 7e76 e4bf fe42 eabf
00000170: bcdb 63c0 38b6 f2bd 435d f73e e37a b0bf
00000180: 4b87 d2bf 80ff 21bd 42df d0bf 6986 eebf
00000190: a640 84bf 3714 40bf 8f98 afbf 38a1 babf
000001a0: 464c 16bf 9981 a0bf f9d4 ea3d 8a4d 4bbf
000001b0: d4a4 86bd 47ba 01c0 7fc0 4abf 2d08 ebbf
000001c0: 14e3 eebe 84a7 e7be 405e 08bd dff6 0dc0
000001d0: ada7 c7bf 84a8 42c0 94f2 0a3f f029 b7be
000001e0: 2e9d 02c0 70a2 b83e 2793 42bf 05d2 c4be
000001f0: 5a41 38bf 7c82 9ebf 2ca5 9b3e 5b76 4cc0
00000200: a5ee 85bf accc 32c0 3c26 3dbf ddcc 05c0
00000210: 4107 c0bd d9e1 b6bf 3c8e 37c0 c9e7 c0bf
00000220: 40c9 e93e 9da7 c0be 4e0c 22c0 f6bd 07c0
00000230: bef8 153f 8af7 05bf 4c82 35c0 2f87 60bf
00000240: 380a 15bf 9090 bcbe 2e80 dfbf 7dea 82bf
00000250: 3958 90bf 5c42 07bf f1b7 e03e c655 8b3e
00000260: 6b66 08c0 b49f 49bf d6ad d6bf dc5f 8cbf
00000270: 3219 a8bf f79c 3ac0 f5b9 6dbf 332d a5bf
00000280: 4dba 2bc0 2f63 00c0 48b8 eebf 1593 95bf
00000290: e299 dcbf 404b 96bf 4767 193f f96e 0fbe
000002a0: 6375 f5bf 31ff b4bf 1533 cebf 7e6f dfbf
000002b0: 2961 87bf 5dd5 47c0 d610 08c0 76ff a9bf
000002c0: a69a aabe c036 8ebf 0825 94be f7eb d0bf
000002d0: f08a aabf 7537 9dbe 115e 263f 5b34 cbbf
000002e0: 2ff0 4f3f 2cbb 44be eb94 1ac0 b375 4e3f
000002f0: d085 9bbf e1d5 9bbf bc92 99bf 75cb 68bf
00000300: 93ca 2abf db8d e0be 389e 85be 999b 0ac0
00000310: fe2e 6d3f a8eb 0ac0 4e22 f4be 783b 703f
00000320: 16b3 46bf 0bcd d7bf 0284 5fbd 883c 0cbf
00000330: d599 0dc0 6ecb 6cbf ad75 fb3e 44dd e5be
00000340: fe6e dfbf df00 d7bf 27ab 35bf fc60 84bf
00000350: 0b85 35bf 8944 ae3f a26e d8bf 71d5 8dbf
00000360: 96da 5abf e7e2 44c0 d4b3 1ec0 b2d9 d4be
00000370: 68a3 02c0 935e 3a3f 795a 9bbf a123 c9bf
00000380: 8e27 5dbf 5f98 7dbf 960c 49bf eb46 10c0
00000390: 0faa da3e 021d f2be 10d9 ef3e db7f 70bf
000003a0: e02e a1be 39fd 9abf 559c 28c0 c930 40bf
000003b0: 9946 51bf 5262 14bf 47d7 c6bf f8a0 04c0
000003c0: 9dc8 9abe 2a44 92bf 6e4b c9bf 8ff1 093f
000003d0: 4fa4 94be c54c 623f 2942 24bf dad4 4fbf
000003e0: 7a0d 08c0 f335 a93e ac5e 66be 264d 6cbe
000003f0: b895 8ebf 6365 34bf c8db 10c0 80ea acbe
-1.3682957 -1.4576277 -0.37236512 -1.3160472 0.70118326 -2.1108572 -0.9344651 -0.6091121
0.69851905 -0.7966363 -2.6787362 1.1768266 -1.4380093 0.021709323 -0.7591427 -0.26675358
1.1172391 0.62868786 -1.3495147 -1.1856327 -1.1242251 -1.3393855 -0.84118414 -1.1876315
-1.8104233 -1.3550224 -1.8304938 -0.82775515 -0.8591886 -0.7239251 -1.4625708 -0.53100973
-1.8087515 -0.87732315 -1.6357595 -1.124667 -2.089608 -0.9994068 -0.46513575 -1.551521
-2.8583915 -1.8561193 0.6478268 -1.7303817 -0.031244662 -2.137737 -0.55164814 -2.351305
-1.1688268 0.5262752 0.4371562 -0.54958713 -0.6706744 -3.452557 -0.5735526 -0.21972531
-1.5344421 -1.7261816 -2.5506084 -2.9805722 -1.5062295 -0.61605805 0.24784513 -1.2290834
0.7203735 -0.9727853 -0.8958088 -0.5995565 -0.98531246 -0.43324682 -0.043462425 -0.32180968
0.27016053 -0.81583637 -2.88926 -1.388984 -1.7355087 -1.7315195 0.48918557 -1.5382379
-1.8157378 -2.779307 -2.256711 -2.0139678 -1.0490991 -2.286643 -1.7448629 -0.5777477
-0.6958623 0.20825244 -1.7848661 -1.8301694 -3.5602865 -0.11851162 0.4831334 -1.3787502
-1.6447538 -0.039550304 -1.6318133 -1.8634769 -1.0332229 -0.75030845 -1.3718432 -1.458045
-0.58710134 -1.253955 0.114664026 -0.7941519 -0.06574407 -2.0269945 -0.79199976 -1.836187
-0.46657622 -0.45244992 -0.03329301 -2.2181928 -1.5598046 -3.0415354 0.54276395 -0.35774183
-2.0408435 0.3606143 -0.76005787 -0.38441482 -0.7197472 -1.2383571 0.30399454 -3.1947238
-1.0463454 -2.7937422 -0.73886466 -2.0906289 -0.093763836 -1.4287673 -2.8680563 -1.5070735
0.45661354 -0.3762788 -2.532001 -2.1209693 0.58582675 -0.5233084 -2.8360777 -0.87706274
-0.5821872 -0.36829042 -1.7460992 -1.022781 -1.1276923 -0.5283563 0.43890336 0.27213877
-2.131251 -0.7875931 -1.67718 -1.0966754 -1.3132689 -2.9158304 -0.9286187 -1.2904419
-2.683246 -2.0060537 -1.8649988 -1.1685511 -1.7234461 -1.1741714 0.59923214 -0.14007176
-1.9176449 -1.4140378 -1.6109339 -1.74559 -1.0576526 -3.1223977 -2.1260276 -1.3281085
-0.33321112 -1.1110458 -0.28934503 -1.6322011 -1.332365 -0.30706373 0.64987284 -1.5875353
0.81225866 -0.19212025 -2.4153392 0.80648345 -1.2150211 -1.2174646 -1.1997905 -0.9093545
-0.66715354 -0.43858227 -0.26097274 -2.165747 0.9264983 -2.1706333 -0.47682422 0.9384074
-0.77617013 -1.6859449 -0.05456925 -0.54779863 -2.2125142 -0.9249791 0.49113217 -0.44895375
-1.7455747 -1.6797141 -0.7096428 -1.0342097 -0.7090613 1.3614665 -1.6908762 -1.1080762
-0.85489786 -3.076349 -2.4797258 -0.41572338 -2.0412235 0.7280056 -1.2136985 -1.5713998
-0.8638848 -0.99060625 -0.7853483 -2.2543285 0.4270787 -0.47287756 0.46845293 -0.9394509
-0.31481075 -1.2108527 -2.6345417 -0.7507444 -0.8174835 -0.57962525 -1.5534447 -2.0723248
-0.3023118 -1.1427052 -1.5726144 0.53884214 -0.29031608 0.8839839 -0.6416345 -0.8118416
-2.1258225 0.33048972 -0.22497052 -0.23076305 -1.113944 -0.70467204 -2.2634144 -0.3377266
