results/checkpoint_0_critic_target.pt (torch_old, 86950 bytes, 13 tensors)

layers.0.weight f4 [128, 24]
0.006497398 0.20828782 0.06487728 -0.03879153 -0.035301626 -0.06554238 -0.067649424 0.041450087
0.042907823 0.30283487 0.007380067 0.018442279 0.072100304 -0.15132397 -0.006736535 0.0046374593
-0.30186433 0.37201682 0.0060346127 0.06706936 0.26736662 -0.8199284 -0.0024080414 -0.015179022
-0.025221542 -0.11734614 -0.051824793 0.02026864 0.23090911 0.21577916 0.050532427 -0.007880233
0.04168062 0.08731147 0.05863576 -0.027363183 0.21395062 0.5383007 -0.06522386 0.017213916
-0.01276915 -0.0118782995 -0.027316367 0.023717502 -0.30229577 -0.7214598 0.028576788 -0.026830608
-0.041773118 -0.31549174 -0.014046137 -0.06644489 -0.3039151 0.49457306 -0.0035178475 -0.012444041
0.22466844 -0.14247306 -0.030291464 -0.007226505 -0.2951283 -0.044159465 0.0142034935 -0.0048229136
0.5230161 -0.3718491 0.03532903 0.02215538 0.014341895 0.022708204 -0.04254207 0.0028372165
0.10685317 0.14677899 -0.018306123 0.0500402 -0.1727517 0.074685 0.011337363 -0.047889646
0.089000605 0.15073921 -0.06414961 -0.03125781 -0.40249097 0.044435393 0.05259883 -0.012223545
0.15142995 0.4305244 0.0018753331 -0.07868678 -0.6797723 0.1951049 -0.03888388 -0.05148127
-0.26107383 -0.10834227 -0.05805732 -0.053127088 -0.29605883 -0.21608922 -0.05606716 -0.17911617
-0.0065932125 0.0005159608 -0.013042721 0.003825732 -0.14439946 -0.2797377 -0.035245538 0.104992196
0.003153043 -0.010041412 0.24083899 -0.1816921 0.03280017 -0.07902899 0.22406316 -0.22420232
0.04292509 0.19263215 0.00447126 -0.015102162 -0.09473146 -0.33948544 0.006395233 0.0065851524
0.18790205 -0.12318618 -0.035722975 -0.13510357 0.025183236 -0.15021011 -0.00013119598 -0.12123614
0.44233674 -0.43811303 0.10230006 -0.052195553 -0.14130348 -0.70289105 0.04349659 -0.14853483
-0.068352945 -0.34491983 -0.034413498 -0.009795791 -0.052496724 0.09262793 0.043322623 0.066942826
-0.0005561763 -0.39416075 0.055200927 -0.23582718 0.08950395 -0.0030524037 0.054650187 -0.15349859
0.12928866 -0.47315204 0.022031 -0.11419048 -0.103236005 -0.91029966 -0.030041546 -0.040026385
-0.020241244 -0.16897362 -0.056376234 0.0071667926 -0.25158024 -0.4539475 0.05688695 0.0008412415
-0.03862445 -0.09303876 -0.012519626 0.047506455 -0.08373561 -0.17150822 0.018276686 -0.07901515
0.0012912978 0.047027208 -0.03299001 -0.0403993 0.4866542 0.65090483 0.031551283 -0.046109717
0.018566897 -0.18107161 0.026788995 -0.083202265 0.026861046 -0.87091196 -0.029243657 -0.007376813
0.11799457 -0.21140409 0.028662045 -0.08690105 0.13741302 -0.54498076 0.1457392 0.07934706
0.22320993 -0.07993397 -0.017625218 -0.028659742 0.024441533 0.27165255 0.058355685 -0.093756236
-0.030578036 -0.38052735 0.008242073 0.048103016 -0.37385508 0.2576446 -0.010275476 0.012599496
0.0016809735 -0.3421003 -0.04648428 -0.0041851075 -0.16355884 0.23217045 0.060156725 -0.024455825
0.1524894 -0.6293343 -0.02818964 0.029343253 -0.09923879 0.312705 -0.08318402 -0.09468588
0.08160307 -0.12535352 0.06915452 -0.11345229 0.11844204 -0.25002083 0.008567421 -0.15236092
-0.19490099 -0.12293159 -0.13773015 0.12201236 0.05167958 -0.25175938 -0.16200595 0.10698766
00000000: 20e8 d43b 6749 553e 61de 843d dee3 1ebd
00000010: 7098 10bd 153b 86bd c88b 8abd 91c7 293d
00000020: 1dc0 2f3d 2c0d 9b3e 7dd4 f13b 4314 973c
00000030: 53a9 933d acf4 1abe 27be dcbb d4f5 973b
00000040: f68d 9abe fd78 be3e 00be c53b a95b 893d
00000050: 47e4 883e d4e6 51bf 3bd0 1dbb 6fb1 78bc
00000060: 689d cebc 2c53 f0bd 3c46 54bd 6b0a a63c
00000070: 7073 6c3e 36f5 5c3e 17fb 4e3d 181c 01bc
00000080: 4cb9 2a3d 5bd0 b23d 0d2c 703d c128 e0bc
00000090: df15 5b3e 13ce 093f 1694 85bd 3304 8d3c
000000a0: b235 51bc 339d 42bc 93c6 dfbc 354b c23c
000000b0: 83c6 9abe 97b1 38bf de19 ea3c ddcb dbbc
000000c0: 4a1a 2bbd 2288 a1be c521 66bc 4214 88bd
000000d0: c39a 9bbe ae38 fd3e b08b 66bb 17e2 4bbc
000000e0: 7c0f 663e 75e4 11be ce25 f8bc 51cc ecbb
000000f0: 0e1b 97be 8ee0 34bd c5b5 683c 8809 9ebb
00000100: 62e4 053f 0163 bebe 2cb5 103d 337f b53c
00000110: 44fa 6a3c 8e06 ba3c 9840 2ebd 98f0 393b
00000120: d6d5 da3d 3b4d 163e b9f6 95bc f4f6 4c3d
00000130: d2e5 30be 73f4 983d 59c0 393c ef27 44bd
00000140: f345 b63d 615b 1a3e df60 83bd 3008 00bd
00000150: 4c13 cebe e301 363d df71 573d 4445 48bc
00000160: 7410 1b3e b26d dc3e bdcd f53a 8926 a1bd
00000170: 8f05 2ebf 94c9 473e b444 1fbd 06de 52bd
00000180: 78ab 85be 8de2 ddbd 83cd 6dbd ca9b 59bd
00000190: 0695 97be 7e46 5dbe aea6 65bd 3b6a 37be
000001a0: e00b d8bb 8b41 073a 23b1 55bc 22b9 7a3b
000001b0: 74dd 13be c839 8fbe a05d 10bd 2606 d73d
000001c0: 49a3 4e3b bc84 24bc 7f9e 763e 7e0d 3abe
000001d0: 7959 063d f3d9 a1bd d070 653e 4b95 65be
000001e0: 38d2 2f3d 5d41 453e a683 923b 0f6f 77bc
000001f0: 9102 c2bd 09d1 adbe 1a8f d13b 43c8 d73b
00000200: 6569 403e 0949 fcbd 4152 12bd 9758 0abe
00000210: 134d ce3c aed0 19be a791 09b9 a74a f8bd
00000220: f679 e23e 5a50 e0be b282 d13d 01cb 55bd
00000230: dcb1 10be abf0 33bf 7b29 323d 8419 18be
00000240: a1fc 8bbd 5599 b0be 2bf5 0cbd 867e 20bc
00000250: ce06 57bd b6b3 bd3d 1073 313d 5219 893d
00000260: 5ccc 11ba 70cf c9be 5e1a 623d ae7c 71be
00000270: d94d b73d d60a 48bb e0d8 5f3d bc2e 1dbe
00000280: 3f64 043e fc40 f2be 5b7a b43c b3dc e9bd
00000290: 666d d3bd 6609 69bf b019 f6bc b5f2 23bd
000002a0: f7d0 a5bc 6c07 2dbe c4ea 66bd 6ad7 ea3b
000002b0: 20cf 80be cf6b e8be 4a02 693d c386 5c3a
000002c0: ac34 1ebd 1b8b bebd 1e1f 4dbc 2196 423d
000002d0: 937d abbd da9f 2fbe fdb8 953c b2d2 a1bd
000002e0: c440 a93a 9a9f 403d 8820 07bd bd79 25bd
000002f0: bd2a f93e b3a1 263f eb3b 013d 8bdd 3cbd
00000300: 9b19 983c d66a 39be 9874 db3c f365 aabd
00000310: b20b dc3c 16f4 5ebf 6590 efbc 31b9 f1bb
00000320: 23a7 f13d 507a 58be aacc ea3c 2df9 b1bd
00000330: 00b6 0c3e dc83 0bbf a83c 153e b680 a23d
00000340: 2591 643e 6cb4 a3bd c362 90bc d6c7 eabc
00000350: 9c39 c83c 0b16 8b3e 5f06 6f3d 4503 c0bd
00000360: ca7e fabc 7bd4 c2be c209 073c ab07 453d
00000370: ef69 bfbe fee9 833e 785a 28bc 1e6e 4e3c
00000380: 1c54 dc3a c527 afbe 4d66 3ebd 3a23 89bb
00000390: f87b 27be 17be 6d3e e666 763d 9557 c8bc
000003a0: 2e26 1c3e 0d1c 21bf f6ed e6bc 4361 f03c
000003b0: b53d cbbd df1a a03e 625c aabd acea c1bd
000003c0: 831f a73d ac5c 00be e3a0 8d3d ad59 e8bd
000003d0: be91 f23d bb02 80be 5e5e 0c3c 8004 1cbe
000003e0: 2094 47be 8fc3 fbbd 2209 0dbe 9ee1 f93d
000003f0: f8ad 533d 9be6 80be e3e4 25be 591c db3d

layers.0.bias f4 [128]
-0.14757416 0.18345551 0.15499419 -0.18364394 -0.038722478 -0.18515146 0.19600187 -0.022927321
0.011815671 0.17813289 0.0672311 -0.16629338 -0.17186604 0.047558445 -0.14522655 0.03817451
0.07292616 0.19656663 0.12513496 0.09405996 -0.16792628 0.18446046 -0.1040719 0.009506253
-0.17777476 0.08762709 -0.039128367 0.15722902 0.10950348 -0.12323936 0.03031584 -0.18200245
0.0014723697 0.16973257 -0.15434712 0.08136749 -0.047949426 0.060272202 0.1853356 0.18112338
0.20392443 0.14660001 0.07245991 -0.1755649 0.074831516 0.010333562 -0.08660279 -0.12277863
-0.17848837 0.14414373 -0.06794282 0.09196885 -0.10388114 -0.032432925 -0.0013649667 -0.17989072
0.0026580023 -0.14951019 -0.15355125 -0.17049962 0.01338036 -0.01234609 0.1768542 -0.14341372
-0.062900364 -0.1885821 0.17256977 -0.20064236 -0.0046880413 0.1274043 0.021071687 -0.20303878
-0.007549519 0.10801629 -0.17305554 0.028031958 -0.054126073 0.06662069 -0.15782465 0.03571517
0.13872492 -0.0038829541 0.15115586 0.14958823 -0.14704889 -0.10674247 0.024376463 0.01587814
0.19240274 -0.054920357 -0.030806335 -0.19083728 -0.03418399 -0.18631312 -0.14218663 -0.13347211
0.16377121 0.104477875 0.0023316317 -0.060141113 -0.12035563 0.13495639 0.04052691 0.026969746
0.081281334 -0.059369214 0.14994678 -0.20246598 0.12354925 -0.15589419 0.0010209668 -0.06587847
0.012008603 0.026630955 -0.18945242 -0.12413158 0.16331497 0.053390704 0.18983042 -0.05540065
0.15344413 -0.17047967 -0.057677917 0.0846544 0.19030985 -0.06507385 -0.042950865 0.042677395
00000000: ae1d 17be c3db 3b3e ccb6 1e3e 280d 3cbe
00000010: 769b 1ebd 5898 3dbe b7b4 483e 14d2 bbbc
00000020: 8496 413c 7868 363e 75b0 893d d048 2abe
00000030: a7fd 2fbe a5cc 423d 45b6 14be e05c 1c3d
00000040: 505a 953d c348 493e 6123 003e 82a2 c03d
00000050: def4 2bbe 34e3 3c3e a623 d5bd 1dc0 1b3c
00000060: 960a 36be d575 b33d 1145 20bd a500 213e
00000070: 5c43 e03d eb64 fcbd ed58 f83c da5e 3abe
00000080: 87fc c03a 60ce 2d3e 2c0d 1ebe 00a4 a63d
00000090: 9e66 44bd fcdf 763d 9ec8 3d3e 6878 393e
000000a0: 91d1 503e 501e 163e dc65 943d 49c7 33be
000000b0: 4441 993d 1a4e 293c ce5c b1bd 5d73 fbbd
000000c0: a8c5 36be 6a9a 133e 9b25 8bbd 2a5a bc3d
000000d0: a3bf d4bd 63d8 04bd afe8 b2ba 4635 38be
000000e0: e131 2e3b 3319 19be 8a3c 1dbe 7497 2ebe
000000f0: 4c39 5b3c 4147 4abc 4419 353e 0cdb 12be
00000100: e8d1 80bd ab1b 41be 21b6 303e 3175 4dbe
00000110: 249e 99bb 4676 023e 889e ac3c 66e9 4fbe
00000120: f561 f7bb a537 dd3d 7935 31be 47a3 e53c
00000130: 4db3 5dbd 6e70 883d c99c 21be 124a 123d
00000140: e80d 0e3e 2979 7ebb 9ac8 1a3e a82d 193e
00000150: fc93 16be cc9b dabd 26b1 c73c e012 823c
00000160: 3905 453e 2bf4 60bd 915d fcbc d96a 43be
00000170: 8304 0cbd dec8 3ebe 5f99 11be eaac 08be
00000180: a4b3 273e 7ff8 d53d 4ace 183b 8756 76bd
00000190: 037d f6bd 0232 0a3e 8cff 253d a8ef dc3c
000001a0: d476 a63d 222d 73bd a68b 193e 3e53 4fbe
000001b0: 6407 fd3d baa2 1fbe f6d1 853a 4beb 86bd
000001c0: bbbf 443c 2929 da3c d1ff 41be b338 febd
000001d0: 0a3c 273e 36b0 5a3d e862 423e cbeb 62bd
000001e0: 7520 1d3e 3992 2ebe ae3f 6cbd 495f ad3d
000001f0: 96e0 423e 7045 85bd 3fed 2fbd 7ece 2e3d

layers.1.weight f4 [128]
0.6082941 1.0274873 0.3542709 0.3834362 0.32544923 0.46750334 0.356476 0.629334
0.47469386 0.4544565 0.2621737 0.3678567 0.4011542 0.7021909 0.48485592 0.4228734
0.35295665 0.19404359 0.1934963 0.40469733 0.91141117 0.39149302 0.27525783 0.2069198
0.39296484 0.31450975 0.5315397 0.21026208 0.29467273 0.7753431 0.22757226 0.15710409
0.3963553 0.3263767 0.360897 0.24901372 0.6564027 0.30923286 0.2166971 0.0029463933
0.24450906 0.11668828 0.44976828 0.21190818 0.24201044 0.21493316 0.33591685 0.13687855
0.3414897 0.41822743 0.47717565 0.3095556 0.23713562 0.50027055 0.17695901 0.16480991
0.31012377 0.20732185 0.5593397 0.24017136 0.2936751 0.15068069 0.28898698 0.35410458
0.6014973 0.92801374 0.8231247 0.43285462 0.26626372 0.27615517 0.5831603 0.1690718
0.45091456 0.34318665 0.2711099 0.25874463 0.37575367 0.62378716 0.6082703 0.54955643
0.35977003 0.17351516 0.29961812 0.55107206 0.18119663 0.16276708 0.64784306 0.27625573
0.34033462 0.537771 0.4237492 0.6943764 0.40568635 0.23965003 0.14894429 0.40688196
0.47723138 0.56323445 0.20824283 0.4001753 0.53980297 0.28206357 0.35782257 0.56694514
0.30020693 0.52097994 1.122438 0.31288034 0.23230231 0.30745628 0.2304631 0.31109625
0.36103633 0.4229171 0.16972677 0.20939845 0.1999095 0.44429553 0.16472095 0.20332761
0.4506004 0.26572165 0.69841486 0.42834944 0.3216388 0.19659805 0.4102578 0.29192063
00000000: 2ab9 1b3f b484 833f ff62 b53e c051 c43e
00000010: 48a1 a63e 995c ef3e 0684 b63e 081c 213f
00000020: 130b f33e 86ae e83e a23b 863e b757 bc3e
00000030: 1564 cd3e c8c2 333f 093f f83e dd82 d83e
00000040: bcb6 b43e 5db3 463e e523 463e 7d34 cf3e
00000050: 3e52 693f c671 c83e 98ee 8c3e c9e2 533e
00000060: b032 c93e 6c07 a13e fc12 083f f14e 573e
00000070: 58df 963e e37c 463f b408 693e e5df 203e
00000080: 15ef ca3e d91a a73e 7ec7 b83e 74fd 7e3e
00000090: 020a 283f c553 9e3e d8e5 5d3e 4718 413b
000000a0: 9560 7a3e 44fa ee3d 0748 e63e 75fe 583e
000000b0: 96d1 773e 7017 5c3e 4bfd ab3e e429 0c3e
000000c0: bdd7 ae3e e821 d63e 5e50 f43e 127e 9e3e
000000d0: aed3 723e bb11 003f be34 353e eec3 283e
000000e0: 8bc8 9e3e 2e4c 543e e330 0f3f 7bef 753e
000000f0: 955c 963e 0a4c 1a3e 1af6 933e 324d b53e
00000100: bafb 193f 4f92 6d3f 4db8 523f 1f9f dd3e
00000110: b853 883e 3664 8d3e fe49 153f 2821 2d3e
00000120: 46de e63e 29b6 af3e ebce 8a3e 2d7a 843e
00000130: c962 c03e 84b0 1f3f 9ab7 1b3f bbaf 0c3f
00000140: c733 b83e f5ad 313e 8c67 993e 0f13 0d3f
00000150: 9c8b 393e 6aac 263e 0bd9 253f 6471 8d3e
00000160: 5740 ae3e 5cab 093f a8f5 d83e a7c2 313f
00000170: 1fb6 cf3e d166 753e da84 183e d552 d03e
00000180: ac57 f43e 2230 103f 9c3d 553e c7e3 cc3e
00000190: 8730 0a3f a36a 903e 8534 b73e 5123 113f
000001a0: b9b4 993e f15e 053f 0cac 8f3f da31 a03e
000001b0: a8e0 6d3e e96a 9d3e 85fe 6b3e 0248 9f3e
000001c0: c1d9 b83e 9788 d83e dbcc 2d3e 8c6c 563e
000001d0: 13b5 4c3e b47a e33e 9cac 283e 1d35 503e
000001e0: 18b5 e63e ab0c 883e 51cb 323f 9e50 db3e
000001f0: d7ad a43e 0051 493e 4f0d d23e 9f76 953e

layers.1.bias f4 [128]
-0.436459 0.53699356 -0.36617115 -0.5069495 -0.19984506 -0.40600136 -0.28764373 -0.18650979
-0.39199746 -0.4674907 -0.20004557 -0.22620194 -0.12415923 0.036074147 -0.5196725 -0.4038219
-0.3031475 -0.07316307 0.09436512 -0.341206 -0.3181194 -0.30926442 -0.18687695 0.31307912
-0.35521898 -0.15901 -0.16629723 -0.29381672 -0.27179047 -0.69052297 -0.18990341 0.11635868
-0.36013916 -0.22167508 -0.22812566 -0.17261891 -0.32419837 -0.37822294 0.0077472134 -0.046521284
-0.15485573 -0.07585581 -0.08650431 -0.09780038 0.1003439 -0.19557083 -0.30939204 0.048426766
-0.34970805 -0.28488532 -0.24571107 -0.2694648 -0.19406016 -0.43765154 -0.18382256 -0.12550305
-0.38698682 -0.16201241 -0.52154803 -0.32833052 -0.2480951 -0.05561427 -0.31503606 -0.25176466
-0.4133474 0.21781355 -0.616237 -0.3814266 -0.30073756 -0.28325763 -0.24098468 0.0005009556
-0.68449473 -0.3681586 -0.15510121 -0.0007930309 0.02349849 0.026171947 -0.34473416 -0.12235179
-0.2810444 -0.18325049 -0.03309632 -0.43069622 -0.1436433 -0.11202805 -0.3073642 -0.14452621
-0.32865396 -0.60089904 0.16129988 0.30566114 -0.27902636 -0.2453435 -0.15162662 -0.53577137
-0.41385737 -0.16478138 -0.06566357 -0.287359 -0.13758177 -0.3761986 -0.31803805 -0.33635935
-0.32532945 -0.27948117 -0.06923372 -0.11901071 -0.20340207 -0.19863032 -0.21292818 -0.28071797
-0.21835138 -0.4857157 -0.0011855445 -0.14526579 -0.15231031 0.0759996 -0.071917035 -0.066168904
-0.3753886 -0.18957415 -0.384576 -0.40958327 -0.3673415 -0.119924925 -0.556072 -0.078234054
00000000: 8e77 dfbe 6978 093f c97a bbbe 71c7 01bf
00000010: 2fa4 4cbe 69df cfbe 0a46 93be 6cfc 3ebe
00000020: e4b3 c8be f15a efbe bfd8 4cbe 7ba1 67be
00000030: 3247 febd 7cc2 133d 4209 05bf bec1 cebe
00000040: 2636 9bbe 85d6 95bd 8042 c13d 8eb2 aebe
00000050: 8ce0 a2be e857 9ebe ac5c 3fbe e84b a03e
00000060: 43df b5be 84d3 22be d249 2abe 256f 96be
00000070: 1f28 8bbe 1dc6 30bf 0a76 42be 764d ee3d
00000080: 2964 b8be cbfe 62be c699 69be 03c3 30be
00000090: 54fd a5be 70a6 c1be 56dc fd3b 1a8d 3ebd
000000a0: 8092 1ebe 4a5a 9bbd 2c29 b1bd 914b c8bd
000000b0: 1a81 cd3d b843 48be a268 9ebe 255b 463d
000000c0: ef0c b3be 7ddc 91be af9b 7bbe 4af7 89be
000000d0: b5b7 46be dd13 e0be fb3b 3cbe df83 00be
000000e0: 2323 c6be 95e6 25be 2c84 05bf f01a a8be
000000f0: a40c 7ebe cacb 63bd 684c a1be 4ce7 80be
00000100: 45a2 d3be 840a 5f3e b5c1 1dbf 594a c3be
00000110: 46fa 99be 2507 91be b0c4 76be 9052 033a
00000120: 0c3b 2fbf 497f bcbe dad2 1ebe 67e3 4fba
00000130: e87f c03c 8d66 d63c ff80 b0be 9393 fabd
00000140: 0de5 8fbe 04a6 3bbe 0290 07bd 3784 dcbe
00000150: 3b17 13be f66e e5bd d75e 9dbe aefe 13be
00000160: 5545 a8be 85d4 19bf cc2b 253e 9e7f 9c3e
00000170: 8bdc 8ebe 543b 7bbe 0244 1bbe 5028 09bf
00000180: 1de5 d3be 73bc 28be 9f7a 86bd b820 93be
00000190: 3ce2 0cbe 1a9d c0be e2d5 a2be 4b37 acbe
000001a0: 9591 a6be 2818 8fbe 69ca 8dbd e3bb f3bd
000001b0: a248 50be bf65 4bbe d809 5abe 44ba 8fbe
000001c0: 8197 5fbe baaf f8be 4664 9bba 8ec0 14be
000001d0: 3cf7 1bbe aea5 9b3d 3d49 93bd 9083 87bd
000001e0: ef32 c0be ba1f 42be 25e7 c4be e6b4 d1be
000001f0: 2f14 bcbe 339b f5bd bc5a 0ebf 2d39 a0bd

layers.1.running_mean f4 [128]
-2.0352397 0.17781353 -2.4602594 -1.9014252 1.5644375 -6.626438 -1.3082348 0.5591447
-3.8610873 1.8095024 -4.057588 -0.34046254 -2.6685412 -0.046369165 0.4757526 0.75885093
-5.083559 5.2721305 -0.8823893 -2.2576005 -3.4422724 4.476364 -7.436338 2.390098
-3.2005236 2.5422664 0.119624145 0.52051055 5.3000817 1.0344136 -2.8642952 4.8778253
-2.8125381 -3.3856747 2.8587613 -1.4309317 -0.95489204 3.151606 4.7819057 0.037014708
6.698829 2.212614 3.1047018 0.011997899 3.224274 2.7798882 -1.2004749 1.7440581
1.5259964 -2.7351508 -1.8374999 5.093375 -6.6549106 -1.5926486 -2.6453314 -0.45173398
-6.8710446 -4.30532 -3.8909671 -5.0602765 0.4119082 -3.7008555 -4.134891 -2.8978283
0.48539776 -0.1443759 2.4474363 2.0011182 -1.153475 0.35442558 1.1090099 3.3984532
-7.235509 1.5543997 3.1046472 -3.880923 3.5849466 -0.13176806 0.6870072 -0.35141546
-1.8324705 -6.6017175 -0.6552376 0.39338723 -10.156063 1.582568 0.3650677 0.1758463
-2.6833332 -5.06641 1.181507 0.4418877 -3.5599723 0.7876778 5.802357 -5.290341
-3.7469532 0.55874467 -0.48529845 -7.3618193 -0.7181496 -8.714777 0.1986374 3.5405743
-0.8157563 -0.6532595 -0.2130747 -2.091527 -2.3361135 2.4289734 0.50930667 0.110930905
-4.943033 -4.539265 -7.932981 1.6019886 -3.8789518 -0.39946467 -4.6704526 0.6523272
-2.520295 4.2034116 -1.7710853 -4.9181757 -2.7149167 0.016777834 -6.136848 5.150167
00000000: 5e41 02c0 c014 363e e474 1dc0 e761 f3bf
00000010: 7d3f c83f c80b d4c0 3d74 a7bf 1b24 0f3f
00000020: 0e1c 77c0 c69d e73f c3d7 81c0 1b51 aebe
00000030: 61c9 2ac0 98ed 3dbd d895 f33e 0e44 423f
00000040: 84ac a2c0 4bb5 a840 44e4 61bf 877c 10c0
00000050: 314e 5cc0 603e 8f40 7bf6 edc0 5ef7 1840
00000060: 61d5 4cc0 7eb4 2240 81fd f43d 2e40 053f
00000070: 459a a940 aa67 843f 9d50 37c0 2517 9c40
00000080: a000 34c0 e5ae 58c0 f2f5 3640 c528 b7bf
00000090: ce73 74bf eab3 4940 5f05 9940 bc9c 173d
000000a0: cf5c d640 789b 0d40 6fb3 4640 d692 443c
000000b0: 815a 4e40 b0e9 3140 29a9 99bf 4c3d df3f
000000c0: da53 c33f b60c 2fc0 3233 ebbf eefc a240
000000d0: 07f5 d4c0 e9db cbbf 1c4d 29c0 ad49 e7be
000000e0: 99df dbc0 2ec5 89c0 9b05 79c0 c9ed a1c0
000000f0: a2e5 d23e d1da 6cc0 0751 84c0 0576 39c0
00000100: 0e86 f83e 47d7 13be cca2 1c40 5212 0040
00000110: 12a5 93bf 4577 b53e 09f4 8d3f 4280 5940
00000120: 4a89 e7c0 92f6 c63f 8ab2 4640 0b61 78c0
00000130: c46f 6540 35ee 06be b4df 2f3f baec b3be
00000140: 658e eabf 4541 d3c0 a7bd 27bf 0d6a c93e
00000150: 3c7f 22c1 9791 ca3f 27ea ba3e 0d11 343e
00000160: bbbb 2bc0 0820 a2c0 9f3b 973f 1b3f e23e
00000170: 96d6 63c0 41a5 493f e9ac b940 794a a9c0
00000180: 15ce 6fc0 e409 0f3f 0a79 f8be 0694 ebc0
00000190: a7d8 37bf ba6f 0bc1 9a67 4b3e c598 6240
000001a0: 68d5 50bf 043c 27bf 4130 5abe 94db 05c0
000001b0: e282 15c0 4d74 1b40 ec61 023f be2f e33d
000001c0: 542d 9ec0 a941 91c0 fbda fdc0 f60d cd3f
000001d0: bf40 78c0 a286 ccbe 5974 95c0 eafe 263f
000001e0: 834c 21c0 5982 8640 ecb2 e2bf b261 9dc0
000001f0: 32c1 2dc0 ab71 893c 0f61 c4c0 2bce a440

layers.1.running_var f4 [128]
5.4043784 1.3837781 11.7003 45.220276 88.611534 26.22276 12.5239525 1.8398496
27.464487 15.837036 69.23684 22.419872 19.58181 205.2965 49.08338 17.682459
16.500122 74.34251 7.4130116 25.223269 33.13668 23.808004 19.27795 2.6527247
11.7410145 24.62959 2.1814141 30.50476 141.2293 17.868937 16.404455 18.145334
11.585935 40.139194 17.7548 31.934015 27.12863 17.268774 24.624979 7.4056005
23.549929 20.703405 22.07949 21.251635 17.58427 47.355507 8.307663 12.468417
9.30466 3.7651324 15.915531 14.898205 26.894886 10.365792 32.727448 15.443728
10.173137 81.2001 18.64328 12.684869 20.989399 44.016773 17.863476 64.82136
8.7614 2.8239434 14.468369 6.6655154 41.68413 24.004503 13.105387 16.217743
16.94736 31.526688 60.86617 30.479004 5.324918 5.173535 3.3320477 7.48083
2.6317635 29.354834 3.7473736 7.6870875 30.18302 25.414074 3.3311627 15.052554
39.280293 13.016383 3.7775972 2.3960278 15.699757 53.284588 48.545 7.1043706
57.583782 6.7078004 41.6864 20.710192 65.50354 20.740593 59.970764 7.8929496
7.10405 30.736088 121.61693 17.977488 69.26143 38.363785 56.080536 20.445805
17.906233 14.887688 48.44696 29.167166 18.808218 0.9172381 36.23497 30.3415
33.221233 31.08552 3.283872 30.25506 3.9291816 36.109715 6.977903 10.925226
00000000: abf0 ac40 a41f b13f 6e34 3b41 90e1 3442
00000010: 1b39 b142 36c8 d141 1c62 4841 3180 eb3f
00000020: 45b7 db41 8064 7d41 4379 8a42 e65b b341
00000030: 8ca7 9c41 e74b 4d43 6255 4442 ad75 8d41
00000040: 4000 8441 5daf 9442 6437 ed40 41c9 c941
00000050: f68b 0442 cb76 be41 3e39 9a41 3ec6 2940
00000060: 32db 3b41 6609 c541 4a9c 0b40 c009 f441
00000070: b33a 0d43 95f3 8e41 533c 8341 a529 9141
00000080: fd5f 3941 898e 2042 d509 8e41 dd78 ff41
00000090: 6f07 d941 7326 8a41 f5ff c441 aefa ec40
000000a0: 4166 bc41 93a0 a541 cca2 b041 5903 aa41
000000b0: 96ac 8c41 0a6c 3d42 30ec 0441 a37e 4741
000000c0: e3df 1441 eef7 7040 04a6 7e41 0c5f 6e41
000000d0: ba28 d741 49da 2541 e8e8 0242 8319 7741
000000e0: 2bc5 2241 7466 a242 7025 9541 39f5 4a41
000000f0: 4aea a741 2d11 3042 66e8 8e41 89a4 8142
00000100: b22e 0c41 7dbb 3440 707e 6741 e74b d540
00000110: 8dbc 2642 3909 c041 aaaf 5141 f0bd 8141
00000120: 3194 8741 a836 fc41 f576 7342 00d5 f341
00000130: ba65 aa40 998d a540 4540 5540 f662 ef40
00000140: d06e 2840 b3d6 ea41 f8d4 6f40 9ffc f540
00000150: d376 f141 0650 cb41 c531 5540 43d7 7041
00000160: 051f 1d42 1b43 5041 27c4 7140 8558 1940
00000170: 3432 7b41 6b23 5542 142e 4242 0157 e340
00000180: cb55 6642 4da6 d640 e0be 2642 79ae a541
00000190: d001 8342 bcec a541 10e2 6f42 0b93 fc40
000001a0: 6154 e340 82e3 f541 de3b f342 e5d1 8f41
000001b0: da85 8a42 8474 1942 7852 6042 0291 a341
000001c0: f73f 8f41 f833 6e41 b0c9 4142 5b56 e941
000001d0: 3b77 9641 1ed0 6a3f 9cf0 1042 64bb f241
000001e0: 8be2 0442 25af f841 f52a 5240 5d0a f241
000001f0: b677 7b40 5970 1042 fb4a df40 bacd 2e41

layers.3.weight f4 [128, 130]
-0.051877286 0.02471909 0.017870812 -0.34409583 0.014854802 0.14666523 -0.044031 0.04107265
0.118867815 -0.09042938 -0.101233125 -0.099070355 0.026655903 -0.05292048 0.051048912 0.20998555
-0.09517248 -0.32191637 -0.21199663 0.060932916 0.18840955 0.27561334 -0.09232955 -0.18824023
-0.23457319 0.22674029 -0.24465667 0.26115966 0.10896497 0.023396838 0.37355226 -0.073137216
-0.10461518 0.13033006 -0.18906897 -0.08096469 0.08706216 0.053859793 -0.057902433 0.03957212
-0.008730985 0.027972626 -0.080533616 -0.15089281 -0.2061184 0.23974088 -0.053864792 -0.15103309
-0.15181705 -0.027028263 -0.06618343 -0.004047678 -0.08979788 -0.04495654 -0.28109613 0.0072383396
0.3716549 0.224944 -0.0068997066 -0.04765211 -0.0030388816 -0.052241445 0.17037916 0.07577532
-0.021038394 -0.004891429 -0.3146213 -0.09780699 -0.2699713 -0.2949589 0.10198162 -0.060538437
-0.10852558 0.16768551 0.07459024 0.08618892 0.10314508 0.08403235 0.28554443 -0.35755113
0.31386897 0.29019904 0.14610109 0.27882987 0.29148704 -0.07475622 0.0038439448 0.2406624
0.3817826 -0.17403035 -0.034368504 -0.017567715 0.025946878 -0.04038619 0.158413 0.20345762
0.15594546 0.014380822 -0.19915514 -0.13975444 -0.023083324 0.21367837 -0.17301498 -0.35917443
0.1674889 0.00043962017 0.044630706 0.24188794 0.008926442 0.0493597 -0.24375634 -0.22708917
0.088602215 -0.060799588 -0.025359381 0.092730105 0.20485878 -0.1146688 0.17774417 0.03679798
0.04198817 -0.407289 0.08455206 0.17592639 0.072312705 -0.090585105 -0.089374214 -0.35559982
-0.12105059 -0.007603201 0.16019382 -0.024832476 -0.18446767 -0.062994406 0.084826864 -0.16907792
-0.23605236 -0.097534575 0.07799747 0.14919358 -0.08533104 0.2302478 -0.010589795 0.06896842
0.10659001 -0.5061282 -0.18235615 0.18664831 -0.15268265 0.024971636 -0.045247443 -0.048965916
-0.010985652 -0.29425782 0.049452405 -0.27553493 0.09986295 -0.13467754 0.07946035 0.05124092
0.43235773 0.06426019 0.009287521 -0.0031361736 -0.065881774 0.075630285 -0.019912794 -0.1568636
-0.3555673 0.07183298 0.36280307 -0.11445778 -0.10132098 -0.03369118 -0.21531864 -0.28085908
0.28162503 0.0688518 0.46220738 0.12993836 -0.0583138 -0.33129254 0.078954965 0.033646837
-0.055286113 0.09587346 -0.0803021 0.0986862 -0.12142871 0.03281858 -0.012160282 0.1821846
-0.0118610235 -0.061848994 -0.4059503 -0.13951734 0.092870966 -0.43665087 0.17111613 -0.061179876
0.19191399 0.106558256 -0.16936697 0.13530396 0.20225471 -0.09483737 0.2452154 0.014437958
-0.23472597 0.007721667 -0.19465737 -0.03369293 -0.054573797 -0.08254691 -0.15362489 -0.073759414
-0.07094872 -0.21515669 0.0013493347 0.10975946 -0.15595986 -0.12766503 0.12795602 0.06753028
-0.041102257 -0.028568627 0.017033037 -0.08484108 0.028002786 -0.09553875 0.07314326 0.20644887
-0.28842932 -0.061109092 -0.1869035 0.089953445 0.07049662 -0.22241282 0.24836954 -0.08828724
0.02900703 -0.030616084 -0.09886637 0.16095193 -0.010305114 -0.13855359 -0.12066599 0.19609544
-0.19586848 0.10379678 0.061600022 -0.24035986 0.023266315 -0.102237806 -0.09616806 -0.06682822
00000000: 477d 54bd b07f ca3c cf65 923c 542d b0be
00000010: 8e61 733c 692f 163e da59 34bd cc3b 283d
00000020: f870 f33d 0a33 b9bd 5053 cfbd 66e5 cabd
00000030: 7b5d da3c 25c3 58bd aa18 513d 7406 573e
00000040: cae9 c2bd 39d2 a4be a515 59be cb94 793d
00000050: 6fee 403e 311d 8d3e 4617 bdbd 0cc2 40be
00000060: f433 70be 9b2e 683e 4787 7abe b8b6 853e
00000070: 0729 df3d baaa bf3c 3e42 bf3e f7c8 95bd
00000080: 7c40 d6bd 3e75 053e 4c9b 41be d1d0 a5bd
00000090: a54d b23d 169c 5c3d 1a2b 6dbd 6016 223d
000000a0: 680c 0fbc d926 e53c cfee a4bd a583 1abe
000000b0: b410 53be a27e 753e 54a1 5cbd 6ba8 1abe
000000c0: ee75 1bbe 606a ddbc 2e8b 87bd 62a2 84bb
000000d0: f3e7 b7bd 5924 38bd d5eb 8fbe 982f ed3b
000000e0: 8d49 be3e b857 663e ef16 e2bb dc2e 43bd
000000f0: f927 47bb 20fb 55bd e077 2e3e 1730 9b3d
00000100: b658 acbc 4848 a0bb 0b16 a1be 084f c8bd
00000110: ae39 8abe da04 97be bddb d03d 27f7 77bd
00000120: a942 debd c0b5 2b3e c5c2 983d d183 b03d
00000130: ba3d d33d 2719 ac3d e132 923e f110 b7be
00000140: 6fb3 a03e f894 943e 869b 153e cac2 8e3e
00000150: ca3d 953e ca19 99bd b1ea 7b3b 3470 763e
00000160: 0279 c33e 0335 32be fdc5 0cbd 2bea 8fbc
00000170: 8c8e d43c fd6b 25bd 0437 223e 3257 503e
00000180: 2bb0 1f3e 8a9d 6b3c 53ef 4bbe ca1b 0fbe
00000190: 3d19 bdbc 81ce 5a3e d72a 31be b6e5 b7be
000001a0: 3682 2b3e d27c e639 b0ce 363d 79b1 773e
000001b0: 3640 123c 662d 4a3d 439b 79be 108a 68be
000001c0: 1475 b53d fd08 79bd 7abe cfbc 48e9 bd3d
000001d0: 80c6 513e 7ad7 eabd 9102 363e 7bb9 163d
000001e0: cafb 2b3d 2f88 d0be a129 ad3d 0c26 343e
000001f0: af18 943d af84 b9bd d409 b7bd 2e11 b6be
00000200: 5fe9 f7bd 4624 f9bb d909 243e 7a6d cbbc
00000210: 18e5 3cbe 3603 81bd b5b9 ad3d c322 2dbe
00000220: b6b7 71be 35c0 c7bd 23bd 9f3d 34c6 183e
00000230: 0ac2 aebd 14c6 6b3e d280 2dbc 513f 8d3d
00000240: dd4b da3d 9e91 01bf 92bb 3abe bc20 3f3e
00000250: d758 1cbe 5191 cc3c 6255 39bd 7c90 48bd
00000260: 2afd 33bc f6a8 96be 9b8e 4a3d ea12 8dbe
00000270: f284 cc3d e9e8 09be 1cbc a23d 00e2 513d
00000280: fe5d dd3e d99a 833d b02a 183c 4388 4dbb
00000290: 06ed 86bd 0de4 9a3d 2820 a3bc daa0 20be
000002a0: eb0c b6be 2b1d 933d 53c1 b93e d768 eabd
000002b0: 6081 cfbd c3ff 09bd 7d7c 5cbe c3cc 8fbe
000002c0: 2831 903e 2c02 8d3d 72a6 ec3e 900e 053e
000002d0: 73da 6ebd 2d9f a9be 24b3 a13d 44d1 093d
000002e0: b173 62bd 4e59 c43d 6d75 a4bd fe1b ca3d
000002f0: 9eaf f8bd c66c 063d eb3b 47bc 9a8e 3a3e
00000300: bd54 42bc 5f55 7dbd b8d8 cfbe a2dd 0ebe
00000310: 2233 be3d b490 dfbe 1139 2f3e c097 7abd
00000320: 1a85 443e 373b da3d 896e 2dbe 1f8d 0a3e
00000330: dc1b 4f3e 183a c2bd bf19 7b3e 2f8d 6c3c
00000340: 015c 70be 0a06 fd3b 4354 47be 9901 0abd
00000350: c688 5fbd 5b0e a9bd d84f 1dbe 2d0f 97bd
00000360: 904d 91bd 0952 5cbe 29dc b03a 91c9 e03d
00000370: f1b3 1fbe 9fba 02be e706 033e 514d 8a3d
00000380: d75a 28bd c108 eabc de88 8b3c 29c1 adbd
00000390: 1966 e53c d2a9 c3bd 22cc 953d 5567 533e
000003a0: 02ad 93be 874d 7abd a263 3fbe 8339 b83d
000003b0: 8860 903d 30c0 63be 9654 7e3e f1cf b4bd
000003c0: 27a0 ed3c 95ce fabc 747a cabd 95d0 243e
000003d0: c8d6 28bc fee0 0dbe bb1f f7bd 3ecd 483e
000003e0: bf91 48be 6893 d43d 4e50 7c3d e520 76be
000003f0: 0099 be3c 0e62 d1bd c3f3 c4bd 3cdd 88bd

layers.3.bias f4 [128]
0.06763357 -0.055945326 0.012469544 0.06802339 0.05885827 0.0001756537 0.08124945 -0.058154743
-0.014904553 -0.044470586 0.08068262 -0.008464005 -0.046024844 -0.040043246 -0.07257948 -0.012309032
0.014752512 0.04849127 -0.00027056452 0.077184826 -0.035303567 -0.087585196 0.07479975 -0.018768711
-0.056875303 0.0027475741 0.061644096 -0.053051367 0.08161075 0.06436744 -0.065402016 0.07936999
0.019745624 0.079495795 -0.0041568987 0.027833838 0.06728414 0.0017127859 -0.06780554 -0.077497534
0.074414454 -0.058274332 0.08753818 -0.0047833994 0.010160968 -0.029513119 0.03800092 -0.00511392
-0.03242566 -0.04992241 0.067263454 -0.0068751825 0.023544261 0.08000108 0.087048545 -0.06706805
-0.085658215 0.06825387 0.020240806 0.084725425 -0.073566854 0.011499042 -0.018842196 -0.0057632313
-0.04257775 0.03570117 -0.03805974 0.042310935 -0.08681044 -0.037639767 -0.018566452 -0.078283764
0.0785809 -0.025751019 -0.012182027 0.020645997 -0.01469925 -0.00076777744 -0.0149932355 0.019020148
-0.021769881 0.0054918076 -0.071587734 -0.07507547 -0.01687634 -0.037665427 -0.07742948 -0.07704792
0.040268388 0.072159864 -0.07267344 0.028305676 -0.08270661 -0.027893815 0.027275264 0.057786535
-0.0011794977 -0.08111351 -0.031009838 -0.056278955 0.084596075 -0.035921432 0.044218298 0.011193735
0.045832787 -0.0036036433 0.03314135 0.0055797854 -0.0011551741 0.058144264 0.047385473 0.055485137
-0.0021446084 -0.0036332654 0.06687508 -0.06714224 0.019286973 0.008055552 -0.047465764 -0.0116684865
-0.05598138 -0.033128396 0.02983035 0.04041671 -0.026667863 -0.030087875 -0.024590632 0.026763698
00000000: 7883 8a3d ed26 65bd 0f4d 4c3c d94f 8b3d
00000010: 5f15 713d ae2f 3839 1d66 a63d ab33 6ebd
00000020: 3a32 74bc ca26 36bd ee3c a53d 9cac 0abc
00000030: 8c84 3cbd 6304 24bd 8da4 94bd d2ab 49bc
00000040: 85b4 713c c89e 463d 8eda 8db9 1413 9e3d
00000050: 799a 10bd de5f b3bd 9c30 993d d7c0 99bc
00000060: 14f6 68bd a510 343b 857e 7c3d 644c 59bd
00000070: 8923 a73d 14d3 833d 7ef1 85bd bc8c a23d
00000080: 93c1 a13c b1ce a23d 9836 88bb ca03 e43c
00000090: 44cc 893d 8f7f e03a a2dd 8abd 07b7 9ebd
000000a0: 9b66 983d 11b1 6ebd 3847 b33d 10be 9cbb
000000b0: 307a 263c 7fc5 f1bc daa6 1b3d ac92 a7bb
000000c0: c5d0 04bd 717b 4cbd 6cc1 893d 3649 e1bb
000000d0: e5df c03c 9bd7 a33d 8246 b23d f95a 89bd
000000e0: 936d afbd afc8 8b3d 0cd0 a53c 8684 ad3d
000000f0: 38aa 96bd 7a66 3c3c f35a 9abc 7dd9 bcbb
00000100: 0266 2ebd 643b 123d 88e4 1bbd 3b4e 2d3d
00000110: acc9 b1bd 282c 1abd ac18 98bc 3d53 a0bd
00000120: 06ef a03d cdf3 d2bc 2097 47bc cb21 a93c
00000130: 20d5 70bc ac44 49ba 30a6 75bc 24d0 9b3c
00000140: c056 b2bc 9ff4 b33b 979c 92bd 2bc1 99bd
00000150: 4040 8abc 1047 1abd 5993 9ebd 4dcb 9dbd
00000160: 77f0 243d 8dc8 933d d0d5 94bd 4ee1 e73c
00000170: 1562 a9bd 9281 e4bc 6070 df3c 93b1 6c3d
00000180: 6099 9aba d71e a6bd 5808 febc c384 66bd
00000190: b540 ad3d 5a22 13bd 3f1e 353d ed65 373c
000001a0: 29bb 3b3d 1a2b 6cbb 39bf 073d a2d6 b63b
000001b0: 3669 97ba ae28 6e3d 4517 423d 6244 633d
000001c0: 8f8c 0cbb 141c 6ebb cdf5 883d df81 89bd
000001d0: b7ff 9d3c 6ffb 033c 766b 42bd 2e2d 3fbc
000001e0: bb4c 65bd a4b1 07bd c75e f43c fe8b 253d
000001f0: 9076 dabc d97a f6bc 4b72 c9bc 8b3f db3c

layers.4.weight f4 [128]
0.31913558 0.2352126 0.76989233 0.2260253 0.24168338 0.8512538 0.50791025 0.30818212
0.2773741 0.40265065 0.35343125 0.6502527 0.15339042 0.36460638 0.5606677 0.19554666
0.24304625 0.5885524 0.62453383 0.25496298 0.3393786 0.4971012 0.28227183 0.6247992
0.434245 0.26643515 0.26571518 0.52029383 0.43742526 0.44263834 0.3277421 0.41615534
0.40708405 0.28119227 0.64687896 0.45597094 0.48087695 0.14000437 0.5895765 0.6844823
0.6086385 0.68874955 0.46178257 0.20883729 0.2975396 0.14708306 0.29752132 0.44762957
0.47975618 0.6765315 0.24021453 0.4546846 0.18990679 0.33183488 0.28841266 0.20793882
0.5983142 0.41823897 0.14387992 0.28038287 0.54424226 0.1688983 0.32646656 0.44011167
0.50618845 0.57786405 0.35278556 0.32694206 0.73772794 0.38866165 0.40771693 0.28864053
0.2650365 0.6021285 0.45432115 0.21534921 0.30032635 0.17622693 0.44255403 0.0056501296
-4.529961e-05 0.4371753 0.5469197 -0.006032485 -0.0021592851 0.24827486 0.16582122 0.36726615
0.6350397 0.002528089 0.23524667 0.23920283 0.24715805 0.4568546 0.14566006 0.43106803
0.39287847 0.33388895 0.28292152 0.20446621 0.22930177 0.0021518809 0.32090455 0.3786209
0.4573086 0.7213534 0.3988211 0.4900829 0.68517196 0.28397673 0.52238536 0.23853268
0.5751211 0.19494942 0.6515476 0.42433658 0.3076712 0.39485496 0.31266618 0.22675325
0.25407636 0.5068627 0.41972545 0.36936772 0.3931651 0.15923576 0.36146572 0.6049466
00000000: bd65 a33e 92db 703e aa17 453f 2d73 673e
00000010: d97b 773e c5eb 593f 6806 023f 0cca 9d3e
00000020: fa03 8e3e 3a28 ce3e f1f4 b43e f676 263f
00000030: 6112 1d3e b0ad ba3e eb87 0f3f 623d 483e
00000040: 1ee1 783e 5fab 163f 73e1 1f3f 828a 823e
00000050: 08c3 ad3e 0c84 fe3e ef85 903e d7f2 1f3f
00000060: 5c55 de3e 306a 883e d20b 883e fa31 053f
00000070: 34f6 df3e 7ea1 e23e d0cd a73e 5012 d53e
00000080: 526d d03e 6ff8 8f3e dc99 253f 0675 e93e
00000090: 8135 f63e 4e5d 0f3e 7cee 163f 3b3a 2f3f
000000a0: bccf 1b3f e451 303f c46e ec3e 71d9 553e
000000b0: 1c57 983e f19c 163e b754 983e b42f e53e
000000c0: 9aa2 f53e 2b31 2d3f ccfa 753e 6bcc e83e
000000d0: ed76 423e 43e6 a93e d3aa 933e eaed 543e
000000e0: 1f2b 193f 6b23 d63e 4255 133e 588e 8f3e
000000f0: 7653 0b3f adf3 2c3e a026 a73e 5156 e13e
00000100: 9195 013f e6ee 133f 4fa0 b43e f364 a73e
00000110: bddb 3c3f a9fe c63e 46c0 d03e b1c8 933e
00000120: ddb2 873e 1825 1a3f c89c e83e 8184 5c3e
00000130: 60c4 993e d574 343e 7196 e23e b924 b93b
00000140: 1600 3eb8 71d5 df3e ee02 0c3f 27ac c5bb
00000150: cb82 0dbb c43b 7e3e 0acd 293e 4f0a bc3e
00000160: f691 223f 4cae 253b 81e4 703e 96f1 743e
00000170: 0017 7d3e d9e8 e93e e927 153e f3b4 dc3e
00000180: 5e27 c93e 7ef3 aa3e 17db 903e 975f 513e
00000190: 15ce 6a3e 9206 0d3b 9a4d a43e 99da c13e
000001a0: 5a24 ea3e 9eaa 383f 4732 cc3e 25ec fa3e
000001b0: 6e67 2f3f 6665 913e 0cbb 053f e941 743e
000001c0: 233b 133f d2a0 473e d3cb 263f a542 d93e
000001d0: 1487 9d3e 6e2a ca3e c815 a03e 0132 683e
000001e0: 4c16 823e c1c1 013f 41e6 d63e c41d bd3e
000001f0: f04c c93e b30e 233e 0912 b93e c8dd 1a3f

layers.4.bias f4 [128]
-0.38779742 -0.26631737 -0.11258358 -0.06218081 -0.23692907 -0.32286635 -0.540692 -0.22963327
-0.03093668 -0.65080005 -0.2613218 -0.2912471 -0.20828179 -0.39581916 -0.23897395 -0.19127618
-0.23382607 -0.20417525 -0.12754796 -0.29239735 -0.037435476 -0.3845884 -0.16005023 -0.1310086
-0.3480082 -0.13853036 -0.24053997 -0.09363919 -0.24697214 -0.11129451 -0.17985708 -0.3854571
-0.54861134 -0.26284847 -0.17664127 -0.24749371 -0.40234664 -0.14002721 -0.39255962 -0.3367795
-0.29857236 -0.2239314 -0.33640417 -0.37849575 -0.46527705 -0.29012817 -0.5411328 -0.21125486
-0.1823734 -0.27823898 -0.5493324 -0.16616786 -0.20579576 -0.13745974 -0.04036809 -0.34563375
-0.029222379 0.039900728 -0.24551529 -0.28603888 -0.331309 -0.34678808 -0.12221961 -0.05860136
-0.2370175 -0.011233712 0.17245764 -0.43468693 -0.11259237 0.20386128 -0.30837688 -0.12802817
-0.28636578 -0.10304608 -0.3085164 -0.19817673 -0.07477974 -0.20246226 -0.42447755 -0.03648013
-0.021223092 -0.5004681 -0.36513337 -0.06605505 -0.0070009218 -0.20284702 -0.21959914 -0.3931025
-0.20375265 -0.012158568 -0.4431571 -0.07924232 -0.4594419 -0.21618086 -0.29348454 -0.1613246
-0.1869732 -0.25089684 -0.20956348 -0.15482014 -0.25625855 -0.0099779675 -0.16122188 -0.20722036
-0.22181448 -0.052261073 -0.060597856 -0.25033787 -0.32643598 -0.07302499 -0.024255494 -0.32554853
-0.10001679 -0.42938945 -0.38515767 -0.45493704 -0.10633404 -0.2826015 -0.34937954 -0.38965526
0.045292486 -0.4291777 -0.2171687 -0.63320315 -0.38233292 -0.22596733 -0.6885308 -0.17759067
00000000: 628d c6be c05a 88be 3892 e6bd 4eb1 7ebd
00000010: 899d 72be bd4e a5be ca6a 0abf fc24 6bbe
00000020: ec6e fdbc d59a 26bf f9cb 85be 571e 95be
00000030: d247 55be cfa8 cabe 96b5 74be e7dd 43be
00000040: 1a70 6fbe 5113 51be ef9b 02be 1bb5 95be
00000050: f155 19bd c5e8 c4be 35e4 23be 1e27 06be
00000060: 212e b2be e7da 0dbe 1c50 76be e7c5 bfbd
00000070: 44e6 7cbe 60ee e3bd 742c 38be a25a c5be
00000080: cb71 0cbf 1394 86be 73e1 34be fe6e 7dbe
00000090: 6100 cebe 4b63 0fbe 93fd c8be 5d6e acbe
000000a0: 7ade 98be 464e 65be 2b3d acbe 32ca c1be
000000b0: cb38 eebe ae8b 94be ae87 0abf 3253 58be
000000c0: 18c0 3abe 5775 8ebe 0ca1 0cbf e827 2abe
000000d0: 20bc 52be 3fc2 0cbe 0359 25bd e8f6 b0be
000000e0: c563 efbc f26e 233d 5c68 7bbe b073 92be
000000f0: 55a1 a9be 358e b1be 464e fabd fb07 70bd
00000100: b7b4 72be 9a0d 38bc bc98 303e 498f debe
00000110: d496 e6bd 03c1 503e 93e3 9dbe d119 03be
00000120: 899e 92be d309 d3bd ddf5 9dbe d7ee 4abe
00000130: 1f26 99bd 4452 4fbe 1f55 d9be 306c 15bd
00000140: 0ddc adbc ad1e 00bf c3f2 babe df47 87bd
00000150: fd67 e5bb 21b7 4fbe 99de 60be bb44 c9be
00000160: 89a4 50be bb34 47bc 7de5 e2be cc49 a2bd
00000170: f83b ebbe 845e 5dbe 9b43 96be 4732 25be
00000180: e775 3fbe 8d75 80be cf97 56be 2c89 1ebe
00000190: 5234 83be a17a 23bc 5917 25be 9331 54be
000001a0: 5623 63be b50f 56bd 7535 78bd 492c 80be
000001b0: 9e22 a7be 208e 95bd 75b3 c6bc 4cae a6be
000001c0: 9ad5 ccbd efd8 dbbe 6333 c5be 82ed e8be
000001d0: a9c5 d9bd 25b1 90be e0e1 b2be e580 c7be
000001e0: 9d84 393d 2ebd dbbe 7961 5ebe 9a19 22bf
000001f0: 24c1 c3be fb63 67be 8e43 30bf 54da 35be

layers.4.running_mean f4 [128]
-0.04012892 -0.35031965 -0.49909854 -0.46118897 0.071942076 -0.41174927 -0.4541768 -0.4829096
-0.2990019 0.06474461 -0.21808942 -0.20661001 -0.35654038 -0.058217112 -0.22084059 -0.4184093
-0.008076419 -0.1422478 -0.3631383 0.28625748 -0.3455303 -0.034411926 -0.50435734 -0.34128925
0.020898486 -0.3964098 -0.28500026 -0.14378247 0.019332718 -0.27618608 -0.3948847 -0.3935845
0.028297445 -0.23820643 -0.47220102 -0.27992898 -0.3834684 0.19211376 -0.65475214 -0.27283335
-0.3615087 -0.16790886 -0.24827519 0.04124127 -0.4637525 -0.3368356 -0.03760226 -0.028288653
-0.72349185 -0.13663456 0.5813509 -0.11799928 -0.1661897 0.044548143 0.08971356 0.16655907
-0.36173293 0.050176952 -0.15371634 -0.36876777 -0.24808756 0.088734396 -0.27864653 0.12639734
-0.3456051 -0.2616891 -0.3342957 0.17287092 -0.74283355 -0.34620774 -0.46439213 -0.5827657
0.3159575 -0.0015327268 -0.22648968 -0.06435645 -0.12599787 -0.0023711536 0.05556875 0.111523814
-0.23355946 -0.25536048 -0.31634876 -0.108748324 0.14816026 0.39279234 -0.4245034 -0.23351659
-0.46850154 0.088257596 -0.35846657 -0.14987352 0.34462667 -0.05869394 0.5227889 -0.4491282
-0.63343036 0.2459972 -0.1020164 -0.35519588 -0.12176125 -0.07227689 -0.30505997 -0.18575288
-0.38215688 -0.30137464 -0.2313769 -0.24467415 -0.3246617 -0.12400375 -0.22428662 -0.048878655
-0.2891699 -0.3064596 -0.16200234 -0.1490727 -0.359914 -0.3754189 -0.15773767 -0.43359432
-0.5234387 0.19641007 -0.0695129 -0.05936545 -0.37667888 0.26821825 0.15337765 -0.7336712
00000000: 395e 24bd 195d b3be d889 ffbe f620 ecbe
00000010: 5e56 933d cdd0 d2be dd89 e8be ed3f f7be
00000020: c716 99be d298 843d d552 5fbe 9391 53be
00000030: 768c b6be 1175 6ebd 0924 62be be39 d6be
00000040: f552 04bc 68a9 11be 43ed b9be 5790 923e
00000050: 59e9 b0be 85f3 0cbd 901d 01bf 77bd aebe
00000060: 4d33 ab3c 3af6 cabe 8eeb 91be b63b 13be
00000070: a65f 9e3c 4368 8dbe 542e cabe e883 c9be
00000080: 0bd0 e73c 63ec 73be 55c4 f1be da52 8fbe
00000090: f855 c4be 78b9 443e d69d 27bf d0b0 8bbe
000000a0: ab17 b9be 4df0 2bbe da3b 7ebe 9bec 283d
000000b0: f870 edbe b775 acbe d404 1abd 9bbd e7bc
000000c0: c336 39bf eee9 0bbe 6ad3 143f 9ba9 f1bd
000000d0: a22d 2abe 1d78 363d bebb b73d 768e 2a3e
000000e0: 0f35 b9be 5986 4d3d d167 1dbe 21cf bcbe
000000f0: aa0a 7ebe 61ba b53d c2aa 8ebe 4e6e 013e
00000100: 27f3 b0be 1dfc 85be ce28 abbe 1305 313e
00000110: 572a 3ebf 2442 b1be cec4 edbe 2230 15bf
00000120: 2ec5 a13e c7e5 c8ba e9ec 67be 51cd 83bd
00000130: 9605 01be 5b65 1bbb 0f9c 633d 9966 e43d
00000140: 362a 6fbe 9cbe 82be 77f8 a1be 71b7 debd
00000150: 53b7 173e 141c c93e 8258 d9be f91e 6fbe
00000160: 6fdf efbe 66c0 b43d ee88 b7be 7278 19be
00000170: e872 b03e 0f69 70bd 7ed5 053f 22f4 e5be
00000180: 7e28 22bf b1e6 7b3e f9ed d0bd 3cdc b5be
00000190: f65d f9bd e805 94bd d230 9cbe 0136 3ebe
000001a0: 11aa c3be c74d 9abe 11ee 6cbe dc8b 7abe
000001b0: 0f3a a6be aef5 fdbd 64ab 65be fc34 48bd
000001c0: 140e 94be 46e8 9cbe f1e3 25be 84a6 18be
000001d0: a646 b8be e836 c0be fc85 21be 1300 debe
000001e0: 1400 06bf b91f 493e c85c 8ebd 3029 73bd
000001f0: 0edc c0be e753 893e 080f 1d3e e0d1 3bbf

layers.4.running_var f4 [128]
0.09423077 0.069255576 0.21370715 0.11125119 0.08748004 0.20009123 0.22584309 0.22336258
0.22180374 0.05016173 0.23186009 0.14625525 0.07149914 0.048236582 0.1996102 0.14158925
0.08894522 0.12276771 0.212408 0.049241908 0.23906933 0.12592287 0.28708956 0.089374535
0.091939144 0.2990196 0.1007038 0.17657058 0.10300524 0.11643746 0.17557418 0.14258483
0.06696804 0.09495915 0.4285505 0.20665109 0.053669207 0.08101412 0.13384274 0.19629787
0.26393756 0.20099771 0.13668498 0.04394977 0.07031274 0.085751295 0.07360151 0.2262756
0.15591481 0.20345095 0.09655639 0.1186627 0.08142274 0.14867693 0.09272264 0.039272685
0.14769413 0.14353584 0.058617823 0.10749225 0.18082657 0.058097456 0.11813312 0.09543296
0.16710372 0.19998345 0.27945277 0.07414456 0.17614058 0.21938697 0.3554673 0.214386
0.09935906 0.17855386 0.12980582 0.08630908 0.11008126 0.07864219 0.1353812 0.0148874065
0.0134969205 0.09282255 0.10575926 0.035630316 0.00912809 0.06912091 0.09296244 0.05392167
0.1839514 0.02277569 0.06529973 0.24757525 0.08006229 0.08041011 0.121449605 0.24300867
0.20216747 0.14297856 0.072598346 0.09862394 0.066219166 0.02420364 0.09968345 0.10912546
0.31002477 0.13645932 0.11435603 0.12389296 0.3567336 0.20280178 0.17420857 0.049595706
0.29719102 0.05647985 0.09736652 0.20064566 0.24048729 0.07489769 0.09177051 0.092763804
0.1614116 0.18101345 0.20703723 0.07476399 0.13865694 0.040780984 0.04549355 0.4034459
00000000: 10fc c03d ded5 8d3d 0cd6 5a3e aad7 e33d
00000010: bc28 b33d b7e4 4c3e 6943 673e 29b9 643e
00000020: 8520 633e 6376 4d3d bb6c 6d3e f0c3 153e
00000030: 246e 923d b993 453d 9e66 4c3e c6fc 103e
00000040: e928 b63d a36d fb3d 7c81 593e e2b1 493d
00000050: 97ce 743e edf1 003e 67fd 923e ff09 b73d
00000060: 974a bc3d 1919 993e cb3d ce3d ebce 343e
00000070: 69f4 d23d c376 ee3d b8c9 333e c201 123e
00000080: 8a26 893d f179 c23d f96a db3e 589c 533e
00000090: 3ed4 5b3d bbea a53d 120e 093e 4f02 493e
000000a0: d322 873e 58d2 4d3e 26f7 0b3e ad04 343d
000000b0: 2000 903d 609e af3d 63bc 963d cab4 673e
000000c0: 22a8 1f3e 7255 503e 5bbf c53d 6e05 f33d
000000d0: f7c0 a63d c43e 183e 5ee5 bd3d 65dc 203d
000000e0: 213d 173e 0ffb 123e 3e19 703d e624 dc3d
000000f0: 9a2a 393e 99f7 6d3d c7ef f13d 5b72 c33d
00000100: 3d1d 2b3e 76c8 4c3e 6f14 8f3e 1ad9 973d
00000110: 325e 343e faa6 603e cfff b53e 0188 5b3e
00000120: c37c cb3d d3d6 363e d1eb 043e d1c2 b03d
00000130: 4972 e13d 280f a13d 5fa1 0a3e 4fea 733c
00000140: 3022 5d3c c019 be3d 5098 d83d 18f1 113d
00000150: fc8d 153c 438f 8d3d 1763 be3d f8dc 5c3d
00000160: c15d 3c3e 1594 ba3c ddbb 853d 5e84 7d3e
00000170: b3f7 a33d 0eae a43d 92ba f83d 44d7 783e
00000180: fd04 4f3e f968 123e 71ae 943d 59fb c93d
00000190: ea9d 873d b646 c63c d626 cc3d 2b7d df3d
000001a0: 91bb 9e3e febb 0b3e 7f33 ea3d 98bb fd3d
000001b0: c9a5 b63e 45ab 4f3e bb63 323e de24 4b3d
000001c0: 6c29 983e 6a57 673d 1968 c73d 0e76 4d3e
000001d0: 4d42 763e f663 993d 2df2 bb3d f3fa bd3d
000001e0: 1549 253e 975b 393e 9101 543e dd1d 993d
000001f0: 16fc 0d3e f609 273d 7257 3a3d 7690 ce3e

layers.6.weight f4 [1, 128]
-0.17180668 0.098291405 0.07145819 0.2732427 0.19059063 -0.107543014 -0.27169403 -0.25638935
0.06598062 -0.22031872 0.32690707 0.055667974 0.48345047 -0.16183104 0.055164814 -0.34878016
-0.10651246 0.03551078 0.0718071 0.13747853 0.09504969 -0.07141057 0.246296 0.03782105
-0.07167466 0.40105727 0.6665199 0.06322448 0.07526786 0.057499588 0.11912963 -0.19865961
-0.16275313 0.41667223 0.058171656 0.10113994 0.073101975 -0.14953865 -0.15440689 0.24765112
0.06981942 0.05608643 0.10148612 -0.74544907 -0.31095666 0.5352328 -0.23137368 0.07432876
-0.13336368 0.1051446 -0.77207303 0.04246855 0.23454131 0.1154931 0.10959538 -0.4966164
0.034626745 0.08179154 0.5485289 0.6073693 -0.08945315 -0.67056817 0.07135949 0.049626693
-0.11412569 0.10068528 0.102972426 -0.27902782 0.04930641 0.10502698 0.110513695 -0.1855856
-0.11943112 0.06438904 0.0863819 0.15782724 0.046433356 0.15948036 -0.07982067 0.00031287957
0.006189552 -0.23624772 -0.042021967 -0.017490346 -0.0008240845 -0.066468924 0.6375417 -0.07881928
-0.08951212 -0.0016637336 -0.39841616 0.1617313 0.40596673 -0.05353693 -0.7594226 0.18742129
-0.1796093 -0.24433795 0.07620244 -0.20006564 -0.19898576 8.239266e-05 -0.18733658 0.057791676
-0.3736436 0.042787164 0.062528335 0.087501615 -0.107764676 0.07617444 0.022147063 -0.23042016
-0.16577657 -1.6386262 0.049960017 -0.12180659 0.078095496 -0.08402536 -0.17605375 -1.3922906
0.1612924 -0.11151452 -0.09566051 -0.2634539 -0.15337233 -0.309828 0.41100934 0.17000753
00000000: 17ee 2fbe 014d c93d ac58 923d 78e6 8b3e
00000010: 312a 433e 833f dcbd 7b1b 8bbe 7745 83be
00000020: d920 873d 3b9b 61be 5d60 a73e 1a04 643d
00000030: d286 f73e 09b7 25be 80f4 613d 5093 b2be
00000040: 3423 dabd c073 113d 9a0f 933d 2cc7 0c3e
00000050: 69a9 c23d b43f 92bd 0535 7c3e 3fea 1a3d
00000060: 2aca 92bd 6157 cd3e 0ca1 2a3f d67b 813d
00000070: 0926 9a3d b084 6b3d 3cfa f33d 6d6d 4bbe
00000080: c2a8 26be 1056 d53e 6745 6e3d 7522 cf3d
00000090: 7db6 953d a920 19be d71c 1ebe 4198 7d3e
000000a0: 7cfd 8e3d e2ba 653d f4d7 cf3d c0d5 3ebf
000000b0: b635 9fbe 0405 093f 39ed 6cbe ad39 983d
000000c0: 7d90 08be 0d56 d73d 94a6 45bf 81f3 2d3d
000000d0: 992b 703e a587 ec3d 8b73 e03d 8144 febe
000000e0: c6d4 0d3d 5382 a73d 646c 0c3f 8e7c 1b3f
000000f0: 3733 b7bd 5baa 2bbf ed24 923d 5c45 4b3d
00000100: bbba e9bd 1634 ce3d 35e3 d23d bcdc 8ebe
00000110: 85f5 493d 6318 d73d 0155 e23d 270a 3ebe
00000120: 4e98 f4bd 67de 833d fee8 b03d 779d 213e
00000130: e730 3e3d d24e 233e 0579 a3bd fc09 a439
00000140: bad1 ca3b ecea 71be 3a1f 2cbd ea47 8fbc
00000150: 6007 58ba dc20 88bd ef35 233f 016c a1bd
00000160: 2152 b7bd a311 daba 34fd cbbe e49c 253e
00000170: dfda cf3e 8a49 5bbd 8569 42bf 5eeb 3f3e
00000180: 80eb 37be ba33 7abe 0610 9c3d 02de 4cbe
00000190: ecc2 4bbe 39ca ac38 29d5 3fbe f7b6 6c3d
000001a0: 374e bfbe 9841 2f3d db0e 803d 0c34 b33d
000001b0: bab3 dcbd 5801 9c3d c26d b53c 43f3 6bbe
000001c0: 55c1 29be 81be d1bf e0a2 4c3d bc75 f9bd
000001d0: 88f0 9f3d 7d15 acbd 6f47 34be 9436 b2bf
000001e0: d629 253e ba61 e4bd a8e9 c3bd 6ee3 86be
000001f0: a30d 1dbe c7a1 9ebe d16f d23e 7416 2e3e
