results/checkpoint_0_critic_target.pt (torch_old, 28326 bytes, 13 tensors)

layers.0.weight f4 [64, 24]
-0.16803819 -0.31652883 -0.033992764 0.08709567 -0.22685947 0.106985435 0.040265255 0.08474458
-0.06467739 -0.08805074 0.027174225 -0.14610377 -0.26930416 0.32926482 -0.034740996 -0.0883766
-0.04069224 -0.30269277 -0.050395325 0.027061157 0.09043399 0.567392 0.015268862 0.0718726
0.0014186666 -0.14613053 -0.03550281 0.027000826 0.13338976 0.22266707 0.03394652 -0.023734687
-0.014955839 -0.040139325 -0.034819096 0.0026504095 -0.041039523 0.39156646 0.032204285 -0.016502067
-0.00108104 0.10616102 0.048535325 -0.01716768 -0.14340886 -0.6673652 -0.049208373 -0.0012642255
-0.050414708 0.039708566 -0.012518683 0.028187012 -0.011443889 0.5221768 0.0070462413 -0.03871622
0.051672626 0.2762602 0.10725917 -0.054588005 0.09356035 0.14498039 -0.114239514 0.08634483
-0.0617421 0.38489258 -0.039822206 0.19955724 -0.01091274 -0.9242168 0.036156647 0.030445078
0.032734394 -0.14102429 -0.022791812 0.029667392 0.0945788 -0.00992726 -0.012840821 0.119660534
-0.23367971 0.07340797 -0.023965241 0.33712453 0.11876949 -0.3540294 0.0119326 0.27850476
-0.34349886 0.23551534 -0.062426742 -0.10246858 0.30841023 -0.10708932 0.03360199 -0.24080403
-0.03933257 0.25691077 0.029034644 0.15014903 0.04978308 -0.26836193 -0.023528691 -0.019285306
-0.21626306 0.18459165 -0.008445533 0.1526263 -0.17053968 0.004920707 -0.02429596 0.17021689
-0.08410732 0.072335534 -0.04266744 -0.3597282 0.09049044 -0.5620639 0.007950096 -0.34527496
0.12541546 -0.055199806 -0.055420134 0.08479756 0.23938332 -0.4028909 0.07298498 -0.015969794
-0.03793374 -0.13119 0.015396056 0.019489167 0.11231529 -0.42304292 -0.012814146 -0.071698226
0.070518695 -0.20355174 -0.070495054 -0.07703781 -0.22910587 -0.8232044 0.047030825 0.032457333
-0.1127079 0.38885427 -0.039421935 0.055012476 -0.02353074 0.3187051 0.01547933 -0.051300455
0.00605866 0.6108788 0.037080616 0.19622767 0.052028015 0.31955224 -0.07033587 0.074681915
-0.1123449 0.53320456 -0.022455186 -0.14621131 0.10449912 0.545757 -0.034092855 -0.16277172
-0.124392785 0.15129338 -0.07007355 0.21549314 -0.058805715 -0.07121037 0.099745095 0.17340821
-0.038931295 0.35298645 0.035646886 0.15517186 0.1841129 -0.075278014 -0.0053817327 0.39134425
-0.23753452 0.34031507 0.014249416 0.3753514 -0.10608213 0.044278167 0.0005653608 0.55010635
-0.036626738 0.4371521 -0.06748546 0.15453136 0.1022266 -0.19154258 0.03210056 -0.05219897
0.13124198 0.8379872 -0.033370055 0.47480807 0.17879786 -0.05724389 -0.0387546 0.37697858
0.36026394 1.1207272 0.056308173 0.07846123 0.21963105 0.011814127 -0.13214485 0.21012786
-0.09241403 -0.10930905 -0.023645744 -0.020663453 0.18824357 0.017534416 0.024576027 0.027578011
0.06105517 -0.09540772 -0.0142218275 -0.062145215 0.06620899 0.098387085 0.005888932 0.055702113
0.28299648 0.06863907 -0.060032744 -0.043296836 -0.6216278 0.030595945 0.06188309 0.03203066
0.03985438 -0.14144328 0.046737313 0.13405284 0.041534815 -0.07397551 0.0013665523 0.16683091
0.20698608 -0.16062316 -0.13961968 -0.037955996 -0.27139387 -0.32833803 -0.06344463 0.099875696
00000000: 3412 2cbe 1110 a2be ff3b 0bbd 375f b23d
00000010: d94d 68be 2e1b db3d 2eed 243d 918e ad3d
00000020: 9475 84bd f253 b4bd 7b9c de3c 3a9c 15be
00000030: 3ce2 89be 6695 a83e 934c 0ebd cafe b4bd
00000040: e8ac 26bd 8cfa 9abe 546b 4ebd 5caf dd3c
00000050: 7535 b93d 9a40 113f 402a 7a3c f131 933d
00000060: 8df2 b93a 3ea3 15be 656b 11bd d630 dd3c
00000070: 5397 083e d602 643e 820b 0b3d 3f6f c2bc
00000080: 5609 75bc 2269 24bd 789e 0ebd 7eb2 2d3b
00000090: 0f19 28bd 667b c83e a4e8 033d 582f 87bc
000000a0: afb1 8dba f36a d93d facc 463d 3ca3 8cbc
000000b0: c6d9 12be 72d8 2abf b88e 49bd 5eb4 a5ba
000000c0: a77f 4ebd 73a5 223d 2a1b 4dbc 73e8 e63c
000000d0: 267f 3bbc 61ad 053f 28e4 e63b e694 1ebd
000000e0: ada6 533d fa71 8d3e b2aa db3d ac97 5fbd
000000f0: 929c bf3d bd75 143e 68f6 e9bd 8fd5 b03d
00000100: 49e5 7cbd a410 c53e 9c1c 23bd bc58 4c3e
00000110: 59cb 32bc 7999 6cbf fe18 143d f567 f93c
00000120: 8014 063d ac68 10be e5b5 babc 0809 f33c
00000130: 88b2 c13d f2a5 22bc 4f62 52bc 9510 f53d
00000140: bc49 6fbe eb56 963d c152 c4bc 969b ac3e
00000150: 6b3d f33d 5743 b5be f480 433c 2d98 8e3e
00000160: 15df afbe ef2a 713e 2fb3 7fbd 0cdb d1bd
00000170: f2e7 9d3e a551 dbbd 3ea2 093d 5595 76be
00000180: 301b 21bd cf89 833e 10da ed3c abc0 193e
00000190: 58e9 4b3d bc66 89be 3ebf c0bc 38fc 9dbc
000001a0: 1074 5dbe 9805 3d3e 225f 0abc 124a 1c3e
000001b0: f4a1 2ebe e23d a13b 5208 c7bc 564d 2e3e
000001c0: 7540 acbd a724 943d 0ec4 2ebd 4b2e b8be
000001d0: 0d53 b93d 6be3 0fbf 1f41 023c e1c7 b0be
000001e0: e96c 003e 3119 62bd 3900 63bd 58aa ad3d
000001f0: e720 753e b747 cebe 2679 953d 16d3 82bc
00000200: 6960 1bbd ac56 06be bd3f 7c3c bfa7 9f3c
00000210: 8f05 e63d 1599 d8be 6cf2 51bc 85d6 92bd
00000220: 1b6c 903d de6f 50be b65f 90bd 00c6 9dbd
00000230: bb9a 6abe 86bd 52bf 65a3 403d fbf1 043d
00000240: 66d3 e6bd e817 c73e e578 21bd c354 613d
00000250: 8ac3 c0bc 512d a33e 049d 7d3c 6d20 52bd
00000260: b987 c63b 8e62 1c3f d8e1 173d e8ef 483e
00000270: 541b 553d 5a9c a33e 410c 90bd d5f2 983d
00000280: 1515 e6bd 1880 083f f0f3 b7bc 6bb8 15be
00000290: a203 d63d bbb6 0b3f f3a4 0bbd a1ad 26be
000002a0: a5c1 febd a7ec 1a3e b982 8fbd 3caa 5c3e
000002b0: 43de 70bd bed6 91bd 2847 cc3d ec91 313e
000002c0: 6c76 1fbd a4ba b43e 7802 123d 5fe5 1e3e
000002d0: 1888 3c3e 5c2b 9abd 3f59 b0bb 465e c83e
000002e0: 403c 73be c73d ae3e 6276 693c 0f2e c03e
000002f0: 9641 d9bd 065d 353d b934 143a c5d3 0c3f
00000300: eb05 16bd 66d2 df3e d135 8abd 783d 1e3e
00000310: 2e5c d13d bd23 44be e07b 033d 96ce 55bd
00000320: 4c64 063e 5486 563f 0aaf 08bd 0b1a f33e
00000330: c916 373e 9278 6abd 25bd 1ebd 5603 c13e
00000340: 8474 b83e fd73 8f3f 66a3 663d 48b0 a03d
00000350: f6e6 603e 0a90 413c fb50 07be c22b 573e
00000360: 9143 bdbd 6cdd dfbd b8b4 c1bc 6746 a9bc
00000370: ecc2 403e 56a4 8f3c aa53 c93c 48eb e13c
00000380: fc14 7a3d 1f65 c3bd ab02 69bc fb8b 7ebd
00000390: 9498 873d 2b7f c93d f1f7 c03b e627 643d
000003a0: eae4 903e a492 8c3d e5e4 75bd 0658 31bd
000003b0: 0023 1fbf 59a4 fa3c 1f79 7d3d 9532 033d
000003c0: 593e 233d 82d6 10be a06f 3f3d 2645 093e
000003d0: 6920 2a3d 7980 97bd e31d b33a b9d5 2a3e
000003e0: 29f4 533e 667a 24be 76f8 0ebe bf77 1bbd
000003f0: 23f4 8abe ec1b a8be 42ef 81bd a18b cc3d

layers.0.bias f4 [64]
0.19624957 -0.085839674 -0.16851002 -0.08207002 0.112699956 0.105061725 0.16433376 -0.09375237
0.021159103 0.19505405 0.1556888 0.14832257 0.009505943 0.18906239 -0.18487614 -0.12621236
0.08041424 0.053016204 -0.14894168 0.104667686 -0.13874127 -0.12895688 0.1215831 0.19430524
-0.17980553 0.03692277 -0.013983001 -0.20192465 -0.18817581 0.1412961 -0.095393196 0.11629569
-0.08330339 0.09974431 -0.10149744 0.14531863 0.03852648 0.18885385 0.013336537 -0.15579677
0.002540666 -0.12963353 0.18377414 -0.17308399 0.15139547 0.11668482 -0.04276821 -0.13294661
0.081294686 -0.06462334 0.13593991 0.1210157 -0.18734805 -0.03409022 -0.01506169 0.10918451
-0.0924553 -0.09310168 0.07377003 -0.082895786 -0.1894028 0.022987448 0.09645962 -0.017397359
00000000: a6f5 483e b6cc afbd e48d 2cbe 5414 a8bd
00000010: 3ccf e63d 9a2a d73d 1c47 283e 3e01 c0bd
00000020: db55 ad3c 40bc 473e e36c 1f3e dfe1 173e
00000030: d1be 1b3c 9299 413e 2c50 3dbe d03d 01be
00000040: 39b0 a43d 8527 593d 2b84 18be 035c d63d
00000050: 3112 0ebe 460d 04be 8f00 f93d f4f7 463e
00000060: f11e 38be 553c 173d f518 65bc 56c5 4ebe
00000070: 29b1 40be edaf 103e 825d c3bd 6f2c ee3d
00000080: f89a aabd bf46 cc3d e4dd cfbd 68ce 143e
00000090: f1cd 1d3d e762 413e 7e81 5a3c 3089 1fbe
000000a0: 4d81 263b a7be 04be 4a2f 3c3e ee3c 31be
000000b0: 6a07 1b3e 73f8 ee3d b82d 2fbd 2823 08be
000000c0: d47d a63d 3e59 84bd d533 0b3e 14d7 f73d
000000d0: 2bd8 3fbe 30a2 0bbd 4ec5 76bc 219c df3d
000000e0: 3459 bdbd 18ac bebd be14 973d 44c5 a9bd
000000f0: cff2 41be 2c50 bc3c 9f8c c53d e884 8ebc

layers.1.weight f4 [64]
0.4457353 0.6068773 0.74230254 0.5778563 0.58680356 0.36675233 0.4540968 0.25124782
0.24328227 0.7735491 0.27360585 0.35351366 0.8610664 0.28468812 0.4897447 0.42667452
0.36331493 0.36555845 0.3778227 0.42668784 0.31000727 0.5075577 0.87610817 0.59027743
0.44899192 0.3512415 0.381164 0.4092594 0.3223124 0.47365642 0.30679125 0.62261397
0.31796592 0.8748136 0.35931066 0.3250812 0.29799175 0.497607 0.46563795 0.3021273
0.2550308 0.35738134 0.35777435 1.2136225 0.5499176 -0.15663397 0.3797711 0.6648114
0.36096337 0.4213311 0.3870098 0.43812174 0.3447502 0.61856973 0.43239903 0.91255826
0.10047589 0.36613774 0.5839877 0.36510286 0.87366617 1.0088357 0.574753 0.34302074
00000000: 6b37 e43e 505c 1b3f 8a07 3e3f 64ee 133f
00000010: c238 163f f6c6 bb3e 607f e83e 8ea3 803e
00000020: fd1e 793e 5007 463f 1116 8c3e beff b43e
00000030: d96e 5c3f a4c2 913e d1bf fa3e 1575 da3e
00000040: 6a04 ba3e 7a2a bb3e fa71 c13e d476 da3e
00000050: 46b9 9e3e 4def 013f a048 603f 6c1c 173f
00000060: 45e2 e53e edd5 b33e ee27 c33e 738a d13e
00000070: 2206 a53e 1883 f23e be13 9d3e a163 1f3f
00000080: 6ecc a23e c9f3 5f3f 91f7 b73e 0b71 a63e
00000090: 6092 983e 58c6 fe3e 1968 ee3e 6eb0 9a3e
000000a0: 6693 823e b0fa b63e 332e b73e fb57 9b3f
000000b0: 66c7 0c3f a864 20be 5c71 c23e 1431 2a3f
000000c0: 31d0 b83e b6b8 d73e 2626 c63e 7e51 e03e
000000d0: 1983 b03e 965a 1e3f 6863 dd3e 6b9d 693f
000000e0: 4ec6 cd3d 6876 bb3e 3880 153f c3ee ba3e
000000f0: 96a8 5f3f 8721 813f 0323 133f 6aa0 af3e

layers.1.bias f4 [64]
-0.20664588 0.39792338 -0.16969211 -0.26765063 -0.23906657 -0.46037728 -0.075704046 0.059089925
-0.1658337 -0.77644855 -0.27151898 -0.23661646 0.21607561 0.02291609 -0.29447696 -0.44885868
-0.44669193 -0.23237783 -0.2793382 -0.30938503 -0.09608698 -0.007617836 0.0007211477 -0.66633606
-0.36839122 -0.35518765 -0.29692912 -0.40525937 -0.20869564 -0.7856215 -0.16858308 -0.4554774
-0.3062054 -0.21849784 -0.46446732 -0.1201147 -0.16168097 -0.3660529 0.09208462 -0.14076132
0.07449362 -0.41589475 -0.2648468 -0.26765692 -0.03161297 0.15418853 -0.24887249 -0.31517774
-0.39230543 -0.31894782 0.11603876 -0.3398951 -0.063530795 -0.4140371 0.25326055 -0.7913283
-0.015489178 -0.04004141 -0.410742 -0.38110033 0.07665034 0.3429774 -0.27509633 -0.40068382
00000000: fa9a 53be 9dbc cb3e c5c3 2dbe 8109 89be
00000010: decd 74be 92b6 ebbe b90a 9bbd 4708 723d
00000020: 4fd0 29be 55c5 46bf 8904 8bbe 964b 72be
00000030: ed42 5d3e 86ba bb3c afc5 96be ced0 e5be
00000040: ceb4 e4be 74f4 6dbe 6b05 8fbe b767 9ebe
00000050: 40c9 c4bd 0a9f f9bb 670b 3d3a 0095 2abf
00000060: c69d bcbe 28db b5be 1807 98be 287e cfbe
00000070: 4fb4 55be 7e1e 49bf 0ba1 2cbe 5534 e9be
00000080: f4c6 9cbe e6bd 5fbe a9ce edbe b2fe f5bd
00000090: b28f 25be 496b bbbe dc96 bc3d bc23 10be
000000a0: 1c90 983d 28f0 d4be 009a 87be 540a 89be
000000b0: 9a7c 01bd 99e3 1d3e 6ed8 7ebe fa5e a1be
000000c0: 42dc c8be 214d a3be bba5 ed3d bb06 aebe
000000d0: 6f1c 82bd acfc d3be 5eab 813e 7e94 4abf
000000e0: 52c6 7dbc 7602 24bd c74c d2be 951f c3be
000000f0: dafa 9c3d bc9a af3e 6dd9 8cbe 6e26 cdbe

layers.1.running_mean f4 [64]
5.02528 -0.13406353 -0.813381 2.388892 0.04369382 -5.1095924 3.753781 2.3028011
-5.630076 -1.2399459 -5.3755746 -2.4144547 0.88506836 0.25858516 -0.1635483 -5.323166
-4.974351 -1.3188124 4.420947 -0.7706921 -0.9356324 3.539305 1.1884018 1.0914688
8.091938 -3.0421762 2.1723402 -8.600331 -1.7042342 -0.14124203 6.7887273 0.3818004
2.5922565 0.91739815 -1.8441547 0.36519477 3.1455033 0.61732775 2.254189 0.53346056
2.8538985 4.8392215 -0.93335086 -0.047310356 2.9397566 -1.411123 -8.197338 0.2206333
1.6711084 2.1723053 1.1754854 -1.7913015 3.6265385 -5.4880667 0.032046653 -2.7221615
-4.9000535 0.03206476 0.70958644 -1.527596 -0.23897278 0.12730923 0.8297609 -1.1816775
00000000: 18cf a040 f347 09be bd39 50bf 9be3 1840
00000010: 4af8 323d c881 a3c0 f33d 7040 1861 1340
00000020: 9529 b4c0 8cb6 9ebf b504 acc0 6d86 1ac0
00000030: d793 623f 4665 843e 3579 27be 6057 aac0
00000040: e22d 9fc0 d8ce a8bf 6678 8d40 144c 45bf
00000050: 9b85 6fbf f983 6240 8d1d 983f 40b5 8b3f
00000060: 9478 0141 04b3 42c0 9f07 0b40 f59a 09c1
00000070: 5924 dabf c0a1 10be 413d d940 587b c33e
00000080: 88e7 2540 9bda 6a3f 430d ecbf cffa ba3e
00000090: ed4f 4940 3109 1e3f a244 1040 df90 083f
000000a0: 46a6 3640 e7da 9a40 15f0 6ebf 81c8 41bd
000000b0: f924 3c40 ae9f b4bf 4c28 03c1 b2ed 613e
000000c0: e1e6 d53f 0d07 0b40 4e76 963f 5e49 e5bf
000000d0: 3519 6840 3e9e afc0 5a43 033d e537 2ec0
000000e0: 3dcd 9cc0 5656 033d 75a7 353f 4488 c3bf
000000f0: 48b5 74be 5a5d 023e 366b 543f 3541 97bf

layers.1.running_var f4 [64]
14.261453 0.7967334 2.7646873 15.1545925 9.282037 11.394282 16.38831 35.156834
47.379036 4.83406 16.58152 33.71596 3.9707751 127.65055 1.7340729 21.243774
3.2839756 23.109995 19.095467 10.385295 11.9573965 21.800083 6.1814957 37.559063
26.482964 10.70544 10.813052 16.632734 35.172047 1.116216 11.447065 38.25771
34.122036 2.594815 7.6369543 11.9537115 32.32568 1.349073 6.4706874 8.696639
6.478481 34.693047 21.522404 18.017265 18.367346 6.309344 25.963911 4.2717257
51.97145 16.084217 27.53131 19.198586 30.817793 12.368219 1.0551988 5.602131
27.448257 16.782627 26.496569 7.1982913 3.705003 3.677197 11.408928 10.542544
00000000: e92e 6441 b8f6 4b3f a3f0 3040 3679 7241
00000010: 3983 1441 fb4e 3641 421b 8341 99a0 0c42
00000020: 2284 3d42 9fb0 9a40 f4a6 8441 25dd 0642
00000030: 2e21 7e40 154d ff42 1af6 dd3f 40f3 a941
00000040: a82c 5240 45e1 b841 84c3 9841 2b2a 2641
00000050: 7f51 3f41 9266 ae41 d0ce c540 7b3c 1642
00000060: 1cdd d341 7b49 2b41 4302 2d41 d70f 8541
00000070: 2db0 0c42 2ae0 8e3f 2e27 3741 e507 1942
00000080: f77c 0842 7311 2640 ee61 f440 6742 3f41
00000090: 7f4d 0142 6dae ac3f df0f cf40 6f25 0b41
000000a0: b74f cf40 aec5 0a42 e22d ac41 5c23 9041
000000b0: 53f0 9241 25e6 c940 17b6 cf41 fab1 8840
000000c0: c4e2 4f42 7aac 8041 1f40 dc41 b496 9941
000000d0: d78a f641 3ae4 4541 c110 873f a844 b340
000000e0: 0896 db41 d242 8641 f9f8 d341 6758 e640
000000f0: c51e 6d40 3257 6b40 f88a 3641 43ae 2841

layers.3.weight f4 [64, 66]
-0.16476513 0.022597412 0.1379727 -0.0887981 -0.1205195 0.12647443 0.21302365 0.12371285
-0.40946504 0.06004839 0.05070701 -0.06866954 -0.14618273 0.22727154 -0.1851545 -0.10604003
-0.092738986 -0.15378362 0.007939298 0.10631209 -0.09440912 0.14835827 -0.16901019 0.14453332
-0.036640476 -0.052777745 -0.19316462 -0.10416054 -0.008655683 0.020836502 0.09722777 0.1168503
-0.012473925 -0.09155942 0.023086973 0.005893356 -0.16977748 -0.12764716 -0.015105912 0.065603994
-0.1849242 -0.17163809 0.09096438 -0.14377221 0.33699492 0.20228523 0.06245561 -0.21653044
-0.012048511 0.022644993 0.0008739692 -0.30672544 -0.086224325 0.0469815 -0.22738215 0.068982095
-0.083055876 -0.04689098 -0.14069559 -0.12163536 0.27256024 0.0018938938 -0.17164314 -0.39470634
-0.017372271 -0.030709056 0.21064834 -0.3030087 -0.0017142484 0.008801185 -0.03973916 -0.31768528
0.07158557 0.13300331 -0.0677841 -0.08460041 0.04663073 -0.023952173 -0.004410914 -0.57442117
-0.07272675 0.1139011 0.0707334 -0.030297229 0.09262382 0.030320967 0.06353354 0.15022735
0.22962108 0.19390222 -0.06990282 -0.061430965 0.012551795 0.11064797 0.16508499 -0.23807755
-0.021280916 -0.063947186 0.063594066 0.11910353 -0.2712536 0.23473819 -0.024171514 -0.008014534
0.11947747 0.061615065 0.007820315 -0.021624332 0.09684989 0.269721 0.12211352 -0.061069436
0.07000362 0.13861515 0.019612169 0.10397522 0.043541178 0.3497487 -0.11161813 0.12573859
-0.22464715 0.07828699 0.20649984 -0.20697126 0.005712431 0.2626846 -0.24755453 0.13752042
-0.07406144 -0.08254522 0.01027515 -0.032482907 0.049333394 0.13203034 0.058623895 -0.12137513
0.0005662001 0.30982527 -0.13521732 -0.15642822 -0.10839466 0.44399986 0.05496836 -0.004128479
0.18313234 -0.2651414 0.14034314 -0.027048104 0.07860921 0.0015653553 -0.19295079 0.054138444
0.004674455 0.0033836612 -0.086645804 -0.16379145 -0.012671661 0.09674233 0.10385891 0.19429478
-0.25242007 0.19269118 0.08116899 -0.30610386 0.2761395 -0.03709671 -0.05569505 0.09049176
0.088877805 -0.061391357 -0.22987963 -0.09593804 0.17453708 0.08088206 -0.0286452 -0.25246948
-0.18194412 -0.02115183 0.036288023 -0.09240858 0.11319442 -0.0146964155 0.12911583 0.10871148
0.10455775 0.01272851 0.24208584 0.043257482 0.039992407 0.17973186 -0.0026352517 0.41232744
-0.02149148 -0.05697529 -0.040097147 0.06584254 -0.040223222 0.009751699 -0.16140151 -0.07693827
-0.62814707 -0.031919993 0.010360929 -0.28903648 -0.10306063 -0.12128336 0.0465469 0.012651611
-0.04215243 -0.07133851 -0.09835964 -0.15060179 -0.33433017 0.1045346 -0.014500286 0.18230727
0.023684401 0.21962786 -0.03036072 -0.09063948 -0.03306073 0.15016302 0.042120636 0.05379026
-0.08183134 -0.077732004 -0.062254105 -0.072960384 -0.066165715 -0.18315917 -0.261227 0.046903234
0.0115165645 0.018213492 0.020497289 0.08173625 -0.25553313 0.18903507 -0.023286229 0.016717004
-0.17500617 0.02266667 0.14874062 -0.018895058 -0.06916802 0.045906775 0.2055312 -0.1202973
0.07842625 -0.020590452 0.037345275 -0.1119518 -0.34649366 -0.22562242 0.08507522 -0.09841233
00000000: 31b8 28be 351e b93c b748 0d3e c7db b5bd
00000010: edd2 f6bd 8382 013e df22 5a3e 2a5d fd3d
00000020: 67a5 d1be 4df5 753d 27b2 4f3d 9ea2 8cbd
00000030: edb0 15be dfb9 683e 2499 3dbe 842b d9bd
00000040: f0ed bdbd 7479 1dbe d413 023c 27ba d93d
00000050: 9259 c1bd 3beb 173e 0211 2dbe 8b00 143e
00000060: 5314 16bd 7a2d 58bd f2cc 45be 1f52 d5bd
00000070: 91d0 0dbc 50b1 aa3c 5a1f c73d 364f ef3d
00000080: 6f5f 4cbc 8183 bbbd e420 bd3c 0e1d c13b
00000090: 26da 2dbe f0b5 02be ca7e 77bc 635b 863d
000000a0: c55c 3dbe e5c1 2fbe 884b ba3d 0639 13be
000000b0: 998a ac3e dc23 4f3e 74d1 7f3d 28ba 5dbe
000000c0: 1e67 45bc fe81 b93c 151b 653a 1e0b 9dbe
000000d0: 6196 b0bd ac6f 403d ded6 68be 7c46 8d3d
000000e0: 3319 aabd c210 40bd 8112 10be f61b f9bd
000000f0: 048d 8b3e 883c f83a 38c3 2fbe f316 cabe
00000100: 4b50 8ebc 8f91 fbbc 33b4 573e f523 9bbe
00000110: a2b0 e0ba d832 103c 88c5 22bd a5a7 a2be
00000120: 759b 923d 0532 083e 64d2 8abd fb42 adbd
00000130: ddff 3e3d 5937 c4bc 6e89 90bb 440d 13bf
00000140: c3f1 94bd fb44 e93d acdc 903d e531 f8bc
00000150: 8fb1 bd3d ad63 f83c df1d 823d 33d5 193e
00000160: ca21 6b3e 4e8e 463e 3629 8fbd 099f 7bbd
00000170: 0ba6 4d3c 679b e23d 0a0c 293e 9aca 73be
00000180: 5155 aebc bef6 82bd 9b3d 823d 8dec f33d
00000190: c0e1 8abe 355f 703e 5703 c6bc 644f 03bc
000001a0: 9bb0 f43d 1460 7c3d c720 003c 8325 b1bc
000001b0: 3c59 c63d df18 8a3e a716 fa3d f223 7abd
000001c0: 0f5e 8f3d 21f1 0d3e b3a9 a03c f6f0 d43d
000001d0: 3c58 323d 4312 b33e 0c98 e4bd 9ec1 003e
000001e0: e709 66be ee54 a03d b274 533e 46f0 53be
000001f0: 582f bb3b 997e 863e ef7e 7dbe 27d2 0c3e
00000200: 86ad 97bd 780d a9bd 1a59 283c cc0c 05bd
00000210: d011 4a3d f632 073e 9c1f 703d 8693 f8bd
00000220: 0c6d 143a 6ba1 9e3e 6976 0abe b82e 20be
00000230: 05fe ddbd f353 e33e 8126 613d 3148 87bb
00000240: 0b87 3b3e 9dc0 87be 1db6 0f3e fc93 ddbc
00000250: defd a03d 9c2c cd3a e494 45be 46c0 5d3d
00000260: 2c2c 993b 6ac0 5d3b 5b73 b1bd f2b8 27be
00000270: cc9c 4fbc d820 c63d fbb3 d43d 36f5 463e
00000280: 343d 81be d650 453e ed3b a63d a5b9 9cbe
00000290: 2862 8d3e b8f2 17bd 7e20 64bd be53 b93d
000002a0: 9105 b63d 8175 7bbd 9165 6bbe 2a7b c4bd
000002b0: d9b9 323e 7ea5 a53d 57a9 eabc ae43 81be
000002c0: 8f4f 3abe 9a46 adbc c0a2 143d b640 bdbd
000002d0: 7ad2 e73d 3cc9 70bc f136 043e 20a4 de3d
000002e0: 6022 d63d 3e8b 503c 5ae5 773e c22e 313d
000002f0: 14cf 233d a10b 383e 30b4 2cbb 951c d33e
00000300: e60e b0bc ec5e 69bd e83c 24bd 74d8 863d
00000310: 1bc1 24bd 97c5 1f3c 7046 25be d091 9dbd
00000320: 3fce 20bf 8abe 02bd e3c0 293c 97fc 93be
00000330: 7411 d3bd 6963 f8bd f6a7 3e3d b448 4f3c
00000340: 07a8 2cbd ed19 92bd c770 c9bd 5b37 1abe
00000350: 532d abbe 3d16 d63d 9c92 6dbc c2ae 3a3e
00000360: ca05 c23c 20e6 603e 0bb7 f8bc 31a1 b9bd
00000370: b06a 07bd 56c4 193e b086 2c3d 2d53 5c3d
00000380: 3197 a7bd f531 9fbd 29fe 7ebd 416c 95bd
00000390: e481 87bd 148e 3bbe 8cbf 85be 9b1d 403d
000003a0: f9af 3c3c 7634 953c eee9 a73c 5665 a73d
000003b0: 3dd5 82be 6992 413e c3c2 bebc 19f2 883c
000003c0: d134 33be 74af b93c 764f 183e cfc9 9abc
000003d0: f6a7 8dbd be08 3c3d c576 523e 6e5e f6bd
000003e0: f19d a03d 4fad a8bc 5cf7 183d fc46 e5bd
000003f0: 9e67 b1be 9009 67be eb3b ae3d 678c c9bd

layers.3.bias f4 [64]
-0.08109672 0.085009605 0.064066805 0.10580587 -0.10184064 0.08254023 -0.021467641 -0.031283595
-0.05644564 0.034127694 0.090582654 -0.13218364 0.06125573 -0.0871762 -0.06114732 0.08142336
0.023552936 0.10932512 0.046960425 -0.0021083038 0.05596519 0.016220372 0.06352381 0.105366684
-0.0176563 0.11285706 0.072140284 0.10441616 -0.11394253 0.07440133 -0.12342215 -0.109649226
-0.09795407 0.0696273 -0.0498042 0.0498163 -0.06167677 0.07892554 0.06341797 -0.10935465
0.026090534 0.106049724 -0.07995754 0.111681335 -0.12435566 -0.026678117 0.057500724 -0.012228683
0.08783177 0.10700071 -0.060825594 -0.06353832 -0.020446176 0.11408976 -0.11983352 -0.088007286
-0.02979207 -0.082221486 0.048329912 0.06246874 0.1164015 -0.1075538 0.062194288 0.01987267
00000000: 0a16 a6bd 8419 ae3d 7535 833d bfb0 d83d
00000010: d391 d0bd da0a a93d e8dc afbc 3a23 00bd
00000020: 8b33 67bd 7bc9 0b3d 6683 b93d 265b 07be
00000030: 4ae7 7a3d 6f89 b2bd 9d75 7abd 4ac1 a63d
00000040: 16f2 c03c d9e5 df3d 9359 403d 782b 0abb
00000050: c13b 653d 96e0 843c c518 823d 7dca d73d
00000060: f2a3 90bc 9a21 e73d 49be 933d 24d8 d53d
00000070: b35a e9bd b95f 983d c1c4 fcbd c68f e0bd
00000080: 259c c8bd c298 8e3d 7dff 4bbd 2d0c 4c3d
00000090: c8a0 7cbd b7a3 a13d 48e1 813d 55f5 dfbd
000000a0: d1bb d53c 9930 d93d c7c0 a3bd 2fb9 e43d
000000b0: 2eae febd 118c dabc e185 6b3d d05a 48bc
000000c0: 25e1 b33d 3023 db3d 4224 79bd 6120 82bd
000000d0: bd7e a7bc e4a7 e93d 476b f5bd 2a3d b4bd
000000e0: 800e f4bc bd63 a8bd 96f5 453d 39df 7f3d
000000f0: e963 ee3d 2b45 dcbd 70bf 7e3d 02cc a23c

layers.4.weight f4 [64]
0.6477213 0.57918423 0.410168 0.8182624 0.22610052 0.45184273 0.6888631 0.41412538
0.24182285 0.40596166 0.5694493 0.36468562 0.41807 0.1862127 0.38420692 0.5980872
0.503751 0.24174744 0.41103587 0.41487744 0.38129306 0.5285494 0.8028151 0.7105956
0.39034304 0.49392965 0.74007654 0.73302126 0.85638744 0.2945919 0.7965803 0.35070044
0.4657149 0.22791944 0.2640345 0.66597223 0.58788615 0.39062393 0.5020756 0.20035143
0.41928843 0.71991503 0.7676138 0.46169603 0.32067177 0.6748421 0.52782416 0.27211118
0.5132849 0.64197284 0.7080959 0.6170685 0.88199824 0.58510655 0.22668537 0.3397778
0.26963475 0.90485597 0.7881548 0.6880995 0.2685855 0.28030595 0.31882894 0.18061744
00000000: 10d1 253f 6b45 143f 8a01 d23e a579 513f
00000010: e586 673e ee57 e73e 5559 303f 3e08 d43e
00000020: 69a0 773e 35da cf3e 6ec7 113f 13b8 ba3e
00000030: 450d d63e 8bae 3e3e c5b6 c43e 3e1c 193f
00000040: d3f5 003f a48c 773e 4b73 d23e d16a d43e
00000050: d838 c33e 034f 073f 4a85 4d3f 98e9 353f
00000060: 0bdb c73e 59e4 fc3e a875 3d3f 48a7 3b3f
00000070: 353c 5b3f c0d4 963e b0ec 4b3f 028f b33e
00000080: 2f72 ee3e b763 693e 882f 873e 287d 2a3f
00000090: b57f 163f dcff c73e 0788 003f ed28 4d3e
000000a0: f9ac d63e 5a4c 383f 5782 443f 6c63 ec3e
000000b0: 172f a43e 74c2 2c3f 7c1f 073f 2852 8b3e
000000c0: a466 033f 5558 243f c645 353f 34f8 1d3f
000000d0: a3ca 613f 8bc9 153f 3620 683e 5bf7 ad3e
000000e0: 910d 8a3e a4a4 673f 83c4 493f 4a27 303f
000000f0: 0a84 893e 4384 8f3e 8c3d a33e c7f3 383e

layers.4.bias f4 [64]
-0.21851096 -0.43529996 -0.4415222 -0.093601584 -0.09971889 -0.3491096 -0.6970703 -0.29454753
-0.19936469 -0.3903368 -0.33750373 -0.21579431 -0.45360607 -0.27200124 -0.0788965 -0.112591654
-0.07569831 -0.4469428 -0.10325566 -0.15477322 -0.19784382 -0.45909327 -0.50463396 -0.36841446
-0.30561 -0.45485657 0.13475733 -0.16878591 -0.06545824 -0.17033014 -0.27659887 -0.0675679
-0.19782288 -0.29907992 -0.20612036 -0.22643358 -0.18292496 0.024410691 -0.29201484 -0.3258645
0.14836268 -0.34625015 -0.048477437 -0.38870174 -0.06996016 -0.23351602 -0.16540049 -0.24148421
-0.08501844 -0.32154885 -0.46634182 -0.060153686 -0.24141496 0.15848404 0.14278223 0.005726431
0.06721119 -0.2038238 -0.0036191333 -0.6052732 -0.15996166 -0.36655086 -0.19099398 -0.24515577
00000000: 56c1 5fbe a3df debe 330f e2be 30b2 bfbd
00000010: 6b39 ccbd 7ebe b2be 3373 32bf efce 96be
00000020: 4226 4cbe 3ada c7be 4acd acbe 2ff9 5cbe
00000030: 0e3f e8be bf43 8bbe 7d94 a1bd 7496 e6bd
00000040: b707 9bbd b0d5 e4be b477 d3bd df7c 1ebe
00000050: 9297 4abe 460e ebbe b12f 01bf d2a0 bcbe
00000060: ea78 9cbe f6e2 e8be d3fd 093e 37d6 2cbe
00000070: f80e 86bd 066b 2ebe 5e9e 8dbe 0a61 8abd
00000080: 1592 4abe 0121 99be 3711 53be 34de 67be
00000090: ae50 3bbe eef8 c73c f882 95be b6d7 a6be
000000a0: 63ec 173e b347 b1be 4790 46bd ea03 c7be
000000b0: 4647 8fbd d31e 6fbe bf5e 29be a347 77be
000000c0: 261e aebd 0da2 a4be 5bc4 eebe b663 76bd
000000d0: 7c35 77be a449 223e 8135 123e c9a4 bb3b
000000e0: 05a6 893d 30b7 50be fb2e 6dbb 2ff3 1abf
000000f0: fdcc 23be 8eac bbbe ed93 43be 1d0a 7bbe

layers.4.running_mean f4 [64]
-0.1921118 0.16824956 0.047706246 -0.2846547 -0.301035 -0.06932225 0.24438775 -0.12742622
0.19501692 0.016983554 0.12909319 -0.52336216 0.1633885 -0.033961285 -0.44181854 -0.26782766
-0.04156182 -0.13196458 -0.0398631 0.1776138 0.5642163 0.29919705 -0.027497806 0.086339526
-0.24651298 -0.21059532 -0.36149183 0.02616684 -0.09584441 -0.18380606 0.18529578 -0.24810784
-0.14815037 0.6528759 -0.4110289 0.018783793 -0.36425313 -0.21640173 0.062104024 -0.0740911
-0.2595993 -0.117992125 -0.27063295 0.24167596 -0.32856196 -0.1945716 0.34591225 0.31241417
-0.06804301 -0.1476635 -0.25646445 -0.30111513 -0.39557382 0.0011689437 -0.52952427 -0.17093965
-0.05028457 -0.43172416 -0.44000545 -0.07798495 0.14216761 -0.030597093 -0.22890444 0.13578935
00000000: f5b8 44be 9d49 2c3e a067 433d 43be 91be
00000010: 4221 9abe d3f8 8dbd c840 7a3e 057c 02be
00000020: 84b2 473e 1821 8b3c 0131 043e 10fb 05bf
00000030: 514f 273e fd1a 0bbd 0a36 e2be b520 89be
00000040: ba3c 2abd b921 07be 7d47 23bd 64e0 353e
00000050: 7b70 103f 5b30 993e 1443 e1bc c7d2 b03d
00000060: e66d 7cbe 4da6 57be 7515 b9be d75b d63c
00000070: 134a c4bd a837 3cbe 2dbe 3d3e fb0f 7ebe
00000080: bbb4 17be e022 273f 6172 d2be 78e0 993c
00000090: 637f babe 6a98 5dbe ca60 7e3d 13bd 97bd
000000a0: 33ea 84be dba5 f1bd 6790 8abe e779 773e
000000b0: 4639 a8be c73d 47be 691b b13e c0f4 9f3e
000000c0: 225a 8bbd 1a35 17be 4f4f 83be c32b 9abe
000000d0: a788 cabe 3e37 993a e78e 07bf ce0a 2fbe
000000e0: 31f7 4dbd f30a ddbe 6548 e1be 93b6 9fbd
000000f0: 6394 113e c1a6 fabc ed65 6abe 5d0c 0b3e

layers.4.running_var f4 [64]
0.062319547 0.043104805 0.025454646 0.07691837 0.083762944 0.048564386 0.04338339 0.067124926
0.10329123 0.041656516 0.039081 0.21483256 0.04954475 0.049679272 0.18395458 0.065264754
0.049695257 0.087582886 0.15479727 0.04919872 0.089242205 0.066127636 0.05515255 0.06071242
0.07405723 0.09421962 0.056946788 0.03776733 0.045478676 0.12999187 0.051367097 0.03648723
0.056056257 0.05169591 0.0633202 0.09027791 0.19378655 0.16672993 0.03104974 0.03495813
0.068197526 0.14386399 0.053734913 0.03741744 0.082838476 0.061057616 0.060570613 0.036856476
0.06036973 0.039223686 0.06126497 0.03925276 0.0922669 0.058217905 0.061541237 0.084130675
0.052069634 0.06967209 0.34323844 0.060134012 0.021859542 0.03890135 0.05271535 0.07264374
00000000: c842 7f3d aa8e 303d 4386 d03c 6187 9d3d
00000010: e88b ab3d 73eb 463d c8b2 313d cb78 893d
00000020: 5a8a d33d 06a0 2a3d 6613 203d 11fd 5b3e
00000030: 70ef 4a3d 7e7c 4b3d 975e 3c3e 87a9 853d
00000040: 418d 4b3d a85e b33d 2d83 1e3e 9984 493d
00000050: 9ec4 b63d ed6d 873d a4e7 613d 96ad 783d
00000060: 51ab 973d 37f6 c03d 0941 693d eab1 1a3d
00000070: d947 3a3d 971c 053e 4e66 523d a273 153d
00000080: 3f9b 653d 17bf 533d 05ae 813d a0e3 b83d
00000090: fb6f 463e 40bb 2a3e 065c fe3c 4230 0f3d
000000a0: 25ab 8b3d 1551 133e 2419 5c3d 0843 193d
000000b0: 38a7 a93d 8d17 7a3d e418 783d d1f6 163d
000000c0: 4046 773d 04a9 203d faf0 7a3d 81c7 203d
000000d0: 6ef6 bc3d e675 6e3d aa12 7c3d b44c ac3d
000000e0: f846 553d 3eb0 8e3d f3bc af3e 154f 763d
000000f0: c812 b33c 0657 1f3d 0dec 573d 3ec6 943d

layers.6.weight f4 [1, 64]
-0.06900386 -0.10512823 -0.20064329 -0.06027115 -0.22806224 -0.058999445 -0.23231043 -0.08367616
-0.17392161 0.2935685 -0.06581884 0.54048234 -0.070926204 -0.43365583 0.23191224 -0.066813864
0.049478993 -1.5397663 0.14560296 -0.07361765 -0.059760883 -0.08164814 -0.0668533 -0.10914844
-0.11825571 -0.11606021 0.07501128 -0.019366235 0.053317573 0.23898259 0.03910866 0.21107915
-0.06020276 -0.5453599 0.30178806 0.05323142 -0.052585546 0.21832044 0.08152638 -0.32947448
-0.09665535 -0.08161871 0.05613431 -0.055640604 -0.17004852 0.038678207 0.12693183 0.23273262
0.074922204 -0.06417883 0.064819366 0.054871704 -0.073556535 0.101380534 -0.18349734 0.06527153
0.10010315 -0.060007628 0.13763188 -0.077435024 -0.23937091 0.32293493 -0.12711047 0.21156225
00000000: e551 8dbd 784d d7bd 6f75 4dbe e2de 76bd
00000010: 2689 69be 67a9 71bd c9e2 6dbe 685e abbd
00000020: 8218 32be 9c4e 963e 07cc 86bd 0d5d 0a3f
00000030: c241 91bd 2308 debe 677a 6d3e b5d5 88bd
00000040: 7caa 4a3d 1017 c5bf f118 153e dac4 96bd
00000050: d4c7 74bd 2437 a7bd 62ea 88bd 3889 dfbd
00000060: 0d30 f2bd fab0 edbd 849f 993d f0a5 9ebc
00000070: 8763 5a3d dab7 743e 6730 203d 2225 583e
00000080: 2b97 76bd b59c 0bbf f783 9a3e 3109 5a3d
00000090: f163 57bd 658f 5f3e 4df7 a63d e1b0 a8be
000000a0: 3df3 c5bd b627 a7bd 17ed 653d 67e7 63bd
000000b0: 3321 2ebe 0a6d 1e3d 6bfa 013e 7651 6e3e
000000c0: d070 993d 3170 83bd 04c0 843d 27c1 603d
000000d0: cfa4 96bd 99a0 cf3d bae6 3bbe 14ad 853d
000000e0: e102 cd3d 8fca 75bd 5fef 0c3e 4196 9ebd
000000f0: a61d 75be ba57 a53e 3f29 02be c6a3 583e
