results/checkpoint_actor_local.pt (torch_old, 150837 bytes, 10 tensors)

layers.0.weight f4 [128, 24]
00000000: e1d9 fcbd 4a72 b4be dc66 cc3d bb3a 67bc
00000010: 6a56 163e 54df 8fbd ff30 973c e61f 0ebc
00000020: 2f98 443e 096e 2bbe 0fde eabd 4ebd a63d
00000030: d113 c53e 2f60 54be ff93 0bbd 6d94 4a3e
00000040: b315 a0bd 9807 9dbe f1ad 973c 6ffd 263e
00000050: edfc b83d dbc5 13be 78d6 72bd e272 d5bc
00000060: b229 843d 8a3f 0ebe 0538 6cbd f1c0 1b3d
00000070: 09c1 3abe d766 41bd ab84 a9bc 0a5c c43a
00000080: 529c 95bd 698b 6dbc 90b8 90bd 07af 2bbe
00000090: bb84 60be 381e 4dbe b8d6 1abe ff7d 5cbe
000000a0: 16fd 19be 08c4 cebd 436c 273d fe1b d3bd
000000b0: f1cb 3abc df99 4f3c 5cfe fcbc 55a3 05be
000000c0: 9f97 74be 77af debd 017d edbd 44d0 40be
000000d0: ca02 abbd 17a0 25bc b2d0 dbbc 737e 86bc
000000e0: 040e 75bd f4df 0dbe fa18 c1bd 873c cebd
000000f0: 05f0 22be 9e68 c0bd 8770 02be dca2 5bbe
00000100: 8f5f 1d3e 9dd3 f43c a73c 2cbe 7beb 12be
00000110: c637 98bd c13b 9dbe 190f e8bd 6284 33be
00000120: 80d2 1d3b 8749 0fbe 9e01 eebc 4efe 2c3e
00000130: 6d37 e9bd 0b39 3cbe 65ed b23d f686 b53d
00000140: bdd5 643c f5cc cfbc 0270 b8bc 2746 2dbd
00000150: 3e5d cebc e948 89be cce0 8d3d f691 cf3c
00000160: ee77 debe 4b24 bdbc afb7 bebe 778d ed3c
00000170: 328b 1f3e 7a53 7fbe 1592 8ebe a3df 17bd
00000180: 0b34 9fbd f3b3 d2bd df79 65bd be21 f9bd
00000190: d66c f43b 1f62 e3bd 6140 79be de49 1d3d
000001a0: d2b0 e6bd 739a a3bd aaa2 ac3b e34d dabc
000001b0: 2e07 b13d ba7c 3ebd f008 b1bd 34e8 b6bd
000001c0: e53c 6fbc f8e5 abbc d7b0 363d 1d19 b73c
000001d0: e9b4 15be fbbd 693b ad38 873d 89bd 1a3e
000001e0: d250 32be 5788 763e d02d 7abe 4d0e a6bd
000001f0: 3ac8 c3bc ec28 8abc 60b0 73bd 65a6 85be
00000200: 0dbf 6cbe 5d3d 98bd fa74 e93c b507 cbbd
00000210: 2eaa 79be 3c25 ffbb a927 f33d 4cd9 c23c
00000220: e6d1 8dbb 5f86 23bd 1fa5 75bd 62e2 8a3a
00000230: 4cc6 83bd 1986 7ebe af31 8cbd c4c1 0fbd
00000240: 41f9 b4bc a1c3 99bd eb2c 18be f048 a2bd
00000250: f0bd c23d c03b 593d de6e 49be 68b5 21be
00000260: 1dd7 9bbd 0950 283c 467f a0be 5082 a43c
00000270: 599d 553c 1c4c 2f3d 95a5 5fbe 518f ab3d
00000280: 39e3 2c3d ec8a 48be 7f43 423d 4eca 66bd
00000290: 403f e4bd aac0 673c daa3 94bd d0ce 203b
000002a0: 6a64 f0bd 8ff3 bc3d f802 35bd 90b7 2abf
000002b0: 74d8 333b 364e babd 7309 75bd b4bf 28bf
000002c0: 1287 32bc 7422 1a3e d49b 50be 4671 3cbe
000002d0: 4710 293d 9da5 fbbd 0a7f 9dbd cf90 bdbe
000002e0: 2785 ee3e 1a77 eebc 657e fabd fcb1 16be
000002f0: 3040 1fbd 8e85 06be 349a 5ebe 86a8 9ebd
00000300: e400 943b c3e1 b3bb dadc 57bc 872f 4dbd
00000310: 48d4 2ebd 30d8 3ebe cf0e 7bbd 488b 2cbd
00000320: e192 d0bd b1c8 67be 3a32 0cbe 7cd9 76be
00000330: af0e b6bb 4c60 3abe b983 08bd d333 39be
00000340: 3fc8 8fbd bcf1 52bc 0f51 d7bd 5dfb 1abe
00000350: 1445 ecbc b5ab 19bd 115c 93bd 6311 c5bd
00000360: 6af0 51bb ad1d a9bd 279d 41be 8210 d73e
00000370: f310 03be 75c8 4fbe 035f 64bd 83fb 203f
00000380: 645a a6bc 045c 863d a47b 96bd 4ba4 8ebe
00000390: 575f 51be bef8 5fbe e772 a7bc 7dcb dcbe
000003a0: 2e7c 373e d43b 2a3e 7947 1dbd 30c7 6c3d
000003b0: d7bf eb3c 38d7 f2bd 585a 3d3d 0bb3 c0bd
000003c0: 6e12 ffbd 1975 933e 87fe 813d b9bf d23e
000003d0: e415 793e 0331 54be 46d2 e4bc 5020 e13e
000003e0: 2388 9cbd beef c6bc d95e cbba 31e3 87be
000003f0: 0bb1 4abd cca3 693e 5b2d 4e3d 7f48 c1be
-0.123462446 -0.35243446 0.09980556 -0.0141131235 0.14681402 -0.07025018 0.01845598 -0.008674597
0.19198678 -0.16741194 -0.114681356 0.08141576 0.3849168 -0.20739816 -0.034076687 0.19783182
-0.07816639 -0.30669856 0.018515559 0.16307615 0.09032617 -0.14430945 -0.059286565 -0.026055757
0.06453265 -0.13891426 -0.057670612 0.0380258 -0.182377 -0.047217216 -0.020693144 0.0014981043
-0.07305206 -0.01449857 -0.070664525 -0.16765986 -0.21925633 -0.20031059 -0.15120971 -0.21532439
-0.15037951 -0.10095984 0.04087473 -0.103080735 -0.0114011625 0.012670963 -0.030883007 -0.13050587
-0.23885964 -0.10873311 -0.11596108 -0.18829447 -0.08350141 -0.010108969 -0.026832912 -0.016417718
-0.05982782 -0.13854963 -0.09428592 -0.100701384 -0.15911873 -0.09394954 -0.12738238 -0.21448845
0.15368484 0.029886061 -0.16820012 -0.14347641 -0.07432513 -0.3070965 -0.11331005 -0.17530969
0.0024081767 -0.13992892 -0.029053506 0.16893885 -0.11387525 -0.18381135 0.08736686 0.088636324
0.013966975 -0.025366286 -0.022514347 -0.04230323 -0.025190946 -0.2681344 0.06927642 0.025338154
-0.43450874 -0.023088595 -0.37249514 0.02899812 0.15580443 -0.24934188 -0.27845827 -0.03707851
-0.07773598 -0.10288229 -0.05602443 -0.12164639 0.0074592633 -0.111026995 -0.24340965 0.038400523
-0.112641945 -0.07988443 0.0052684145 -0.026648467 0.086439475 -0.046505667 -0.08644283 -0.08931008
-0.014601921 -0.020983681 0.04460224 0.022350842 -0.14619793 0.0035666216 0.06602607 0.15111364
-0.17413643 0.24075447 -0.24431539 -0.081081964 -0.023899186 -0.016865216 -0.059494376 -0.2610351
-0.23119755 -0.07433579 0.028498162 -0.099135794 -0.24381325 -0.007786421 0.11872799 0.023785256
-0.0043280004 -0.039923068 -0.059971925 0.0010596032 -0.064343065 -0.24855842 -0.06845414 -0.0350969
-0.02209151 -0.075080164 -0.14860885 -0.07924068 0.09508884 0.053035498 -0.19671199 -0.15791857
-0.07609389 0.010272988 -0.31347102 0.02008167 0.013038003 0.042797193 -0.21840508 0.08376945
0.042208884 -0.19584244 0.04742765 -0.056345277 -0.111448765 0.014145056 -0.07257815 0.0024537332
-0.117379025 0.092261426 -0.044192284 -0.66686344 0.0027442249 -0.09096949 -0.059823465 -0.65917516
-0.010896461 0.15052205 -0.20371944 -0.18402585 0.04127529 -0.122874476 -0.076902464 -0.37024543
0.46585962 -0.029109526 -0.12231139 -0.14716333 -0.038879573 -0.13136885 -0.21738511 -0.07746987
0.0045167077 -0.0054895594 -0.013175214 -0.050094154 -0.042682916 -0.18637156 -0.06129342 -0.042125016
-0.10184265 -0.22635151 -0.13691035 -0.24106401 -0.0055559496 -0.18200797 -0.033328746 -0.18086176
-0.07020616 -0.012875017 -0.105135076 -0.1513495 -0.028841533 -0.03751727 -0.07195295 -0.09622457
-0.0032034167 -0.08257613 -0.18907605 0.42004782 -0.12799434 -0.20291312 -0.055754673 0.62883776
-0.020306773 0.06560519 -0.07347801 -0.2785972 -0.20446526 -0.21872231 -0.020440532 -0.43124
0.17918465 0.16624385 -0.03839824 0.057807148 0.028778 -0.11857456 0.046228737 -0.0940915
-0.12454687 0.28800276 0.06347375 0.41161898 0.24324757 -0.20721821 -0.027932297 0.43969965
-0.076431535 -0.02428424 -0.0015515938 -0.2654052 -0.049485248 0.2281639 0.050336223 -0.37750623

layers.0.bias f4 [128]
00000000: 045a 01be a572 ad3d f263 46be 7a3b ebbd
00000010: 37ba 2abd 1a47 b33d 46e4 b33d 258e 1abe
00000020: 22ea 0d3d ed8a 88bd 51ba c6bd 0da2 26bc
00000030: 3f4d ea3d cf75 2a3e 0fd5 453e 6b7c 073e
00000040: 86f2 123e d665 8a3d e52e 963d 52aa a7bd
00000050: 6e57 c1bd 4c2f 05be 70c4 c3bb af0e d43d
00000060: c783 1bbe 3670 11be 9f46 293e 533e 0d3e
00000070: eea4 25be 0895 1fbe 9d19 94bd aca6 15be
00000080: 9e2d f33c 0ea2 78bd ca53 643d 6013 1c3c
00000090: f2b3 d33d d811 51bd bbd3 0a3d 1e68 0bbd
000000a0: f1ea 433d 7544 25bb 2550 093e 545c d3bd
000000b0: aef2 9a3d c3bf 2bbd 230a df3d 9741 1dbe
000000c0: b704 15be 9f2a 37bd a34d c63d b828 ac3d
000000d0: 4ec9 513d 6f4c b7bd 5e5e 0f3e bcbc ffbd
000000e0: 4555 453d c816 e73d 8fd2 453e fd64 923c
000000f0: b216 aabd 1e7b b03d 2d78 393e 0f50 31be
00000100: eeb6 4dbe f11e c8bc 731c d1bd 36cf c0bd
00000110: 348c 0fbe d1d7 173d 6d96 c2bd e3b2 e23d
00000120: 6241 3d3e 60db 38be 7dda 583c 3c8e 413e
00000130: 726c 4d3e 42f9 4abd 23a2 fa3d 5da0 cb3d
00000140: 16c7 0f3e 9476 95bc e3e5 2bbd 9967 bcbd
00000150: 9891 f33c de2d 5a3d ee83 a0bd 3c2a 1fbe
00000160: ef92 443e 44d9 fabd 44da 8ebc 33fb bfbd
00000170: e958 37bd 143c 4ebe 467f bebd 1da4 863d
00000180: 5ccf 0f3e 2477 463e 4446 97bd 42c4 fcbd
00000190: 1585 37be b01f 8fbd 0669 31be ff68 f8bd
000001a0: 510c 8abd e446 4f3e 7db3 08be bbc0 18be
000001b0: 943e 37bd 56f0 f73d 738e f2bc 3eb4 09bb
000001c0: 8dd3 133e 3dc2 f03d 5574 293e af4e f5bd
000001d0: 8a7e 203e d1f7 47be 7238 07be 7440 eebb
000001e0: 946b 903d 6614 9dbc 1673 443e 5bde a1bc
000001f0: bfb5 b7bd 3c04 0ebd 2f34 e0bc 8d8a cd3c
-0.12631994 0.08469132 -0.19374064 -0.11485954 -0.041681495 0.08753796 0.08783774 -0.15093286
0.034647115 -0.06667123 -0.09703506 -0.010170472 0.11440515 0.16646503 0.19319557 0.13231055
0.14350328 0.06757705 0.07333163 -0.08186783 -0.09440504 -0.13006324 -0.005974345 0.10354363
-0.15186988 -0.14202961 0.16530846 0.13793306 -0.16176197 -0.15584195 -0.07231448 -0.14614362
0.029684838 -0.060701422 0.05574397 0.009526104 0.10337056 -0.051042408 0.03389333 -0.03403484
0.04783148 -0.0025217806 0.13409479 -0.103203446 0.07565819 -0.041930925 0.10890605 -0.15357052
-0.1455258 -0.04471838 0.09682777 0.08406204 0.05121737 -0.089501254 0.14000842 -0.1248717
0.048177022 0.11283642 0.19318603 0.01787042 -0.0830511 0.08617233 0.1811225 -0.17315696
-0.20089313 -0.024428817 -0.102105044 -0.09414522 -0.14018327 0.037071053 -0.09501348 0.11069276
0.18481973 -0.18052435 0.013235685 0.18901914 0.200609 -0.049554117 0.122379564 0.09942696
0.14040789 -0.018245019 -0.041967284 -0.09199447 0.02973251 0.0532664 -0.078376636 -0.15543455
0.19196676 -0.122484714 -0.017438062 -0.09374084 -0.044762526 -0.20140105 -0.09301619 0.06574271
0.14043945 0.19381386 -0.07386449 -0.12342121 -0.1792186 -0.06988466 -0.1732522 -0.121294014
-0.067406304 0.20241886 -0.1334972 -0.14917271 -0.044737414 0.12106387 -0.02960894 -0.0021011974
0.14436169 0.11755798 0.16548283 -0.11977898 0.15673271 -0.19528128 -0.13205126 -0.007270867
0.07051769 -0.019174766 0.19184527 -0.019759348 -0.08970212 -0.034672007 -0.027368633 0.02509048

layers.1.weight f4 [128]
00000000: 8ad5 88be 9634 403d 678e 3e3d 85f3 9fbe
00000010: 86dd acbd a142 11be ce56 33be 7a0a 24bf
00000020: 028e 7dbc 751b 86be f58e 7cbf 716e 5a3e
00000030: 90c0 20be 9c6d f0be f567 dcbc 166a 2dbf
00000040: 58af 3ebe 32a2 923e 649e fb3b 8353 7ebe
00000050: 66fb ecbe 28b6 0ebf 41b3 debd e454 2cbf
00000060: 36e7 0dbf 79ce 10be b630 86bc ff9d a5bd
00000070: 1222 a8be 831f 22be fcb1 a8be cbec 1cbd
00000080: 5558 363e 5f7e e13d 3585 57be 650c 30bf
00000090: 681c b23d 63bb 9bbe b62f 71be 044c e5be
000000a0: 0dca 3abe 3433 0f3d 3d37 cdbd 2ef0 71be
000000b0: 6208 dabe cfca 5fbe 4373 9abe 34ed 2cbd
000000c0: 53ec c43e 64bd 81be bb13 1bbd a988 ecbe
000000d0: a789 693e e064 9cbd 4de1 a0be 74d4 fb3d
000000e0: 4539 82be f7c4 3fbe 0c7e 91be 3cec de3d
000000f0: e080 87bd 4578 0ebe 5b35 e3be 706b aebe
00000100: d906 3abe 8874 093d 2859 38be bd25 febd
00000110: a2e6 c8bc 8dfb fab9 72b5 f0be 1bb6 17bf
00000120: e168 b1bd 29d5 8cbe 7534 f3be 20ce 3bbe
00000130: cd98 b0be 85fa 80be 160f 04bc 032e ddbe
00000140: f00a 72be fe5b 823e 12d9 f2bd 7d14 c93e
00000150: b317 6fbe 6f7e 3a3d bfe7 81bd dcac fe3c
00000160: b3c2 fd3d 1a96 c63c e6ca 2fbf a92f 773d
00000170: ffd3 23be c485 0cbe bb8e 613c ab44 0a3e
00000180: fb0e b0be 5f0b debe 266e 1abf 9d1e f7be
00000190: 5af0 adbe 9593 d4bd da41 26be 6a59 42bf
000001a0: a89a 79bd 7d7d 0c3e 9a5d 19be 0f3d 6bbe
000001b0: 6e6a 13bf c745 e0bd dbb1 03be 3042 05bf
000001c0: 2ebd 1e3e 9f75 febe 4b9c 86bd a6a8 2abe
000001d0: 3c97 51bd bb0a ecbe 259c bbbe 2fef 73be
000001e0: f5e9 9a3e 99d3 87be 7688 87be ba5b 673d
000001f0: c90a 44be ee42 d03d 3bd8 04bf 0340 48bd
-0.26725417 0.04692515 0.046522524 -0.31240478 -0.0844069 -0.14185573 -0.17513582 -0.64078486
-0.015475752 -0.26192823 -0.98655635 0.21331193 -0.15698457 -0.46958625 -0.02690504 -0.6774
-0.18621576 0.2863937 0.0076787937 -0.24836545 -0.46285552 -0.557467 -0.10874034 -0.6731703
-0.55430925 -0.14141263 -0.016380649 -0.08086776 -0.32838494 -0.15832333 -0.3294829 -0.03831176
0.17807133 0.110104315 -0.21046908 -0.6876891 0.08696824 -0.30416402 -0.23553357 -0.44784558
-0.18241139 0.03496094 -0.100203015 -0.23626778 -0.4258452 -0.21854709 -0.30166063 -0.042218402
0.3846155 -0.25339806 -0.037860613 -0.46198013 0.22806416 -0.07636428 -0.3142189 0.122963816
-0.25434318 -0.1872748 -0.2841648 0.10884902 -0.06616378 -0.13913067 -0.44376644 -0.34066343
-0.18166675 0.0335584 -0.1800276 -0.12409542 -0.024524037 -0.00047871136 -0.47013432 -0.59262246
-0.08662582 -0.27506378 -0.4750096 -0.18340349 -0.34491578 -0.2519113 -0.008060237 -0.43199167
-0.23636985 0.2546081 -0.11857809 0.39273444 -0.23348884 0.045530733 -0.0634303 0.031088285
0.123906516 0.024241496 -0.68668973 0.060348187 -0.15998839 -0.13722903 0.01376694 0.13502757
-0.3438643 -0.4336805 -0.60324323 -0.48265544 -0.33972436 -0.103797115 -0.16236058 -0.75917685
-0.060938507 0.13719745 -0.14977112 -0.22972511 -0.57584274 -0.10950809 -0.12860815 -0.5205412
0.15501854 -0.49699113 -0.06572779 -0.16665897 -0.05116962 -0.46101937 -0.36642566 -0.2382171
0.3025662 -0.26528624 -0.264713 0.05648396 -0.19144739 0.10169016 -0.5189244 -0.04888917

layers.1.bias f4 [128]
00000000: abc0 913c 4b31 8b3c f051 1b3c 2f50 983d
00000010: 8d81 563c b2b2 033d 8842 053d eab3 f03d
00000020: 8786 04bc 51c4 8a3c b37b b83e c4ee f13c
00000030: 2614 753d 6ebf 7dbc 3089 243b fb45 6c3d
00000040: d567 3d3c bb25 853e 9c4e cdb9 870c 903d
00000050: b36c 7e3d 7d8a f43c ee26 feba 2cbf 13bb
00000060: 28e0 36bc 2427 4c3c 4a82 23bc c442 01bc
00000070: 2168 9bbc 4616 df3c 38a9 3a3d 8405 12bb
00000080: 1158 353c d3c7 d43c 99cc e0bb 4266 70bb
00000090: c2bc 623a 0cda 4b3c bc48 fd3b d46d 713d
000000a0: 9214 943c 7b5e 7e3c fe3c 443b 2736 643c
000000b0: 9f62 193d 232a 743c 3ff5 5e3e 6d8e 1cba
000000c0: 5d6f e7bc 21b1 133b 96ad c93b ba25 34bd
000000d0: 40d5 a23d c20b b8bb 8da8 373d 620a cd3c
000000e0: be25 373d 6a94 2a3d 9a03 9f39 efce 383c
000000f0: fc6a a5bc 197c 853d 4745 9d3d fbc5 ef3c
00000100: 6170 02bc 061e aa3c 0f47 a93c ea08 d63c
00000110: 0485 0f3d 5cb6 0e3b c58c 323d b685 06bd
00000120: 1113 6d3c d5f4 833c 69a6 093d 3ab0 173d
00000130: aa8b 473d 6c6a 0a3e a887 12bc ad69 8b3d
00000140: 6f9c 513b b52b a53d 3090 bc3c a79d 033c
00000150: e2fc 7abd d571 3f3e b507 273e 4edc 9c3c
00000160: 1350 0f3d 77f1 413b 66b4 60bd d0ac 743a
00000170: 157f adba b03c da3c 2e1c 5a3c 6ff9 803b
00000180: 5898 f13c 3bcc 40bd 521d c9bd 245b 6b3d
00000190: 98fe 903c a3a7 81b9 f83e 513c 6ce4 bdbd
000001a0: 4d87 3dbc 0b97 233d 997d 543c 3c25 19ba
000001b0: faa5 163e 9eeb 843c a8ba c43c 775c 8e3c
000001c0: 8413 c83c 1404 133e f253 22bc 8837 07bc
000001d0: 8ee1 81bc c298 eebb 3f5e 823c 9cee 053e
000001e0: 8a0e d43d 2bd2 51bc 6114 c23c 6852 383c
000001f0: 1d62 c23d eef2 b53c 1ae7 7f3d 7788 ccbb
0.017792067 0.016991278 0.009479985 0.07437169 0.013092411 0.03215284 0.032534152 0.11753066
-0.008088714 0.016939314 0.36031875 0.029532798 0.05983367 -0.015487535 0.0025106184 0.057683926
0.0115604 0.2600535 -0.00039159216 0.070336394 0.062115382 0.029851193 -0.0019390264 -0.0022544367
-0.011161841 0.012460504 -0.009979794 -0.007889453 -0.018970551 0.0272323 0.045571536 -0.002228112
0.01106836 0.02597419 -0.0068603274 -0.0036682044 0.0008649343 0.012442123 0.007729618 0.05894263
0.018076215 0.015525456 0.002994358 0.013928927 0.037447568 0.014902624 0.21773241 -0.0005972151
-0.028251344 0.0022535997 0.0061547263 -0.04398129 0.079508305 -0.005616636 0.044838477 0.025029365
0.044713728 0.041645445 0.00030329527 0.011279806 -0.020192616 0.065178104 0.07679229 0.02926921
-0.0079613635 0.02076627 0.020663766 0.026127297 0.035038963 0.0021776175 0.04359128 -0.03284236
0.014469878 0.016107956 0.033605967 0.037033297 0.04871718 0.13517159 -0.008943476 0.068072654
0.003198411 0.08064977 0.023017973 0.008033193 -0.061276324 0.18695767 0.16311534 0.019148018
0.034988474 0.0029593387 -0.05485954 0.00093336124 -0.0013236726 0.026640266 0.013312383 0.003935985
0.029491588 -0.04706977 -0.098200455 0.057459965 0.017699525 -0.00024729696 0.012771361 -0.09272084
-0.011567903 0.039938968 0.012969398 -0.0005842035 0.14711753 0.016225632 0.024014786 0.017378075
0.024423368 0.14357024 -0.009907709 -0.008252986 -0.015854623 -0.0072813937 0.01591408 0.13079304
0.103543356 -0.012806456 0.023691358 0.011250116 0.0949137 0.022210564 0.062476255 -0.006241854

layers.1.running_mean f4 [128]
00000000: 3709 05c0 3cc9 e8c0 5718 8bc1 a4ec 7fc1
00000010: ffbd b8c0 48fc e0c0 966d a4c1 e9fc a8c1
00000020: adbe 37c1 9412 18c1 36dd d5bf cca3 6dc1
00000030: c543 0cc1 b38e 58c1 132d 97c1 5d9b 48c1
00000040: baa7 2fc1 8dd6 a4c1 cfb5 0dc1 9271 56c0
00000050: 5211 9ac1 3a08 4841 c5f5 6cc0 95dc bfc0
00000060: d35e d3c0 3b92 26c1 3601 5cc1 f12f fbc0
00000070: 268e 08c1 3513 d4c0 44db 42c1 8d79 42c1
00000080: b846 8fc1 9ca5 22c1 2240 eec0 5d1d 1ac1
00000090: cb30 a8c1 53b8 2ac1 0df7 6bc1 d041 1ec1
000000a0: b0e2 eac0 c0e7 8ec1 ee79 03c1 91b0 31c1
000000b0: 9340 9bbf 5e11 41c1 a29f e340 e811 dbc0
000000c0: 6fdc a1c1 4efa 23c0 e989 4cc1 59ed 59c1
000000d0: 7480 3240 2c6e b9c0 34d9 4741 6980 53c1
000000e0: 5fd6 89c1 a922 88c1 57b4 11c1 abdb 45c1
000000f0: 9555 afc1 31b9 44c1 b559 1cc1 9b77 afc1
00000100: 3091 8ac1 43f3 9dc1 3126 dbc0 f3ec 6bc1
00000110: e0a0 94c0 1562 13c1 18a9 abc1 70ed 0bc0
00000120: b313 50c0 15a6 e8c0 9793 6fc1 4ce5 1dc1
00000130: 033d 5cc1 8fb7 993f 643a 18c1 1556 80c1
00000140: a185 d1c0 0fe1 4b3e 2082 9dc1 9e07 68c1
00000150: 846b 7b41 9eff 2d40 00cb 7dc1 521f 3bc1
00000160: 262e 50c1 c6ca 9fc1 8d5a 37c1 3d77 8dc1
00000170: 9f08 44c1 57d0 adc1 e6c6 44c1 ab9f 7ec1
00000180: 532d a3c1 cb0c 12c1 3da8 b740 8709 a7c1
00000190: de00 f0bf c4a2 f4c0 669b a1c1 5f05 12c1
000001a0: 0467 00c1 a7c9 2cbf 316b 3ac0 9e82 8cc0
000001b0: e539 3741 d730 c1c0 c5eb bec0 3cc7 02c1
000001c0: bc8f 8cc1 a27e f0c0 8150 1ac1 cf32 f73f
000001d0: 891e 4fc1 00d3 30c1 cb2c 2241 fc42 2e40
000001e0: e663 87c1 a5ab 64c1 12c1 b03f 266c 7bc1
000001f0: b713 4a40 5fec 27c1 a67a adc1 8d4b f1c0
-2.0786874 -7.2745647 -17.386885 -15.995274 -5.773193 -7.030796 -20.553509 -21.123491
-11.484052 -9.504536 -1.6708133 -14.852489 -8.766545 -13.534839 -18.897009 -12.5379305
-10.978449 -20.604761 -8.856887 -3.3506818 -19.258457 12.502008 -3.7025006 -5.9956765
-6.605325 -10.410701 -13.750296 -7.849602 -8.534704 -6.6273446 -12.178532 -12.1546755
-17.90953 -10.165432 -7.4453287 -9.632169 -21.023825 -10.670001 -14.747815 -9.8910675
-7.340172 -17.86316 -8.217268 -11.105607 -1.2129081 -12.06674 7.1132364 -6.845936
-20.232634 -2.5621524 -12.783669 -13.620446 2.7890902 -5.7946987 12.490528 -13.21885
-17.229673 -17.016924 -9.106528 -12.36613 -21.916788 -12.295213 -9.771901 -21.933401
-17.320892 -19.74378 -6.848412 -14.745349 -4.644638 -9.211446 -21.457565 -2.186367
-3.2512023 -7.2702737 -14.973533 -9.868481 -13.764895 1.2009143 -9.514256 -16.042032
-6.547562 0.19910072 -19.688538 -14.50186 15.713749 2.7187266 -15.862061 -11.695147
-13.011267 -19.97401 -11.459607 -17.683222 -12.252105 -21.726728 -12.298559 -15.913981
-20.397131 -9.128123 5.739287 -20.879652 -1.8750265 -7.644869 -20.200878 -9.126311
-8.02515 -0.674952 -2.9127924 -4.3909445 11.451634 -6.037212 -5.9662805 -8.173641
-17.570183 -7.515458 -9.644654 1.931238 -12.944955 -11.051514 10.135936 2.7228384
-16.923779 -14.291905 1.380892 -15.713903 3.1574533 -10.495208 -21.684887 -7.5404725

layers.1.running_var f4 [128]
00000000: 733d ab41 6cf7 a341 7e4f 0b42 6831 2a42
00000010: 603f 9641 d20f 9841 b1fe c342 22c9 4442
00000020: ba5b a741 feb5 ad41 1062 6941 3548 0a42
00000030: 9849 8f41 cfd2 3042 87e2 3842 08ab ee41
00000040: 8943 e741 aec1 8342 279b 7141 a1bb 8b41
00000050: b5d5 7442 f223 c741 998f a241 9a94 2442
00000060: fa6b fe40 0056 2a42 abc4 e141 5b18 4341
00000070: be54 3a42 ebf1 d741 22e6 8042 e25e f941
00000080: 2d1e 5a42 aef1 4342 3017 db41 e580 0242
00000090: 6198 9442 c643 8e41 3aeb 4b42 2a12 c141
000000a0: 4092 ea41 12f2 6242 6c49 3c41 057a c341
000000b0: 583d 6641 d526 b241 65e6 7f41 125e 8641
000000c0: c5e1 5842 3624 1741 501a 0942 72c8 4142
000000d0: 5916 e941 2d4c fa40 8dc8 b741 655a c941
000000e0: 195a 9e42 248e 7a42 2aea 5342 dbb8 ea41
000000f0: c125 8c42 d6dc b841 4fa9 4342 341e 5f42
00000100: a742 6342 a64e 5a42 b297 3b41 4ded 0442
00000110: 97ac cb40 17e8 c041 61dc a442 fa94 5541
00000120: 7d75 2241 2531 8142 12ad f641 4858 c641
00000130: a2ba da41 522d ba41 ee6e 7a41 5104 8442
00000140: e1a3 8f41 7b60 6441 e5e6 ac42 d86b f641
00000150: 7164 0642 69a4 ff40 7fc5 3942 19f9 a441
00000160: 2283 ce41 118d 4042 815c ef41 1a24 3942
00000170: 34cf fe41 a3b1 a842 f784 1a42 2a1a 1342
00000180: 3ea2 3642 6667 ec41 98a6 6341 d108 8642
00000190: 445f 5341 0b54 6941 c049 2f42 7184 6841
000001a0: 178a fa41 cfa0 1441 9044 0a41 2c1e bf41
000001b0: ec59 c841 b5b5 0442 4555 1841 4b4a 9e41
000001c0: 5791 6642 c57f 2342 3f71 9841 c8b8 e740
000001d0: 6394 3e42 524d e041 9303 7741 ac9e a541
000001e0: 0fc6 6042 c4fd 9842 11f4 b340 9578 4542
000001f0: b938 b241 4855 8d41 9390 8342 cb81 ae41
21.405005 20.495811 34.82763 42.54825 18.780945 19.007725 97.997444 49.19642
20.919788 21.713863 14.586441 34.570515 17.910934 44.205868 46.22122 29.833511
28.907976 65.87828 15.100379 17.466616 61.2087 24.892551 20.320116 41.14512
7.9506807 42.583984 28.22103 12.193446 46.582756 26.993124 64.44948 31.17133
54.52947 48.986015 27.386322 32.625874 74.297615 17.783092 50.979713 24.13387
29.321411 56.736397 11.767925 24.43458 14.3899765 22.26896 15.993749 16.795933
54.220478 9.446341 34.275696 48.445747 29.135912 7.821799 22.972925 25.169138
79.17597 62.63881 52.978676 29.340261 70.07374 23.10783 48.91534 55.779495
56.81509 54.576805 11.724535 33.23174 6.364818 24.113325 82.43043 13.348871
10.153684 64.595985 30.834507 24.793106 27.34113 23.27213 15.652082 66.00843
17.955019 14.273555 86.450966 30.802658 33.598087 7.9888196 46.442867 20.62163
25.81403 48.13776 29.920168 46.285255 31.851173 84.34695 38.62985 36.77555
45.65844 29.550488 14.228172 67.01722 13.210758 14.583018 43.82202 14.532334
31.317427 9.28926 8.641739 23.889732 25.043907 33.17745 9.520818 19.786276
57.641933 40.874775 19.055296 7.2413063 47.64491 28.037754 15.438373 20.702477
56.193417 76.495636 5.6235433 49.367756 22.277697 17.666641 65.78237 21.813375

layers.3.weight f4 [256, 128]
00000000: 7bca b4bd 409b 943c ca62 22be c67e 11bd
00000010: 28f1 eebd 748b 12be 51db 68be a475 13bd
00000020: 003e 6239 62d3 81bd e5ab afbd ed25 19be
00000030: febc 38be a756 98bd f5ff 66bd bc64 94bd
00000040: fa76 87bd 87bf 5dbe 832f 9ebd 4cfe e0bc
00000050: b2e4 9abc 7cba ffbc 6a50 e1bc 6879 3bbd
00000060: e1c4 bcbd 2dc0 a5bd 5282 d0bc 3482 5dbc
00000070: a011 d73b 963c 90bc 18c9 72bd 18b5 84bd
00000080: 9a6b 53bd c416 88bc e0db d73c 661d a5bd
00000090: 00ac 8638 72f2 353d c107 66bd c8ce 83bd
000000a0: b3b4 afbd 1c48 f8bc 5b30 e4bd 402d d4bd
000000b0: a4f9 dfbd a32e 93bd 0071 dcbc 291d eabd
000000c0: 8e67 a9bd 176b 31bd 542e 0cbd d449 0abe
000000d0: eaaf c2bd c45d 03bc 807b 0f3c adbd fdbd
000000e0: f54b 16be 805b eabc 5751 01be 6f10 afbd
000000f0: 382f 04be f2bb a1bc cc4e c0bd f7c1 24be
00000100: db0e 61bd f86d a23c 1079 a93c e0e9 d0bc
00000110: d89c 01bc aa9a 05be 80f0 43bc 960b 4e3d
00000120: a693 debd dce9 a0bd 5c94 fcbd 7ec4 c3bd
00000130: 0eaf 19be f05d 42bc 6c0b 1e3d 5e92 50bd
00000140: 7888 26bd f850 bebd 8ec9 29be eaa7 d0bd
00000150: c6d7 7dbd 2abc 8abc 30da e2bd 58c0 cf3c
00000160: 3223 4b3d 0527 bbbd b53a a4bd f368 13bd
00000170: 9f32 79bd 2a69 50bd 42a9 b8bd 3669 5dbe
00000180: 7e20 e4bd 8071 05be b000 8c3c 1547 a3bd
00000190: 6492 7cbc fcf8 56bd 381e 893c 1c7c 08be
000001a0: 1453 ac3c 1aa6 303d 681c 093c 8ae1 37bd
000001b0: 0eb0 15be 08d1 14bd 7c78 53be 919a 15be
000001c0: a1e7 07be 188e 88bd 3e2c 04be ee98 94bc
000001d0: 2d5d 96bd a22b a8bd f811 0dbe 530c 8bbd
000001e0: ea3e eabc fe0a acbd 7b7d d7bd c0b4 82bd
000001f0: 588e b9bd 8c31 9abd 88cb 31be 0e84 c0bd
00000200: 5d47 5dbd 4ed7 62bd 7d69 efbd dff5 e2bd
00000210: 2baa 84bd ae10 34be 9af0 19be 90ea f33b
00000220: a46f 92bd 4b25 8bbd 4eea 02be d14d 52bd
00000230: 38a4 b0bd 4429 0bbd b661 7abd f48d 9cbd
00000240: 3cf1 05bd 48cf 773d 58f7 4bbc 9432 b73c
00000250: f59e 4cbd 4893 acbd 6351 86bd 4a04 c5bd
00000260: 6e31 133d 5aeb 89bd 0084 1db9 86e4 e9bd
00000270: 4048 6fbd 5678 adbd 50ed 463c f2de a8bd
00000280: cec2 943d e20b 93bd ec18 a03c 884b abbb
00000290: 6c17 bf3d ca05 f2bc 1c8b 13be 7058 4abd
000002a0: 32dd c0bd f84a 6c3d b5fb 7ebd 7298 8ebd
000002b0: 7dd0 9bbd 89af 59bd c331 3cbe 4b77 d4bd
000002c0: 6658 2dbe 044c ed3c 0002 f23a a0ef 37bd
000002d0: f0db 30be f0ed b8bd f038 82bb 4167 efbd
000002e0: f824 9abd 5305 0cbe 4819 b9bd 088e 863c
000002f0: a414 c9bd 9ee8 c7bd 5ad4 753d ea6a 1bbe
00000300: ecbb ae3c 6e06 ccbd d457 f4bd ba78 a6bc
00000310: e07c 29bd d2a4 b5bc 95f6 b3bd 01e4 17be
00000320: 645d cbbd 92d2 cdbc ec2c 82bd 70fb 5ebc
00000330: 1111 babd 2417 8c3d 03f6 0d3e ea8e f9bd
00000340: da35 bfbc 741c 25be 609b ef3c 0cf7 5bbd
00000350: 80d3 4aba 4013 fcbc ec0a 44bd fed1 9abd
00000360: da66 f9bc f41e 22be e2b6 e3bc 3819 e2bc
00000370: 8603 fbbd b2d0 2fbe 5246 5a3d e271 c3bd
00000380: 984f b83d 247d b5bd 40f0 e6ba 9eb0 7a3d
00000390: 1313 fabd da93 093d a0fa 04be 6c9b e0bd
000003a0: b0ec 7cbd bcb1 40bd b83f a3bd c082 493c
000003b0: bcb9 42bd 14aa 97bc 6e27 b1bd 783c 53bc
000003c0: a3c0 f9bd 6cbf a0bd 9dc5 a5bd 04fb 49bd
000003d0: ce64 a8bd 34ab 22bd bd62 d1bd e031 49bb
000003e0: 0d5b 42bd bd87 d1bd b077 59bd 0619 98bc
000003f0: 702c c9bd 74b9 8f3c 2a79 92bd cfc2 afbd
-0.088276826 0.018140435 -0.15857998 -0.03552129 -0.11667091 -0.1431101 -0.22739913 -0.036000863
0.00021576136 -0.06339146 -0.08577708 -0.14955874 -0.18040845 -0.074384026 -0.056396443 -0.07245776
-0.0661449 -0.21655093 -0.07723906 -0.027465008 -0.018907879 -0.031216852 -0.027504165 -0.04577008
-0.09217239 -0.08093295 -0.025452767 -0.013519812 0.0065633804 -0.017607015 -0.05927381 -0.064798534
-0.05161629 -0.016612418 0.026349962 -0.08062248 6.4216554e-05 0.044420667 -0.05615974 -0.06435925
-0.085793875 -0.030307822 -0.111420356 -0.10360193 -0.10936287 -0.071866296 -0.026909351 -0.11431343
-0.082717046 -0.04331502 -0.03422387 -0.13504726 -0.09506209 -0.008017961 0.008757472 -0.123896934
-0.14677413 -0.028608084 -0.12628685 -0.08548056 -0.12908638 -0.01974294 -0.09390029 -0.16089617
-0.054945808 0.019827828 0.02068761 -0.025502145 -0.00791093 -0.13047281 -0.011959195 0.050304018
-0.108680055 -0.07857105 -0.12332985 -0.09558962 -0.15008184 -0.011863217 0.03858511 -0.050920837
-0.04065749 -0.09292787 -0.16580793 -0.10188277 -0.061973356 -0.016935427 -0.11076772 0.025360271
0.04959411 -0.09138302 -0.0801901 -0.03598876 -0.06083929 -0.050881542 -0.09016658 -0.21622166
-0.1113901 -0.13031578 0.017090172 -0.07972542 -0.015415762 -0.052483544 0.016738042 -0.13328594
0.021035708 0.043127157 0.008368589 -0.044892825 -0.14617941 -0.03633216 -0.2065143 -0.14609744
-0.13271953 -0.06667727 -0.12907502 -0.018139329 -0.073419906 -0.08211447 -0.13776386 -0.0678946
-0.028594453 -0.08400534 -0.105219804 -0.063821316 -0.09060353 -0.075289816 -0.17362797 -0.094001874
-0.054023135 -0.05538111 -0.11690042 -0.110820524 -0.064777695 -0.17584488 -0.15033188 0.0074437335
-0.071502 -0.067942224 -0.12784693 -0.051343743 -0.08625072 -0.0339749 -0.06112834 -0.07644263
-0.032700762 0.060500413 -0.012449108 0.022362985 -0.04995628 -0.08426529 -0.06558492 -0.09619959
0.03593581 -0.06734343 -0.0001502186 -0.114205405 -0.058418512 -0.08470218 0.012141541 -0.082456484
0.072637185 -0.07180001 0.019543134 -0.00522751 0.09330639 -0.029543776 -0.14408535 -0.049400747
-0.0941719 0.057688683 -0.062251765 -0.069626704 -0.07608125 -0.05314592 -0.18378358 -0.10374316
-0.16928253 0.028966911 0.0018463731 -0.04490626 -0.172714 -0.09029758 -0.0039740726 -0.11689616
-0.075265825 -0.13673906 -0.09038025 0.016425148 -0.0981839 -0.09761165 0.060016967 -0.15177503
0.021329843 -0.09962164 -0.119308144 -0.020321239 -0.041378856 -0.022173319 -0.08787266 -0.1483307
-0.09929922 -0.025124822 -0.063562244 -0.013609752 -0.090852864 0.06840351 0.13863377 -0.12185462
-0.023341108 -0.16124135 0.029248893 -0.0537024 -0.00077372044 -0.030770898 -0.04786198 -0.07559584
-0.030444551 -0.1583212 -0.027797166 -0.027599916 -0.122565314 -0.17169455 0.05328972 -0.09543206
0.08999556 -0.08861759 -0.0017619208 0.06120359 -0.12210669 0.033588268 -0.12986231 -0.10967144
-0.06174916 -0.0470445 -0.07971138 0.01229924 -0.04754041 -0.018513717 -0.08650099 -0.012892835
-0.12194946 -0.07849011 -0.08094332 -0.049311653 -0.08222352 -0.039714053 -0.10223911 -0.0030699894
-0.047450114 -0.10230968 -0.05309266 -0.01856662 -0.09822929 0.017544486 -0.071520165 -0.08582079

layers.3.bias f4 [256]
00000000: bf8c 09bd 2ca2 84bd 84a7 97bd b8fe 2e3c
00000010: b0cd b83c a360 d23b 14b9 e9bc 242b 42bd
00000020: 0e35 e7bc c8c9 61bc 048a 2a3d 07a6 523d
00000030: 3596 633d ec4c ebbc 55d3 243d 08d0 4e3d
00000040: 5835 693d 40ba ccbc b986 813d f76d 813d
00000050: e5d6 813d 141d fe3c d2cc 603d d8d2 ce3c
00000060: 5f35 36bd c0b0 e73b d993 2fbd f1b8 603d
00000070: 7764 1b3d 6038 39bc b31d 383d a673 0d3d
00000080: e085 a0bd 6463 8f3d c4c5 07bd e9df b4bd
00000090: 20bc 0e3c 42eb 783d 58b1 4d3c 38bb adbc
000000a0: 3ee6 9abd e4d8 863c b82e 31bc 167e 8b3d
000000b0: 5c99 c53c ae9d 92bd 8e2e 883d 4ac4 393d
000000c0: b169 033d 7382 5fbd da4d c33c 8843 e2bc
000000d0: cf1d 443d 27b7 67bd e099 88bd 8ae0 8e3d
000000e0: 9077 c6bb 02cc 6c3d bdb6 603d e0bf 7dbd
000000f0: f8ef 12bc 3c36 1ebd 1c49 85bd 2ede 203d
00000100: 4058 9c3a 36eb f7bc 804f d6bb 18a8 96bd
00000110: d845 833c c768 833c 1823 583c f078 cebb
00000120: 8657 e8bc 0534 9bbd c8e4 2c3d d873 943d
00000130: 454e 8f3d 1686 83bd 105d 863b fcdf 8c3c
00000140: 7fff 863d a0f1 d3bc 479c 27bd 9431 49bd
00000150: 8f19 883d 5024 a83c ce43 22bd bac2 223d
00000160: 9244 273d d08b 653c 7088 953c 35c9 143d
00000170: 62dc 893d 848e 873d ac8f 983c b94f 18bd
00000180: 8287 033d 587f 88bd 0eaa 23bd 0063 a13b
00000190: 56bb f0bc ae92 373d 5015 b1bb a5d0 883d
000001a0: d01d d2bb 3263 adbd 9eca 14bd f578 35bd
000001b0: 1984 7cbd 1897 34bc 28bf 0c3d ffdc 813c
000001c0: 0a37 90bd 1815 323d b890 aebd 0089 7bbc
000001d0: c30f 333d 4858 093d 8897 613d e8fb 46bd
000001e0: 43e5 823d 69ed 11bd ecca cdbc 418d 443d
000001f0: dd4a 653d 0af8 0bbd ce42 8c3d 6e8f 18bb
00000200: 65c5 643d 5009 e73b 2eeb 46bd f8ad 373c
00000210: 36be 8cbd 256b 693d 1cc9 3c3d 2a92 34bd
00000220: ec0e b83c 5095 37bc c68c 7e3e 7117 823d
00000230: 6423 94bc 3c1f 433d 10fb 92bd 0001 d7bb
00000240: 188e b63c 7b33 5b3d d863 7fbc 2c5b 5dbd
00000250: 94b0 26bd 668d 8c3d 3045 f83c 656b 233d
00000260: 81ee 33bd 5f1d 6fbd 4493 3bbd 4582 413e
00000270: 2cc1 a4bc 0400 41bd 5104 79bd b223 ddbc
00000280: 089a 77bc 6c28 fb3c 0ead 15bd a0cb 8f3d
00000290: 901d ee3b 50e0 343e c671 91bd 5328 ef3c
000002a0: 5048 033c db8b 023d eeb9 0e3d f474 013d
000002b0: 58d1 313d 1da6 4cbd a8e9 0e3d b028 5cbc
000002c0: 88df 03bd 108c 8c3b 094b 113d ec99 693d
000002d0: fec6 673d b8a8 ce3c 5c6a 603d c003 7cbc
000002e0: 187b ed3c 6168 99bd 0880 0f3d ccf1 a3bd
000002f0: 0042 ccbc 497f 7a3d 1352 173d 9278 1abd
00000300: 984e 303d 9422 25bd be0b 9cbd 6319 853d
00000310: 12aa e1bc 2319 653d 41b5 643d e86b d23c
00000320: b03a c33b 80b9 9e3a 402c 043c 5c04 8fbc
00000330: 2891 e03c f048 303c f3cd 8dbd 2a05 2a3e
00000340: 7c34 023d bef1 a8bd 87a7 5fbd fc1e b53c
00000350: b330 05bd 00eb acbd df62 1b3d 4f0f 803d
00000360: 7d67 723d 00b5 233a 9057 4b3c b077 2dbc
00000370: 82d9 863d 728c f1bc 8018 c93a da51 083d
00000380: 189c 59bd 78f8 173d 5c99 d2bc aa22 193d
00000390: f310 dc3c 8f0a 363d 9036 7abc d8d4 c03c
000003a0: b469 54bd 18bc 5fbc eabe 523d 79ac 903d
000003b0: f07a 71bc 8044 1cbd 7041 ba3b 9e1a 613d
000003c0: ead7 d6bc c8e4 663c d0fb 9fbd 868b 3c3d
000003d0: 6008 8a3d 8c5a 593d e3f7 1c3d 39a4 1f3e
000003e0: f8bb 31bd 6a89 8c3d 2696 b2bd c019 c2ba
000003f0: d463 903d 81ff 03bd 601f 9f3c 2c25 04bd
-0.03358149 -0.06476244 -0.07404998 0.010680847 0.022559017 0.0064202114 -0.028530635 -0.047404423
-0.02822354 -0.013781019 0.04163553 0.051427867 0.05556317 -0.028723203 0.040240604 0.050491363
0.05693564 -0.024991155 0.063245244 0.06319802 0.06339816 0.031019725 0.054882832 0.025247023
-0.044484492 0.007070631 -0.042865608 0.054863874 0.037937608 -0.011304945 0.0449502 0.03453412
-0.07838035 0.07001379 -0.03314759 -0.0883177 0.008711845 0.060771234 0.012554489 -0.021207437
-0.075634465 0.016460843 -0.010814361 0.06811158 0.024120979 -0.07158981 0.066495046 0.04535321
0.032083217 -0.054567765 0.023840833 -0.027620092 0.04787999 -0.056571152 -0.06669974 0.06976421
-0.0060567334 0.057811745 0.054861773 -0.061950564 -0.008968346 -0.03862594 -0.06508085 0.039274387
0.0011928156 -0.030263525 -0.006540239 -0.0735628 0.016024515 0.016041173 0.013191961 -0.006301038
-0.028362047 -0.07578281 0.04221037 0.07248658 0.069973506 -0.06422059 0.0041004494 0.017196648
0.06591701 -0.025872052 -0.040920522 -0.049119547 0.066455 0.020525128 -0.039615445 0.039736487
0.040836878 0.014010385 0.018253535 0.0363247 0.06731488 0.066189796 0.018623196 -0.037185404
0.032111652 -0.06664914 -0.0399571 0.004925132 -0.029386204 0.04481762 -0.005404152 0.06680421
-0.0064122453 -0.08466186 -0.036326043 -0.044304807 -0.061649416 -0.011022352 0.03436199 0.01585245
-0.07041748 0.043477148 -0.08523697 -0.015352488 0.043716203 0.033531457 0.055076152 -0.04858008
0.063913845 -0.035626803 -0.025121175 0.047986273 0.0559796 -0.034172095 0.068486795 -0.002327885
0.055852313 0.0070506707 -0.04856413 0.011210911 -0.06872217 0.056986947 0.04609023 -0.044084705
0.022468053 -0.0112050325 0.24858388 0.06352127 -0.018083282 0.04763721 -0.071767926 -0.0065613985
0.022284552 0.053515892 -0.015587769 -0.054042026 -0.04069574 0.06862907 0.030306429 0.03989734
-0.043928627 -0.05837762 -0.04579474 0.1889735 -0.020111643 -0.047119156 -0.060795132 -0.02699456
-0.0151124075 0.030658923 -0.03654199 0.0702126 0.0072667077 0.17663693 -0.07101779 0.029194033
0.008012846 0.031871658 0.034845285 0.031605676 0.043412536 -0.049963105 0.0348908 -0.013437435
-0.032195598 0.0042891577 0.03547195 0.057031557 0.056586258 0.025226936 0.054788932 -0.015381753
0.02898936 -0.07490612 0.03503421 -0.080051035 -0.024933815 0.061156545 0.036943506 -0.03771264
0.043043703 -0.04031618 -0.07619427 0.06498983 -0.027546916 0.055932175 0.05583692 0.02568622
0.005957924 0.0012109727 0.008067191 -0.017458133 0.027412966 0.010759577 -0.06924047 0.16603532
0.031788334 -0.08249234 -0.054603126 0.022109501 -0.032517146 -0.0844326 0.037936088 0.0625292
0.059180725 0.00062449276 0.012411013 -0.010587618 0.06584455 -0.029485915 0.0015342385 0.033281185
-0.05312738 0.037102193 -0.025707893 0.037386574 0.02686355 0.044443663 -0.015271798 0.023538992
-0.05185862 -0.013655685 0.0514516 0.070641465 -0.014738783 -0.038151264 0.0056840703 0.054957025
-0.026226003 0.014092632 -0.07811701 0.046031497 0.06739879 0.053064868 0.03832234 0.1558999
-0.04339215 0.06862147 -0.08720045 -0.00148087 0.07050291 -0.03222609 0.01942414 -0.032262012

layers.5.weight f4 [2, 256]
00000000: 1650 09bf 5a93 3e3f 2909 71bf 4601 883e
00000010: e46a 4abf b071 19bf 8e66 4e3c 3b24 99bd
00000020: a781 93bf b71d 8abe f715 52bf b9ec a2be
00000030: 8396 8dbf ea67 11be af6d 53bf 4166 7fbf
00000040: 7400 f9bf 2e8f acbf 6f96 ab3e 4535 b6bf
00000050: ae0d 88bf 8605 4abe c68a 57bf eb26 9bbf
00000060: 4845 97bf 9413 19bf 0871 083f 47f4 6fbe
00000070: c862 e1bf 4b0b cdbf 6e31 57bf d5ae 2e3f
00000080: 407a b5bf e69d 1abe ad83 e33b 9fdc 733e
00000090: 61da e3be df3f 8abf 4d0c 6abf b257 9cbe
000000a0: 7845 0bc0 1802 943f 40db 93bf 6820 56bf
000000b0: 505a f6bf 903f 9ebf 7a47 b1be 0b12 b5be
000000c0: 0a54 b8bb 5079 9dbf 0f30 8a3e e51f 2f3f
000000d0: 867f 973e 6e57 0cbf 4302 cd3d 4af1 bfbf
000000e0: bd36 28bf 0784 89be 258e 31bf 13d0 40be
000000f0: ef89 a9bf 4aaf e8bf d8e8 f3bf 2f27 e5bf
00000100: 9fac 24be ea99 eabf e1c1 33bf c356 9abf
00000110: 884a f2be 0f4e 713b 8ed5 47bf 8438 26bf
00000120: d2ad 2abf 9060 78bf 44b9 4bbe 947f 23bf
00000130: 0e35 00bf fd67 17bf 9b31 bebf 734f 6ebf
00000140: 0309 82bf 3c24 4fbf e42e 72bf dff4 6b3f
00000150: 778f eebf 4c4d 7dbf 521b 4abf da2d 48bf
00000160: 4bfa 30bf d040 4dbf 6b5a 903d a238 b0bf
00000170: 8f9f e7bf 1090 a0bf a295 1fbf 7b95 ebbe
00000180: 0803 a1bf 7203 93bf ebb7 5dbf ac58 29bf
00000190: d02c 41bf 8ed0 93bf b33c aabf c1ea 88bf
000001a0: 855f d1bf d4e3 57be 18f2 833d ccfc 94bf
000001b0: d803 1fbf 30b7 f6bf 30db 5cbf f1e3 b7bf
000001c0: 3148 2fbf 790c 40be 5f5f 9cbf 2d99 82bf
000001d0: cefa 9abe 8899 18be d2a4 28bf 5896 a33e
000001e0: d0d5 febf 5c9b 26bf 4110 a1bf a69c 09bf
000001f0: a57d 20bf 4b15 18bf 4351 a6bf 054f 72bf
00000200: cf39 0fbf 2072 74bf 181b dc3e bcaf 47bf
00000210: 013c 11be a9da 4abe 09a7 7dbf 46fd e4bd
00000220: c5ac 5cbf 8506 283e 5ea4 493e 35e9 82bf
00000230: af46 6cbf 93ad 25be a811 ccbf 0878 d5bf
00000240: 0f51 013d f140 18bf 5615 e1bc 2df8 e5bf
00000250: fdb6 17bf 5046 263b c696 06bf 878f 8bbe
00000260: 64ac d6bf 7baa 9cbf 2782 f9be 7ecc 353f
00000270: 5b2e 8cbf 1f36 36c0 35bd 8bbf 5741 ecbf
00000280: ac81 7dbf fb38 8cba 67cf 41bf e831 cebf
00000290: 5dc0 b3bf 75bf 123f 75f8 c2be f3af a5be
000002a0: e2cf 9abf 0a96 45be c6f4 d7bf 8de3 aebf
000002b0: ff24 81bf 32a7 16bd 317d 9ebe 1afa 0bbf
000002c0: 5cce 2bbf 41bc 1f3f 68b1 a1bf deb7 d6bf
000002d0: f162 b3bf 6903 c03d 5ab5 a4bf 0caa e8be
000002e0: 3119 44bf 6408 1bbf 2a5f 28be 1f49 89bf
000002f0: 9054 edbe b1f8 b7be 1667 80bf 7c7f d4be
00000300: 32b8 48bd 83c5 6ebf 2ad3 cdbd ef02 98be
00000310: 08ee 08c0 2789 823e 92b6 e2be 5e01 d33e
00000320: f488 713c 0489 2abf b2f3 89bf 97ac 2ebf
00000330: 18ba 7bbf ae8b 3f3f 72e1 ccbf 7c83 b73f
00000340: d1e2 543e acf1 0bbf 8d3a 903e 4dcd e5bf
00000350: 6956 6dbf fa66 72bf 741b bbbf 011f dcbf
00000360: 2706 fdbe 65a3 fb3e 4078 e9bf 54a1 afbf
00000370: 7c70 d6bf 2232 b1bf 7bbd df3e 46ab dfbd
00000380: 59be c0bf b26a 42c0 1bf4 1fc0 3435 45bf
00000390: f823 b2bf e971 c1bd 3a1f c6bf 0715 60bf
000003a0: c065 56be cc98 13bf 7ebd 5dbf 8ff3 ae3e
000003b0: 21f5 b6bf c921 f6bf 8aa8 93bf 3dec 19bf
000003c0: 59f2 5bbe cd67 bfbf 6c5d 04bf 87f3 c4be
000003d0: 5a68 73bf c393 66bf 86c9 49bf 56c2 573f
000003e0: 25ab 9cbe 2f7e ebbf 9b06 82bf 95f1 9abf
000003f0: 930b 5bbf 079f c5be bcbc 97bf 408e 8f3f
-0.53637826 0.7444359 -0.941546 0.26563472 -0.7906935 -0.599391 0.012597693 -0.074776135
-1.1523942 -0.26975796 -0.82064766 -0.3182123 -1.1061558 -0.14199796 -0.8258924 -0.997654
-1.9453263 -1.3481195 0.3351321 -1.4235007 -1.0629175 -0.1972867 -0.84196126 -1.2121252
-1.1818018 -0.597955 0.5329747 -0.23433028 -1.7608271 -1.6019071 -0.840598 0.6823552
-1.4177933 -0.15099296 0.006943187 0.23814629 -0.44502547 -1.0800742 -0.9142502 -0.30535656
-2.176115 1.1563139 -1.1551285 -0.836432 -1.9246311 -1.2363148 -0.34624845 -0.35365328
-0.0056252526 -1.2302647 0.2698979 0.6840804 0.2958948 -0.5482091 0.10010197 -1.499551
-0.65708524 -0.2685854 -0.6935752 -0.18829374 -1.3245219 -1.8178494 -1.9055433 -1.7902583
-0.16081475 -1.8328221 -0.7021771 -1.2057728 -0.47322488 0.0036820208 -0.78060234 -0.64929986
-0.6667148 -0.9702234 -0.19894892 -0.63866544 -0.50080955 -0.5914305 -1.4858888 -0.9308998
-1.0159 -0.80914664 -0.946028 0.9217052 -1.8637532 -0.9894607 -0.7894794 -0.78194964
-0.69131917 -0.8017702 0.07048496 -1.3767283 -1.8095568 -1.2543964 -0.62337697 -0.46012482
-1.257905 -1.1485426 -0.8660876 -0.6615093 -0.75459003 -1.1548021 -1.3299774 -1.0696641
-1.6357275 -0.21083003 0.0644266 -1.1639647 -0.6211524 -1.9274654 -0.86271954 -1.4366437
-0.6846953 -0.18754758 -1.2216605 -1.0202996 -0.30269474 -0.14902318 -0.65876496 0.3195064
-1.9909 -0.6508081 -1.2583085 -0.5375465 -0.6269172 -0.5940749 -1.2993549 -0.94651824
-0.55947584 -0.9548664 0.4298942 -0.78002524 -0.14183046 -0.19809975 -0.99083 -0.111811206
-0.86201125 0.16408737 0.19691607 -1.0227419 -0.92295355 -0.16179495 -1.5942888 -1.6677256
0.031571444 -0.5947409 -0.027475994 -1.7966362 -0.5926359 0.00253715 -0.5257381 -0.2725794
-1.677136 -1.2239527 -0.4873211 0.71015155 -1.0951647 -2.8470533 -1.0917116 -1.845744
-0.9902599 -0.0010698134 -0.75707096 -1.610898 -1.404308 0.5732339 -0.38080183 -0.323608
-1.2094691 -0.19295517 -1.6871574 -1.3663193 -1.0089415 -0.036780544 -0.30954888 -0.546785
-0.67111754 0.6239663 -1.2632265 -1.6774862 -1.401457 0.093756504 -1.2867844 -0.45442235
-0.7660094 -0.6055968 -0.16442552 -1.072544 -0.4635358 -0.35931924 -1.0031459 -0.41503513
-0.049003787 -0.9327013 -0.10050042 -0.29689738 -2.1395283 0.25495264 -0.44279915 0.4121198
0.014742125 -0.6661532 -1.0777495 -0.682321 -0.9833083 0.7482251 -1.60063 1.4337001
0.20789649 -0.54665637 0.2816967 -1.7953278 -0.92709976 -0.9468838 -1.4617753 -1.7196962
-0.49418756 0.49148098 -1.8239822 -1.3721108 -1.6753078 -1.3843424 0.4369925 -0.1092134
-1.505809 -3.0377622 -2.499274 -0.77034307 -1.3917227 -0.09445555 -1.547828 -0.87532085
-0.20937252 -0.57655025 -0.8661727 0.34170195 -1.4293557 -1.922906 -1.1535809 -0.60126096
-0.21479167 -1.4953552 -0.5170505 -0.38467047 -0.950811 -0.90069216 -0.78823125 0.8428091
-0.30599323 -1.8397883 -1.0158266 -1.2104975 -0.85564536 -0.3859789 -1.1854472 1.1215286

layers.5.bias f4 [2]
00000000: 78d8 a53d d98d 173e
0.08097929 0.14800204
