results/checkpoint_1_actor_target.pt (torch_old, 148135 bytes, 6 tensors)

layers.0.weight f4 [128, 24]
00000000: bf2b f5bd 8484 1d3e 2a77 b3be 0ad2 e4be
00000010: 8e83 64be 8e1a e9bd 02b5 60be 90ad 14be
00000020: 0ef4 47be ca1a 893c 587a 633d ad13 26be
00000030: 8198 16be 0864 05be 579a a83c 3751 393d
00000040: 0de4 8dbd b722 19bd f9c8 51be 292e 66be
00000050: 9e6c 68be 6fe0 64be 6039 76be 0c42 81be
00000060: e89f 753e 39b0 17be 3a26 d7bb 71bd afbd
00000070: 74c9 7ebe 06ba 793c 8acd 6dbd 5650 08be
00000080: aa16 1e3e 37b3 72be ebbf acbe 2a61 a23c
00000090: a60a abbe cc51 7d3b 0fea 42be 0643 b6bd
000000a0: a150 603e b1fc 9dbe 4ecb 453d 1ab7 febc
000000b0: b9d0 57be e5e1 2d3c 7045 303d 0dad f63d
000000c0: f833 72be a721 dcbe c1d7 f1bd 7efe f3be
000000d0: f423 ac3d 1a71 93be 710a 6abe 48d3 8cbe
000000e0: 6e58 9dbd c022 afbe e7be 91bd a87b 0cbe
000000f0: 7196 78bd 01a8 babe 2438 86ba 4f3e 703d
00000100: 4122 8ebe 44a8 88be 0652 87be 40b6 1dbe
00000110: cb32 d2bc 7cca 7dbe a94f a7be 1f72 3fbe
00000120: f537 2dbd 9a89 1abd a8d3 0ebe 43cf 6cbc
00000130: d6f0 01be 6a08 73be 221d 3bbe ec54 ad3d
00000140: 973d dc3c 1052 e23c d670 8a3d 2b48 62bc
00000150: 05cf 2f3d ac61 28be e5ab 90bd 3eea f63c
00000160: 1c94 5a3b ba80 f83c 2ceb 853d 433a 0cbe
00000170: fadf 2ebe 7c6f 82bd 25e1 b1bd e0de 34be
00000180: e515 883d 05f0 b7bc 5a26 b5bb c975 13be
00000190: ab0e ffbd 0a85 81be 693e ffbd 1b02 84bd
000001a0: 5b2f c7bd 2b69 acbd 2bc1 e5bd 09d1 bfbd
000001b0: ce1f c4bd 0a65 94bd 1017 febd ab0f 31be
000001c0: df35 27be d64d 4abe 2f78 abbd 6c75 1c3e
000001d0: 776f f5bc d826 b03d 0a1d 8dbe fd71 093e
000001e0: 207c 21be 5bd6 b7bc 651c 5cbe f900 34be
000001f0: 5b71 a13d ce11 933d 1e62 efbd fcff 39bd
00000200: d8fa c3be 1646 633d 6dea 22be 7ede 1dbe
00000210: 5c58 a53d 38cf 92bc fa37 76be e34c 18be
00000220: 8783 97bd 45b9 e83d a3ec 6bbe c2de a6bd
00000230: f0c1 f23d 22f4 c6bd 2562 19be f21b 0f3d
00000240: 7602 73be cfa3 89bd 5861 8b3d d5de 3cbe
00000250: 022c 4fbe d644 18bf c8ae 1fbc a745 bfbe
00000260: 0dfc 4fbe a70d fcbd a6e1 a1bd c630 ebbd
00000270: 5789 37be dd0b 07bf fc4c 2cbd f0ff 1abe
00000280: 977f a8be cff6 93bd 07a0 a6bc 461c b7be
00000290: fff1 46be 3b51 33bf bd9d cebd d783 cfbe
000002a0: 10b3 1ebe fa3d cfbd d770 0e3e f039 dfbd
000002b0: d30c 9c3c e902 a9bd 36eb 893d b9b2 0bbe
000002c0: 82cd 66be fa06 16be 94ef 22be aa39 7fbe
000002d0: 5f1c 99bd 66b4 87bd 9f55 8fbd cf70 9ebd
000002e0: 6d2e 1fbe cae6 febd d139 f1bd 1272 cf3c
000002f0: 409b 01be 17c3 56be 1a81 1abe 202d b5bd
00000300: 5e48 0fbd 6833 b3bc c4a7 94be 852d 21be
00000310: f4da debd 241c 36be 0c1a 71be bbc6 41be
00000320: 8194 32bd 8fc1 b5bd d485 d7bd 224f 8a3d
00000330: e28d 83be 80ed 2cbe 1545 373c ec36 51bc
00000340: 5436 143d cc35 22be 5abe 3bbe a86f 2ebe
00000350: 3c02 5ebe ca12 c0bd 467f bbbd 6757 d2bd
00000360: 1de7 c3bd 84fb 9abe e208 65be 7c4a 05be
00000370: d179 62bd 54e8 72bd c5bd 04be 76f4 48be
00000380: 9ca2 9bbd fdae 44be 220a 60be 24db babe
00000390: 37c5 4f3d 29e2 1ebe 6df6 cfbe 95d2 51be
000003a0: e51e e4bd cf21 1ebe cc81 5c3d 82cc 7e3d
000003b0: 1f5d d13d 4361 60bd 3d25 1bbd 51f1 eeb9
000003c0: 69a6 1a3e 9a69 183e e82c f73b e71a bbbd
000003d0: 9395 99be 3cff 6fbe 374c ed3c 3235 193d
000003e0: 9617 10bc 6119 9a3e 25da 84be cf08 e6bd
000003f0: e263 1bbe 1d14 68be cae3 98bd 72a5 95be
-0.119712345 0.15382582 -0.35051852 -0.44691497 -0.22315809 -0.11382018 -0.21944049 -0.14519334
-0.19526693 0.016736407 0.055536598 -0.16218443 -0.14706613 -0.1302644 0.020581407 0.045243468
-0.06928263 -0.037386622 -0.20486821 -0.22478546 -0.22697684 -0.2235124 -0.24045324 -0.25245702
0.2398678 -0.14813317 -0.0065658363 -0.08581055 -0.24881536 0.015242105 -0.058057345 -0.13311896
0.15438333 -0.23701178 -0.33740172 0.019821722 -0.33406562 0.003865349 -0.19034599 -0.088995025
0.21905757 -0.3085685 0.04828959 -0.031093169 -0.21075715 0.0106129395 0.04303497 0.120447256
-0.23652637 -0.42994425 -0.1180873 -0.476551 0.08405295 -0.28797227 -0.22855546 -0.27504945
-0.07682882 -0.342062 -0.0711649 -0.13719046 -0.060690347 -0.36456302 -0.001024012 0.058653172
-0.2776051 -0.26690876 -0.26429766 -0.15401554 -0.025658986 -0.24784273 -0.32677963 -0.18695877
-0.042289693 -0.037728883 -0.13947928 -0.014453712 -0.12689528 -0.23733678 -0.18272832 0.08463463
0.026884837 0.027627021 0.06759803 -0.0138111515 0.04292204 -0.16443509 -0.07064036 0.030140992
0.003335244 0.03033482 0.06538996 -0.136941 -0.17077628 -0.0636892 -0.08685521 -0.17663145
0.06644801 -0.022453317 -0.0055282535 -0.144004 -0.124539696 -0.25296813 -0.12463076 -0.06445714
-0.09725829 -0.08418497 -0.112184845 -0.09366042 -0.09576379 -0.07245834 -0.124067426 -0.17291133
-0.16329144 -0.19756255 -0.083725326 0.15279168 -0.029960377 0.08601159 -0.27561218 0.1342239
-0.15770006 -0.02244108 -0.21495207 -0.17578496 0.07882949 0.0718113 -0.11688636 -0.04541014
-0.38277316 0.05548676 -0.15909739 -0.15416905 0.08073494 -0.017921075 -0.24044791 -0.1487308
-0.07398134 0.11363462 -0.23039488 -0.081479564 0.11853397 -0.097145334 -0.14978845 0.03493876
-0.23731408 -0.06720697 0.06805676 -0.18444379 -0.20231631 -0.59480035 -0.009746261 -0.37357828
-0.20310993 -0.123072915 -0.07904367 -0.11483912 -0.17923485 -0.52752477 -0.042065606 -0.15136695
-0.32909843 -0.072248094 -0.020339979 -0.35763758 -0.19428252 -0.7004582 -0.1008868 -0.40530273
-0.15497994 -0.10119243 0.13910232 -0.108997226 0.019049084 -0.08252508 0.06734316 -0.13642396
-0.22539333 -0.14651099 -0.15911704 -0.24924341 -0.074761145 -0.06626205 -0.06998753 -0.0773636
-0.15545054 -0.12446363 -0.11778606 0.025322948 -0.1265688 -0.20972858 -0.15088311 -0.088464975
-0.034981124 -0.021875098 -0.29034245 -0.1574002 -0.10881606 -0.17784172 -0.23545092 -0.18923466
-0.043598656 -0.08874809 -0.105235726 0.06753375 -0.25694185 -0.16887474 0.011185904 -0.012769442
0.036184624 -0.15840834 -0.18334332 -0.17034781 -0.2168054 -0.09378584 -0.09155135 -0.10270577
-0.09565566 -0.30270016 -0.2236667 -0.13016695 -0.055291954 -0.059303597 -0.12963016 -0.19624504
-0.07599375 -0.19207378 -0.21878865 -0.36495316 0.050725188 -0.15515961 -0.40617695 -0.20490487
-0.11138705 -0.15442584 0.05383472 0.062206753 0.102228396 -0.054780256 -0.03787731 -0.00045574692
0.15102543 0.14884034 0.007543195 -0.091359906 -0.2999693 -0.23437208 0.028967006 0.037404247
-0.008794686 0.30097488 -0.2594768 -0.11232149 -0.15174821 -0.22663923 -0.07465322 -0.29227787

layers.0.bias f4 [128]
00000000: 6c3a e8bd df7b ea3d 4c91 8fbe 4fea ebbd
00000010: 6d23 c4bd 5ff6 3e3d d3f8 f53d 07c8 1bbb
00000020: a0cc 1e3d 5e7a 1fbe a6fc 19be 70b7 ecbc
00000030: 48cd e53d 2437 df3d ecd4 453e 467f 073e
00000040: a0d6 043e 5a23 1b3c 053a 1f3d 61f7 19bc
00000050: d2dc 08be c4ee 14be 20af c3bb 15f2 9b3d
00000060: 64f7 30be b792 12be 8675 853e bffc 823e
00000070: 9a99 4ebe 18af 37be db47 013d 2e06 7abd
00000080: 1eda 613d adb3 e9bd 4560 573e c3c5 943d
00000090: c2c1 1a3e 7d39 783d 0e03 ac3c b375 b7bd
000000a0: 5e5c 153e f961 33bd e839 503e 8655 00be
000000b0: 1f3e 503e f773 93bd 6451 083e 3ec8 3abe
000000c0: 3625 01be d2b8 92ba 1937 e03d a775 c93d
000000d0: 3f27 b53d 4517 f3bd cee8 ef3d d17b 0ebc
000000e0: 4a87 bb3c 8507 413e b5f0 443e c26b dd3c
000000f0: 3920 9e3d e93e 7d3d 52fa 743e 5760 45be
00000100: a174 26be 61ec d5bc 5e82 26be de89 1bbe
00000110: 571a 1cbe 62af bc3c 9181 383c fab2 273e
00000120: f135 303e 5e83 1bbe ae4a 4cba e2aa a83e
00000130: 7504 413e 3138 8d39 138e d93d e843 a43d
00000140: a50c ce3c c1d0 0bbd c148 383d 5f44 dabd
00000150: 2823 85bb a455 043e 281c 85bd 7b11 14be
00000160: 8a04 903e f249 02be 7f61 66bd d087 c8bd
00000170: 312c 7dbd 755e ccbd 75bf 7fbd 6f9d 113e
00000180: 1812 343e ff45 433e cf20 cabd 1993 1bbe
00000190: b11a 71be c9be 9cbd db54 a4bd 55ae 1dbe
000001a0: 34ae 48bd 0a7a 863e aace f2bd d0a8 41be
000001b0: 5050 43bd 33ff 7d3e 0730 c13d 41cf 483d
000001c0: e299 143e c5bd 0c3e f824 013e 0615 fabc
000001d0: 5fca 373e edc2 30be dc44 e3bd 4bd6 ff3d
000001e0: 281c 803d e18e 03bc 0534 7a3e 2e34 ed3d
000001f0: 4c72 ba3c 2bfd 8c3a 94da 7ebd 00ae 933c
-0.11339268 0.11449408 -0.2804054 -0.115193 -0.095770694 0.046621677 0.1201035 -0.0023770349
0.038769364 -0.15574023 -0.15037784 -0.028896064 0.11220795 0.10899189 0.19319504 0.13232145
0.12972498 0.009468878 0.03887369 -0.009397359 -0.13365486 -0.14544207 -0.0059718043 0.07614533
-0.17281872 -0.1431378 0.26066226 0.25583455 -0.20175782 -0.17937887 0.031562667 -0.06104105
0.055139653 -0.114112236 0.21032818 0.072642826 0.15112975 0.0606017 0.02099755 -0.08957996
0.14586017 -0.043794606 0.2033459 -0.12532625 0.20336197 -0.07199853 0.13312298 -0.18240449
-0.12611851 -0.0011193997 0.10948009 0.098368935 0.08845376 -0.11869673 0.11714326 -0.008696512
0.02289166 0.18850525 0.19232447 0.027028922 0.0772099 0.061827574 0.23923615 -0.19275032
-0.16255428 -0.02611369 -0.16260669 -0.15189311 -0.15244423 0.023032848 0.01126136 0.16376868
0.17208077 -0.15186831 -0.00077931106 0.32942873 0.18849356 0.00026935482 0.10622802 0.080207646
0.025152514 -0.03413463 0.04499126 -0.10657572 -0.004063029 0.12923294 -0.06499511 -0.14459793
0.28128463 -0.1272352 -0.056245323 -0.09791529 -0.061809722 -0.09978954 -0.062438447 0.14220212
0.17585027 0.1906967 -0.09869539 -0.15192832 -0.23545338 -0.07653577 -0.080239974 -0.15398534
-0.048994258 0.26264983 -0.11855824 -0.18912053 -0.047684014 0.24804382 0.094329886 0.049025778
0.14511827 0.13744266 0.12611759 -0.030527603 0.17948292 -0.17261858 -0.11097118 0.12492045
0.062553704 -0.00802967 0.24433906 0.11582218 0.02275958 0.0010756602 -0.06222017 0.018027306

layers.2.weight f4 [256, 128]
00000000: ba3c 82bc 9337 16be 622b 00bd abd7 873b
00000010: 6520 5abd 99e8 e5bd 0847 813c bb7c 02be
00000020: 5ec6 f83a d2e4 a23c e3d4 2ebe 5c26 30bc
00000030: 89ae 1fbe f423 ecbd 34a5 e7bd b4ff 4cbd
00000040: f4bd d7bd 12ab 4dbd 2c4d 08bd faac 15bd
00000050: 4f11 15bd 2986 e8bd e993 87bd aee4 0dbe
00000060: 5669 9e3d 88ec 2abc 4e00 83bc 3489 3cbe
00000070: 7898 39bc 40ca c4bd 6318 49bc c674 d9bd
00000080: f4a0 6cbe 4829 94bd 9e6c cabd 807e ba3a
00000090: 324e 0fbd d00c 5cbd e052 0abe ad45 5abd
000000a0: 0653 073c 908e 31bd 4841 1ebe e4dc c5bd
000000b0: 1666 cb3d 0a2a 95bd a848 2c3c 92a4 27bd
000000c0: 1fcc 7dbd 1bcf 94bd 2364 0cbe b04f 3cbd
000000d0: 00e9 f03b b662 23be 6cbf 8abd 9c02 edbc
000000e0: 4b7a b5bd b32f 2dbb 72c8 30bd 10b4 f13d
000000f0: 61e3 e1bd 9419 adbd 9a25 60bd 93d4 5cbd
00000100: db0d f5bd 6ed2 a5bc 80cb 613b ef2b f9bc
00000110: 8030 e6bc b4a1 a7bc 85d5 c739 44e7 ecbc
00000120: ae52 fdbd fcc9 33bc 90a7 acbd 536a d4bd
00000130: 906c 0c3c 3e66 39be f2c1 4b3d ef6a 98bd
00000140: 92ad 1fbd 844f d0bd 517d 74bd 9643 003d
00000150: 876b 90bd 6ba7 c2bd 1c6e d0bd b896 a4bd
00000160: 74c6 abbd 5c59 e43c 86f8 e8bc 24e0 92bd
00000170: 08d4 0d3d b3f9 f4bd 6724 63be 563c b2bd
00000180: d0ba 6bbd f6a3 dcbc 64b0 70bd 2137 0b3d
00000190: a6f9 d9bd 04f6 6cbd 867e 2dbe 268b abbd
000001a0: ec60 05bd 6854 27bc 96e7 bfbd 422b c8bc
000001b0: 3280 cbbc 53b8 b6bd 320b cfbd af85 febc
000001c0: 2cff a53d eb9a 773d 34f4 26be e468 f6bd
000001d0: 2289 adbd 8a37 03bd 56a5 093d 5efb 91bd
000001e0: 14bf b2bd 328d 78bd 945d 87bc 9c56 07be
000001f0: f06c b93d 79b6 72bd f256 38bd 72f1 69bd
00000200: f0c1 02bd 25e7 b43c b8b6 123c 72cf f2bd
00000210: fa98 1bbd 6b15 7fbd 4e71 96bd 1e2a f8bc
00000220: 5a52 a0bc 2425 76bc 5bb5 bbbd 76e4 643d
00000230: 0eb6 aabd beb9 07be fa46 08bd 6f12 08be
00000240: 98b7 98bd 6e6d 40bd 005c 9d3a 39bc 89bd
00000250: 35df abbd d0cf 25be 76df d6bc 7bad 35be
00000260: bc8f 7cbd ade2 03bd e069 74bd f897 b4bd
00000270: 4fed c0bd 6d04 9fbd df16 b5bd 18f7 15bc
00000280: b27b d93d 3800 5c3d 3c47 efbd 70c3 e8bd
00000290: 7efa 633d 1f11 36be 2ad0 07be 6963 b8bd
000002a0: 7c6a 86bd b088 d73b dcb7 5abd c0a0 1dbe
000002b0: aa7c b9bd 5ed2 89bd 84ae 45bd f924 81bc
000002c0: ec12 69bc 549b efbd 1e6d 49bb 8c04 d6bd
000002d0: 68eb c3bb edf6 63bd 9902 abbd cddd 783d
000002e0: b46d 00bd 714b b0bd 8d01 b0bd 3061 6f3d
000002f0: 47f9 cbbd c8e6 99bd c672 9cbd d6f9 11be
00000300: d1e5 13bd f0ed 55bb 9216 bdbd 0e2a 5cbd
00000310: e8ed 9fbc 10f3 a23b b04c a1bd f10e a4bd
00000320: 824b fdbc 89c1 85bd b481 ecbd 7558 02be
00000330: 399c 72be 56bb 7ebd 2080 163c 23c1 c9bd
00000340: 38d7 0cbe b452 39bc 3e22 5cbd c40a 98bc
00000350: 72c1 a3bd 75c3 99bd 12ab cdbc 00f6 c0b8
00000360: 12bb 123c dfca 493c 6fbe c0bd bc67 c73c
00000370: ea9c 05bd 55a5 56bd 2698 e53b c07f 993d
00000380: fa04 eabd 5d2d 85bd 1cfa 03bd 70fc a1bd
00000390: d21d e1bd 0869 fdbc 72b5 cfbd 8fc3 02be
000003a0: 0e1e b9bc b8ae e43c e704 b2bd 3c32 66bd
000003b0: 6fdc 1ebd ad39 44bd cc45 dbbd 1655 f8bd
000003c0: 7c1d 9f3d e04c 42be be29 00bd c856 c1bd
000003d0: 4752 70bd 357a 27be 412f cabd b4d1 ffbc
000003e0: 6403 f8bc dfc8 a0bd 8bb9 3dbe e08d 10bc
000003f0: 238e 2ebd 6268 0b3d aac4 eabc fcbf adbc
-0.015898097 -0.14669637 -0.031291373 0.0041455827 -0.05325355 -0.11226005 0.01578094 -0.12742893
0.0018980016 0.0198845 -0.17073397 -0.010751333 -0.15593924 -0.11530295 -0.11310807 -0.050048545
-0.105342776 -0.050211973 -0.03327672 -0.036541916 -0.03639346 -0.11353714 -0.066200085 -0.13856766
0.07734935 -0.01043237 -0.015991356 -0.18411714 -0.011327855 -0.096088886 -0.012273881 -0.10617976
-0.23108274 -0.07234436 -0.09883998 0.0014228374 -0.034986682 -0.053723156 -0.13508177 -0.053289104
0.00825954 -0.04334885 -0.1545459 -0.09661272 0.09931581 -0.07283409 0.0105153695 -0.04092843
-0.061962243 -0.07266065 -0.13710074 -0.045974433 0.0073519945 -0.15955624 -0.06774792 -0.028931908
-0.08861216 -0.0026426136 -0.04315991 0.11801922 -0.11029697 -0.08452144 -0.05472336 -0.053913664
-0.11965533 -0.020241942 0.003445357 -0.030416457 -0.028099298 -0.020462848 0.00038115322 -0.02891887
-0.123692855 -0.01097345 -0.084303975 -0.10371842 0.008570805 -0.18105409 0.049745508 -0.07442271
-0.03898389 -0.101714164 -0.059689824 0.031314455 -0.07051759 -0.09504589 -0.10177252 -0.0803656
-0.08387461 0.027874641 -0.028438818 -0.07171658 0.034626037 -0.11961689 -0.22181855 -0.087029144
-0.057551205 -0.026933651 -0.05876197 0.033988122 -0.1064332 -0.057851806 -0.16942796 -0.0837615
-0.032563135 -0.010212995 -0.093703434 -0.02443469 -0.024841402 -0.08921876 -0.10109557 -0.031069605
0.08105311 0.060450476 -0.16304094 -0.12031725 -0.08473422 -0.032035388 0.033604942 -0.071280226
-0.087278515 -0.06068153 -0.016524114 -0.13216633 0.09053981 -0.05925605 -0.045004793 -0.057115026
-0.031923234 0.022082875 0.008954696 -0.11855973 -0.037987687 -0.062276285 -0.0734583 -0.03029352
-0.019570518 -0.015023503 -0.0916545 0.05588194 -0.083355054 -0.13254449 -0.033270814 -0.13288282
-0.07456893 -0.04697936 0.0012005568 -0.06725354 -0.08392183 -0.16192555 -0.026229601 -0.17741959
-0.061660513 -0.032198597 -0.059671283 -0.08818048 -0.09420263 -0.07764516 -0.08842253 -0.00915315
0.10619296 0.053711146 -0.11683509 -0.11365402 0.05565881 -0.17779969 -0.13263002 -0.09003336
-0.06563279 0.0065775737 -0.053398 -0.15393353 -0.09056981 -0.067295775 -0.048262134 -0.0157647
-0.014225703 -0.11699548 -0.0030735205 -0.10450086 -0.0059789903 -0.05565541 -0.08350105 0.0607584
-0.03135462 -0.08608139 -0.08594046 0.058442295 -0.09959655 -0.07514721 -0.07639079 -0.14255461
-0.036107842 -0.0032643043 -0.092328206 -0.053751044 -0.019522622 0.004972823 -0.07875955 -0.08010662
-0.030919794 -0.065310545 -0.115481764 -0.12729056 -0.23692407 -0.062190376 0.009185821 -0.09851291
-0.13753974 -0.011311222 -0.053743593 -0.018559821 -0.07995881 -0.075079836 -0.025105987 -9.2010945e-05
0.008955734 0.012316435 -0.09411322 0.024341457 -0.032620348 -0.052403767 0.007006663 0.074950695
-0.114267305 -0.06502793 -0.032220945 -0.07909477 -0.10992016 -0.030933872 -0.1014203 -0.12769912
-0.022597339 0.027915344 -0.08692341 -0.05620025 -0.03878444 -0.047906566 -0.10706672 -0.12125604
0.077692956 -0.18974638 -0.03128981 -0.0944038 -0.058672216 -0.16355212 -0.09872294 -0.031227924
-0.030275054 -0.07850813 -0.1852781 -0.008822888 -0.04261602 0.034035094 -0.02865823 -0.02120971

layers.2.bias f4 [256]
00000000: 8806 473d 7cef b3bc 744d 1bbd a773 31bd
00000010: 671a fb3b 4053 303d 054f ca3b a374 80bd
00000020: 1023 f5bc 1a8c 55bd 39d1 eabd 20a6 573c
00000030: a939 153d 0cc1 b43d 8d5c a4bc bafd d03c
00000040: 2f29 9abd 422b 453d 8202 9fbd 2959 d1bd
00000050: a161 7abd 56eb f9bc 4376 33bd f73d 4b3d
00000060: 1e2d 9b3c 2a84 953d 8da5 0dbd 98ef 33bd
00000070: d9fc 02bd 3330 803c 7f1d 9bbd d173 8abd
00000080: ba71 0bbd e495 d9bd a5ed b43d f486 183e
00000090: d146 273b 0b72 313d 72eb ea3c 00e9 2ebd
000000a0: dcc7 ae3c 2c57 f73c 3b88 203d 5d58 c53b
000000b0: c7fe cfbd 9084 43bc a6c2 483c d9ef 573b
000000c0: 3c93 17bd 94a3 a0bc 4cf8 5fbd 4086 eb3b
000000d0: 4f8c adbd 3c87 133e 4972 fc3c 3a3e ef3b
000000e0: 77d0 0dbc 8052 bf3a da88 9fbd 3185 e73b
000000f0: 1cd0 aebd 35ef afbd eea1 acbc fb6e 9fbd
00000100: e5d8 aabc 5373 2a3d 5b59 a03c 6216 62bd
00000110: 4ba3 32bc b5af 7d3d f072 633c b0b4 b6bc
00000120: 4457 213d 7dca 76bc 58fe b7bd d627 13be
00000130: 8a75 613d 0c47 50bd 57be dcbd 781b b8bd
00000140: 4cc0 96bc cdd0 2c3d ee5e 5bbd d20b 7a3e
00000150: cc2f d23c 33c4 9ebc 5371 0fbd a2a4 e13b
00000160: 8f33 253d 5da3 3ebd 8fff d3bd 809a a3bc
00000170: 96ac 773b 3cfd 4e3d e731 abbd 48cf f0bd
00000180: 14b7 4dbd af81 253d 68c7 54bc 2818 89bc
00000190: d91d 10bc b7ba cd3d 3574 97bc 7360 093e
000001a0: 721f c7bc d0b9 f93c b7bb c1bd 753b 323c
000001b0: 1680 86bd 85f1 95bc ca26 483d 5127 5f3b
000001c0: 6e93 86bc c710 403e 9bf1 2bbc 91ef ccbd
000001d0: c269 453d 40a3 fa3b b1fa 2cbb ce3a 90bd
000001e0: 28b5 c03d 1b67 03bd 531c 80bd 1f72 c13c
000001f0: 19e1 60bc 55c8 323b 49a7 75bc 5014 a5bd
00000200: 024f a4bd 56d9 b5bd acf5 bcbd 5354 3fbc
00000210: c68e efbb 8ac5 82bc f421 17bd f727 5dbd
00000220: cd93 88bd 4f67 96bb 80fc d73c b52a 493d
00000230: 6116 9a3c ddf1 6cbd 5994 953c e66b b6bc
00000240: edf7 483d b22a 82bd 0985 aa3c 0165 013d
00000250: 2c2d 023d 989b 933c b5f1 383d 888f 1bbc
00000260: 7d69 5ebd 2266 2bbd d993 2fbd f323 6c3d
00000270: a6f8 d93c e8c4 acbd eb17 cb3c 4307 043d
00000280: 8ae6 ddbd d0c2 333d d052 25bd 28f7 21be
00000290: 69c7 29bd 8bea b73e 6c3d 6dbd cb22 d8bc
000002a0: 4a33 a7bd 9a14 96bc a063 87bd 6de1 5c3b
000002b0: 9d01 17bc b09d 92bd e385 5cbd 92ef ad3c
000002c0: 5f1f b83c 31f2 80bd 0b5b fa3c 50fe 47bd
000002d0: 9a2e 26bc f516 a9bd d3a0 82bd 702f 453d
000002e0: 3ab6 8abc 711c 923c 06d0 873d 3aa7 46be
000002f0: f8ef 12bc 31e7 89bd 0554 8ebd 2b0d e5bc
00000300: 7754 37bd a1c6 2fbd e4ee 0cbd 2a74 d0bd
00000310: bd4e 76bc 85a8 abbb 0445 6bbd 030d 173c
00000320: 3cbe 25bd 0534 9bbd 3ebc 883d d5fe 193d
00000330: 969c 9a3d 5b86 83bd 0fab d7bc 4072 c73d
00000340: 4ab2 eb3d 315b 68bd d38a c6bc 3caf 84bd
00000350: 3422 fa3c 3718 a53c ce43 22bd 74e8 0e3d
00000360: 5833 bcbb f9be e93c 1951 953c d89c 913c
00000370: ce64 633d 68bf 293d c856 c13c 4ee1 67bd
00000380: 84b4 47bc b907 d6bd 0eaa 23bd 0063 a13b
00000390: 078b 0dbe 9085 77bc da4a d93d f2b5 6e3d
000003a0: af1b 9abc 3263 adbd 3fa8 52be fc91 59bd
000003b0: 2df4 8ebd c88a 2bbd 95ef b2bc a560 b43c
000003c0: faff debd e2e6 a63c 2b90 d8bd f208 e5bc
000003d0: 5da4 333c ef07 383d 08d1 553d 1cfc 46bd
000003e0: 7efa f33c 2365 3cbd 2f79 5dbd 2669 2d3d
000003f0: b2bf 453d 37e7 5fbd 7014 273d 2c00 3b3b
0.048590213 -0.021964781 -0.037915662 -0.043323185 0.0076630595 0.043048143 0.0061739706 -0.06272247
-0.029923946 -0.052135564 -0.11465687 0.013162166 0.036431942 0.08825883 -0.020063663 0.025511611
-0.075273864 0.048136957 -0.0776415 -0.10222084 -0.061128262 -0.030507725 -0.043813955 0.04961964
0.018942412 0.07300599 -0.03458171 -0.043929666 -0.031979416 0.015647983 -0.07573985 -0.067603715
-0.034044005 -0.106242925 0.088343896 0.1489523 0.0025524388 0.04332165 0.028676722 -0.042702675
0.021335535 0.030192934 0.03919242 0.0060224966 -0.10156017 -0.011933461 0.012253439 0.0032949357
-0.037005648 -0.01960925 -0.054680154 0.0071876347 -0.08474027 0.14407057 0.030816214 0.007301119
-0.008655659 0.001459673 -0.07789774 0.007065438 -0.085357875 -0.08590547 -0.021073308 -0.0778484
-0.020855376 0.041613888 0.019573858 -0.055197127 -0.01090319 0.061935145 0.013882384 -0.022302955
0.039389864 -0.015062925 -0.08984059 -0.14370665 0.055043735 -0.050849006 -0.10778492 -0.08989614
-0.018402241 0.042191315 -0.05355733 0.24418572 0.025657557 -0.019380664 -0.035020184 0.006886081
0.040332373 -0.046542514 -0.10351478 -0.019971132 0.0037792078 0.050534472 -0.083591275 -0.11758286
-0.050223425 0.04040688 -0.012986995 -0.016735151 -0.008796179 0.10045379 -0.018488029 0.13415699
-0.024306986 0.03048411 -0.09459632 0.0108784335 -0.06567399 -0.018303642 0.048865117 0.0034050534
-0.016427722 0.187564 -0.010494615 -0.10006631 0.04819656 0.0076488554 -0.002639454 -0.07042466
0.09409553 -0.03208075 -0.062554024 0.023613987 -0.013725542 0.0027280052 -0.014993497 -0.08060515
-0.08022882 -0.08879344 -0.09226546 -0.011677819 -0.007310721 -0.015963335 -0.036897615 -0.05399319
-0.06668816 -0.004589952 0.026365519 0.049112994 0.0188095 -0.057847846 0.018259214 -0.022268247
0.049064565 -0.063558 0.02081539 0.031590465 0.03178136 0.018018529 0.045152385 -0.00949467
-0.05429982 -0.04184545 -0.042865608 0.05765147 0.026607823 -0.084359944 0.024791678 0.032233488
-0.108349875 0.04388696 -0.04036218 -0.15816939 -0.041449938 0.3592113 -0.057919905 -0.026383778
-0.081640795 -0.01832037 -0.06610799 0.00337037 -0.009216693 -0.07158983 -0.05383862 0.0212324
0.022475896 -0.06296194 0.03056099 -0.048826516 -0.010142947 -0.08256332 -0.06378331 0.048140943
-0.016932596 0.017835828 0.06631474 -0.1939973 -0.008968346 -0.067335494 -0.06949619 -0.02796038
-0.044758286 -0.042914037 -0.03440751 -0.101784065 -0.015033421 -0.005238595 -0.057438865 0.009219411
-0.040464625 -0.07578281 0.06676529 0.037596542 0.07549398 -0.06422111 -0.026326684 0.09738588
0.11508615 -0.056727592 -0.024236118 -0.06478736 0.030533887 0.020153148 -0.039615445 0.034889653
-0.0057434253 0.028533446 0.018227147 0.017774984 0.055516057 0.041442305 0.02360095 -0.05661135
-0.012189034 -0.10450692 -0.0399571 0.004925132 -0.13822566 -0.015107527 0.1060998 0.058278985
-0.018812029 -0.08466186 -0.20571993 -0.053117737 -0.069801666 -0.0418804 -0.021842757 0.02201874
-0.108886674 0.020373765 -0.10574373 -0.027958367 0.01096448 0.04492944 0.0522013 -0.048580274
0.02978253 -0.04599489 -0.054070648 0.042336605 0.048278518 -0.054663863 0.040790975 0.0028534038

layers.4.weight f4 [2, 256]
00000000: 1dd3 00bc 85ed a2bf 68b0 8cbf 5e6b f0be
00000010: 49a5 b0be d352 6cbf 43a6 01bf 06e8 cbbf
00000020: 1fa8 debf 9eb3 d93e db71 c03d f467 01bf
00000030: 65d9 d1be 4d56 1bbf 7b55 47bf dda6 0abf
00000040: 5c19 c5bd b7bd 37bf 71ac 3cbf 3191 2f3e
00000050: bdee 56bf b856 a53e c977 2bc0 2624 07bf
00000060: d84e 893e 87c1 f7bd 0895 bebe 3d87 99bf
00000070: 0251 6bbf 499f 793e 4270 6bbe 860e 88bf
00000080: ef4a 89bf 7152 7dbf df77 623f 87b2 4fbf
00000090: 7e69 98bf 6acb 45bf 5a54 28bf 8b6d 563e
000000a0: 527a 20c0 99f6 a7bf 7e07 ad3d 4c26 22bf
000000b0: 774c cf3a d8eb 69be 0235 febf d090 9bbf
000000c0: 9fdd 24bf 9b9f 04c0 550e 6dbe 00c3 a6bf
000000d0: 1763 12bf 2e25 463f f283 9cbf 121a 0ebf
000000e0: 877c 03bf 9232 9ebf 46f6 babf 4c81 91bf
000000f0: 43a8 75bf 6850 88bf 8a77 45bf a2e3 6abe
00000100: ac45 5abf bdf4 d1be 5c9b 4ebf 5fe6 1abf
00000110: a2e8 c2bd ac5b 683e 9681 aebe 250b 7b3e
00000120: b2ad 813e 9310 323e fabf 32bf 5af4 833f
00000130: ba6d e1bf 473f a5bf d4ce 90bf e428 c8bf
00000140: 8682 e6be 6c7a a1bf 35b4 eebf 970a 84be
00000150: b702 853d 848a b33e 98db c1bf abb6 153e
00000160: 3d17 e5bf de3c 53bf ea80 263e 36b2 05be
00000170: ffe5 67bf 10eb c4bf 5e72 52bf 5ee0 10c0
00000180: 5570 9cbf ab38 0ec0 1a5c 8cbe 4457 a1bf
00000190: f50b 97bf 64f6 0cbf b7a3 e0bf 8beb 393f
000001a0: fd5a 0abf f969 27be 8138 81be 8ecd 23bf
000001b0: bc43 a1bf b100 57bf 65cf ddbe 9b43 b13e
000001c0: 8ebc 23bf 5ae2 443d 3548 e43e de20 66bf
000001d0: 5e30 aebf a3e3 eabd 51c8 7cbf bbeb 46bf
000001e0: 099d 50bf 4b05 bdbd c01a 2f3f 5dca 22bf
000001f0: bd13 643f cf39 85be 6aa4 233f d854 883e
00000200: b3f2 aabf ae77 353f 8cac b4bf f93c c4be
00000210: 5ae4 98bf e9e6 40bf 234f 4e3e 468a 4abf
00000220: f846 4bbf d080 bc3e d0a2 42bf f871 7bbf
00000230: 51dc 10bf 4a43 f5bf b66f efbe 19a5 94bf
00000240: 0d0c 9abf 00e0 68bf d00d 5fbf 1a71 31c0
00000250: 792b e1ba 5218 16bf 85e0 803d cf87 a3bf
00000260: acee 69bd 09a4 19bf 1f0f a9be e028 81be
00000270: 9118 afbe de7d 87bf 38ab 13bf d36c 84bf
00000280: e4b7 6abe 2ac3 fe3e 7cbf e3bf ef30 0ebf
00000290: faa9 1d3f d2f3 33bf 4619 e2bf 98e6 38bf
000002a0: 58e3 a53e ac60 0dbf 0f2c 6fbf cff3 7b3e
000002b0: cfc8 0abd 35dd 22bf 690c 45bf 348c 3cbf
000002c0: e28e 0cbf f194 a7bf 4e3d 41bf 2179 21bf
000002d0: c205 cfbf a1aa 42be abbb d0be 240e b0bf
000002e0: e189 94bf f1bb 8bbf 2a5c 28bf f2a8 cbbf
000002f0: 1577 64bd 9123 fdbe 5d37 b43e 5e8a afbf
00000300: 0521 acbf 40a9 4cbf 9b56 f2bc 965c 19c0
00000310: dd90 cdbf e94d 97bf 05e8 c4bf dbb3 0dbf
00000320: 30f2 d4bf 39d1 aabe 99cc 99bf 92b6 9dbf
00000330: ea92 c43e cc1d b8bf b95b 1dbf 5834 0c3c
00000340: efec 6f3e 74af 353c 630c b4bd 211d 73bf
00000350: 95f5 8abe 2c46 efbf 3287 ffbf a04f 95bf
00000360: c328 c0bf e02b f23e 93c8 f03e be42 1abd
00000370: 1154 dcbe c7e1 a2bf 5b2c bdbe 0a3d 603e
00000380: 1580 86be e964 133d ea72 e1bf d523 e93d
00000390: d631 d0bf 4273 dcbe d66d a1be e074 0ebf
000003a0: 0505 bfbe eb94 8ebf 9e6a f93e 06d0 07c0
000003b0: 58df fbbe 3187 82bf ad22 35bf cea1 6cbf
000003c0: 3135 a13f fa8d b2bf 0235 7ebf 750f 08bf
000003d0: 4e56 4fbe 0360 0c3e a7d9 88bf 31e4 99bf
000003e0: dbb7 ccbe 1e67 4abf 1262 48bf 2ae4 1fbe
000003f0: c43f 85bf 2ee9 5abe dd35 06bf 922e 74bf
-0.007862833 -1.2728735 -1.0991335 -0.46956915 -0.34501103 -0.9231388 -0.5064432 -1.5930183
-1.7395056 0.4251985 0.09396716 -0.50549245 -0.4098617 -0.6067856 -0.7786481 -0.54160863
-0.096239775 -0.71773857 -0.73700625 0.1714523 -0.83958036 0.32292724 -2.679186 -0.52789533
0.26817966 -0.12097459 -0.37223077 -1.1994396 -0.91920483 0.24377169 -0.22992042 -1.0629432
-1.0725993 -0.9895392 0.8846416 -0.81131786 -1.1907194 -0.7726351 -0.6575371 0.20940225
-2.5074658 -1.3122131 0.08448695 -0.63339686 0.0015815635 -0.22843874 -1.9859927 -1.2153568
-0.64400667 -2.0722415 -0.23149998 -1.3028259 -0.5718245 0.7740048 -1.2227767 -0.5550853
-0.5136189 -1.2359183 -1.4606407 -1.1367583 -0.9595987 -1.0649538 -0.7713553 -0.22938398
-0.8526256 -0.41007033 -0.8070581 -0.6050777 -0.095170274 0.2269122 -0.3408324 0.2451597
0.25327832 0.17389135 -0.69824183 1.0308945 -1.7611611 -1.2909936 -1.1313119 -1.5637479
-0.45021456 -1.2615485 -1.8648745 -0.2578933 0.064946584 0.35066617 -1.514514 0.14620464
-1.7897717 -0.8251475 0.16260114 -0.13056263 -0.9058532 -1.5384235 -0.8220576 -2.2636943
-1.2221781 -2.2222087 -0.27414018 -1.2604756 -1.1800524 -0.5506346 -1.7549962 0.72625035
-0.5404509 -0.16349019 -0.25238422 -0.63985527 -1.2598796 -0.8398543 -0.43322292 0.3462189
-0.63959587 0.04806743 0.4458634 -0.898939 -1.360851 -0.114691995 -0.9874316 -0.77703446
-0.81489617 -0.09229525 0.6840019 -0.6359003 0.8909262 -0.26020667 0.6392275 0.2662723
-1.3355316 0.7088574 -1.4115157 -0.38327768 -1.1944687 -0.7535234 0.20147376 -0.7911724
-0.79405165 0.36817026 -0.7602968 -0.9822078 -0.56586176 -1.916116 -0.46764916 -1.1612884
-1.2034928 -0.90966797 -0.8713045 -2.7725282 -0.0017179094 -0.5863086 0.06292824 -1.277582
-0.05711238 -0.6001592 -0.3301935 -0.25226498 -0.3419843 -1.0585287 -0.57683134 -1.034571
-0.22921711 0.49758273 -1.7792811 -0.55543417 0.6158749 -0.70293915 -1.7663963 -0.7222686
0.32400012 -0.55225635 -0.93426603 0.24604724 -0.033882912 -0.63618785 -0.7697206 -0.73651433
-0.5490552 -1.3092328 -0.7548417 -0.63075453 -1.6173632 -0.19010402 -0.4076818 -1.3754315
-1.1604577 -1.091673 -0.6576563 -1.5910933 -0.055777628 -0.49441198 0.3519849 -1.3714101
-1.3447577 -0.79945755 -0.029582312 -2.396276 -1.6059834 -1.1820651 -1.5383307 -0.5535256
-1.663641 -0.3336275 -1.2015563 -1.2321341 0.38393337 -1.4384093 -0.6146808 0.008557402
0.23430227 0.011089195 -0.08791425 -0.9496632 -0.2714049 -1.869329 -1.9963133 -1.1664925
-1.501244 0.472991 0.47028026 -0.037661307 -0.43032888 -1.2725152 -0.36947903 0.21898285
-0.26269594 0.035984907 -1.7613194 0.113837875 -1.6265209 -0.43056685 -0.3152911 -0.5564709
-0.37308517 -1.1139196 0.48714155 -2.1220717 -0.49193835 -1.0197507 -0.70756036 -0.92434394
1.2594358 -1.3949578 -0.99299634 -0.53148586 -0.20247766 0.137085 -1.0691422 -1.2022763
-0.3998402 -0.79063594 -0.78274643 -0.15614381 -1.0410085 -0.21378013 -0.5242594 -0.9538356

layers.4.bias f4 [2]
00000000: 0b78 4b3d 77e6 813d
0.04967503 0.06342786
