results/checkpoint_0_actor_local.pt (torch_old, 86443 bytes, 14 tensors)

layers.0.weight f4 [128, 24]
-0.19104469 0.26685065 -0.08407494 0.033299845 -0.11609005 0.09450306 -0.17309591 0.13087234
-0.008658217 0.43115607 -0.17771597 0.090403244 -0.19744207 0.13580072 -0.089453 0.015501285
-0.3728519 0.42053896 -0.06334457 -0.12140709 -0.2505566 0.18388309 0.0272681 -0.056926265
0.1080332 -0.19329736 -0.01234103 -0.08775792 -0.574736 -0.5229376 -0.018632166 0.0039508287
0.18359578 -0.15337005 0.030205365 0.011487653 -0.31997064 -0.16715996 0.024002723 0.06566735
0.32824233 0.012904179 -0.013376504 -0.007857451 -0.21864785 0.14849761 0.057056516 0.04571803
-0.19790462 0.44680768 -0.007241667 -0.09822424 -0.082745 -0.27026805 -0.066171646 -0.098908186
-0.026286403 0.40396369 -0.001127083 -0.14437145 -0.27701572 -0.49393854 0.0046455297 -0.008989339
-0.08531565 0.13667598 0.07520889 -0.094742455 -0.625963 -0.68160826 -0.05459139 -0.15257156
-0.37261444 0.10302868 0.06921406 0.004686489 0.45051074 -0.107454084 -0.045321796 -0.034685217
-0.23045164 0.0899736 -0.10046398 -0.118461885 0.2662478 -0.009493112 0.012720697 -0.013734681
-0.13123572 -0.11769766 0.03565982 -0.32200414 0.102496974 0.23698966 -0.075397074 -0.24425998
0.059265316 0.30869395 0.0025342086 0.29042834 -0.33019194 0.4765724 -0.11179925 0.342882
-0.056933332 0.390936 -0.09436104 -0.02394276 -0.16802005 0.23522928 -0.105696514 0.023587024
-0.13095325 0.27878892 0.13584723 -0.13089395 -0.120969325 -0.076926425 0.050048042 -0.08466996
-0.080949664 -0.158243 0.0034261362 -0.07093338 0.58020204 -0.13104068 -0.011928427 0.027365677
-0.042990528 -0.043957453 -0.04437955 -0.036163654 -0.028598435 0.016797181 0.035862092 0.0064270133
0.20335189 -0.037898697 0.00012190073 0.009504401 -0.8936705 0.15926737 -0.013683076 -0.05277021
0.11576762 0.4695958 0.037778087 0.047772884 -0.33903128 -0.76459944 -0.04446994 -0.00891861
0.12061633 0.47501707 0.05243517 0.16512148 -0.19868095 -0.47777417 0.024286063 0.14637055
0.19579016 0.5853515 -0.040427934 -0.018958455 0.14801033 -0.059484392 0.0041495836 0.0047179274
-0.15316573 0.13896286 0.022847079 -0.15257606 0.09499081 0.21003988 -0.027701158 -0.01039258
-0.13325708 0.31307337 -0.0066510933 -0.0014088801 -0.073500246 0.2939906 0.047349215 -0.045842845
-0.013660523 0.31234205 0.02124676 -0.0024808066 -0.6848582 0.5451604 0.02365028 0.082656875
0.12672822 0.54427516 -0.06968796 -0.1462037 0.10402592 -0.012841049 -0.08900557 -0.20520826
0.21479255 0.2777121 0.03689022 -0.21187648 0.08999267 0.47488415 -0.06103977 -0.16086361
0.07934772 0.19870774 -0.28027046 0.048583884 -0.0875515 0.3703868 -0.26123595 0.027958503
-0.089687504 0.16539064 -0.09769437 0.009914821 0.23762421 -0.3830648 -0.07048881 5.8783204e-05
-0.14887778 0.23997869 0.038414698 0.28429115 0.07306046 -0.420421 -0.08757277 0.39326197
-0.29740706 0.38429156 -0.12828746 -0.023400122 0.18317144 -0.16191204 -0.027121034 -0.10124189
-0.19799176 0.08557832 0.023142051 -0.09306431 0.07589277 0.70603853 -0.019366687 -0.12369813
-0.037959673 0.12215641 -0.051570334 -0.18187009 -0.14705868 0.50890476 -0.029883144 -0.043246012
00000000: 38a1 43be a6a0 883e 7b2f acbd 6b65 083d
00000010: 9fc0 edbd d28a c13d 0e40 31be 6603 063e
00000020: 32db 0dbc 7dc0 dc3e 2dfb 35be 5625 b93d
00000030: 412e 4abe 580f 0b3e 2233 b7bd 1af9 7d3c
00000040: 72e6 bebe e250 d73e ccba 81bd 48a4 f8bd
00000050: f448 80be d94b 3c3e 5a61 df3c 842b 69bd
00000060: 8340 dd3d beef 45be 0832 4abc 6dba b3bd
00000070: e621 13bf 3ddf 05bf 7ca2 98bc f475 813b
00000080: 8800 3c3e 0a0d 1dbe 3e71 f73c b536 3c3c
00000090: 31d3 a3be fb2b 2bbe 5ca1 c43c 9b7c 863d
000000a0: 610f a83e 0d6c 533c 2029 5bbc 8abc 00bc
000000b0: 39e5 5fbe c20f 183e 18b4 693d d442 3b3d
000000c0: 82a7 4abe fac3 e43e 814b edbb ca29 c9bd
000000d0: 3676 a9bd 9360 8abe 0085 87bd 6090 cabd
000000e0: 9556 d7bc 54d4 ce3e a1ba 93ba 1cd6 13be
000000f0: 01d5 8dbe 83e5 fcbe 8739 983b 0548 13bc
00000100: f9b9 aebd caf4 0b3e 1e07 9a3d 5508 c2bd
00000110: 1c3f 20bf e17d 2ebf 399b 5fbd b83b 1cbe
00000120: 52c7 bebe b300 d33d 1ac0 8d3d 1e91 993b
00000130: 58a9 e63e e310 dcbd 59a3 39bd 1612 0ebd
00000140: 84fb 6bbe 1444 b83d 0fc0 cdbd 259c f2bd
00000150: a251 883e ff88 1bbc 786a 503c 6d07 61bc
00000160: a862 06be 790b f1bd 0810 123d badd a4be
00000170: efe9 d13d 6bad 723e c869 9abd 4a1f 7abe
00000180: 30c0 723d 220d 9e3e f714 263b 06b3 943e
00000190: eb0e a9be 4c01 f43e 01f7 e4bd 3b8e af3e
000001a0: ed32 69bd c328 c83e 5c40 c1bd 9b23 c4bc
000001b0: 730d 2cbe f2df 703e 6a77 d8bd 9339 c13c
000001c0: 9c18 06be 6cbd 8e3e 891b 0b3e 1009 06be
000001d0: c4be f7bd 9a8b 9dbd 2dff 4c3d 7267 adbd
000001e0: f0c8 a5bd 740a 22be 0789 603b 8545 91bd
000001f0: 1f88 143f 872f 06be 736f 43bc fc2d e03c
00000200: d616 30bd bb0c 34bd 55c7 35bd 5720 14bd
00000210: 4447 eabc 3e9a 893c 21e4 123d b299 d23b
00000220: 7a3b 503e aa3b 1bbd f5a4 ff38 59b8 1b3c
00000230: 97c7 64bf fc16 233e fb2e 60bc 9325 58bd
00000240: 9317 ed3d dc6e f03e 32bd 1a3d 80ad 433d
00000250: 8295 adbe cabc 43bf 1d26 36bd 5d1f 12bc
00000260: b205 f73d 7035 f33e 43c6 563d 9b15 293e
00000270: 0573 4bbe d19e f4be 91f3 c63c 29e2 153e
00000280: 377d 483e 99d9 153f c397 25bd c34e 9bbc
00000290: 0590 173e e8a5 73bd 3bf9 873b d898 9a3b
000002a0: 7ad7 1cbe 484c 0e3e cc29 bb3c e63c 1cbe
000002b0: 8b8a c23d b214 573e 8aed e2bc a445 2abc
000002c0: 8b74 08be 274b a03e 6af1 d9bb 2caa b8ba
000002d0: 4c87 96bd f085 963e 40f1 413d b5c5 3bbd
000002e0: 63d0 5fbc 4ceb 9f3e af0d ae3c 0795 22bb
000002f0: de52 2fbf a28f 0b3f 3bbe c13c 0248 a93d
00000300: 0bc5 013e 9e55 0b3f 90b8 8ebd 6cb6 15be
00000310: 8b0b d53d 4363 52bc 8d48 b6bd 1d22 52be
00000320: 94f2 5b3e 4830 8e3e 331a 173d 26f6 58be
00000330: 144e b83d 0424 f33e d604 7abd 6eb9 24be
00000340: 0f81 a23d 0b7a 4b3e 9c7f 8fbe e5ff 463d
00000350: 334e b3bd 57a3 bd3e b8c0 85be 3b09 e53c
00000360: 15ae b7bd 2a5c 293e fc13 c8bd c671 223c
00000370: c353 733e 1221 c4be 705c 90bd fc8d 7638
00000380: 6b73 18be f9bc 753e bb58 1d3d 9c8e 913e
00000390: b9a0 953d 6c41 d7be 5a59 b3bd a259 c93e
000003a0: bd45 98be ddc1 c43e ca5d 03be 9db1 bfbc
000003b0: 4b91 3b3e 45cc 25be ee2c debc e857 cfbd
000003c0: 5abe 4abe b043 af3d 6694 bd3c 8098 bebd
000003d0: ab6d 9b3d f1be 343f e3a6 9ebc 7255 fdbd
000003e0: 9a7b 1bbd 242d fa3d 6a3b 53bd 273c 3abe
000003f0: 8d96 16be 9547 023f 7fcd f4bc bb22 31bd

layers.0.bias f4 [128]
-0.14782013 0.182613 0.15479335 -0.18368466 -0.038738687 -0.18563178 0.19597958 -0.023348918
0.011827143 0.17827757 0.067040876 -0.1663325 -0.17158912 0.047529664 -0.14505062 0.037956927
0.07256436 0.19654311 0.12510759 0.093721986 -0.16793498 0.1844146 -0.10388387 0.010450989
-0.17784676 0.08754948 -0.039206754 0.15728547 0.109724544 -0.12341325 0.029775498 -0.18197067
0.0014666958 0.16982186 -0.15431763 0.08138074 -0.047910523 0.06016584 0.18525626 0.18112329
0.20411533 0.14653106 0.07251768 -0.17552039 0.07470691 0.010287695 -0.08656071 -0.12275649
-0.17856513 0.14413884 -0.067870565 0.0918826 -0.103558816 -0.031868413 -0.0013720302 -0.17984615
0.0027562217 -0.14939734 -0.15414727 -0.1705388 0.013417786 -0.01236686 0.1769627 -0.143256
-0.06293788 -0.18884136 0.1721013 -0.20065318 -0.0046070362 0.12736718 0.021423232 -0.20346682
-0.007961983 0.107994504 -0.17318766 0.02810279 -0.054460384 0.066522166 -0.15764087 0.035706554
0.1375379 -0.003916363 0.15116982 0.14950529 -0.14717448 -0.1065972 0.024468267 0.015816513
0.19227801 -0.055328544 -0.031269312 -0.19138071 -0.034169506 -0.18632306 -0.14233209 -0.13387235
0.16413361 0.10458431 0.0024540052 -0.060262676 -0.12029596 0.13480185 0.040548246 0.026525117
0.08128349 -0.059375573 0.14977276 -0.20242433 0.12368718 -0.15592426 0.0010072615 -0.06573021
0.012237672 0.026460052 -0.18947007 -0.124089256 0.16342463 0.05444284 0.1897847 -0.05538842
0.15350395 -0.17045622 -0.058085006 0.08506547 0.18970257 -0.065058075 -0.04249491 0.042699285
00000000: 295e 17be e7fe 3a3e 2682 1e3e d517 3cbe
00000010: 75ac 1ebd 4216 3ebe dfae 483e 3b46 bfbc
00000020: a2c6 413c 658e 363e ba4c 893d 1153 2abe
00000030: 0fb5 2fbe 77ae 423d 2688 14be b978 1b3d
00000040: a09c 943d 9942 493e 341c 003e 50f1 bf3d
00000050: 26f7 2bbe 2ed7 3c3e 11c1 d4bd a03a 2b3c
00000060: 761d 36be 244d b33d 4397 20bd 710f 213e
00000070: 43b7 e03d 16c0 fcbd bfeb f33c 8556 3abe
00000080: 253e c03a c8e5 2d3e 7105 1ebe f2aa a63d
00000090: d33d 44bd 7570 763d d1b3 3d3e 6278 393e
000000a0: 9c03 513e 3d0c 163e 2684 943d 9ebb 33be
000000b0: f0ff 983d b88d 283c be46 b1bd c167 fbbd
000000c0: c7d9 36be 2299 133e b9ff 8abd f22c bc3d
000000d0: a516 d4bd 7488 02bd b2d5 b3ba 9729 38be
000000e0: baa1 343b 9efb 18be c8d8 1dbe b9a1 2ebe
000000f0: 46d6 5b3c 5f9e 4abc b635 353e b3b1 12be
00000100: 93e5 80bd a15f 41be 533b 303e 0778 4dbe
00000110: 9ff6 96bb 8b6c 023e c67f af3c 9b59 50be
00000120: fa72 02bc 392c dd3d 1b58 31be d237 e63c
00000130: da11 5fbd c63c 883d 9c6c 21be 0941 123d
00000140: bcd6 0c3e d654 80bb 43cc 1a3e ea17 193e
00000150: e8b4 16be a24f dabd ad71 c83c a291 813c
00000160: 87e4 443e 2fa0 62bd 4014 00bd 4ef9 43be
00000170: 53f5 0bbd 79cb 3ebe 81bf 11be d515 09be
00000180: a412 283e 4c30 d63d 60d3 203b ffd5 76bd
00000190: ba5d f6bd 7f09 0a3e eb15 263d 344b d93c
000001a0: f577 a63d cd33 73bd 085e 193e 5348 4fbe
000001b0: b44f fd3d 9caa 1fbe 1606 843a 8f9d 86bd
000001c0: 8480 483c c0c2 d83c 7104 42be 8222 febd
000001d0: c958 273e 75ff 5e3d ec56 423e f8de 62bd
000001e0: 2430 1d3e 138c 2ebe 8bea 6dbd ce36 ae3d
000001f0: 6441 423e 2b3d 85bd 250f 2ebd 72e5 2e3d

layers.1.weight f4 [128]
0.21201858 0.7823813 0.26213723 0.4592302 0.3465397 1.0028977 0.56011885 0.5259293
0.39945924 0.492499 0.4183774 0.48685595 0.16438031 0.32390812 0.7958564 0.7742153
0.42550352 0.21025313 0.26363564 0.7735209 0.47057772 0.19738948 0.43076357 0.05897915
0.38773274 0.39518705 0.25936192 0.27038482 0.40455693 0.58576465 0.51415324 0.44570795
0.1783501 0.6110236 0.23180936 0.22171101 0.61860335 0.28718388 0.22391249 0.035701174
0.3900312 0.31852576 0.6405597 0.27342293 0.39688638 0.27454078 0.5410229 0.19770451
0.3551168 0.47205114 0.36551577 0.6250601 0.65597403 0.34979185 0.2293801 0.44818392
0.38403854 0.1993359 0.6365079 0.3258702 0.47291985 0.38639775 0.50380427 0.57366157
0.31959003 0.47925946 0.5789369 0.65366364 0.36690298 0.43228507 0.7115144 0.37991348
0.46709758 0.23751797 0.6247827 0.31204507 0.39533928 0.2923188 0.32984564 0.22305013
0.14401159 0.5241734 0.18920518 0.48650518 0.2602721 0.48136953 0.683681 0.31000555
0.36426312 0.30869308 0.37624976 0.6261059 0.40918285 0.39598164 0.36407268 0.51485604
0.780928 0.6242363 0.66974413 0.5761951 0.09155699 0.45099786 0.39199015 0.36247805
0.2931258 0.31532001 0.8658741 0.3489011 0.3243047 0.33125666 0.42274842 0.4521142
0.9618712 0.43353593 0.45189694 0.40616646 0.31079307 0.20455311 0.28418112 0.47346961
0.57892084 0.22510774 0.7460636 0.59897333 0.21229501 0.17178498 0.25088856 0.24032474
00000000: 661b 593e 244a 483f da36 863e 3920 eb3e
00000010: a76d b13e f45e 803f f363 0f3f 4da3 063f
00000020: ec85 cc3e d428 fc3e 9035 d63e 2f45 f93e
00000030: 5053 283e 49d7 a53e 3fbd 4b3f f932 463f
00000040: 99db d93e 994c 573e 40fb 863e 7705 463f
00000050: 90ef f03e 7820 4a3e 0b8d dc3e 1f94 713d
00000060: e884 c63e f555 ca3e 16cb 843e e16f 8a3e
00000070: 1622 cf3e acf4 153f 8c9f 033f d533 e43e
00000080: 69a1 363e 0b6c 1c3f 6f5f 6d3e 3608 633e
00000090: ca5c 1e3f c409 933e 5149 653e 653b 123d
000000a0: 2bb2 c73e cf15 a33e b8fb 233f 17fe 8b3e
000000b0: b134 cb3e 9c90 8c3e 7a80 0a3f 0d73 4a3e
000000c0: dfd1 b53e b0b0 f13e e224 bb3e f003 203f
000000d0: eaed 273f eb17 b33e 9ee2 6a3e 5d78 e53e
000000e0: b3a0 c43e b61e 4c3e 2ff2 223f 75d8 a63e
000000f0: 8d22 f23e edd5 c53e 51f9 003f 7cdb 123f
00000100: 4ea1 a33e 7f61 f53e 3535 143f 8056 273f
00000110: b5da bb3e 7854 dd3e cf25 363f 0584 c23e
00000120: 6a27 ef3e e937 733e c2f1 1f3f 5fc4 9f3e
00000130: e969 ca3e cfaa 953e 87e1 a83e 4167 643e
00000140: c677 133e 3a30 063f 01bf 413e 3517 f93e
00000150: 6242 853e 1176 f63e b805 2f3f 0cb9 9e3e
00000160: b280 ba3e 050d 9e3e cfa3 c03e 7a48 203f
00000170: 6a80 d13e 1bbe ca3e bc67 ba3e 9bcd 033f
00000180: e6ea 473f f3cd 1f3f 5a74 2b3f 8681 133f
00000190: 3b82 bb3d 31e9 e63e efb2 c83e b996 b93e
000001a0: 9614 963e a071 a13e eda9 5d3f 2aa3 b23e
000001b0: 440b a63e 799a a93e 7b72 d83e 837b e73e
000001c0: 313d 763f 6cf8 dd3e 095f e73e 0df5 cf3e
000001d0: 4520 9f3e 5f76 513e 3080 913e 9c6a f23e
000001e0: 2834 143f a582 663e 06fe 3e3f 5156 193f
000001f0: dd63 593e 67e8 2f3e 7774 803e b017 763e

layers.1.bias f4 [128]
-0.14666116 -0.6321066 0.026572257 0.060625855 -0.20064542 -0.07179445 -0.40991843 -0.40044883
-0.5358547 -0.315327 -0.16392446 -0.375708 -0.49410796 -0.24271202 -0.56377417 -0.35133213
-0.1990816 -0.049057722 -0.14548978 -0.023404 -0.2733171 -0.053759556 -0.27545464 0.1678448
-0.100067616 -0.55709904 -0.18405631 -0.27887982 -0.26830655 -0.3283464 0.057122782 -0.29817197
0.013430071 -0.15438303 -0.16644901 -0.12360071 -0.09888501 -0.2818721 -0.28546914 0.11631331
-0.25028026 -0.26747543 -0.3332215 -0.09216968 -0.34058303 -0.31849965 0.11978939 -0.13425605
-0.35092482 -0.15907456 -0.30228207 -0.17952414 -0.24260618 -0.33731744 -0.16788214 -0.37651026
-0.4078684 0.052305482 -0.15040468 -0.07246866 -0.46626946 -0.23390901 -0.58822674 -0.34335506
-0.16927254 -0.5066079 -0.52231 -0.5583746 -0.217925 -0.38243467 -0.3939544 -0.2528333
0.11189552 -0.2107585 0.08283926 -0.28155506 -0.28065494 -0.009309533 -0.14532445 -0.025814258
0.13549481 0.07290439 -0.16115229 -0.4559252 -0.17636122 -0.3503176 -0.61636126 -0.25639874
-0.29697886 -0.3689145 -0.124575734 -0.25494337 -0.15154915 -0.12590417 -0.36816743 -0.28326184
-0.5261153 -0.37724382 -0.48333284 -0.13308062 0.095208615 -0.412387 -0.21943517 -0.37470454
-0.17381026 -0.16267982 -0.3919675 -0.06861348 -0.3277183 -0.020868551 -0.21799773 -0.27534533
-0.44019955 -0.27745864 -0.28776157 0.18805008 -0.14961453 -0.02647352 -0.24762273 -0.42137963
-0.108688995 -0.040996462 -0.5686553 -0.68228066 -0.082001984 -0.2891026 0.0090063885 -0.24081683
00000000: 582e 16be bdd1 21bf 10ae d93c d152 783d
00000010: fe75 4dbe f808 93bd d4e0 d1be a107 cdbe
00000020: c62d 09bf 8a72 a1be d0db 27be cd5c c0be
00000030: b8fb fcbe 8089 78be 8153 10bf cee1 b3be
00000040: 0cdc 4bbe c0f0 48bd 46fb 14be bfb9 bfbc
00000050: 38f0 8bbe fb32 5cbd 6408 8dbe 82df 2b3e
00000060: 40f0 ccbd 0b9e 0ebf 4279 3cbe 56c9 8ebe
00000070: 7a5f 89be 051d a8be 94f9 693d ffa9 98be
00000080: cd09 5c3c 9616 1ebe 9c71 2abe 5e22 fdbd
00000090: 3984 cabd 8a51 90be 0329 92be ac35 ee3d
000000a0: bc24 80be 8af2 88be 029c aabe 75c3 bcbd
000000b0: e660 aebe 6312 a3be 2454 f53d 6b7a 09be
000000c0: 6bac b3be 71e4 22be b7c4 9abe 2dd5 37be
000000d0: c16d 78be dfb4 acbe 4ce9 2bbe f4c5 c0be
000000e0: 20d4 d0be 463e 563d af03 1abe 736a 94bd
000000f0: dfba eebe d885 6fbe 0796 16bf 3ccc afbe
00000100: c855 2dbe 0eb1 01bf 1cb6 05bf a3f1 0ebf
00000110: bb27 5fbe 7ace c3be 64b4 c9be 5e73 81be
00000120: 7a29 e53d 14d1 57be a1a7 a93d fc27 90be
00000130: 01b2 8fbe 0387 18bc efcf 14be 6c78 d3bc
00000140: 27bf 0a3e e64e 953d 1b05 25be 076f e9be
00000150: 0998 34be d45c b3be dac9 1dbf b246 83be
00000160: 9d0d 98be 5de2 bcbe 9021 ffbd f087 82be
00000170: b32f 1bbe 06ed 00be 7180 bcbe b207 91be
00000180: 7eaf 06bf 1a26 c1be 6777 f7be 4946 08be
00000190: bcfc c23d 6424 d3be 9db3 60be 46d9 bfbe
000001a0: 51fb 31be 8a95 26be f7af c8be 3985 8cbd
000001b0: b1ca a7be 86f4 aabc cc3a 5fbe 10fa 8cbe
000001c0: d661 e1be 0f0f 8ebe 7c55 93be 3390 403e
000001d0: 8d34 19be ffde d8bc d090 7dbe 12bf d7be
000001e0: 5698 debd e8eb 27bd 6593 11bf f2a9 2ebf
000001f0: a8f0 a7bd 4205 94be 888f 133c b098 76be

layers.1.running_mean f4 [128]
0.72129387 -4.442118 -2.7586803 3.810846 1.4136595 -0.6193218 -6.5222163 4.840532
-4.4907727 -1.9579048 6.648018 -2.152758 4.8503513 -9.699803 1.4577185 -3.9270225
-6.847066 -0.76777565 2.3721924 3.1644697 -2.4331872 -1.3989488 -4.098625 1.968861
3.3814704 -6.812353 0.21010052 0.7802611 6.072239 4.796147 -1.2254779 2.9013734
-5.4602704 2.8394582 -2.5544384 -7.3165355 -4.136698 -1.433822 2.1014671 -2.8052616
6.8579874 7.128577 6.810821 -4.1674185 -1.9151549 5.4773264 2.198423 5.6425896
1.45402 -0.9943473 -3.6171837 4.9506187 -0.66600376 2.9729602 -7.289115 -0.94886637
5.2687182 4.1834445 2.194357 5.094319 -9.576907 -5.9680037 -1.1369616 1.692833
-2.5720127 2.6703541 3.7764835 0.86340153 0.47734296 -1.7774031 4.38887 6.2320523
1.4874011 -1.9578857 0.97824866 -6.7474046 -0.77943283 0.7724147 6.2114253 3.2369626
8.032645 0.38710493 5.844281 1.265887 -0.33769807 -0.73529977 2.2799554 -3.5825844
2.3588946 4.231168 0.80217785 -1.1169242 -3.9894915 -1.8878996 4.820621 0.26247066
-1.282449 3.133469 0.7108037 3.871298 -2.4500992 -7.1906857 1.9908408 3.8012562
4.7287626 -4.0758944 3.4409761 2.5874596 4.8132167 2.244822 -1.5106124 -2.258357
0.7822661 -2.8012283 0.8073264 0.3537996 8.574593 -4.3231487 0.96023697 3.1331203
4.838582 -0.6034684 -2.445352 -7.725211 1.6848748 -0.38514888 2.2973607 -2.4844594
00000000: b7a6 383f d525 8ec0 388e 30c0 e7e4 7340
00000010: cbf2 b43f e08b 1ebf ffb5 d0c0 a3e5 9a40
00000020: 69b4 8fc0 a09c fabf 90bc d440 c9c6 09c0
00000030: 1436 9b40 6532 1bc1 8596 ba3f 5654 7bc0
00000040: 2a1b dbc0 f28c 44bf 00d2 1740 ac86 4a40
00000050: 57b9 1bc0 c110 b3bf f027 83c0 a303 fc3f
00000060: 036a 5840 ccfe d9c0 9724 573e 31bf 473f
00000070: c84f c240 097a 9940 76dc 9cbf 1ab0 3940
00000080: 89ba aec0 afb9 3540 eb7b 23c0 0f21 eac0
00000090: d45f 84c0 7b87 b7bf 707e 0640 6889 33c0
000000a0: a274 db40 4e1d e440 3ff2 d940 7e5b 85c0
000000b0: cc23 f5bf 4246 af40 f6b2 0c40 1890 b440
000000c0: 541d ba3f 8b8d 7ebf f07f 67c0 786b 9e40
000000d0: 397f 2abf fb44 3e40 6e40 e9c0 e8e8 72bf
000000e0: 5799 a840 c7de 8540 5870 0c40 a904 a340
000000f0: 033b 19c1 e3f9 bec0 f587 91bf c0ae d83f
00000100: db9b 24c0 15e7 2a40 e8b1 7140 e207 5d3f
00000110: 4c66 f43e f281 e3bf 9f71 8c40 f96c c740
00000120: 2963 be3f 009c fabf 816e 7a3f bdea d7c0
00000130: e988 47bf f8bc 453f ffc3 c640 652a 4f40
00000140: b785 0041 9e32 c63e 5a04 bb40 9608 a23f
00000150: c3e6 acbe 9b3c 3cbf caea 1140 1049 65c0
00000160: 21f8 1640 ba65 8740 875b 4d3f 5ff7 8ebf
00000170: d453 7fc0 b2a6 f1bf 8742 9a40 8e62 863e
00000180: 4a27 a4bf c28a 4840 3bf7 353f 59c3 7740
00000190: 6dce 1cc0 191a e6c0 dfd3 fe3f c847 7340
000001a0: 0652 9740 ba6d 82c0 f438 5c40 f098 2540
000001b0: df05 9a40 2aab 0f40 bf5b c1bf ec88 10c0
000001c0: 9742 483f 5347 33c0 f1ac 4e3f 3925 b53e
000001d0: 8831 0941 3c57 8ac0 17d2 753f 0b85 4840
000001e0: aad5 9a40 e87c 1abf a680 1cc0 ee34 f7c0
000001f0: faa9 d73f 3c32 c5be f507 1340 6201 1fc0

layers.1.running_var f4 [128]
118.32839 41.48021 51.590683 36.05418 45.531433 5.7763495 17.13961 25.032923
144.15823 54.316406 22.934883 47.86965 31.364931 39.305313 23.600943 16.373085
24.296087 33.65102 41.241543 5.0217886 60.58728 13.415856 34.32716 54.192253
29.036692 34.02646 6.961997 42.270294 22.197414 15.14324 5.073141 22.30926
169.2579 101.118576 12.964509 22.869482 35.711674 30.061483 34.22761 84.714005
25.523151 40.840664 19.404852 28.826426 47.735302 62.665314 6.756604 113.81848
39.30833 34.56654 54.68699 63.300922 7.4844594 17.829681 46.843285 51.873676
23.883778 24.692959 12.813924 46.065956 19.53904 10.492005 85.4668 7.1280017
33.44681 52.089233 14.20344 43.38201 46.29583 54.512928 10.585208 32.836693
124.56183 14.797604 4.1071625 14.312176 69.685394 21.604914 40.07021 129.21748
119.203606 11.464671 37.168888 82.565056 30.234966 11.572993 20.835436 77.00001
10.847443 50.73529 17.035498 10.102676 29.476984 65.20199 68.03243 17.82506
1.8038585 32.99574 2.704207 18.49119 116.08308 44.283756 19.965782 118.71005
65.98217 32.8395 10.069074 72.493645 60.290447 22.693909 58.30757 21.048954
6.5684905 51.409737 58.175518 5.625868 18.922798 67.417595 21.586365 41.97073
21.683344 48.742146 66.84742 19.865963 28.814163 18.007004 41.21109 164.06468
00000000: 23a8 ec42 bceb 2542 dc5c 4e42 7b37 1042
00000010: 3020 3642 dbd7 b840 ec1d 8941 6d43 c841
00000020: 8228 1043 0044 5942 a47a b741 867a 3f42
00000030: 61eb fa41 a438 1d42 bbce bc41 14fc 8241
00000040: 635e c241 a59a 0642 57f7 2442 7eb2 a040
00000050: 6059 7242 59a7 5641 034f 0942 dec4 5842
00000060: 254b e841 181b 0842 aec8 de40 c814 2942
00000070: 4e94 b141 b64a 7241 2c57 a240 5d79 b241
00000080: 0642 2943 b63c ca42 a16e 4f41 b3f4 b641
00000090: c1d8 0e42 eb7d f041 13e9 0842 926d a942
000000a0: 6a2f cc41 d75c 2342 233d 9b41 859c e641
000000b0: f3f0 3e42 48a9 7a42 1a36 d840 10a3 e342
000000c0: bb3b 1d42 2344 0a42 7abf 5a42 2534 7d42
000000d0: b180 ef40 30a3 8e41 865f 3b42 a57e 4f42
000000e0: fa11 bf41 2e8b c541 d505 4d41 8a43 3842
000000f0: f44f 9c41 41df 2741 00ef aa42 9718 e440
00000100: 89c9 0542 605b 5042 4a41 6341 2e87 2d42
00000110: ee2e 3942 3d0d 5a42 035d 2941 c658 0342
00000120: a81f f942 fcc2 6c41 e06d 8340 acfe 6441
00000130: ec5e 8b42 ddd6 ac41 e547 2042 ad37 0143
00000140: 3f68 ee42 4b6f 3741 f1ac 1442 4f21 a542
00000150: 36e1 f141 fb2a 3941 f9ae a641 0100 9a42
00000160: 208f 2d41 f0f0 4a42 b348 8841 90a4 2141
00000170: ddd0 eb41 6b67 8242 9b10 8842 b999 8e41
00000180: d6e4 e63f a3fb 0342 ba11 2d40 f5ed 9341
00000190: 892a e842 9122 3142 ecb9 9f41 8c6b ed42
000001a0: dff6 8342 a65b 0342 ed1a 2141 bffc 9042
000001b0: 6b29 7142 208d b541 f43a 6942 4264 a841
000001c0: 1331 d240 92a3 4d42 bbb3 6842 1c07 b440
000001d0: e461 9741 cfd5 8642 e0b0 ac41 07e2 2742
000001e0: 7d77 ad41 f5f7 4242 e1b1 8542 7eed 9e41
000001f0: 6883 e641 580e 9041 28d8 2442 8f10 2443

layers.3.weight f4 [128, 128]
-0.20085986 0.18683879 -0.592799 0.06438865 -0.011870435 -0.15854886 0.24376358 0.096022725
-0.17347689 -0.036502264 0.050934106 0.08990553 0.12100723 0.089101456 0.15974337 -0.09640661
0.12658927 0.09610136 0.04140039 -0.13877627 -0.41110328 -0.25190482 0.011031514 -0.13196154
0.1068002 -0.14516741 0.09806797 0.2533467 0.11958986 -0.103891596 -0.19335479 0.1532606
-0.33869722 0.11181365 0.04029975 0.21994486 0.27047038 -0.20074065 0.022986704 0.1369133
0.068879396 -0.06394329 0.043009218 0.28494573 0.21836591 0.010232711 0.10266905 -0.08639555
0.11240643 0.070413955 -0.040539473 0.015798127 -0.29906908 -0.0026521028 -0.0633505 0.33270437
0.1881966 -0.38384265 0.024993347 0.24864934 0.26078936 0.009894337 -0.46511686 -0.20192827
-0.25917295 0.2139763 0.050035823 0.054634053 0.046121262 0.034297466 -0.04398062 -0.0010158543
0.172762 0.26993144 0.1351243 0.11574584 0.016227804 -0.0055731526 0.06230349 -0.04335884
-0.009296571 -0.045188908 -0.2874052 -0.08337748 0.13655743 0.08370638 0.030478079 0.056722477
0.07777658 -0.088600986 -0.07763416 -0.15590994 0.06503942 -0.08646567 0.028604064 -0.1589357
0.13499366 0.15984708 -0.32097414 -0.2086191 -0.33087397 -0.10267489 -0.18950327 -0.083201185
0.13313077 0.24713384 -0.047586575 -0.26095876 0.14099546 -0.41197807 0.22054686 0.4076813
-0.110717304 0.04366202 -0.12374462 0.09858099 -0.070178725 0.116221845 -0.2194157 -0.08253001
-0.15700425 0.10498685 0.06477299 0.05766569 0.08438856 0.0101768905 -0.09140011 0.1250165
0.098291874 -0.08367124 0.01784497 -0.1029386 0.08988937 -0.29143974 0.012654835 0.08801103
-0.26072365 0.29177496 -0.32071933 0.06039576 0.1318394 0.2474968 0.20324321 -0.0065920437
0.08228001 -0.01647732 -0.04342715 -0.035631854 -0.124208644 -0.18712744 -0.38266855 -0.14449614
0.15326813 -0.13117853 0.1926022 0.37846383 0.11399411 -0.25388458 -0.114838906 -0.21246073
-0.24131253 -0.29800162 -0.22598352 -0.5099212 0.059250522 0.08599677 -0.24142264 -0.007154735
-0.21471423 -0.05362419 -0.2615762 0.05019226 0.035765495 -0.01691465 0.008344958 0.18955252
0.11375061 0.16804226 0.18793535 -0.056917433 -0.26395625 -0.23291029 0.118273824 0.13073817
-0.18315677 -0.17772035 0.022974597 -0.033870343 -0.13417098 0.08230464 -0.20273262 0.011533641
0.1722807 0.22874956 -0.22426713 0.08905622 -0.05012369 -0.079897724 0.14341341 -0.18028338
0.22182946 0.004101247 0.06450558 -0.17184566 0.2914104 -0.106061 -0.018849248 0.04014435
0.120332025 0.39125457 -0.04717533 -0.0075395 -0.07873208 0.049932707 -0.010873634 0.057988267
-0.05580328 0.09471252 0.007056405 0.10349919 0.123184584 -0.05123683 -0.32979363 0.024538832
-0.025885427 -0.3587602 -0.17949885 -0.0387451 -0.029443514 0.1718382 0.17974977 -0.014086472
0.13252096 -0.18039379 -0.18252671 0.07081193 0.03416301 -0.29980746 0.049876567 -0.10353428
-0.088540554 0.06775379 -0.18129829 0.18077114 0.019399194 -0.33618388 0.30844876 0.18262123
-0.14919604 0.016683487 -0.14964654 0.0857475 -0.10002366 0.3344251 -0.1038434 0.0514641
00000000: 35ae 4dbe ab52 3f3e adc1 17bf 32de 833d
00000010: 377c 42bc a25a 22be 299d 793e 90a7 c43d
00000020: eda3 31be 6683 15bd 48a0 503d 6420 b83d
00000030: a3d2 f73d d37a b63d c493 233e d470 c5bd
00000040: 9ea0 013e cad0 c43d 7593 293d 5e1b 0ebe
00000050: 217c d2be abf9 80be 86bd 343c ed20 07be
00000060: 10ba da3d c4a6 14be dcd7 c83d a9b6 813e
00000070: 87eb f43d 1ec5 d4bd ccfe 45be 59f0 1c3e
00000080: b969 adbe 8efe e43d 5a11 253d 3a39 613e
00000090: 187b 8a3e f58e 4dbe 9d4e bc3c 0033 0c3e
000000a0: a410 8d3d b3f4 82bd 6f2a 303d 68e4 913e
000000b0: 509b 5f3e 1aa7 273c 2744 d23d 26f0 b0bd
000000c0: 5835 e63d 3135 903d b80c 26bd 136b 813c
000000d0: 951f 99be e7ce 2dbb e8bd 81bd 3a58 aa3e
000000e0: 9cb6 403e 0687 c4be d9be cc3c ef9d 7e3e
000000f0: 2f86 853e db1b 223c cc23 eebe 49c6 4ebe
00000100: 51b2 84be 9a1c 5b3e 5df2 4c3d f5c7 5f3d
00000110: a6e9 3c3d 807b 0c3d 0625 34bd 6a26 85ba
00000120: 86e8 303e 7434 8a3e 065e 0a3e 280c ed3d
00000130: 2cf0 843c fe9e b6bb f231 7f3d 0a99 31bd
00000140: a550 18bc 0118 39bd c626 93be d0c1 aabd
00000150: b6d5 0b3e 406e ab3d 2aad f93c d455 683d
00000160: 5449 9f3d 6f74 b5bd a9fe 9ebd dba6 1fbe
00000170: 6333 853d ea14 b1bd 1253 ea3c 0ac0 22be
00000180: c73b 0a3e f4ae 233e b956 a4be 3fa0 55be
00000190: 5068 a9be 3647 d2bd 250d 42be 6265 aabd
000001a0: 6f53 083e a710 7d3e 24ea 42bd 639c 85be
000001b0: 1d61 103e caee d2be 09d7 613e 9abb d03e
000001c0: c1bf e2bd f2d6 323d d26d fdbd d5e4 c93d
000001d0: ddb9 8fbd b805 ee3d 82ae 60be 7e05 a9bd
000001e0: b9c5 20be 5803 d73d b4a7 843d dc32 6c3d
000001f0: e9d3 ac3d f9bc 263c fb2f bbbd 5304 003e
00000200: 404d c93d d45b abbd 9d2f 923c 79d1 d2bd
00000210: eb17 b83d 9737 95be 3a56 4f3c 203f b43d
00000220: 927d 85be 8763 953e 5335 a4be 8b61 773d
00000230: e800 073e cd6f 7d3e fd1e 503e 1202 d8bb
00000240: 6c82 a83d 72fb 86bc abe0 31bd b5f2 11bd
00000250: 1a61 febd 569e 3fbe 22ed c3be ccf6 13be
00000260: 52f2 1c3e aa53 06be 8339 453e 03c6 c13e
00000270: be75 e93d 29fd 81be a930 ebbd 4e8f 59be
00000280: a21a 77be ab93 98be 3968 67be 328a 02bf
00000290: adb0 723d 131f b03d 7f37 77be 4472 eabb
000002a0: 0cde 5bbe 0aa5 5bbd 51ed 85be 6696 4d3d
000002b0: d77e 123d 9890 8abc 4ab9 083c 0e1a 423e
000002c0: 14f6 e83d 4513 2c3e 2072 403e 4122 69bd
000002d0: 4625 87be 0980 6ebe 8c39 f23d 3ae0 053e
000002e0: 738d 3bbe 53fc 35be 3935 bc3c a1bb 0abd
000002f0: 1e64 09be 568f a83d 2499 4fbe 99f7 3c3c
00000300: 5a6a 303e 533d 6a3e 48a6 65be 1c63 b63d
00000310: 804e 4dbd 6ba1 a3bd f7da 123e 359c 38be
00000320: 4327 633e c163 863b 801b 843d 4ff8 2fbe
00000330: be33 953e 8236 d9bd bd69 9abc 676e 243d
00000340: a370 f63d 8552 c83e eb3a 41bd e90d f7bb
00000350: 493e a1bd 3d86 4c3d 5427 32bc 1b85 6d3d
00000360: fb91 64bd a3f8 c13d 6a39 e73b 62f7 d33d
00000370: 3348 fc3d b6dd 51bd b6da a8be a905 c93c
00000380: ad0d d4bc 6baf b7be 8cce 37be 2fb3 1ebd
00000390: 8633 f1bc 5af6 2f3e 5310 383e f2ca 66bc
000003a0: 93b3 073e 26b9 38be 48e8 3abe d805 913d
000003b0: 83ee 0b3d 5d80 99be 5f4b 4c3d c809 d4bd
000003c0: c054 b5bd 80c2 8a3d 42a6 39be 121c 393e
000003d0: 0feb 9e3c 4b20 acbe ffec 9d3e 0f01 3b3e
000003e0: d9c6 18be cfab 883c f13c 19be 639c af3d
000003f0: 34d9 ccbd c439 ab3e d9ab d4bd 05cc 523d

layers.3.bias f4 [128]
0.07172105 -0.057441965 -0.066775426 0.052390285 -0.03570114 -0.007482327 -0.07464494 -0.04529859
0.06021132 -0.018302869 -0.01019497 -0.054619037 0.0044122115 -0.06396311 -0.06676568 -0.015681345
-0.043375596 -0.0611584 0.027383601 -0.0034637097 0.012366671 -0.015694328 0.05469454 -0.07246673
0.02896448 0.06726752 -0.04956486 -0.015218571 -0.06499262 -0.047537304 -0.08561679 0.025817554
-0.048098106 0.065351814 -0.03760987 -0.0012556002 -0.01215529 -0.025954006 0.07955829 0.07748408
-0.032303516 0.07350968 -0.031293556 0.02157131 -0.052311227 -0.077927805 0.023095883 -0.057948906
-0.027920304 -0.05379813 -0.03901635 -0.02372235 0.03890216 -0.07673034 0.06382599 -0.03251619
0.049395252 -0.08738661 0.059356146 0.0780356 0.032903414 -0.008213173 -0.03365975 -0.030358545
-0.02731566 -0.08003281 -0.012913067 -0.034753636 -0.025964068 -0.08662189 -0.07942444 -0.042329405
0.05384761 -0.03032404 -0.021238754 0.028263167 0.031180743 0.036286794 -0.056590557 -0.07903863
0.041727375 0.048753075 -0.07749695 0.08421122 0.017917035 0.08496907 -0.0102321515 0.018181397
-0.052538153 0.002447238 0.062930934 0.0061907056 0.06525514 0.0590567 -0.074834004 0.034006886
0.007848213 -0.06360681 0.033264656 0.05807321 0.046316933 0.073186494 0.029152133 0.069374405
-0.05369548 -0.034427114 -0.002299419 0.08733599 0.016691947 -0.06353134 -0.064851716 0.0012718167
0.012453802 -0.081183426 0.07349118 0.07423033 -0.020406963 0.021982694 -0.023974992 0.052230943
0.053469885 -0.033008337 0.08682761 -0.034115966 0.043171246 -0.07239112 -0.07632254 0.05301853
00000000: 7ce2 923d 4448 6bbd 8ec1 88bd 3297 563d
00000010: 5c3b 12bd 4f2e f5bb 72df 98bd 048b 39bd
00000020: 25a0 763d e6ef 95bc ce08 27bc 36b8 5fbd
00000030: 5094 903b 17ff 82bd 72bc 88bd 2a76 80bc
00000040: 9caa 31bd 3b81 7abd 9353 e03c 68ff 62bb
00000050: 949d 4a3c 6491 80bc 6207 603d 7069 94bd
00000060: eb46 ed3c 8ec3 893d 8604 4bbd 5057 79bc
00000070: da1a 85bd 7ab6 42bd db57 afbd 567f d33c
00000080: 8502 45bd 2cd7 853d cf0c 1abd f492 a4ba
00000090: fb26 47bc 7f9d d4bc 75ef a23d f9af 9e3d
000000a0: b150 04bd 3e8c 963d ac2d 00bd 51b6 b03c
000000b0: 4c44 56bd 9d98 9fbd 9433 bd3c d55b 6dbd
000000c0: 1fb9 e4bc 6e5b 5cbd 9ccf 1fbd 6055 c2bc
000000d0: df57 1f3d cc24 9dbd 33b7 823d b22f 05bd
000000e0: ad52 4a3d c0f7 b2bd 6e1f 733d 21d1 9f3d
000000f0: bbc5 063d 8b90 06bc cede 09bd 7cb2 f8bc
00000100: 17c5 dfbc 3ee8 a3bd 5491 53bc d459 0ebd
00000110: 99b2 d4bc d166 b1bd 48a9 a2bd 9961 2dbd
00000120: 508f 5c3d 1f6a f8bc e5fc adbc 2888 e73c
00000130: c26e ff3c 76a1 143d 80cb 67bd 01df a1bd
00000140: 53ea 2a3d 4eb1 473d b9b6 9ebd ef76 ac3d
00000150: bfc6 923c 4404 ae3d c1a4 27bc 27f1 943c
00000160: 3f32 57bd d761 203b efe1 803d 67db ca3b
00000170: 7da4 853d 70e5 713d 9242 99bd ce4a 0b3d
00000180: cb95 003c 4a44 82bd 8540 083d 2dde 6d3d
00000190: d3b6 3d3d cde2 953d 74d0 ee3c 2b14 8e3d
000001a0: cbef 5bbd 7203 0dbd d9b1 16bb 36dd b23d
000001b0: 8dbd 883c b81c 82bd fad0 84bd 16b3 a63a
000001c0: 080b 4c3c 7f43 a6bd 8b82 963d 1206 983d
000001d0: 812c a7bc 0d15 b43c 3467 c4bc 1df0 553d
000001e0: 3d03 5b3d c033 07bd add2 b13d 2fbd 0bbd
000001f0: 55d4 303d cc41 94bd fe4e 9cbd f529 593d

layers.4.weight f4 [128]
1.1297692 1.1052673 1.1694095 0.52318186 1.6807967 0.9977039 1.044348 1.2376626
2.0093992 1.1080886 1.4963593 1.0044752 1.3706802 1.3560724 0.7269654 0.82151467
1.2123797 1.5627228 1.5668477 1.4252212 1.5375403 0.67589295 0.7074778 1.355832
1.4687891 1.6501197 1.5888408 1.7003028 1.5578839 1.2027632 1.0385005 1.9083862
1.085074 1.0682627 0.47757053 1.138963 1.218123 1.5414846 1.1734458 0.61806643
1.9203757 0.89252496 1.4412459 1.6394755 1.492375 1.0659028 0.4038228 0.78226364
0.8404327 1.1264694 1.623388 0.7974657 1.2015605 0.62745786 0.8392001 1.6563666
1.2069575 0.79768795 0.9751345 1.3413188 1.5094562 1.2360051 1.0946834 1.2672315
0.80694234 1.8129494 1.3809221 0.58765024 0.9917971 1.4231851 0.8582188 1.3070238
1.1659927 1.2575375 1.181344 1.6912432 1.6958697 1.4551955 1.0692314 1.2143239
0.8307298 1.2578899 1.5067105 1.2454476 1.1890206 1.1696258 1.0808556 1.1799748
0.84276646 1.6688526 1.0101873 1.9328619 0.91985506 1.4302024 1.551085 0.9715273
1.1541349 1.3808762 1.5145261 1.0522878 0.8291636 0.5794887 1.0052859 2.043005
0.5842562 1.33434 1.4710199 1.3952824 1.1785476 1.2384636 1.0524311 1.2770778
1.8151644 0.41298983 0.694242 0.7325288 1.1327969 0.9854194 1.396115 0.88739127
1.9313194 1.3031088 0.99726385 1.5702504 1.8186908 0.66022986 0.8625932 0.5280417
00000000: 479c 903f 6679 8d3f 36af 953f 3fef 053f
00000010: 5924 d73f 8669 7f3f 32ad 853f ba6b 9e3f
00000020: ff99 0040 d9d5 8d3f b488 bf3f a592 803f
00000030: 7372 af3f c893 ad3f 681a 3a3f c94e 523f
00000040: 422f 9b3f 4d07 c83f 778e c83f a66d b63f
00000050: 1fce c43f 5207 2d3f 441d 353f e78b ad3f
00000060: 4801 bc3f 1f37 d33f 235f cb3f 86a3 d93f
00000070: bd68 c73f 25f4 993f 96ed 843f 0046 f43f
00000080: b4e3 8a3f d5bc 883f 2084 f43e 8ac9 913f
00000090: 74eb 9b3f 5e4f c53f 7933 963f 9a39 1e3f
000000a0: dfce f53f 847c 643f bf7a b83f 55da d13f
000000b0: 2506 bf3f 816f 883f ddc1 ce3e 6e42 483f
000000c0: 9926 573f 2630 903f 2ecb cf3f b626 4c3f
000000d0: bccc 993f 14a1 203f d1d5 563f d203 d43f
000000e0: 957d 9a3f 4735 4c3f 6aa2 793f 56b0 ab3f
000000f0: dc35 c13f 6a35 9e3f 961e 8c3f a434 a23f
00000100: c693 4e3f ba0e e83f 0ec2 b03f 3f70 163f
00000110: 6ae6 7d3f ee2a b63f 3ab4 5b3f 8e4c a73f
00000120: 403f 953f fdf6 a03f 4836 973f a87a d83f
00000130: 4212 d93f d943 ba3f 93dc 883f f76e 9b3f
00000140: b5aa 543f 8902 a13f e4db c03f d46a 9f3f
00000150: d431 983f 4cb6 953f 7a59 8a3f 6a09 973f
00000160: 8bbf 573f f69c d53f d14d 813f 0568 f73f
00000170: 9f7b 6b3f df10 b73f f489 c63f 03b6 783f
00000180: b1ba 933f 8dc0 b03f fedb c13f 5eb1 863f
00000190: 1144 543f 5f59 143f 35ad 803f 98c0 0240
000001a0: d091 153f a7cb aa3f 614a bc3f 9d98 b23f
000001b0: a6da 963f fa85 9e3f 10b6 863f 4977 a33f
000001c0: 4f57 e83f 6773 d33e d8b9 313f 0287 3b3f
000001d0: 7dff 903f 7244 7c3f e5b3 b23f 132c 633f
000001e0: 7935 f73f 45cc a63f af4c 7f3f f7fd c83f
000001f0: dcca e83f d304 293f e8d2 5c3f be2d 073f

layers.4.bias f4 [128]
-0.15427199 -0.29707298 -0.4134647 -0.05435883 -0.60198075 0.24010429 -0.35692355 0.06730052
0.29132107 -0.2768389 -0.44813326 -0.10079671 -0.47445065 -0.22548516 0.23494604 0.12450743
-0.27997324 0.20548114 -0.13148087 -0.67366815 -1.1300089 -0.16324255 -0.18661745 -0.4125619
-0.38369888 -0.555622 -0.24961114 -0.4019195 -0.10468274 -0.34664848 -0.34976 -0.26027527
-0.033425026 -0.5678762 -0.10216488 0.09613137 0.041981995 -0.20620392 0.004619142 -0.04610314
-0.48104578 -0.2689824 -0.20312257 -0.15194254 -0.34703568 -0.25811714 0.06532167 -0.7434416
-0.3744805 0.08636635 -0.26349017 -0.04460288 -0.21582347 -0.029570956 -0.39684367 -0.41329667
-0.16536236 0.028452167 -0.041082006 -0.6508466 -0.2212463 -0.39419356 -0.21684335 -0.3396385
-0.9131368 -0.5731209 -0.54521036 -0.18839581 -0.6392824 -0.41027644 -0.42944062 -0.5937677
-0.28267586 -0.45173877 -0.3457886 -0.5132819 -0.9852096 0.006400054 0.06378707 0.17877729
-0.5651478 -0.0965891 -0.6315795 -0.5675043 -0.44266856 0.23256493 0.3375089 -0.11727296
-0.1936878 -0.2069318 -0.08729844 -0.12258275 -0.1691569 -0.5808151 -0.018163579 -0.17112675
-0.19868134 -0.33191365 -0.3523597 -0.43813765 0.10982958 -0.14909332 -0.6437692 -1.1629893
-0.29336965 -0.12572326 -0.7069846 -0.52676487 -0.17294659 -0.21293032 -0.853959 -0.4865416
-0.3501252 -0.08708607 -0.06747078 -0.3106394 -0.20296825 -0.20947678 -0.20200074 -0.29810607
-0.7059938 -0.02476122 -0.59049857 -0.6143111 -0.19457287 -0.35219443 -0.24896058 0.08200202
00000000: 7af9 1dbe f319 98be a5b1 d3be 5da7 5ebd
00000010: 691b 1abf e6dd 753e afbe b6be dbd4 893d
00000020: 0928 953e d4bd 8dbe b971 e5be 816e cebd
00000030: 32eb f2be 95e5 66be b295 703e c0fd fe3d
00000040: a758 8fbe a669 523e eca2 06be 8475 2cbf
00000050: 22a4 90bf 0e29 27be a518 3fbe 503b d3be
00000060: 2e74 c4be 3e3d 0ebf 109a 7fbe 65c8 cdbe
00000070: e863 d6bd e97b b1be be13 b3be cd42 85be
00000080: aee8 08bd 5660 11bf d23b d1bd 86e0 c43d
00000090: 50f5 2b3d 1f27 53be 2c5c 973b a5d6 3cbd
000000a0: a24b f6be 10b8 89be 5dff 4fbe d396 1bbe
000000b0: a9ae b1be ee27 84be 5ec7 853d 3052 3ebf
000000c0: e8bb bfbe d7e0 b03d 2fe8 86be 82b1 36bd
000000d0: d400 5dbe ca3e f2bc 182f cbbe 9f9b d3be
000000e0: c054 29be 8514 e93c 9b45 28bd e29d 26bf
000000f0: 648e 62be bdd3 c9be 2f0c 5ebe 19e5 adbe
00000100: 55c3 69bf 0db8 12bf e892 0bbf d5ea 40be
00000110: 03a8 23bf c10f d2be a4df dbbe 2901 18bf
00000120: e4ba 90be 4e4a e7be 340b b1be 7166 03bf
00000130: b236 7cbf 8bb7 d13b cca2 823d 6511 373e
00000140: 87ad 10bf 82d0 c5bd 32af 21bf f647 11bf
00000150: 74a5 e2be 8025 6e3e f7cd ac3e ce2c f0bd
00000160: 1856 46be eee5 53be 86c9 b2bd aa0c fbbd
00000170: 7737 2dbe 4cb0 14bf c9cb 94bc da3b 2fbe
00000180: 1f73 4bbe 96f0 a9be 7e68 b4be 9453 e0be
00000190: 55ee e03d ebab 18be 0fce 24bf d5dc 94bf
000001a0: 8c34 96be 99bd 00be f1fc 34bf 10da 06bf
000001b0: e918 31be 680a 5abe 0f9d 5abf fb1b f9be
000001c0: 9c43 b3be 2e5a b2bd 1f2e 8abd 210c 9fbe
000001d0: e9d6 4fbe 1581 56be 48d9 4ebe 5ca1 98be
000001e0: 02bc 34bf 0bd8 cabc ea2a 17bf 7e43 1dbf
000001f0: 1c3e 47be d452 b4be 86ef 7ebe adf0 a73d

layers.4.running_mean f4 [128]
-0.06866536 -0.34297037 0.42302486 -0.2908649 -0.117734864 -0.84386474 0.13630347 -0.4882878
-0.45420256 0.3868793 0.030146897 -0.6706115 0.1735826 0.08236176 -1.1317592 -0.58850384
-0.4559898 0.16235487 -0.3202775 -0.054137245 0.3076629 -0.6302819 0.20850348 -0.018512832
0.017238174 -0.26975468 -0.49178854 -0.29165125 0.09569277 0.24240276 -0.32697788 -0.124699704
-0.20545734 0.23156157 -0.038456053 -0.85206854 -0.11476688 0.07180412 0.5362728 -0.5840401
0.22869971 -0.10823575 0.33897674 0.3703787 0.17779894 -0.29258496 -0.7493817 0.5901636
0.6399165 -0.6620077 -0.37074742 0.20426115 -0.37736022 -0.25132966 0.40245786 -0.3584615
-0.058890007 -0.66056985 -0.5017616 0.23404305 -0.23405308 0.21173823 0.0110638365 0.052935693
0.5549175 -0.056275833 -0.069385484 -0.31025523 0.25709987 0.2937911 0.62927175 0.02492865
-0.25648773 -0.21796349 -0.19550435 -0.08108145 -0.028838946 -0.08745746 -0.027626147 0.23701511
-0.056892283 0.006048034 -0.28411207 0.75894207 0.20337656 -0.8230804 -0.92694855 0.21602876
-0.14124718 -0.03670254 0.060630463 -0.10599334 0.31305704 0.07230739 -0.32739142 0.15637149
0.28287947 -0.43036145 -0.5474621 -0.35642633 -0.6913176 -0.16852234 -0.16968034 0.04510623
-0.5268163 -0.7847886 -0.6249345 0.042837992 -0.43130216 -0.64188397 0.34601346 -0.15593958
-0.01683338 -0.51895577 -0.5163876 -0.16047223 -0.4501737 -0.05035601 0.10135825 0.030925373
0.24356185 -0.18000688 0.6815091 -0.12838274 -0.06707237 0.24071568 0.6684474 -0.51089245
00000000: 6da0 8cbd d099 afbe b796 d83e 3fec 94be
00000010: fa1e f1bd 8507 58bf 2393 0b3e dc00 fabe
00000020: 3d8d e8be 0b15 c63e a0f6 f63c 32ad 2bbf
00000030: a3bf 313e 48ad a83d 7cdd 90bf 30a8 16bf
00000040: 7f77 e9be 5b40 263e 6afb a3be 04bf 5dbd
00000050: fe85 9d3e 285a 21bf f081 553e 39a8 97bc
00000060: 1237 8d3c 491d 8abe b5cb fbbe 5053 95be
00000070: 92fa c33d 6e38 783e a569 a7be 8f62 ffbd
00000080: 6963 52be 7a1e 6d3e 1884 1dbd 2a21 5abf
00000090: e60a ebbd 0a0e 933d 2d49 093f a783 15bf
000000a0: 4230 6a3e b4aa ddbd 5c8e ad3e 47a2 bd3e
000000b0: ed10 363e b2cd 95be 7bd7 3fbf f614 173f
000000c0: 91d1 233f 5679 29bf 9bd2 bdbe d629 513e
000000d0: 5c35 c1be 48ae 80be f50e ce3e 4488 b7be
000000e0: a636 71bd 1b1b 29bf 7373 00bf fba8 6f3e
000000f0: 9cab 6fbe e8d1 583e 1845 353c 19d3 583d
00000100: 130f 0e3f 7d81 66bd fa19 8ebd c6d9 9ebe
00000110: 98a2 833e c96b 963e f417 213f 2b37 cc3c
00000120: 5c52 83be d231 5fbe 4b32 48be 080e a6bd
00000130: a73f ecbc e61c b3bd 3b50 e2bc 17b4 723e
00000140: e207 69bd 962e c63b 2377 91be 074a 423f
00000150: f241 503e 66b5 52bf 804c 6dbf a536 5d3e
00000160: 1aa3 10be 6755 16bd a657 783d 0913 d9bd
00000170: 0349 a03e e615 943d d99f a7be d91f 203e
00000180: 94d5 903e 5658 dcbe 7a26 0cbf 837d b6be
00000190: 31fa 30bf 1f91 2cbe afc0 2dbe 4fc1 383d
000001a0: 6fdd 06bf e8e7 48bf b5fb 1fbf e476 2f3d
000001b0: a3d3 dcbe 8252 24bf ad28 b13e a0ae 1fbe
000001c0: 28e6 89bc 49da 04bf fa31 04bf d552 24be
000001d0: 2b7d e6be 1b42 4ebd ea94 cf3d 3557 fd3c
000001e0: 4768 793e b953 38be 6177 2e3f c476 03be
000001f0: 3d5d 89bd 2c7e 763e 5e1f 2b3f d9c9 02bf

layers.4.running_var f4 [128]
0.30731 0.28079134 0.26192415 0.60869426 0.17211778 1.0780758 0.18593535 0.17292522
0.47513443 0.13319781 0.13001929 0.3191805 0.10541546 0.16824253 0.5802115 0.17930031
0.27565083 0.3119413 0.204461 0.114820816 0.255634 0.16004947 0.3542655 0.09610078
0.15434496 0.23907432 0.18664965 0.14946404 0.15879251 0.13208865 0.12510267 0.19074807
0.6005016 0.20123994 0.1313748 0.3380171 0.15121344 0.19331296 0.36726958 0.24866673
0.16388217 0.1257917 0.14298624 0.2533739 0.14205727 0.12619396 1.0711668 0.2194904
0.19446209 0.7791896 0.123101875 0.12841165 0.24335307 0.11613835 0.15558936 0.25911367
0.06509578 0.23935264 0.31627402 0.114917815 0.7419413 0.22067496 0.17685173 0.16678014
0.12697548 0.1443199 0.09632673 0.17566492 0.17493917 0.21324567 0.15653415 0.101533115
0.35758144 0.18718171 0.14837451 0.13873178 0.09956295 0.21976501 0.8158632 0.41648787
0.10684652 0.07547676 0.090060055 0.24854079 0.06946473 0.77257395 0.7920911 0.25612116
0.17802916 0.16417201 0.19296382 0.08365656 0.075734355 0.15178716 0.26675248 0.15171379
0.2929907 0.36642525 0.29016107 0.17797554 0.37251136 0.18782134 0.08699806 0.100119896
0.24159208 0.44255745 0.26106828 0.16523825 0.36137405 0.27599052 0.09819597 0.18804377
0.16391023 0.30567822 0.16389768 0.2751123 0.20580722 0.13793342 0.3366963 0.23718897
0.11049885 0.12885915 0.19718029 0.17352137 0.19370668 0.09926193 0.1501224 0.29702193
00000000: bc57 9d3e e2c3 8f3e ec1a 863e 63d3 1b3f
00000010: a53f 303e 63fe 893f d665 3e3e 4f13 313e
00000020: d244 f33e 0265 083e c723 053e a06b a33e
00000030: 10e4 d73d c547 2c3e be88 143f 809a 373e
00000040: 1b22 8d3e c5b6 9f3e 395e 513e 2d27 eb3d
00000050: 76e2 823e 02e4 233e 4a62 b53e 7cd0 c43d
00000060: 9b0c 1e3e e6cf 743e 1621 3f3e 1a0d 193e
00000070: 819a 223e 3f42 073e ea1a 003e 7653 433e
00000080: 79ba 193f d811 4e3e 1e87 063e 9410 ad3e
00000090: b2d7 1a3e d5f3 453e c20a bc3e 7ea2 7e3e
000000a0: bad0 273e 8acf 003e fc6a 123e 39ba 813e
000000b0: 7677 113e fd38 013e fe1b 893f 17c2 603e
000000c0: 1221 473e f878 473f d61c fc3d 587e 033e
000000d0: 8c31 793e f1d9 ed3d d152 1f3e 8caa 843e
000000e0: f050 853d dc18 753e abee a13e 085a eb3d
000000f0: ddef 3d3f 9ef8 613e 9f18 353e 6ac8 2a3e
00000100: dc05 023e 99c8 133e f346 c53d 81e1 333e
00000110: 4123 333e 135d 5a3e 7d4a 203e 98f0 cf3d
00000120: ea14 b73e 90ac 3f3e 7def 173e b40f 0e3e
00000130: a9e7 cb3d 140a 613e 69dc 503f e63d d53e
00000140: 59d2 da3d 8f93 9a3d 6871 b83d 7a81 7e3e
00000150: 8643 8e3d 68c7 453f 7bc6 4a3f 5022 833e
00000160: 474d 363e b51c 283e 4f98 453e 2154 ab3d
00000170: 9d1a 9b3d 186e 1b3e c893 883e dc5a 1b3e
00000180: e102 963e 179c bb3e fe8f 943e 383f 363e
00000190: cfb9 be3e 3d54 403e 0a2c b23d a90b cd3d
000001a0: ea63 773e e496 e23e beaa 853e 3734 293e
000001b0: 0506 b93e a14e 8d3e f81a c93d 8c8e 403e
000001c0: 15d8 273e db81 9c3e cbd4 273e 85db 8c3e
000001d0: 21bf 523e 6b3e 0d3e 7563 ac3e aae1 723e
000001e0: 394d e23d a7f3 033e a1e9 493e 96af 313e
000001f0: 0b5b 463e d749 cb3d b0b9 193e 4213 983e

layers.6.weight f4 [2, 128]
-0.45361647 0.22323553 -0.20265354 -0.25485384 -1.2932725 -0.14496617 0.23014848 0.013814171
-0.0030596121 -0.0048543736 -0.96047825 0.36335188 -0.8693356 0.09601966 -0.23755215 -0.16541624
-0.060741544 0.24859309 -0.10302333 0.4648101 0.84399503 0.2159212 0.22144488 -0.3625354
-0.30697942 -1.0181955 0.105277956 0.07291568 0.24580702 -0.1898658 0.7422909 -0.0717909
0.20300454 -1.0731297 0.11278401 -0.40197316 0.21479934 -0.11358212 0.5602748 -0.07432154
-0.1487194 -0.05661306 -0.057618756 -0.08652145 -0.37128842 0.7219487 -0.23223372 0.9460536
0.5675593 -0.0815942 -0.09915452 0.40667433 0.6187408 -0.216014 -0.7020666 -0.6625003
0.038440537 0.41281462 0.17575477 -0.7978879 0.4052874 -0.7119342 -0.28288049 -0.5449134
1.1260811 -0.21707124 1.0558941 0.19963335 0.39739266 0.83146244 -0.46665424 1.0053968
0.1482079 0.61632997 -0.6259026 -0.48265037 -2.7063184 0.36764386 0.22911394 0.42800817
0.92067075 -0.04680622 0.17260295 -0.5672188 -0.041551434 -0.13576308 -0.20739202 0.3352562
-0.37547138 0.558115 -0.19687924 0.0027466165 -0.1405633 -1.0304646 0.0011440737 -0.056792367
-0.36650237 -0.04929965 0.07674939 0.82759315 0.15662539 -0.30749738 1.6672896 -1.7212328
-0.46633944 0.20048326 0.13927023 0.8202966 0.02859871 0.29894957 1.2898179 -0.3281656
0.24798368 0.0206194 -0.5344643 0.19736606 -0.7973923 0.1627718 -0.3411859 0.39402914
0.4107787 0.048980847 -0.69619507 1.2043966 -0.0044222786 0.4339477 0.23502743 0.28557462
0.020736981 1.0634882 -0.90783304 0.24638851 0.688801 -0.024435049 -1.057862 0.90342265
1.0457245 -1.0418214 -0.50573033 -0.6240876 0.0035841875 1.0231551 0.31471306 0.9961734
1.408798 0.6527211 0.9793829 0.9117253 -0.39193946 -0.37123844 0.20957379 0.63811564
-0.4197651 -0.10695249 0.8332899 0.9530961 0.56916445 1.1983092 -0.4977552 1.5287654
-0.39477035 0.053926434 -0.46244216 -0.41624773 0.5769281 -0.9480156 0.09528513 -0.2670142
-1.1541435 0.9867424 0.613708 -0.9573273 -0.81963575 -0.007582238 0.16499382 -0.423841
-0.45953485 0.051308163 -1.173949 -0.46933845 -0.20553496 0.3867814 0.37655625 0.65841585
-0.46422836 -0.4682806 0.14389719 0.5411064 -0.3317933 0.57545775 0.8614811 0.42765963
-0.4530417 1.3299307 -0.004732218 -0.39163524 1.081259 -0.019757751 -0.0011693073 -0.4182798
0.12397351 -0.13584143 -0.93394184 -0.83276916 0.1851612 -0.28266883 -0.43890464 -0.093163244
0.47330183 -0.6910142 -2.0140667 -0.64288336 0.8202287 0.4110783 0.13063008 0.033329308
0.22791548 0.5835505 0.05644941 -0.97903436 -0.75244313 -0.64624345 0.7111288 0.38156158
0.2548815 -1.3346735 1.2776078 0.65428674 -0.4755564 0.37170294 -0.37679926 0.29104325
0.1843345 -0.424064 -1.8449531 -0.051694434 -0.8528008 -0.31545955 -0.45557678 -0.8045659
-1.5293558 -0.2913707 -0.22628988 0.0741169 -0.79481447 -0.7214876 0.124352284 -0.5176144
0.99802405 -1.1636424 0.19977917 -0.0284397 -1.225106 -0.55058545 -0.56732273 0.2200768
00000000: 6b40 e8be db97 643e 6984 4fbe 347c 82be
00000010: f489 a5bf 0372 14be 0bac 6b3e d554 623c
00000020: c683 48bb 7011 9fbb e7e1 75bf 4209 ba3e
00000030: c78c 5ebf f5a5 c43d df40 73be e062 29be
00000040: 20cc 78bd 308f 7e3e e5fd d2bd 97fb ed3e
00000050: 0f10 583f 721a 5d3e 72c2 623e 3d9e b9be
00000060: 682c 9dbe 3b54 82bf f89b d73d d154 953d
00000070: d6b4 7b3e 2e6c 42be c706 3e3f 1b07 93bd
00000080: 6ce0 4f3e 505c 89bf 4efb e63d 6dcf cdbe
00000090: 5cf4 5b3e be9d e8bd 2b6e 0f3f e435 98bd
000000a0: e649 18be 19e3 67bd a501 6cbd 2832 b1bd
000000b0: 8419 bebe a1d1 383f adce 6dbe 9230 723f
000000c0: 914b 113f dc1a a7bd 8611 cbbd 9e37 d03e
000000d0: cc65 1e3f c632 5dbe a3ba 33bf 9f99 29bf
000000e0: d373 1d3d 705c d33e 0ff9 333e 6242 4cbf
000000f0: d581 cf3e 5241 36bf b6d5 90be 727f 0bbf
00000100: 6d23 903f ec47 5ebe 8a27 873f af6c 4c3e
00000110: 0d77 cb3e b9da 543f 4eed eebe d8b0 803f
00000120: d0c3 173e cdc7 1d3f 273b 20bf f31d f7be
00000130: 5234 2dc0 d13b bc3e d89c 6a3e e323 db3e
00000140: 14b1 6b3f e1b7 3fbd d4be 303e 4035 11bf
00000150: d631 2abd 7a05 0bbe 935e 54be b3a6 ab3e
00000160: c93d c0be a0e0 0e3f b69a 49be 9400 343b
00000170: d3ef 0fbe 44e6 83bf bef4 953a 1d9f 68bd
00000180: 33a6 bbbe 6eee 49bd c92e 9d3d 25dd 533f
00000190: 6862 203e 4c70 9dbe bf69 d53f 5b51 dcbf
000001a0: 0bc4 eebe 7c4b 4d3e db9c 0e3e f5fe 513f
000001b0: d847 ea3c eb0f 993e c118 a53f 5205 a8be
000001c0: 6fef 7d3e 04ea a83c a7d2 08bf 541a 4a3e
000001d0: e721 4cbf a7ad 263e ebaf aebe 30be c93e
000001e0: 9651 d23e 24a0 483d d739 32bf ab29 9a3f
000001f0: c3e8 90bb 652e de3e 08ab 703e d636 923e
00000200: 9ae0 a93c 6220 883f bf67 68bf 454d 7c3e
00000210: 4355 303f 032c c8bc 0668 87bf b546 673f
00000220: 4dda 853f 675a 85bf 8b77 01bf 34c4 1fbf
00000230: b0e4 6a3b bff6 823f 1222 a13e 3805 7f3f
00000240: 7e53 b43f bb18 273f d6b8 7a3f d466 693f
00000250: 4aac c8be f712 bebe 839a 563e 8c5b 233f
00000260: 74eb d6be e809 dbbd 7d52 553f 1bfe 733f
00000270: c3b4 113f 3262 993f c5d9 febe 96ae c33f
00000280: 571f cabe f7e1 5c3d 38c5 ecbe 6c1e d5be
00000290: 8fb1 133f 26b1 72bf da24 c33d 16b6 88be
000002a0: f9ba 93bf 269b 7c3f f81b 1d3f 6713 75bf
000002b0: a6d3 51bf 6c74 f8bb 24f4 283e b001 d9be
000002c0: 2748 ebbe 8228 523d f643 96bf 214d f0be
000002d0: c277 52be 3608 c63e fbcb c03e f18d 283f
000002e0: 57af edbe 7ac2 efbe c959 133e f385 0a3f
000002f0: d0e0 a9be 3351 133f 068a 5c3f 34f6 da3e
00000300: 15f5 e7be 2b3b aa3f b910 9bbb 6a84 c8be
00000310: b266 8a3f 02db a1bc 7143 99ba c528 d6be
00000320: d3e5 fd3d 041a 0bbe d016 6fbf 5c30 55bf
00000330: e69a 3d3e f8b9 90be 1cb8 e0be 5fcc bebd
00000340: 9e54 f23e 4ee6 30bf 78e6 00c0 0194 24bf
00000350: 82fa 513f db78 d23e e4c3 053e 5084 083d
00000360: ad62 693e 9163 153f 7f37 673d ffa1 7abf
00000370: 1da0 40bf 3670 25bf 890c 363f 0a5c c33e
00000380: d47f 823e 95d6 aabf a788 a33f 567f 273f
00000390: 217c f3be d94f be3e d5eb c0be 9f03 953e
000003a0: 2fc2 3c3e eb1e d9be 6c27 ecbf 8bbd 53bd
000003b0: 2751 5abf ea83 a1be 5c41 e9be 08f8 4dbf
000003c0: eec1 c3bf 8a2e 95be 89b8 67be 9aca 973d
000003d0: f678 4bbf 69b3 38bf 69ac fe3d 6182 04bf
000003e0: 817e 7f3f 3cf2 94bf e992 4c3e 60fa e8bc
000003f0: 46d0 9cbf 2bf3 0cbf 103c 11bf d05b 613e

layers.6.bias f4 [2]
-0.06907647 0.03207357
00000000: f777 8dbd 935f 033d
