results/checkpoint_0_actor_target.pt (torch_old, 86443 bytes, 14 tensors)

layers.0.weight f4 [128, 24]
00000000: 14dd 41be 4ab9 8a3e dd3f 9dbd 436c 0b3d
00000010: 7366 eabd 0faf c63d 45c8 29be 1fc5 063e
00000020: 463c 03bc c946 de3e 06ba 3cbe 5a8d b03d
00000030: bb9f 48be c4e7 0c3e cdb0 c4bd 0039 393c
00000040: 8714 bfbe 15d9 d83e 159d 82bd c683 f5bd
00000050: a79b 7ebe 26fb 3c3e 64d8 db3c 72ea 62bd
00000060: 3400 e93d 3469 3abe 952b 10bc b619 b0bd
00000070: 430d 13bf 8967 05bf 803e 77bc 2382 bb3b
00000080: 22c1 3f3e 2edb 12be 8796 ff3c 1254 c73b
00000090: 3d33 a3be 7d6b 2cbe 9ac6 cc3c 1ad6 763d
000000a0: 01f0 a73e 4ad5 8f3c 7c2b 76bc 3d93 8abc
000000b0: a7fd 60be 1f0d 183e 96f3 623d 6328 163d
000000c0: 8e04 49be 9676 e03e a2b6 d2bb 0e20 ccbd
000000d0: 1877 aabd 1209 8cbe badb 85bd a586 cdbd
000000e0: 43a7 cbbc 4e07 cb3e 085e 2dbb e579 12be
000000f0: ad94 8dbe cf72 febe 71f2 4c3b 6008 fbbb
00000100: 9a2f acbd 8bd9 043e d7d1 933d 7287 c1bd
00000110: b4e7 1fbf 3b33 2fbf df05 6cbd 4cfb 1bbe
00000120: 13e9 bcbe f818 d83d af4c 843d 191a 69ba
00000130: db70 e43e 09da debd 4d8a 4cbd a9e8 24bd
00000140: b0a0 6abe 491c bb3d 8de3 d0bd 0667 f6bd
00000150: 8afa 863e 3ab1 0fbc cd4e 373c 115e 7fbc
00000160: 19eb 06be 6af6 efbd c720 073d fb81 a6be
00000170: 5a52 d03d 329d 723e 77e1 9fbd c467 7dbe
00000180: 44a4 783d b82f a03e 380a 823a d87e 963e
00000190: 1a62 a5be 0b58 f53e 8b1f e8bd 195a b13e
000001a0: c08f 61bd 7750 ca3e 5dd5 c2bd 732f c8bc
000001b0: 0e11 26be dbf7 723e 6d0c dabd c72d bd3c
000001c0: 2ed5 05be 8efe 903e da81 0a3e 28e8 03be
000001d0: a139 eebd 2cda 9abd 6898 4a3d 9f25 a9bd
000001e0: f409 a1bd 40ad 22be d7ba ed3b a3a2 89bd
000001f0: 3b7a 143f cf8a 05be 5ab4 04bc d8b9 fe3c
00000200: d08f 21bd e2aa 30bd 30cd 2ebd 3b54 0cbd
00000210: be94 e6bc 700a 9a3c 59de 193d 6e7d 083c
00000220: d7b2 533e 2c5c 14bd fa67 89b9 cebe 3c3c
00000230: 4e35 64bf 3126 283e 9779 66bc 05e4 4fbd
00000240: 2111 e33d 4161 f13e 2aa5 203d bd8c 4c3d
00000250: 1756 afbe 2cdd 42bf 3f3e 30bd 3445 ddbb
00000260: 9419 ec3d 4bfa f33e 7607 513d ab83 293e
00000270: 685b 4fbe 05fa f3be e075 bb3c 3d50 163e
00000280: 3e01 463e 8794 163f d0f8 1fbd a008 8dbc
00000290: ea11 113e 037d 78bd 1df1 b43b 8cb1 d33b
000002a0: f189 19be ad1e 0d3e 4fd8 c53c 83b8 19be
000002b0: 2880 cb3d dcd2 593e 1f3f d8bc d0fe 01bc
000002c0: d8a0 06be a488 9f3e 7702 97bb 69d0 11bb
000002d0: cb01 8ebd 1f9a 983e 2d4f 4a3d 751d 3fbd
000002e0: 8f0a 21bc a832 9f3e 924a da3c 8acc 47bb
000002f0: 503a 2ebf 2f3f 0c3f 18fb ed3c 511e a83d
00000300: 32fa f13d 7dc4 093f 0c98 92bd 129b 17be
00000310: a749 d03d 051e 69bc 0e28 babd c506 54be
00000320: d1cd 583e 9b2f 8c3e 8241 213d 3790 5bbe
00000330: 6eab b33d d4ef ef3e 9bdd 6fbd 7853 27be
00000340: 211b 9b3d a07d 463e 5629 90be 338e 403d
00000350: a918 b8bd 3faa bb3e 6b6a 86be cd25 d83c
00000360: c9e5 b7bd 6537 253e 4347 d0bd 57e6 563c
00000370: a6a3 6e3e f82d c4be aa8f 98bd 4dac 553b
00000380: 7bb7 16be 9bd6 713e 49f7 303d f742 923e
00000390: dc48 8c3d 47fe d6be 2b8a a9bd 040e ca3e
000003a0: 9525 97be d579 c33e 6721 05be cbd4 a7bc
000003b0: c46b 373e cc77 25be 9749 ecbc bb60 c9bd
000003c0: 69a4 4bbe 07b0 b03d 49ab bc3c 74c3 c2bd
000003d0: 4ce4 9b3d f4be 333f 1790 9fbc 35c0 00be
000003e0: f513 29bd 3d50 f83d f604 5cbd 2d5d 3bbe
000003f0: 0b08 17be f75c 013f 4330 03bd aba6 35bd
-0.18931991 0.2709449 -0.076781966 0.034038793 -0.11445322 0.097013585 -0.16580303 0.13161133
-0.008009976 0.4341338 -0.18430337 0.08620711 -0.19592182 0.13760287 -0.096040346 0.011305094
-0.3732035 0.4235312 -0.06377617 -0.119880244 -0.24864064 0.1845518 0.026836582 -0.055399366
0.11376992 -0.18204194 -0.008799453 -0.08598654 -0.5744211 -0.5211111 -0.015090585 0.0057223006
0.18726018 -0.14341423 0.031199707 0.00608302 -0.3187503 -0.16837879 0.024997044 0.060262777
0.32800296 0.017557759 -0.015025016 -0.016915912 -0.2197176 0.14848755 0.055408083 0.03665961
-0.19630644 0.43840474 -0.006430463 -0.099670514 -0.083234966 -0.2735067 -0.0653605 -0.10035447
-0.02486003 0.3965401 -0.0026453752 -0.14304312 -0.27652493 -0.49696967 0.0031272436 -0.0076609105
-0.08407517 0.12973611 0.07217758 -0.09449662 -0.62462926 -0.68437546 -0.057622787 -0.15232581
-0.36896572 0.105516374 0.06459939 -0.00088921335 0.44617352 -0.10881431 -0.04993658 -0.040260945
-0.2291286 0.09136254 -0.10199652 -0.12031369 0.2636302 -0.008770281 0.011188221 -0.015586392
-0.1317562 -0.11716922 0.032990243 -0.32521042 0.10171957 0.23692778 -0.07806676 -0.24746615
0.06070353 0.31286407 0.0009921258 0.2939365 -0.32301408 0.47918734 -0.11334141 0.34639052
-0.05506873 0.39514515 -0.09513352 -0.024436688 -0.16217443 0.23727362 -0.10646901 0.023093117
-0.13069603 0.2831921 0.13526097 -0.1288153 -0.116320856 -0.07561144 0.049461752 -0.08259129
-0.078632265 -0.15886402 0.007254939 -0.067204736 0.5799901 -0.13041233 -0.00809964 0.031094477
-0.03944379 -0.043131717 -0.04267615 -0.034260016 -0.028147098 0.018803805 0.037565563 0.008330686
0.2067369 -0.036220714 -0.00026208145 0.011520101 -0.89143836 0.16420819 -0.014067075 -0.050754566
0.110872515 0.4714451 0.039220013 0.049938906 -0.3424537 -0.7611873 -0.043028113 -0.0067526344
0.11528316 0.47651896 0.051032506 0.16554134 -0.20249712 -0.47651687 0.022883356 0.14679046
0.19336411 0.58820385 -0.039055645 -0.017216027 0.1416699 -0.060666095 0.005521907 0.006460374
-0.14994027 0.13781233 0.024150996 -0.15011792 0.09936553 0.21271843 -0.026397286 -0.007934287
-0.13147295 0.31158936 -0.004608448 -0.0022249466 -0.06933936 0.29805085 0.049391914 -0.04665895
-0.0098291775 0.31093335 0.026646886 -0.0030486905 -0.6805773 0.5478391 0.029050395 0.082089074
0.11815299 0.5381544 -0.07157907 -0.14805248 0.10170298 -0.014228349 -0.09089671 -0.20705707
0.21172263 0.2738007 0.039369114 -0.21441732 0.08772932 0.46862662 -0.05856095 -0.16340435
0.07573534 0.1938386 -0.28156537 0.04701061 -0.089890786 0.36653325 -0.26253065 0.026385212
-0.08979375 0.16134413 -0.10169842 0.013116441 0.23304614 -0.3831632 -0.07449277 0.003260392
-0.1471843 0.23617022 0.04320458 0.28566715 0.06849834 -0.41990873 -0.082783066 0.39463818
-0.2952086 0.38178888 -0.13001023 -0.02048721 0.17912203 -0.1615898 -0.028843684 -0.09832903
-0.19886936 0.086273246 0.023030894 -0.09509936 0.076119035 0.70213246 -0.019477887 -0.12573321
-0.041278798 0.12124679 -0.05371567 -0.18297262 -0.14749162 0.5053248 -0.032028448 -0.0443484

layers.0.bias f4 [128]
00000000: 925e 17be b2ff 3a3e 5a81 1e3e ce17 3cbe
00000010: 92ac 1ebd a812 3ebe dab0 483e a544 bfbc
00000020: cfc6 413c 018f 363e ae4a 893d 8252 2abe
00000030: 7cb5 2fbe 7a98 423d 5e86 14be f970 1b3d
00000040: f59e 943d 8342 493e 081c 003e 51e7 bf3d
00000050: 0af7 2bbe 36d7 3c3e e9bd d4bd 873a 2b3c
00000060: b91d 36be 494e b33d 8297 20bd dd0f 213e
00000070: 32b6 e03d a9bc fcbd 162b f43c 1a57 3abe
00000080: 3841 c03a 77e5 2d3e b605 1ebe d9a7 a63d
00000090: 9d3e 44bd 6e6f 763d 20b4 3d3e 6878 393e
000000a0: 9101 513e 900d 163e f97e 943d f5bb 33be
000000b0: 9eff 983d 388c 283c 1648 b1bd 5167 fbbd
000000c0: 44da 36be 8e99 133e 78ff 8abd a92e bc3d
000000d0: 3218 d4bd 0f86 02bd 969c b3ba a329 38be
000000e0: a9e9 343b e7fb 18be cdd4 1dbe cfa2 2ebe
000000f0: e2be 5b3c 7cac 4abc ef34 353e ffb2 12be
00000100: 97e5 80bd c15f 41be 2a3d 303e 8077 4dbe
00000110: 760e 97bb fc6b 023e 9da1 af3c 545f 50be
00000120: 6970 02bc 1a2a dd3d bb57 31be f57e e63c
00000130: 2d12 5fbd 873d 883d 016d 21be 5b41 123d
00000140: ead6 0c3e fab7 80bb aacc 1a3e a417 193e
00000150: e6b4 16be 474d dabd 396e c83c 438b 813c
00000160: b4e6 443e dca1 62bd c310 00bd 48f9 43be
00000170: 44f9 0bbd 48ca 3ebe c3bf 11be 3c15 09be
00000180: f303 283e 862d d63d edf5 213b 51c5 76bd
00000190: 2c5e f6bd e709 0a3e 2915 263d 4146 d93c
000001a0: 6777 a63d 1836 73bd 7158 193e 7048 4fbe
000001b0: 9c4f fd3d 9cab 1fbe aef9 833a 9b99 86bd
000001c0: 4476 483c 9abb d83c 4804 42be b124 febd
000001d0: 4557 273e 9900 5f3d e355 423e 92dd 62bd
000001e0: d530 1d3e 388c 2ebe 3aeb 6dbd fa2b ae3d
000001f0: 9041 423e 873c 85bd 8d11 2ebd 5de6 2e3d
-0.1478217 0.18261603 0.15479031 -0.18368456 -0.038738795 -0.18561804 0.19598714 -0.023348162
0.011827185 0.17827989 0.06703697 -0.16633037 -0.17159075 0.047508694 -0.14504382 0.037949536
0.07256881 0.19654278 0.12510693 0.09370292 -0.16793457 0.18441471 -0.10387785 0.010450966
-0.17784776 0.08755166 -0.03920699 0.15728708 0.10972251 -0.123406716 0.029805701 -0.18197289
0.0014667874 0.16982065 -0.15431866 0.08137483 -0.047911275 0.06016486 0.18525743 0.18112338
0.20410754 0.14653611 0.072507806 -0.17552169 0.0747063 0.010287337 -0.086563274 -0.122755654
-0.17856699 0.14414045 -0.06787008 0.09188587 -0.103561774 -0.03186613 -0.0013703282 -0.17984633
0.0027605093 -0.14939843 -0.15413208 -0.17054294 0.013412209 -0.012370225 0.17695974 -0.14326094
-0.06293791 -0.18884183 0.17210832 -0.20065117 -0.004609878 0.12736505 0.021439368 -0.20348865
-0.007961371 0.10799046 -0.17318623 0.02813671 -0.054460693 0.066523604 -0.15764238 0.03570686
0.13753858 -0.0039281817 0.15117136 0.14950424 -0.14717445 -0.10659271 0.02446662 0.015813475
0.19228631 -0.055330142 -0.031265985 -0.19138062 -0.034173265 -0.18631852 -0.14233308 -0.13387007
0.16407757 0.10457902 0.0024713234 -0.06024677 -0.120296806 0.1348034 0.040547524 0.026522757
0.08128243 -0.05937776 0.14975144 -0.20242476 0.123687 -0.15592808 0.0010068917 -0.06572267
0.012235228 0.026456643 -0.18946946 -0.12409342 0.16341884 0.05444393 0.18978076 -0.055387087
0.15350659 -0.17045677 -0.058085658 0.085044816 0.18970323 -0.06505685 -0.042497206 0.04270016

layers.1.weight f4 [128]
00000000: 26aa 563e 2038 4a3f 7281 863e 0066 ed3e
00000010: 8b99 b03e 7207 803f 452f 0f3f 6410 073f
00000020: 5c53 cc3e 9b20 fb3e ecf7 d53e c897 f73e
00000030: 4153 283e 017a a53e fb62 4d3f c9f4 453f
00000040: 0a71 d83e 9fed 523e 7c58 873e b884 463f
00000050: 8a34 f33e 909e 473e 8588 dc3e 7dce 583d
00000060: ca49 c63e 6453 ca3e 7722 853e 5554 893e
00000070: 62bc cf3e 825c 153f 3e06 043f 61af e53e
00000080: d827 323e 9172 1d3f ada2 713e fe9a 623e
00000090: 5dcd 1e3f c681 913e f41c 673e d391 073d
000000a0: 692e c73e 7349 a23e dcee 243f b6f6 8b3e
000000b0: 3f8e c93e e9c4 8c3e 2747 0a3f afe7 483e
000000c0: ac9f b43e bb78 f23e 03ee ba3e a4c5 203f
000000d0: f7fe 273f a071 ad3e 3e7f 6b3e 708a e33e
000000e0: 355d c33e c794 473e a4e3 223f 487f a73e
000000f0: 5a44 f43e 860f c63e 39a4 ff3e 2b16 123f
00000100: 6b2d a53e e061 f43e dd8a 133f aaa6 253f
00000110: f69e ba3e 7abf da3e 1fcd 353f cdc7 c23e
00000120: 7bff ef3e a7bf 713e fbd7 203f f383 9d3e
00000130: 337d cb3e d428 963e fac5 a83e 2926 623e
00000140: 37d5 183e 7a86 073f 99f8 3e3e 7a4a f93e
00000150: a1c8 813e 834d f93e 61fd 2f3f 7b46 9c3e
00000160: 1946 ba3e 4072 9e3e 9dbb be3e 040a 203f
00000170: 7d61 cf3e dd78 cb3e a10c b93e 9700 033f
00000180: 069d 473f c530 1f3f 7e39 2b3f 9ade 133f
00000190: 8128 b53d 611b e73e 0118 c63e 366e ba3e
000001a0: 56d9 953e 923a a33e 814b 5f3f 7ba5 b13e
000001b0: 7692 a63e a4ab a83e 1020 d83e c4d4 e73e
000001c0: e2e4 763f 6044 e03e 624d ea3e 2e38 d23e
000001d0: 9bc3 9e3e c8f2 513e 2453 8f3e bf3d f23e
000001e0: 2d56 143f f3de 643e c2af 3e3f e499 193f
000001f0: 0e38 5b3e af50 2d3e 203e 7d3e c3c7 783e
0.20963344 0.7899189 0.26270634 0.46366882 0.34492144 1.0002272 0.559315 0.52759385
0.39907348 0.49048313 0.41790712 0.48357987 0.16438009 0.32319644 0.8022916 0.7732664
0.42273742 0.20598458 0.26434696 0.7754626 0.47501022 0.1949408 0.43072906 0.052931298
0.38728172 0.39516747 0.26002857 0.26822153 0.40573412 0.5834428 0.51572025 0.44860366
0.17398012 0.6150294 0.23597212 0.22129437 0.6203211 0.28419322 0.22569638 0.033098053
0.38902596 0.31696662 0.6442697 0.27336663 0.39366338 0.2749398 0.5401482 0.1961963
0.3527807 0.47357735 0.36509714 0.62801576 0.6562342 0.33875751 0.22997758 0.44441557
0.3815705 0.19490348 0.636286 0.32714295 0.47708398 0.38683718 0.4992998 0.57065076
0.32261214 0.47730923 0.57633764 0.64707434 0.36449403 0.4272421 0.71016115 0.3804306
0.46874604 0.23608266 0.6282956 0.30764732 0.39743957 0.29328024 0.32963544 0.2208487
0.14925085 0.5293957 0.1864952 0.48689634 0.2534838 0.4869195 0.68746 0.30522522
0.36381605 0.3094654 0.37252513 0.6251528 0.40504065 0.3974065 0.36142448 0.51172775
0.77973974 0.6218379 0.668846 0.5776154 0.08845616 0.45138076 0.3869019 0.3641221
0.29267377 0.31880623 0.87224585 0.34696564 0.32533616 0.3294345 0.42211962 0.45279515
0.96443 0.43802166 0.45762163 0.41058487 0.3100861 0.2050277 0.2799312 0.47312734
0.57943994 0.22350673 0.74486935 0.60000443 0.21408102 0.1692531 0.2473073 0.24294953

layers.1.bias f4 [128]
00000000: ff3a 16be 8999 1fbf 9634 df3c 3731 6b3d
00000010: c75b 4dbe 3cbb 9bbd 3a62 d1be 73d4 cbbe
00000020: 764a 09bf 9a65 a2be 74ff 27be 9e4a c1be
00000030: edfb fcbe e00f 7bbe 0af4 0ebf c085 b3be
00000040: 34d8 4dbe 9911 5ebd 46e5 13be 6be5 c7bc
00000050: fd7b 8abe 7585 61bd 468e 8dbe 82b3 2c3e
00000060: 2e70 cbbd 5ad4 0ebf 9cbe 3dbe f374 91be
00000070: bf7c 88be 8e4a a7be c989 713d 9832 97be
00000080: 659f 513c 2b95 19be 956c 25be ad20 fdbd
00000090: f8ef ccbd e258 90be c00d 91be 12fa e13d
000000a0: a8b3 80be f909 89be 3095 a8be 4a60 bcbd
000000b0: 0e64 afbe e567 a2be 6843 fa3d fad9 0bbe
000000c0: 446c b3be abff 1ebe 21a7 9bbe b3a1 33be
000000d0: 3e24 7abe 3497 b1be cca1 28be b57e c2be
000000e0: 4313 d2be 21e4 5f3d 14ed 1bbe e790 93bd
000000f0: 9f9a ecbe 4a50 70be a8a5 17bf e8ee b2be
00000100: c7bc 2bbe b7df 01bf 0f26 06bf ef2d 10bf
00000110: b9cf 62be 5ee9 c4be 20ad c9be a830 81be
00000120: 0dbd f13d 70b1 57be 69d6 b63d 71d1 92be
00000130: e01d 8dbe 51b6 4abc 3fff 16be a02d ccbc
00000140: 102b 043e 0e48 993d da78 24be cd8a e9be
00000150: bfca 38be a76f afbe f895 1cbf a531 84be
00000160: e245 97be dfd5 bbbe 5c2a 02be 2aec 83be
00000170: 91c1 1fbe 89f4 04be 9375 bdbe 7755 91be
00000180: 9e9f 06bf ba87 c0be 74a9 f7be 249d 06be
00000190: 650a cc3d eb68 d3be a9df 62be 43e7 bebe
000001a0: 0beb 30be 47d5 21be 9be6 c5be d453 8dbd
000001b0: 9874 a7be 3298 f1bc c3b4 5fbe 9780 8cbe
000001c0: dd47 e1be a665 8cbe 79a4 90be 9d43 433e
000001d0: f287 19be 3edb d3bc d8f0 7fbe a0c1 d9be
000001e0: 2694 e6bd 58f5 39bd b48a 12bf e137 2ebf
000001f0: 50e0 a5bd c6a0 95be fc91 e93b 688c 73be
-0.14670943 -0.6234365 0.027246755 0.05741998 -0.20054542 -0.076040715 -0.40895253 -0.39810523
-0.53629243 -0.3171814 -0.16406041 -0.3775224 -0.49410954 -0.24517775 -0.55841124 -0.3506298
-0.20102006 -0.054216 -0.1444293 -0.024401387 -0.2704772 -0.055058915 -0.2764761 0.16865352
-0.09933506 -0.5579277 -0.18529743 -0.28409538 -0.26657674 -0.32674068 0.058969293 -0.29530787
0.01279435 -0.1499831 -0.16154702 -0.12359748 -0.10006708 -0.28192812 -0.28330803 0.11034025
-0.25137067 -0.2676542 -0.3292632 -0.09198053 -0.34256023 -0.3171989 0.12219888 -0.1365737
-0.35043538 -0.15527217 -0.30400947 -0.17542152 -0.24427888 -0.3468567 -0.1646797 -0.37987295
-0.4103032 0.05466092 -0.15227157 -0.07205372 -0.46211717 -0.23468128 -0.59237146 -0.34947896
-0.16771232 -0.50731987 -0.5240182 -0.5632009 -0.22149552 -0.38459295 -0.39389896 -0.25232434
0.11803637 -0.21063781 0.08927614 -0.28675416 -0.27561855 -0.012372569 -0.14745806 -0.0249241
0.12907052 0.074844465 -0.16061726 -0.4561371 -0.18046091 -0.3426487 -0.61166334 -0.25819126
-0.29545504 -0.36686608 -0.12711471 -0.25766116 -0.15601183 -0.12983908 -0.37003765 -0.28385517
-0.52587306 -0.3760355 -0.4837147 -0.13145882 0.0996292 -0.41290984 -0.22155632 -0.37285814
-0.17277162 -0.15804015 -0.386525 -0.069007546 -0.3270614 -0.029491518 -0.21846299 -0.27441856
-0.4400014 -0.27421302 -0.28250483 0.19068761 -0.14993265 -0.025861379 -0.24994218 -0.42530537
-0.11258726 -0.045399994 -0.57242894 -0.68054014 -0.08099425 -0.29224223 0.0071279984 -0.2378403

layers.1.running_mean f4 [128]
00000000: 886c 3e3f a5d2 8dc0 b5a6 38c0 67af 6f40
00000010: 338e 9b3f 3669 12bf 019f ccc0 0b06 9c40
00000020: f516 87c0 be15 f8bf 9c0d d440 0fc6 07c0
00000030: 557d 9940 11ac 1ac1 c757 c83f 1472 80c0
00000040: 4855 d7c0 7250 3bbf da10 1240 aced 5140
00000050: 2452 0fc0 0265 bbbf 81ff 81c0 f9c5 dc3f
00000060: b8c3 5240 4f7f d2c0 c721 c13e c5fb 683f
00000070: 183f c940 d7e1 9240 911d a9bf fd8a 3e40
00000080: 196b aac0 4e76 2f40 85b8 17c0 15fe e9c0
00000090: fad8 84c0 7222 bcbf 58a0 0640 f4af 2dc0
000000a0: 9b67 d840 ee84 db40 d5d7 d840 d5bd 82c0
000000b0: 223c f1bf f63a a940 3b43 0440 c3fb af40
000000c0: ceaf d43f d069 6bbf 767a 6ac0 724c 9740
000000d0: 233f 2ebf 9d89 3940 5e5e e3c0 aae3 84bf
000000e0: 31fa a940 fd4e 8140 123e 0f40 8b8d a440
000000f0: 02c1 17c1 9375 c2c0 7216 94bf 16cd d43f
00000100: 1333 25c0 6088 3b40 78fe 6a40 9f84 533f
00000110: 73d7 3a3f 1407 d5bf 30c5 8c40 b895 c440
00000120: 9bb7 c23f b2fc f2bf 8846 583f 52d4 d4c0
00000130: 37c2 60bf e0ca 423f cf01 cb40 0e52 5740
00000140: 2bdd fd40 c83a f13e ef95 b640 f3d0 903f
00000150: c301 c8be 0d68 53bf 0f3c 1540 e90d 57c0
00000160: e61f 1d40 18c7 8340 06da 6c3f e4e5 8dbf
00000170: b4b5 84c0 c6d4 d7bf 89ce 9840 d37b a63e
00000180: a14e aebf b193 3b40 d0a0 1a3f 2605 7740
00000190: 4493 1ac0 7a74 e3c0 1b60 fd3f 4db9 7240
000001a0: 57f3 9440 7d21 81c0 d83a 5c40 b104 2740
000001b0: 25bb a140 fcab 0b40 0dce b6bf a54b 18c0
000001c0: acff 643f f13b 2dc0 9bb2 573f ebd1 e03e
000001d0: d1fe 0941 0846 83c0 9b10 343f 2829 4540
000001e0: 9ded 9c40 527b e6be 4965 1ec0 d09e f0c0
000001f0: ec13 de3f d94e 94be 31ad 1940 06ab 1cc0
0.74384356 -4.4319634 -2.885175 3.7450807 1.2152771 -0.5719179 -6.3944097 4.8757377
-4.2215524 -1.9381635 6.6266613 -2.1214635 4.7965493 -9.667008 1.5651788 -4.0139256
-6.7291603 -0.73169625 2.2822785 3.2801313 -2.2393885 -1.46402 -4.0624394 1.7247916
3.2931957 -6.5780406 0.37721083 0.9100917 6.288952 4.5900683 -1.3212148 2.9772332
-5.3255734 2.7415957 -2.3706372 -7.312266 -4.1514864 -1.4698012 2.1035366 -2.7138643
6.762647 6.859977 6.7763467 -4.085673 -1.8846476 5.2884474 2.0666034 5.4994826
1.6616151 -0.9195833 -3.6637244 4.7280817 -0.6806509 2.8990242 -7.1052694 -1.0381978
5.311791 4.040892 2.2381635 5.142278 -9.484621 -6.0768523 -1.156935 1.6625087
-2.5812423 2.9301987 3.6717815 0.8262424 0.72985 -1.6642785 4.3990707 6.143276
1.5212282 -1.8983366 0.8448262 -6.650918 -0.8779635 0.7609081 6.343971 3.3643832
7.933248 0.4711516 5.7058024 1.1313766 -0.39063844 -0.82580644 2.3317907 -3.360224
2.455072 4.1180534 0.9252018 -1.1085782 -4.1471806 -1.6861808 4.775212 0.32516345
-1.3617746 2.9308894 0.6040163 3.8596892 -2.4152384 -7.1079683 1.9794954 3.7925599
4.6547046 -4.035338 3.4410915 2.6096613 5.054095 2.182372 -1.4281632 -2.379617
0.89452624 -2.7067835 0.84256905 0.43910155 8.624711 -4.1022987 0.7033784 3.080637
4.9040055 -0.4501596 -2.474932 -7.5193863 1.734983 -0.28966406 2.4011958 -2.4479384

layers.1.running_var f4 [128]
00000000: 5500 e442 7db6 2842 afba 4e42 32b1 1442
00000010: fa02 3542 ed4f b540 4d8f 8741 89d0 ca41
00000020: 4846 1143 6b89 5d42 5c15 bb41 eea8 3942
00000030: 8caf fa41 0d93 2242 558b bc41 bb4f 7c41
00000040: 271b c241 8a8b 0a42 6a17 2a42 32a1 a240
00000050: c927 6e42 01e1 5841 efd1 0942 e839 5842
00000060: 78cc ec41 0899 0242 6eca dd40 7cc5 2842
00000070: 9130 aa41 04c9 7c41 518e ad40 881d b541
00000080: 5d67 2743 db05 c842 45a5 4d41 57e4 b541
00000090: 3811 0f42 a726 ed41 2bdf 0742 d4a9 a742
000000a0: 023b d741 b3d3 2742 1d96 9a41 2fa3 e441
000000b0: 7d7c 3d42 20dc 8242 cab0 dc40 c206 ec42
000000c0: a6ac 1b42 4e2b 0a42 ae36 5f42 6b80 8042
000000d0: 397d f040 dca2 8d41 c279 3a42 0b09 4f42
000000e0: 954c b341 c22e c641 b14d 4941 b0b0 3642
000000f0: bd97 9341 3b00 2a41 c8b6 ac42 92d8 d840
00000100: a8e6 fe41 3223 4a42 7651 6341 e1d2 2942
00000110: bf2a 2a42 90fa 5642 24e0 1f41 0605 fe41
00000120: 7669 f642 400d 7141 ffe6 8b40 1213 6e41
00000130: d4f7 9142 283f ac41 4503 1c42 117a fd42
00000140: a91c e742 283b 3f41 d5f4 1842 354e 9d42
00000150: c2af f641 3b83 3741 f10c a541 7c9f 9942
00000160: ae15 2941 54d1 4642 527e 8541 5298 2b41
00000170: 6ff3 ec41 4304 8442 ce8f 8342 a525 8e41
00000180: 6412 fb3f cefc 0542 0095 3740 85ea 9541
00000190: 328e e042 b044 2f42 48be 9f41 67ba e142
000001a0: 9d16 8442 6c4e 0742 85a2 2641 928e 8f42
000001b0: fbff 7342 07b1 bc41 740f 6542 691e a941
000001c0: 3441 c840 620f 5242 bb0e 6642 e3e6 b540
000001d0: 022d 8b41 b7c6 8142 44f9 aa41 8d6f 2342
000001e0: 538b a141 1791 3f42 83ba 8542 9cfe a941
000001f0: cfd5 e441 67df 9641 b3ce 2142 6617 2043
114.00065 42.17821 51.68231 37.173042 45.252907 5.6660066 16.944971 25.351824
145.27454 55.384197 23.38543 46.41497 31.335716 40.643604 23.568033 15.769465
24.263258 34.63627 42.522865 5.082177 59.538853 13.554933 34.455013 54.05655
29.599838 32.649445 6.9309607 42.192856 21.273714 15.799076 5.4236226 22.63942
167.40376 100.01144 12.852849 22.736494 35.766815 29.643873 33.967937 83.831696
26.903812 41.956738 19.323298 28.57968 47.37157 65.42993 6.8965807 118.0132
38.918602 34.54229 55.8034 64.25082 7.515286 17.704521 46.618904 51.75883
22.412394 24.772831 12.581468 45.672546 18.449091 10.625056 86.356995 6.776437
31.862625 50.53437 14.207388 42.455936 42.541744 53.74469 9.992222 31.752453
123.20598 15.065735 4.371948 14.879656 72.98404 21.530838 39.003193 126.73841
115.55598 11.951942 38.239094 78.65275 30.83582 11.469539 20.631319 76.81149
10.567793 49.704422 16.68668 10.724688 29.618864 66.00832 65.78087 17.768381
1.9614987 33.49688 2.8684692 18.739511 112.277725 43.817078 19.96791 112.86407
66.04417 33.826584 10.414678 71.77846 60.99998 23.58644 57.26509 21.139849
6.2579594 52.515022 57.514385 5.6844344 17.396976 64.888115 21.371712 40.858936
20.19303 47.89169 66.86428 21.249321 28.604399 18.859083 40.451855 160.0914

layers.3.weight f4 [128, 128]
00000000: 6279 4ebe 769f 3f3e 9eb6 17bf 4c78 813d
00000010: 0676 5cbc ed16 26be 9bb3 773e dc89 c53d
00000020: 473d 2fbe 78b2 00bd 951c 613d 3cae ba3d
00000030: d5d2 f73d 0e71 b53d 7623 243e c987 c9bd
00000040: 2a91 fc3d f0bc bc3d 7ce0 2f3d 3d89 0abe
00000050: 2c2f d2be b772 80be db73 2b3c 6eff 08be
00000060: be5a d23d 9786 19be 05ed c13d 94f1 833e
00000070: a727 f83d ad0a d5bd 1f5b 47be 8eeb 1e3e
00000080: 79ce acbe 7ab8 e03d 7eff 123d de86 5a3e
00000090: 3084 8a3e 43a5 4ebe c26a d23c 0d75 0a3e
000000a0: a935 913d d0d0 7abd d3fa 3c3d 4526 923e
000000b0: 9111 603e 6d96 923c 8ee0 cf3d 6f4a aebd
000000c0: 387d e73d e846 913d 6f7a 23bd 402e 613c
000000d0: 5b45 9bbe 7b21 00bc eb78 87bd 6ec5 a83e
000000e0: 4016 4a3e f181 c3be 279e e93c 7573 7e3e
000000f0: 9f7f 843e c0c2 f83b ae22 eebe 032d 4abe
00000100: e77d 86be f90f 5a3e af0a 453d 0599 573d
00000110: 8e3d 453d c2bd f73c 61d0 24bd 4dd1 db3a
00000120: fc0d 2f3e 669b 8a3e f4c6 0e3e a0d4 e33d
00000130: 2c71 9c3c 19f6 ebbb e933 823d e03a 44bd
00000140: 2a7f 37bc 8aed 3ebd 82cf 91be 8a66 aebd
00000150: 830c 073e 948c a93d f1f1 f63c 29d8 663d
00000160: fce6 a03d 21e8 b9bd 89a4 97bd 4dff 21be
00000170: 55a6 883d e4c8 adbd da19 013d 36a7 24be
00000180: 861e 0d3e fc89 223e 24df a2be 7cd0 52be
00000190: 8a4e a8be c3ed ccbd 2d05 43be b219 a6bd
000001a0: 5e0b 083e 3e90 7c3e 4638 37bd e87a 83be
000001b0: 8c65 123e 0a95 d4be f612 613e b7f5 cf3e
000001c0: f661 e3bd 54ba 3d3d 647b f4bd 0d36 c63d
000001d0: 54dd 90bd 8b09 f53d 6d3b 5fbe cd3f abbd
000001e0: 6686 20be 850b d83d 2bf7 833d a34a 6c3d
000001f0: e38e b03d 8fac 0b3c 8d3b bfbd 6a9e 023e
00000200: e037 d53d 1691 a8bd b0b0 b03c bd30 cebd
00000210: 1356 a33d 0dc6 95be 6dba 843c a90b ba3d
00000220: f41e 85be a709 963e 6f37 a2be 5fab 7d3d
00000230: c700 073e 2faa 7d3e 7d81 513e dafc aebb
00000240: bbea ab3d 808a 48bc fd78 14bd f92f 15bd
00000250: b121 01be cb5e 3ebe 77a3 c1be 3775 16be
00000260: d8a4 1b3e d0b2 00be 1583 463e 77f8 bd3e
00000270: fef6 ed3d b867 82be 333f e4bd 951d 51be
00000280: 0d82 6fbe 2cf2 99be 81a9 66be 92f4 01bf
00000290: 9ec3 623d 6a59 c03d 9e5d 77be 9e07 92bb
000002a0: d982 55be 2eb0 4cbd 3b72 87be 9f0c 543d
000002b0: a79c ef3c 00ec 84bc 5642 023c 5cca 443e
000002c0: 7df6 f33d 25ef 2d3e 37c0 3e3e aa7a 71bd
000002d0: 32f4 85be bc19 70be a5aa f83d 37b5 033e
000002e0: 1bbd 3abe ea2d 38be d944 a63c 9aa7 06bd
000002f0: 1476 0abe 5544 aa3d e285 4dbe 1c42 de3b
00000300: 0e82 323e 1997 6b3e 5739 66be 95bc b73d
00000310: d4ff 34bd 665a 9cbd fadb 123e e4cd 35be
00000320: d45f 623e e241 373a 8416 7f3d 7e26 2ebe
00000330: c9b7 943e 4fe5 dcbd f716 80bc 4bb9 223d
00000340: 89ca f53d b9c9 c83e 2fd0 51bd e7dc 25bc
00000350: 2e5e 9fbd fe5b 4e3d 3e5d c6bb 34c6 623d
00000360: 0cbb 70bd a311 c13d 220f 0f3c c6f1 cc3d
00000370: bd92 f93d 2779 49bd f341 a7be 5305 d83c
00000380: 51f1 dfbc a67b b8be 331a 2cbe 236f 13bd
00000390: f919 c9bc b53a 343e 5bb8 3f3e 8d5f 89bc
000003a0: 1857 023e 30d9 3bbe 473a 3bbe c270 943d
000003b0: 5fbb 043d 5f95 9abe 0705 533d d75c d8bd
000003c0: edb7 acbd fb10 8a3d 6b89 35be b8ab 393e
000003d0: f5c5 ad3c 8d91 abbe 2603 9e3e 1de2 3b3e
000003e0: 3691 16be 6d50 893c e0da 13be 2ce7 b33d
000003f0: a36b c4bd a055 ae3e 9269 cdbd ba62 463d
-0.20163491 0.18713173 -0.59263027 0.06321773 -0.013455873 -0.16219683 0.24189608 0.09645435
-0.17113219 -0.0314202 0.0549589 0.09115264 0.1210076 0.08859454 0.16029152 -0.09840352
0.12332375 0.092157245 0.042938694 -0.13528915 -0.41051614 -0.2508752 0.010464634 -0.13378689
0.10271214 -0.14992748 0.09469036 0.25770247 0.12116938 -0.10402427 -0.19468354 0.15519544
-0.33751276 0.10972686 0.035888188 0.2134051 0.27053976 -0.2018023 0.025685672 0.13521214
0.07090313 -0.061234295 0.046137642 0.28544822 0.21881701 0.017893994 0.10150252 -0.08510291
0.113031805 0.070936024 -0.039911684 0.013743937 -0.30326352 -0.007820482 -0.0661486 0.32963127
0.1973505 -0.38185075 0.028517796 0.24848731 0.25878617 0.0075915754 -0.46510834 -0.19743733
-0.2626793 0.21295156 0.04810589 0.052636165 0.048154406 0.03024185 -0.040237788 0.001677075
0.17095178 0.27071685 0.13943082 0.111245394 0.019096933 -0.007200968 0.06357557 -0.04790771
-0.011199752 -0.046613254 -0.28478628 -0.085156515 0.13188367 0.08278766 0.030144664 0.05635849
0.07856557 -0.09077478 -0.074044295 -0.15820046 0.0667235 -0.084855825 0.031518795 -0.16079411
0.13781175 0.1587295 -0.31810868 -0.20587343 -0.3287242 -0.10006287 -0.19044943 -0.0811037
0.13285586 0.24664399 -0.0447314 -0.25679708 0.1429655 -0.41519958 0.2197989 0.40617153
-0.11102669 0.046320274 -0.119375974 0.09678278 -0.07073465 0.11964711 -0.21800013 -0.083617784
-0.15676269 0.10549072 0.06443628 0.057688367 0.086210035 0.008525028 -0.0933753 0.12755743
0.10411048 -0.08230798 0.021568626 -0.1006789 0.07975402 -0.29252663 0.016202176 0.09084255
-0.26000178 0.2930424 -0.31682917 0.06193101 0.1318389 0.24771951 0.20459552 -0.005340201
0.08394381 -0.012240052 -0.036248196 -0.036422703 -0.12610509 -0.18590848 -0.37820026 -0.14693151
0.15199602 -0.12568212 0.19385941 0.37103626 0.11619376 -0.25469756 -0.11144867 -0.20421441
-0.23389454 -0.30067575 -0.22525598 -0.5076381 0.055362336 0.093920544 -0.24156806 -0.0044564744
-0.20850696 -0.049972706 -0.26454338 0.05176985 0.029249502 -0.016225815 0.007950386 0.19217819
0.11912248 0.16985758 0.18628012 -0.058954872 -0.2616287 -0.23447317 0.12141923 0.12862097
-0.182362 -0.17986265 0.020296501 -0.03287468 -0.13521606 0.083138146 -0.20070603 0.006782783
0.17432424 0.23006858 -0.22482811 0.08971516 -0.04418929 -0.0763443 0.14341727 -0.17754322
0.22106868 0.00069907133 0.062277332 -0.17006871 0.29046467 -0.10785925 -0.01563595 0.03972749
0.12001521 0.39216402 -0.05122393 -0.010123468 -0.07781635 0.0503807 -0.006053596 0.055364802
-0.05877213 0.09427192 0.008731635 0.10007052 0.12186191 -0.049187806 -0.32667503 0.026369726
-0.027336748 -0.36031836 -0.16806869 -0.03599466 -0.024548518 0.1760052 0.1872267 -0.016769195
0.12728536 -0.18344569 -0.1828395 0.07248069 0.032405253 -0.30192086 0.051518466 -0.10564583
-0.084335186 0.0674152 -0.17728202 0.18131912 0.021212557 -0.33509484 0.30861777 0.18347974
-0.14703831 0.016761983 -0.14438963 0.08784327 -0.095908426 0.34049702 -0.100299016 0.048433997

layers.3.bias f4 [128]
00000000: ece4 923d ae45 6bbd bea7 88bd ad8e 563d
00000010: f935 12bd d4b4 f5bb b0d3 98bd 4e48 39bd
00000020: 7092 763d f077 96bc 1c9e 26bc a1aa 5fbd
00000030: 1d89 913b 2cfb 82bd 03c4 88bd 9eb8 80bc
00000040: 56a4 31bd 9e72 7abd f58b e03c af14 64bb
00000050: 3a54 483c 86aa 80bc ee26 603d 4a64 94bd
00000060: 1e44 ed3c c7a5 893d 5211 4bbd a980 79bc
00000070: 4123 85bd 9f6f 42bd e25c afbd 4f36 d33c
00000080: ad14 45bd 79c1 853d 7006 1abd a0ab acba
00000090: 5918 47bc 8ccd d4bc c7eb a23d eaaf 9e3d
000000a0: 057c 04bd 3d98 963d 5a25 00bd 16fa b03c
000000b0: 5b55 56bd c76f 9fbd 9036 bd3c d623 6ebd
000000c0: b4c0 e5bc af5f 5cbd fe61 1fbd 7c7e c2bc
000000d0: d82c 1f3d de24 9dbd 26df 823d 4f4c 05bd
000000e0: 0036 4a3d 71f6 b2bd 3c2c 733d d5c5 9f3d
000000f0: 5fc8 063d a80e 07bc 71f0 09bd 6aa9 f8bc
00000100: 076b e0bc 40e2 a3bd 792d 54bc 8a6c 0ebd
00000110: 70fe d4bc 653d b1bd e3a3 a2bd e13c 2dbd
00000120: f077 5c3d efbb f8bc 8f57 aebc b6b3 e73c
00000130: 02ae fe3c afa7 143d 09cd 67bd 37d5 a1bd
00000140: 68da 2a3d 8bc2 473d 0fcb 9ebd 516e ac3d
00000150: 2db4 923c c40a ae3d 0cc6 27bc 7bdd 943c
00000160: 5826 57bd a450 213b 65dd 803d 0c6e ca3b
00000170: 67c4 853d 7bc2 713d dc35 99bd 2466 0b3d
00000180: d608 003c fa50 82bd a84d 083d 0442 6e3d
00000190: 30a7 3d3d 07d6 953d 85b0 ee3c d11c 8e3d
000001a0: 37e6 5bbd 5a07 0dbd 2cb7 13bb a2de b23d
000001b0: e6aa 883c a780 82bd 62a2 84bd 295d a73a
000001c0: dd11 4c3c 6e43 a6bd c4ba 963d 0f12 983d
000001d0: 2631 a6bc 370f b43c 556e c4bc 28e7 553d
000001e0: ba8e 5b3d a223 07bd 98e2 b13d 3bf1 0bbd
000001f0: 66d6 303d 0634 94bd 7240 9cbd b343 593d
0.0717257 -0.0574395 -0.06672619 0.05238216 -0.035696004 -0.007498363 -0.07462251 -0.04523497
0.060198247 -0.018367738 -0.010169532 -0.054606084 0.004441394 -0.063955635 -0.06678011 -0.015713032
-0.043369614 -0.061144464 0.027410487 -0.0034802367 0.012227112 -0.015706312 0.054724626 -0.07245691
0.028963145 0.06721073 -0.049577065 -0.015228429 -0.06500865 -0.04746973 -0.08562638 0.025782732
-0.04811542 0.065310426 -0.037603796 -0.0013173707 -0.012151801 -0.025976919 0.07955127 0.07748397
-0.032344837 0.07353256 -0.03128562 0.021603625 -0.052327495 -0.07784992 0.023097306 -0.058139645
-0.02804599 -0.05380219 -0.038911812 -0.023741953 0.038861126 -0.076730475 0.063902184 -0.032543477
0.049367905 -0.08738411 0.059368357 0.07801405 0.032905933 -0.00824324 -0.03367657 -0.03035422
-0.027394785 -0.08002138 -0.012950295 -0.03477148 -0.026000232 -0.08654288 -0.07941415 -0.042294387
0.05382532 -0.030363051 -0.021281986 0.028283935 0.031088833 0.036292728 -0.05659202 -0.07901996
0.041712195 0.048769515 -0.07753574 0.08419479 0.01790818 0.08498147 -0.010240089 0.018172016
-0.0525268 0.0024614716 0.06292228 0.0061776694 0.065316014 0.05902336 -0.07480976 0.034032956
0.007814607 -0.06363101 0.033277184 0.058168426 0.04630202 0.07316213 0.029136905 0.0693909
-0.053686347 -0.03443084 -0.00225396 0.0873387 0.016683053 -0.06372195 -0.064762846 0.0012768853
0.012455431 -0.0811833 0.073598415 0.074253194 -0.020287108 0.021979911 -0.023978392 0.0522224
0.05360291 -0.032992966 0.086857975 -0.034165602 0.043173216 -0.07236485 -0.076294795 0.05304308

layers.4.weight f4 [128]
00000000: 64a6 903f b76a 8d3f 9da9 953f cf93 063f
00000010: e24d d73f 12ae 7f3f 972c 853f d6b2 9e3f
00000020: 7ab6 0040 6143 8d3f 6d5d bf3f ae6f 803f
00000030: 3a14 af3f a810 ad3f baf5 393f 0517 523f
00000040: ed72 9b3f 6766 c83f 9cd3 c83f 35d1 b63f
00000050: b324 c53f b25f 2c3f d37c 353f 9d88 ad3f
00000060: 081b bc3f f612 d33f e594 cb3f 0889 d93f
00000070: 1194 c73f 215a 993f 83c2 843f 7a16 f43f
00000080: 7ad6 8a3f 5a8a 883f b911 f43e 92d2 913f
00000090: 7d16 9c3f eef7 c43f 5646 963f b09e 1d3f
000000a0: 489b f53f e6f5 633f d821 b93f 4c6c d13f
000000b0: 64cc be3f fb0d 883f a492 cf3e 6bed 473f
000000c0: 53ca 563f c135 903f 5d55 cf3f e043 4c3f
000000d0: 7292 993f 7249 213f ab62 563f 4be2 d33f
000000e0: a397 9b3f c801 4c3f 1862 783f d6ed ab3f
000000f0: 9228 c13f ebcf 9d3f 8f21 8c3f c52b a23f
00000100: c42d 4e3f 29e2 e73f fde2 b03f 998e 173f
00000110: c311 7d3f 4a22 b63f f8ee 5a3f 6826 a73f
00000120: 275a 953f 1b74 a13f 6f2a 973f ab05 d83f
00000130: 0dfb d83f e906 ba3f 36c7 883f 726b 9b3f
00000140: efdb 543f 3a99 a03f 80a3 c03f 0a32 9f3f
00000150: 1783 973f 31be 953f 7377 8a3f eff1 963f
00000160: 97c9 573f c87e d53f 7dcc 803f 4354 f73f
00000170: 20cd 6a3f 37dc b63f 2ec0 c63f c5c5 783f
00000180: 7697 933f dbb4 b03f 452b c23f 58bb 863f
00000190: 45d1 533f 20e7 133f 28c3 803f 3fa7 0240
000001a0: 71c8 143f 40fa aa3f fa9c bc3f 0594 b23f
000001b0: 6761 963f dda1 9e3f bec3 863f 7631 a33f
000001c0: 3bf6 e73f 820d cf3e 9554 313f ffdb 3b3f
000001d0: 6ac7 903f 4053 7c3f 998f b23f 9f4c 633f
000001e0: 6753 f73f b80a a63f 5640 7f3f 1b84 c83f
000001f0: 9a7a e83f b13f 283f 7063 5d3f da9e 063f
1.1300778 1.1048192 1.1692387 0.5256929 1.6820643 0.99874985 1.0404233 1.2398326
2.0111375 1.1036187 1.4950386 1.0034082 1.3678048 1.3520708 0.72640574 0.82066375
1.2144448 1.5656251 1.5689578 1.4282595 1.5401825 0.6733352 0.7089359 1.3557316
1.4695749 1.6490161 1.5904814 1.6994944 1.5592061 1.198063 1.037186 1.9069359
1.0846703 1.0667222 0.4766977 1.1392386 1.2194363 1.5388162 1.1740215 0.6157026
1.9188013 0.89047086 1.4463453 1.6361175 1.4906125 1.0629267 0.40541565 0.78096646
0.8390247 1.1266404 1.6197926 0.7979107 1.1997817 0.63002694 0.83744305 1.6553434
1.2155651 0.7969022 0.9702468 1.3431957 1.5090506 1.2329077 1.0947741 1.2669607
0.8053858 1.8115894 1.3819271 0.5920196 0.9885523 1.4229214 0.8552089 1.3058596
1.1668137 1.2613558 1.1809825 1.687673 1.6951615 1.4533359 1.0685794 1.2142165
0.8314809 1.2546761 1.5049896 1.2437146 1.183688 1.1698667 1.0817703 1.1792582
0.84291977 1.6679316 1.0062405 1.932259 0.91719246 1.4285954 1.5527399 0.9717677
1.1530597 1.3805193 1.5169455 1.0525923 0.82741195 0.57774544 1.0059557 2.041458
0.5811835 1.335762 1.4735405 1.3951422 1.1748475 1.2393147 1.0528486 1.2749469
1.8122019 0.40439993 0.69269687 0.7338256 1.1310856 0.9856453 1.3950073 0.8878879
1.9322327 1.2972021 0.99707544 1.5665315 1.8162415 0.65722185 0.86479855 0.5258614

layers.4.bias f4 [128]
00000000: f570 1dbe 32b2 98be b28e d2be 8cc7 55bd
00000010: 88b7 19bf 26fa 733e 2b60 b8be 58cf 803d
00000020: d1a2 943e ea80 8dbe 5883 e3be 38a5 cdbd
00000030: db05 f4be 99a8 66be 5ce9 703e 6cce fe3d
00000040: dc9c 8cbe 7686 513e af9b 03be 33ee 2abf
00000050: 778a 90bf f579 29be 6fab 3fbe 159c d2be
00000060: a094 c2be b1d7 0dbf fe8e 7cbe c8e5 cdbe
00000070: cbb3 d6bd 19dd b3be 12fc b3be 5e1a 85be
00000080: b0dc 04bd ee4a 11bf 761a cbbd 7ce4 c23d
00000090: 4168 3c3d 573d 54be d578 183c efd8 3dbd
000000a0: c35d f6be 34c5 89be b5ec 42be 9182 1cbe
000000b0: 4e0b b2be 1ea5 85be 8bef 863d 5d9f 3ebf
000000c0: 027b c1be 1935 b23d 21f3 87be a111 30bd
000000d0: 2664 5fbe fd1d eabc b966 cbbe 162d d3be
000000e0: 3111 26be 8aca f03c c825 2ebd 2049 26bf
000000f0: 667c 63be 113b cabe 569c 5bbe cad8 acbe
00000100: 21b4 69bf 564f 12bf 5739 0abf bee5 3abe
00000110: 410b 24bf 3ccf d3be 844d dbbe 8de6 18bf
00000120: eb2e 91be cc65 e5be c810 b0be 293c 03bf
00000130: 89ba 7bbf ee40 123c 7ecb 8a3d 747d 363e
00000140: 1eaa 0fbf 3ce9 c9bd 3e75 21bf 7f20 11bf
00000150: 2ed8 e2be 02eb 6f3e f1a1 ac3e 4c22 edbd
00000160: c95d 43be 5059 4fbe b516 bdbd 0cc7 fdbd
00000170: 5a9d 2abe dcf7 13bf c895 a9bc 0164 2abe
00000180: 7fc1 4bbe 3593 abbe 0d76 b4be 655a e0be
00000190: 416e e33d 1dbb 18be 390d 24bf f1c7 94bf
000001a0: bf1b 97be 4433 fbbd 5ee3 33bf ae85 07bf
000001b0: a85b 33be a8a1 5cbe 8122 5abf ca3a f9be
000001c0: 7a9e b2be 759c c2bd c54c 84bd d1de 9dbe
000001d0: 834d 4ebe a644 55be d6c3 4fbe 5f02 99be
000001e0: eae8 34bf b1e2 cfbc 99ce 16bf c028 1ebf
000001f0: aee2 4bbe 4710 b5be ad4f 7bbe ed58 aa3d
-0.15375121 -0.29823452 -0.41124493 -0.052192256 -0.6004567 0.23825893 -0.3601087 0.06289548
0.2903047 -0.27637416 -0.44436145 -0.100412786 -0.47660717 -0.22525252 0.2352652 0.124417156
-0.27463424 0.20461449 -0.12852357 -0.66769713 -1.1292256 -0.16550429 -0.1871774 -0.41134706
-0.38004017 -0.55407244 -0.24663922 -0.40214372 -0.104835115 -0.35129622 -0.35153252 -0.2599668
-0.032437027 -0.5675496 -0.099171564 0.09516236 0.04599786 -0.20726524 0.009306152 -0.046349462
-0.4811841 -0.26908267 -0.19035609 -0.15284182 -0.3477425 -0.26102537 0.06588658 -0.7446192
-0.3778916 0.08701534 -0.2655268 -0.042985562 -0.21815547 -0.028578753 -0.3972681 -0.41245335
-0.16217496 0.029393453 -0.0425165 -0.6495533 -0.22215423 -0.3949819 -0.21446356 -0.33759147
-0.9129048 -0.5715231 -0.53993744 -0.18251702 -0.6407967 -0.41369045 -0.42832577 -0.5972679
-0.28356108 -0.44804227 -0.34387803 -0.5126367 -0.98331505 0.008926613 0.06777094 0.17821294
-0.56118953 -0.09858939 -0.6306952 -0.5669021 -0.44305557 0.23429492 0.337173 -0.11578807
-0.19078745 -0.20248914 -0.09232847 -0.12391481 -0.16661587 -0.5780008 -0.020701304 -0.16639711
-0.19898032 -0.33510748 -0.35246316 -0.43818966 0.11105014 -0.14915128 -0.64082676 -1.1623517
-0.29513356 -0.122656375 -0.7026881 -0.52938354 -0.17515433 -0.21546042 -0.852089 -0.48677665
-0.34886533 -0.09502498 -0.06459955 -0.30834058 -0.20146756 -0.20826969 -0.20289549 -0.29884622
-0.706679 -0.02537665 -0.58908993 -0.6178093 -0.1991069 -0.3536398 -0.24542113 0.083177425

layers.4.running_mean f4 [128]
00000000: 05c0 85bd 46e6 a6be 6917 dc3e 62d1 91be
00000010: 8545 edbd 5ea1 54bf 74c2 1f3e d3f0 f4be
00000020: 3a95 e5be b738 cd3e c4c9 033d 99e4 2abf
00000030: 71bc 2e3e 70d3 a43d df2f 90bf 9281 18bf
00000040: 609a e5be 2dc5 2e3e 6ed1 a7be b664 98bd
00000050: 2dd8 a23e c1d1 1ebf d90d 553e 56e0 99bc
00000060: dadc 913c 892e 85be 8453 01bf 2dc7 92be
00000070: 051e c83d f171 853e 532a a8be 5f6e ffbd
00000080: 7f82 5fbe 86aa 773e 55ef 72bd aa42 57bf
00000090: bfb6 0ebe cd8e 9f3d facf 073f e8e1 17bf
000000a0: 0f4a 763e 395a d0bd 1118 aa3e a018 bc3e
000000b0: 3e7f 353e ea14 8abe 9b02 3dbf 49ad 173f
000000c0: 4554 243f 86ea 2abf 1721 bcbe 47f7 413e
000000d0: 49d4 c0be 5744 7fbe dbc0 d53e 5649 afbe
000000e0: ca21 86bd 0c62 2abf a2f6 ffbe ea0a 823e
000000f0: 08d6 6abe e7b7 5f3e 3ffe 7d3c 7aeb 123d
00000100: 72c1 0c3f 8d4f 37bd 3848 a9bd 91db a2be
00000110: e51a 883e fb2b 9b3e 0a60 1f3f 9aa9 ff3c
00000120: 2cba 84be 876e 63be cb2c 37be b5a9 b9bd
00000130: 6119 06bc 631d b0bd 0243 33bd 0ab9 713e
00000140: 9508 8bbd bf29 9f3b 65ce 8dbe e077 403f
00000150: 9b85 523e 5547 50bf c6f9 68bf 5198 693e
00000160: b265 09be d8b6 f4bc 6be3 873d 570a a7bd
00000170: 799b 993e 3b77 843d 5571 a3be 7fd4 0f3e
00000180: dc37 8d3e c4aa dfbe 682d 0bbf 9474 babe
00000190: 1ca0 32bf 9c2e 35be 35de 3abe 5351 883d
000001a0: 09d8 07bf 593a 4abf 7478 1fbf 153a 323d
000001b0: 0055 d9be 68ff 21bf d108 ad3e daf9 1ebe
000001c0: 6a34 a6bc b11e 02bf 80c4 07bf 46af 36be
000001d0: 4cff e5be 8541 54bd 6108 da3d 59b2 ab3c
000001e0: 699d 863e 2266 2abe bdc5 2e3f 2d13 f9bd
000001f0: 72bf 96bd fc32 603e c9c3 283f 35d3 01bf
-0.065307654 -0.3259756 0.4298661 -0.2848006 -0.115855254 -0.83058727 0.15601522 -0.47839984
-0.44840413 0.40082332 0.03217484 -0.6675506 0.17064072 0.08048141 -1.1264609 -0.5957271
-0.4484434 0.17067404 -0.3277697 -0.07441084 0.31805554 -0.6203881 0.20806064 -0.01878373
0.017805506 -0.26012066 -0.5051806 -0.28667584 0.09771351 0.26063493 -0.3284479 -0.124722235
-0.21827124 0.24186143 -0.059310276 -0.84086096 -0.139369 0.07790909 0.5305172 -0.5932908
0.24051689 -0.101734586 0.33221486 0.36737537 0.1772432 -0.2696908 -0.738321 0.5924879
0.64191085 -0.66764104 -0.36743996 0.18941985 -0.3766196 -0.24928413 0.417487 -0.34235638
-0.065494135 -0.6655586 -0.49992853 0.25398952 -0.22933209 0.21847497 0.0155025115 0.0358691
0.54982674 -0.0447536 -0.08265728 -0.3180814 0.2658302 0.30306992 0.6225592 0.031208802
-0.25923288 -0.22210132 -0.17888181 -0.09065572 -0.008184762 -0.08599355 -0.043765076 0.23605743
-0.06788746 0.0048572714 -0.2769653 0.75182915 0.20558779 -0.81358844 -0.91006124 0.2281201
-0.134177 -0.029872343 0.066351734 -0.08156269 0.3000143 0.06468054 -0.31922403 0.14045905
0.2758168 -0.4368497 -0.5436616 -0.36417067 -0.6977556 -0.17693561 -0.18248828 0.06656136
-0.5306402 -0.7899528 -0.6229317 0.043512423 -0.42447662 -0.63280344 0.3379579 -0.15524998
-0.020288665 -0.5082808 -0.5303421 -0.17840299 -0.4492134 -0.051820297 0.106461294 0.020959066
0.2629197 -0.16640523 0.68270475 -0.121618606 -0.07360734 0.21894449 0.65923744 -0.507129

layers.4.running_var f4 [128]
00000000: a35b 993e d2c4 8b3e 13dd 853e be7b 183f
00000010: d41f 253e 4931 873f 6ecb 433e 7a87 2d3e
00000020: 78dd f73e 02db 043e 9d68 fd3d 41cb a43e
00000030: 1ca6 d33d e086 2d3e 133f 133f b875 313e
00000040: 87da 823e 58bc 9b3e f185 543e dbab fa3d
00000050: 0461 763e 9255 283e 3aad c43e 3082 c33d
00000060: 3146 243e c2f4 733e 4708 3d3e 59c5 0c3e
00000070: 3ad6 1e3e 5c6c 0d3e 33e3 f63d e0b0 353e
00000080: bdd3 163f 5256 4c3e 9723 0d3e 290d a93e
00000090: 7e66 1b3e c985 423e 0527 b53e dc79 813e
000000a0: f760 223e 1917 fd3d 1d8b 103e b9da 7c3e
000000b0: 3f5c 143e 7649 093e c92d 843f b5a2 603e
000000c0: e809 4f3e 0135 403f beb6 f63d c3f2 073e
000000d0: 4b8a 703e 125b ef3d 5a12 193e aef8 733e
000000e0: f759 833d 8f13 823e 01b9 9f3e 6ab2 ee3d
000000f0: 36cd 403f 1c75 633e a89b 373e b563 253e
00000100: 4d21 e73d 0f5f 143e b9ec be3d 1ae0 2c3e
00000110: 4481 353e 5ff8 5c3e 468a 253e da97 e03d
00000120: 3206 b13e bd69 343e 62b3 153e 5689 083e
00000130: 43b8 bd3d 03b3 533e 5abe 4a3f cb1c ce3e
00000140: 282d 003e 4f65 a53d 4060 b63d f854 7d3e
00000150: 75ba 963d 4e7f 443f d8b5 433f 9a16 833e
00000160: 2b22 383e e4e2 283e bfc6 533e 90da 9a3d
00000170: 7685 9a3d 9065 1a3e efe3 883e 591d 213e
00000180: 3dfc 903e f6a4 af3e 874c 8c3e 68c5 393e
00000190: 8af3 c53e d887 403e 3992 b53d 2912 b93d
000001a0: d2f1 7b3e baf3 db3e 8f6e 883e 7c41 263e
000001b0: e9c5 ba3e ca58 823e 4658 bb3d b520 473e
000001c0: aed3 253e 5e71 953e 0ff5 293e c232 8d3e
000001d0: acb6 453e 1946 143e a483 ac3e be31 683e
000001e0: 7613 f23d 140b 033e 6ab8 523e 5238 2f3e
000001f0: da54 463e dcc8 c63d 2a17 143e d5d6 8b3e
0.29952726 0.272986 0.2614523 0.59563816 0.16125423 1.0561916 0.19120571 0.16946211
0.48411155 0.1297417 0.12373469 0.3218632 0.10334417 0.16945982 0.5751812 0.17330062
0.25557348 0.30417132 0.2075422 0.1223981 0.24060446 0.16438892 0.3841341 0.09546316
0.16042401 0.23823836 0.18460189 0.13747157 0.15511408 0.13810867 0.120550536 0.17743254
0.58916837 0.19954804 0.13783108 0.33017853 0.15175816 0.18996347 0.35381332 0.25288284
0.15857302 0.12357921 0.14115568 0.24692811 0.14488314 0.1340693 1.0326473 0.21937068
0.20218623 0.7508088 0.12046574 0.132762 0.23490255 0.11687292 0.14948407 0.23825333
0.06413644 0.25405547 0.31195834 0.116551235 0.7531313 0.22212642 0.17930472 0.16151316
0.112856485 0.14489387 0.09322495 0.16882363 0.17725092 0.21579121 0.16166028 0.109664634
0.3457504 0.17618461 0.1461921 0.1333364 0.09263661 0.20673756 0.79196703 0.40256342
0.12517226 0.08075964 0.08905077 0.24739444 0.073597826 0.7675675 0.76449347 0.2560318
0.17981784 0.16492802 0.20681284 0.07561219 0.07544987 0.15077806 0.267364 0.15733851
0.28317443 0.34305543 0.27402136 0.18141711 0.38662368 0.1880182 0.088657804 0.09036667
0.24603966 0.42959386 0.2664685 0.16235918 0.36479118 0.25458366 0.09147696 0.1944607
0.1619403 0.29188055 0.16597389 0.27577788 0.19307965 0.14479865 0.33694184 0.22675225
0.11820118 0.12797195 0.20578161 0.17111328 0.19368306 0.0970628 0.14461961 0.2731234

layers.6.weight f4 [2, 128]
00000000: 6662 e8be 29de 633e 531d 51be 338d 83be
00000010: 79ae a5bf 94b5 14be 4127 6b3e 5b0b 3b3c
00000020: 5520 5fbb 8558 2ebc 2e9e 74bf e9e3 b93e
00000030: 4aca 5dbf 2280 c23d 192c 72be 5a1a 25be
00000040: 5320 79bd f622 803e eff6 d1bd 613d ee3e
00000050: 5c2d 593f 6cc6 5b3e 0245 643e 1891 b8be
00000060: 76c8 9cbe bcf8 81bf bd36 dd3d da3f 9a3d
00000070: ef93 7a3e e545 3dbe 0c6c 3d3f c085 96bd
00000080: 83d1 503e 9a11 89bf 7eee e73d fece cdbe
00000090: 12cf 5b3e 6e34 e6bd 3094 0f3f 98b8 92bd
000000a0: e951 17be 5d0e 5dbd c2cd 6abd 8904 acbd
000000b0: dbe5 bdbe d823 383f 36a5 6ebe 7d0e 723f
000000c0: 674b 113f dc74 a6bd 0655 c2bd 7207 d03e
000000d0: c20d 1e3f 1bde 60be 7af9 32bf ff5b 29bf
000000e0: b304 223d 2d01 d33e 6a49 2f3e 6b0c 4dbf
000000f0: 17cb cf3e bb4a 35bf 08a9 90be f77a 0bbf
00000100: 7198 8f3f 8eec 5ebe 97d2 863f ca85 4f3e
00000110: 8bb1 ca3e 43f8 543f f5c9 ecbe 87d1 803f
00000120: da15 183e 3da8 1e3f 23ef 1fbf a062 f6be
00000130: d5e0 2cc0 4cf2 bb3e f024 6b3e 3b13 db3e
00000140: edb8 6a3f 7415 40bd f344 333e cfdf 10bf
00000150: 17df 1dbd f27d 09be 1d36 54be 8d2a ab3e
00000160: 1bb7 bfbe f3a1 0e3f f787 45be ce79 373b
00000170: 27cb 0dbe 3d3b 83bf c060 643b fe0c 5cbd
00000180: b5ed babe c300 4bbd f536 9d3d 2c00 543f
00000190: 9a8c 213e 677c 9cbe 9f15 d53f 15ca dbbf
000001a0: aafa ecbe 0581 4f3e 2c47 0f3e cc62 523f
000001b0: 08a5 e53c e474 993e 7ffc a43f 406c a7be
000001c0: 47de 793e 6b5f 7e3c 9453 08bf 7a5f 4a3e
000001d0: 045a 4bbf b6ed 283e a621 aebe 3743 c93e
000001e0: c921 d33e ec39 343d e6ad 31bf 7dbe 993f
000001f0: b87b 81bb 50a6 dd3e ec1b 703e 7da9 913e
00000200: 5676 a73c a12d 883f 16a0 67bf 069d 7e3e
00000210: 2655 303f b4e0 aebc 26c7 86bf a0bd 673f
00000220: 0a00 863f cc92 84bf e3e5 01bf f11d 1fbf
00000230: 73e3 173b b85d 823f 9536 a23e 427e 7f3f
00000240: 4f67 b43f 0191 273f 123f 7b3f dde0 683f
00000250: d22e c7be 7159 bcbe 0dcf 583e b117 243f
00000260: 9460 d7be 8b54 dbbd 3957 553f 4b8e 733f
00000270: 830b 133f 1624 993f b5ef 01bf da6d c33f
00000280: 75af c8be 5460 613d d85a ebbe 1b55 d5be
00000290: bd48 143f 5303 72bf e9c8 c23d fe17 88be
000002a0: 1d80 93bf 8d0d 7c3f ae0b 1e3f d963 74bf
000002b0: 8052 50bf 9797 3cbb 1d60 2d3e a802 d2be
000002c0: f6f6 e7be 8614 583d 70ec 95bf 7874 f2be
000002d0: 95a2 51be e21d c53e 8b70 c23e 15bd 273f
000002e0: 8c5a f2be 23c8 efbe fa87 113e 79b4 093f
000002f0: f5a3 a8be 7e75 133f 5476 5c3f f7dc d83e
00000300: 87d2 e6be 99a4 a93f 6c16 18bc 2437 c9be
00000310: bfa6 893f ccd0 c7bc 0919 ecba 23b9 d3be
00000320: 364a 023e 7090 0bbe 03ef 6ebf 450b 53bf
00000330: 4177 383e 13fb 8dbe 9ec1 dfbe 01c1 bcbd
00000340: e097 f23e 76f7 2fbf 2fa5 00c0 6baf 22bf
00000350: 8349 503f 84ee d33e 48ca 093e 6bba 0b3d
00000360: aff1 693e 09be 143f 083c 6e3d 8670 7abf
00000370: 5fe8 3fbf f821 26bf 8f6e 363f 02af c33e
00000380: 9326 833e 72e8 aabf eaf2 a33f c796 273f
00000390: 799a f1be d29f bd3e a1f4 c0be a6c7 933e
000003a0: 52f3 3a3e 3157 d8be db42 ecbf f580 56bd
000003b0: 664f 59bf 1cf0 a2be 6659 e6be 50e3 4cbf
000003c0: e276 c3bf 1268 91be 2a93 65be 3a37 a03d
000003d0: dbb8 4bbf 3126 38bf fbed fc3d 2030 06bf
000003e0: ed97 7f3f e941 94bf 6a2b 553e 7937 e0bc
000003f0: f689 9cbf e6fe 0abf e45c 12bf 1d93 5e3e
-0.45387572 0.22252716 -0.20421343 -0.25693664 -1.294387 -0.14522392 0.22964193 0.011416282
-0.003404637 -0.010641222 -0.95553863 0.36306694 -0.86636794 0.09497096 -0.23649634 -0.16123334
-0.060821842 0.25026673 -0.10252177 0.46531203 0.8483484 0.2146241 0.2229195 -0.36048198
-0.3062169 -1.0154033 0.10801456 0.0753171 0.24470495 -0.18483694 0.7399299 -0.073497295
0.20392422 -1.0708497 0.11324786 -0.40196985 0.2146571 -0.11240469 0.5608549 -0.07164115
-0.1477734 -0.053968776 -0.057325132 -0.083993025 -0.37089428 0.71929693 -0.2330521 0.9455336
0.5675568 -0.08127758 -0.09488873 0.4063068 0.6173974 -0.21959727 -0.6991192 -0.66156
0.039555263 0.41211835 0.17117849 -0.80097073 0.40584633 -0.70817155 -0.2825396 -0.54484504
1.1218396 -0.21769926 1.0533017 0.2026588 0.3958858 0.8319132 -0.4624783 1.0063943
0.14852086 0.6197546 -0.6247427 -0.4812212 -2.7012227 0.36708295 0.2296331 0.4278811
0.91688424 -0.04689546 0.17506771 -0.56591505 -0.038542833 -0.1342695 -0.20723768 0.334309
-0.37444386 0.55715865 -0.19290148 0.0027996185 -0.13847028 -1.0252453 0.0034847707 -0.053723328
-0.3650948 -0.049561273 0.07676498 0.8281276 0.15776291 -0.3056366 1.6647223 -1.7171046
-0.46284992 0.20264061 0.13991994 0.82182 0.028032795 0.29971993 1.2889556 -0.32699776
0.24401198 0.015525679 -0.5325253 0.19762984 -0.7943423 0.1649693 -0.34010047 0.39309093
0.41236714 0.04400055 -0.6940597 1.2011257 -0.003951516 0.4329095 0.23448151 0.28449622
0.02044217 1.0638925 -0.90478647 0.24864587 0.68879926 -0.021347381 -1.0529525 0.9052372
1.0468762 -1.0357299 -0.50741404 -0.6215506 0.0023176342 1.0184851 0.31682268 0.9980203
1.4094027 0.65455633 0.9814311 0.90968114 -0.3890291 -0.36786988 0.21172734 0.6409865
-0.4206587 -0.10709485 0.83336216 0.95138997 0.5743944 1.1964138 -0.5075639 1.5267899
-0.39196363 0.055023506 -0.45967746 -0.41666493 0.5792349 -0.9453632 0.09510977 -0.26580805
-1.1523472 0.98458177 0.6173657 -0.95464855 -0.81375885 -0.0028776878 0.16931196 -0.41017652
-0.45305604 0.052753948 -1.171278 -0.47354484 -0.20472176 0.3849936 0.37976488 0.6552289
-0.47334707 -0.4683238 0.14212027 0.53791004 -0.3293759 0.57601154 0.86118054 0.42356083
-0.45082495 1.3253356 -0.00928269 -0.3929988 1.0754012 -0.024391554 -0.0018012832 -0.41352186
0.12723622 -0.13629317 -0.9333345 -0.8243907 0.18014242 -0.27730617 -0.43702406 -0.092165
0.47381496 -0.6873697 -2.010082 -0.63548917 0.8136217 0.4139291 0.1345607 0.03411333
0.22846101 0.5810247 0.05816272 -0.9782795 -0.74963945 -0.6489558 0.7126245 0.38219458
0.25615367 -1.3352187 1.2808506 0.6546444 -0.47188166 0.37035996 -0.37686637 0.28863257
0.18256882 -0.42254022 -1.8457903 -0.052369077 -0.8488678 -0.31823814 -0.4499008 -0.8003435
-1.5270655 -0.28399712 -0.2241942 0.07823034 -0.7957894 -0.71933275 0.12350079 -0.5241718
0.99841195 -1.1582614 0.20817342 -0.027370201 -1.2229602 -0.54295194 -0.5717299 0.21735807

layers.6.bias f4 [2]
00000000: c606 8cbd 53ab 083d
-0.068372294 0.033366513
