results/checkpoint_1_actor_target.pt (torch_old, 28074 bytes, 14 tensors)

layers.0.weight f4 [64, 24]
000000 96 eb 40 3e 3a 2c 27 3e 67 ae 13 bd d0 ab 58 3e
       0.18839869 0.16325465 -0.036054995 0.21159291
000010 66 e0 9e 3e 88 6d b3 bd 5f be 74 3c 04 7b ee 3d
       0.31030577 -0.08761126 0.014937966 0.11644557
000020 40 fc a6 3d 7c 8e ee 3c 4b bc ed 3a 47 90 c5 3c
       0.081535816 0.029120676 0.0018137781 0.024116648
000030 8c 07 5e be e8 c5 73 3e 9c d8 3e bc 0c 36 88 3d
       -0.21682566 0.23805964 -0.011648323 0.066509336
000040 71 38 8d 3e fb 26 09 be 35 26 f7 bd b8 da 6d bd
       0.27582124 -0.13393776 -0.12067834 -0.058069915
000050 01 59 03 bf a4 76 cf 3e af 52 e8 3d c3 c2 37 be
       -0.51307684 0.40520203 0.11343896 -0.1794539
000060 34 5f bf 3d 35 0d f9 3e b1 bc 08 3d 58 76 c2 3d
       0.093443304 0.4864289 0.033383075 0.094952285
000070 83 0f 23 3e 4a d4 e1 be 64 76 d8 bb c0 0a 1b 3e
       0.15923886 -0.44107276 -0.00660591 0.1514082
000080 71 3a 19 3e bf cc 2e 3f ed 56 27 bd 83 0b 24 3e
       0.149637 0.6828117 -0.040854383 0.16020016
000090 2d e3 39 3e ae 1b 53 be 2f 7b 3f 3d 7a 9a bf 3d
       0.18153067 -0.20616028 0.046748336 0.09355636
0000a0 32 b4 89 3c f7 8c 01 3f 71 58 4c bd 7b e5 85 be
       0.016809557 0.5060572 -0.04988903 -0.26151642
0000b0 e9 a7 22 3e 68 78 e0 3e da fc dd bb b7 0e c4 be
       0.15884365 0.43841863 -0.006774527 -0.38292477
0000c0 09 b7 43 3e a7 a6 10 3d 7c 9c 19 3d 69 97 9a bd
       0.19112791 0.035315182 0.03750275 -0.075484104
0000d0 3d 98 31 bd a1 8a 3a 3e 28 cd 2d bd 7c 7e c4 bd
       -0.043358076 0.18216945 -0.04243198 -0.095944375
0000e0 33 b7 c2 3e 42 b5 5a bd 8c 0a 8e bd 8a 7a 96 bc
       0.38030395 -0.053395517 -0.069356054 -0.018368978
0000f0 1d 79 1e be fb a8 98 3e 01 83 8b 3d df 9e 8d bd
       -0.15475889 0.29816422 0.068120964 -0.06915068
000100 0d 76 83 3e 1f 59 26 be 92 9a 0d 3d 3c 8a 97 3e
       0.25676003 -0.16244934 0.034571238 0.29597652
000110 e3 d7 7e be df 18 0c 3f 7a f9 03 3d 54 ae 92 3e
       -0.24887042 0.5472545 0.03222034 0.28648627
000120 93 1e 67 3c d5 89 32 3c 6f 03 27 bd f5 7e 93 bd
       0.014106411 0.0108971195 -0.04077476 -0.072019495
000130 d6 74 fa 3e 80 31 b2 3d 8b df 8a 3c 5e 66 64 3c
       0.48917264 0.087008476 0.016952297 0.013940422
000140 a9 54 0a 3e e3 bf 91 bc ae 72 9e bc 3b 25 04 bd
       0.13508858 -0.017791694 -0.019341793 -0.03226207
000150 dc 3d 0f 3f b6 97 a9 3d 89 a5 d0 3c a8 e9 be bd
       0.55953765 0.0828089 0.025469558 -0.0932191
000160 62 9b 3f 3e 2f 42 8c bd 70 09 bb 3b 25 e4 c2 bb
       0.18711618 -0.06848561 0.005707912 -0.005947607
000170 7e d8 ff 3e dc 6b a5 3e ca 6e 38 bd 9e fb 2a be
       0.49969858 0.32308853 -0.04502753 -0.16697547
000180 48 33 4a bd b8 b9 90 be 84 f5 1d 3c 40 c8 54 bc
       -0.04936531 -0.28266692 0.009641055 -0.012987196
000190 06 f0 92 3e fb 46 8a be 10 d5 1b bc d9 ee d5 3c
       0.28698748 -0.2700728 -0.009511247 0.026114868
0001a0 58 9e 3a 3d c6 a1 50 be 72 39 45 bc 4f 3c bb bd
       0.045561165 -0.20374212 -0.012037622 -0.09142362
0001b0 91 c0 57 be 8c a1 68 3d 00 5c 7d 3b 38 d6 39 3d
       -0.21069552 0.056794688 0.0038659573 0.04537031
0001c0 c4 25 04 3e af 65 a3 be 3a a6 0c 3d 62 45 a1 bd
       0.12905031 -0.31913516 0.034338214 -0.07874562
0001d0 71 a4 c5 be 5b c6 25 3f 53 63 05 bd e7 f6 b9 bc
       -0.3860202 0.6475579 -0.032565426 -0.02270074
0001e0 44 d0 00 be 3a d3 f0 3e 6a 27 8f bd 13 d5 17 3d
       -0.12579447 0.47036153 -0.069899395 0.037068438
0001f0 b1 30 b5 3c f1 79 6e bf ed 79 91 3d fb c0 31 bc
       0.022117944 -0.9315482 0.071033336 -0.010849233
000200 88 7b e7 bd 9f 9a 97 3e 21 67 84 3d eb 9f 27 ba
       -0.113028586 0.29610154 0.06464983 -0.0006394374
000210 04 3a 09 3b e5 dd bd be 0b f0 d5 bd f1 6b 0b 3e
       0.002093912 -0.37083355 -0.10446175 0.13615395
000220 21 32 80 be 9d c7 56 3e 3b 32 52 bd 8f ae ab bd
       -0.25038245 0.20974584 -0.051317435 -0.08382904
000230 f6 04 b5 bd 63 ef 6d 3e 1c 6a 1e 3d e7 aa 8d be
       -0.08838837 0.2323585 0.038675413 -0.2766945
000240 e5 77 d8 bd 28 29 a3 3e b7 ff 5d 3c 62 37 51 3e
       -0.10569743 0.31867337 0.013549737 0.20431283
000250 d1 f5 93 bd 30 e0 ab bd 97 9a 38 bd 5b d2 21 3d
       -0.0722462 -0.0839237 -0.045069303 0.03950725
000260 18 b8 00 3e 60 0e 83 3e 7d 0e 8d 3d 30 ac a5 3d
       0.12570226 0.25596905 0.06887529 0.08089483
000270 94 7a 9b 3e 69 53 10 3d 7f 40 8e bd b9 68 2e 3d
       0.30366957 0.035235796 -0.069458954 0.04258034
000280 9a 94 05 3e e9 00 8a 3e a2 3d b1 3d f1 4f 27 be
       0.13044968 0.2695382 0.08654334 -0.16339089
000290 75 12 33 3e 33 1d 6e 3f 15 c2 a9 bd 7d f1 8d be
       0.1748751 0.93013304 -0.08288971 -0.27723303
0002a0 1b 09 14 3e 0e 39 5b be 3e 3e 01 3c d6 10 2b be
       0.14456598 -0.21408483 0.007888375 -0.16705641
0002b0 58 cc 29 3e cd 60 12 bf ef b8 d0 3c 68 08 fd bc
       0.16581857 -0.57178956 0.025478808 -0.030887797
0002c0 c5 8c 30 3e 45 e4 53 be fb aa 1a bd 06 a7 d5 3d
       0.172412 -0.20692547 -0.037760716 0.10432248
0002d0 74 95 2c be 92 f4 03 bd a8 ef be bc 8f bc 8f 3d
       -0.16853887 -0.032215662 -0.023307636 0.070183866
0002e0 f3 18 15 bc 9c 07 07 be 24 0b a9 bc 98 52 97 3e
       -0.009100187 -0.13186496 -0.020635195 0.29555202
0002f0 4a e7 84 be c7 a3 f8 3e 79 a1 f8 bd c1 1e 6a 3e
       -0.2595771 0.48562452 -0.121401735 0.22863294
000300 d1 0f 16 bd de e6 13 3d 28 6f bb 3d ac 4e 64 be
       -0.036636177 0.036108844 0.09152061 -0.22295636
000310 bb cb 02 3e 77 72 3c bf 43 33 ae 39 9e 13 4b be
       0.1277303 -0.7361216 0.0003322606 -0.19831702
000320 51 17 c2 3b 7c bc 38 bd 3e 11 b2 bc bf 72 b0 3d
       0.0059231897 -0.045101628 -0.021736737 0.08615636
000330 1e a8 cb 3d 72 8e 24 bf 7e ba b3 3d 51 5a f8 bb
       0.09944175 -0.64279854 0.08775805 -0.007579126
000340 f1 41 83 3d ea 84 68 3c d5 7b 8d 3d 82 87 ec bd
       0.06409062 0.014191845 0.06908385 -0.115492836
000350 7f 02 6a 3e 85 30 0b bf da 7d 18 bd 21 ca b8 bd
       0.22852515 -0.5437091 -0.037229396 -0.09022928
000360 72 57 77 3e d2 0d ac bc 3c fa 4d 3d df 95 91 3d
       0.24154451 -0.021002684 0.05028747 0.07108664
000370 d0 c0 ae bd 85 ed 24 be 9d f0 91 bd 3d 15 b9 bb
       -0.0853287 -0.16106232 -0.071259715 -0.0056482838
000380 c2 5d c4 bb ae f5 b3 bd 17 a3 33 3c 8b f0 30 3e
       -0.005992622 -0.08787094 0.010964177 0.1727926
000390 65 b1 f4 be 86 e4 d6 bd 78 5f b7 bb d3 7e d6 3d
       -0.4779159 -0.10492806 -0.0055960976 0.104734086
0003a0 88 21 fb bd 4f 3a 59 be 28 68 b9 bc 73 bb a4 bd
       -0.12262255 -0.21213649 -0.022632673 -0.080435656
0003b0 1c e5 13 bf a1 03 56 3d ec 8a 84 bd 2a 96 33 bc
       -0.5777147 0.052249555 -0.0647181 -0.010961095
0003c0 3a 00 12 3d 7b 51 83 be 90 14 07 be 56 f3 67 3d
       0.035644747 -0.25648102 -0.13191438 0.056628548
0003d0 18 02 23 bd 3a b7 3d bf 45 84 d5 3d 44 a9 92 bd
       -0.03979692 -0.74107707 0.10425619 -0.07161191
0003e0 41 fd a1 3c e5 70 a0 bd f8 c9 b6 bd 0e cf 16 be
       0.019774081 -0.07834033 -0.08925241 -0.14727423
0003f0 e0 6c f2 3d d6 b5 fb be 44 1d af 3d a3 a6 00 be
       0.118371725 -0.49162167 0.08550504 -0.12563567

layers.0.bias f4 [64]
000000 c6 0d 49 3e b0 10 b0 bd 76 2d 2d be 4e f0 a7 bd
       0.1963416 -0.08596933 -0.16911873 -0.08200131
000010 d1 e5 e4 3d 72 76 d7 3d 5e 90 28 3e 6d f2 bf bd
       0.111766465 0.105206385 0.16461322 -0.09372411
000020 ad 56 ae 3c 12 29 47 3e 88 6c 1f 3e d0 e3 17 3e
       0.021281565 0.19449261 0.15568745 0.14832997
000030 43 58 1f 3c 0a bb 41 3e 43 05 3d be 6b 44 01 be
       0.009725633 0.18919006 -0.18459038 -0.12623756
000040 28 fb a4 3d c9 a5 57 3d 6d 7c 18 be 58 a5 d6 3d
       0.08055717 0.05264834 -0.14891215 0.104807556
000050 ae 1d 0e be 5c 0d 04 be cf f2 f9 3d 49 63 46 3e
       -0.1387851 -0.12895721 0.12204515 0.19373812
000060 d0 14 38 be 32 47 17 3d 0e ca 71 bc e9 f9 4e be
       -0.1797669 0.03693313 -0.014757646 -0.2021252
000070 ee ad 40 be 1e 21 11 3e 35 2b c3 bd bd 7b ee 3d
       -0.18816349 0.1417279 -0.095297255 0.11644695
000080 86 c7 aa bd ba f0 cb 3d 4a 9b d0 bd 8c ba 14 3e
       -0.08338837 0.09958024 -0.10185869 0.14524287
000090 b8 42 1e 3d 55 98 41 3e b8 4b 55 3c 68 9f 1f be
       0.038637847 0.18905766 0.013018541 -0.15588152
0000a0 73 35 0b 3b 63 17 07 be 4f 55 3c 3e 3e 76 30 be
       0.0021241575 -0.13192515 0.18391918 -0.17232606
0000b0 f8 06 1b 3e dd 40 ee 3d 60 64 31 bd eb e2 07 be
       0.15139377 0.116334654 -0.043308616 -0.13270156
0000c0 23 5b a6 3d 41 0e 84 bd 9b 41 0b 3e 24 a1 f7 3d
       0.08122852 -0.06448031 0.13599245 0.12091282
0000d0 95 04 40 be e1 e4 0b bd c4 19 71 bc 43 cc df 3d
       -0.18751748 -0.034153823 -0.014715616 0.10927632
0000e0 9a 7a bd bd 18 47 be bd f6 dc 96 3d 37 83 a9 bd
       -0.092519 -0.09290904 0.07366364 -0.0827698
0000f0 22 7b 41 be aa c4 bb 3c d4 92 c5 3d 48 8e 8b bc
       -0.18894628 0.022920925 0.09647146 -0.017035618

layers.1.weight f4 [64]
000000 92 4f db 3e 9d 93 f5 3e 3f 4d 0f 3f c7 ca 41 3f
       0.42834145 0.47964182 0.55977243 0.7570004
000010 99 ff 60 3f f2 7f a1 3e 25 f5 c6 3e 37 82 8d 3e
       0.8789001 0.31542927 0.38858905 0.2763841
000020 e9 4b 5e 3e a3 93 02 3f 38 36 b8 3e 70 a9 c6 3e
       0.21708645 0.51006526 0.35978866 0.38801146
000030 5e 44 0a 3f 77 fd 7c 3e 32 f3 ff 3e a8 97 01 3f
       0.5401057 0.24706064 0.4999023 0.50622034
000040 48 e3 f7 3e dd a3 fb 3e 95 7a e8 3e 62 5e c0 3e
       0.4841559 0.49148455 0.45406023 0.37572008
000050 68 6a 9b 3e dc a1 da 3e dd 58 60 3f b6 aa 50 3f
       0.3035462 0.42701614 0.87635595 0.81510484
000060 12 6c 67 3f af a5 36 3f 64 1b 29 3f fe 62 e6 3e
       0.9039928 0.71346563 0.6605742 0.449974
000070 6c 0e b6 3e 7b 95 60 3f 42 52 8e 3e f1 53 d6 3e
       0.35557878 0.8772809 0.27797133 0.41860917
000080 79 60 18 3e 1a 42 0a 3f 7b dc 10 3f 8d 8d 07 3f
       0.14880551 0.5400711 0.56586426 0.52950364
000090 e5 c8 1c 3f f5 10 88 3e 60 14 60 3e 8b 11 94 3e
       0.6124404 0.26575437 0.21882772 0.28919634
0000a0 7b 19 86 3e bf f7 d7 3e 9b 1f 3f 3f 2b 5c 2d 3f
       0.26191315 0.42181203 0.746576 0.6771876
0000b0 4c 54 84 3e 20 bc 1b be e1 3b 0e 3f 50 1e 91 3e
       0.25845563 -0.15208483 0.5556012 0.2834344
0000c0 68 ea 21 3f 78 e1 3a 3f d0 36 3a 3f fe d4 ba 3e
       0.632483 0.7300029 0.7273989 0.36490625
0000d0 15 89 2e 3f 42 0a 25 3f 03 e4 86 3e 72 7d 33 3f
       0.6817792 0.6446878 0.26345834 0.7011329
0000e0 91 b1 c6 3d 9c 87 0d 3f 0e 0f 1c 3f f5 ec ad 3e
       0.09701837 0.5528505 0.6096047 0.33969846
0000f0 ff 8c 5f 3f c3 86 11 3f 81 a6 11 3f 9b df af 3e
       0.8732452 0.56846255 0.5689469 0.34350285

layers.1.bias f4 [64]
000000 64 7a 22 be 4e e7 85 be ba e3 6f be ed 2b 3d be
       -0.15867001 -0.26153034 -0.23426715 -0.18473788
000010 1b 95 a6 be fb 6a 94 3b e9 cb 01 be 23 e0 3b 3d
       -0.32535633 0.0045293546 -0.12675442 0.04586805
000020 c8 76 9b be d5 b8 0a be 18 39 f3 bc d3 d0 11 be
       -0.3036406 -0.1354707 -0.02969031 -0.14239816
000030 7d 3d 0a bf bc 43 b1 bd 43 49 9c be 1a bf e4 be
       -0.54000074 -0.086554974 -0.30524644 -0.4467705
000040 9b 08 a1 3c 7a 72 53 be c0 43 0c be 43 86 fe be
       0.019657424 -0.20649138 -0.1369772 -0.4971181
000050 1f 46 0e be b7 68 86 be b6 c4 37 bf db 74 47 bd
       -0.13893937 -0.26251766 -0.7178453 -0.048695426
000060 a5 50 ea be 71 57 57 be 32 59 af be 1a d5 99 be
       -0.45764652 -0.2102945 -0.34247738 -0.30045396
000070 d1 92 78 3d ea 18 e6 be d2 f1 45 3c 40 03 6b be
       0.06068689 -0.44940883 0.01208158 -0.22950459
000080 cc 47 93 3d a0 16 f1 be 5d 93 4f be 99 65 ae bd
       0.071914285 -0.47087574 -0.20271058 -0.08515472
000090 e6 8e 0b bf c0 07 08 be ac 26 55 bd fe d6 8f be
       -0.5451492 -0.13284206 -0.052038833 -0.28093714
0000a0 11 e4 3a be 98 ae 4f bf 12 4c 16 be c3 75 e1 be
       -0.18251063 -0.81125784 -0.14677456 -0.44035158
0000b0 85 a1 b1 bc 29 38 2b 3e 9e 8f d4 be 64 67 2f be
       -0.021683464 0.16720642 -0.4151582 -0.17129284
0000c0 df eb 16 bf cf 14 9f be 8d 02 df be a6 fe 56 be
       -0.5895366 -0.31070563 -0.43556634 -0.20995578
0000d0 e6 2c 75 3b c1 62 ac be ba b2 0f bf 8a 9b 12 bf
       0.0037410795 -0.33669093 -0.5613209 -0.57268584
0000e0 56 53 8f 3e 38 7a 1d 3e 80 cd 35 be 66 b0 de be
       0.27993268 0.15378654 -0.17754173 -0.43493956
0000f0 96 a0 c1 3d e4 9d 9a 3d 15 78 8e 3c 47 aa 13 bf
       0.094544575 0.075496465 0.017391244 -0.576817

layers.1.running_mean f4 [64]
000000 18 22 23 c0 2c db 5c c0 62 8e 53 c0 78 a5 b9 bf
       -2.548956 -3.4508772 -3.3055654 -1.4503622
000010 cd 5a 36 3f 1b a6 c3 3e df cd 4d 3f 92 b8 30 c0
       0.712323 0.38212666 0.8039226 -2.7612653
000020 9a 0f 94 c0 2f 4f 9c bf b7 63 aa bf 67 63 13 41
       -4.6269045 -1.2211665 -1.331168 9.211768
000030 47 3d 5d 3e c8 9e 16 41 ef 2e 39 3e 25 42 99 be
       0.21605407 9.413765 0.1808431 -0.29933277
000040 8e 2e 84 bf 8b 47 25 3f 2b 8f af be bd 2f bf bf
       -1.0326707 0.6456229 -0.34288916 -1.4936444
000050 e5 27 4e be 23 73 72 3f d0 e3 6b 3f 5f 72 10 bf
       -0.20132406 0.94706935 0.9214449 -0.56424516
000060 07 42 1c c0 05 b4 02 c0 72 cb e3 3f 0f 5e 1c c0
       -2.44153 -2.0422375 1.7796462 -2.443241
000070 81 c2 87 3f a0 68 6f 3f 78 bc 9b bf dc c1 09 c0
       1.0606233 0.9351902 -1.2166891 -2.1524572
000080 36 4b d7 3f b8 ff 7d 40 0f 94 28 c0 78 6c 9b 3e
       1.6819828 3.9687328 -2.6340368 0.30356193
000090 72 c0 da bf 4b ba 2d c0 c4 23 b8 bc 6d 5d 8d c0
       -1.708998 -2.7144954 -0.022477992 -4.4176545
0000a0 01 30 e5 c0 6a 75 b7 bf ac 96 1e 3f 37 18 cb c0
       -7.16211 -1.4332707 0.6194866 -6.346706
0000b0 8e 9e a3 c0 81 0d b4 c0 76 0c cd c0 8b 58 c9 40
       -5.113105 -5.6266484 -6.407771 6.2920585
0000c0 5e 1d cc bf a4 25 f0 be 0c d5 d6 3e b7 99 80 c0
       -1.5946462 -0.46903718 0.41959417 -4.018764
0000d0 b9 2b 0a 3c ef f8 d8 3f 2d b6 ca c0 d1 30 a1 40
       0.008433276 1.6950969 -6.3347383 5.037209
0000e0 08 10 d6 40 13 48 b2 3f ea b9 1c 40 5e e9 73 3f
       6.689457 1.3928245 2.4488473 0.95277965
0000f0 cc 54 56 bf df 43 7c c0 1e 2e a7 3f 7b ae ab c0
       -0.8372314 -3.9416425 1.3060949 -5.365049

layers.1.running_var f4 [64]
000000 3e d8 12 41 84 0d c7 41 15 03 7f 41 4f a1 b6 42
       9.1777935 24.8816 15.938252 91.315056
000010 3f 8b b3 40 51 96 0b 41 fc fd 71 41 29 28 8b 41
       5.610748 8.724198 15.124508 17.39461
000020 41 10 0b 42 d9 11 42 42 bb 98 10 41 5b 3e ad 41
       34.765873 48.51743 9.037288 21.655447
000030 45 d8 ff 40 bc 73 b8 41 e2 21 fa 42 15 ce 70 42
       7.99515 23.05651 125.06618 60.201252
000040 d1 41 81 42 03 b4 49 40 65 8e 1b 42 82 17 52 42
       64.62855 3.151612 38.889057 52.522957
000050 a9 e3 e0 41 4c 51 9f 41 8e a4 87 41 9e ca 8e 40
       28.111162 19.914696 16.955349 4.4622335
000060 0a 43 29 41 c3 cc 31 42 e2 8f d2 40 1a aa 06 42
       10.578867 44.449963 6.580064 33.666115
000070 83 b9 b9 41 07 2d 3c 41 2f 08 88 41 ac 3a 28 42
       23.215582 11.760993 17.003996 42.057297
000080 4f 0e dd 41 4a 2b 3b 42 1f 2f 9d 41 31 e2 30 41
       27.631987 46.792274 19.648008 11.0552225
000090 29 ad 1d 41 1e 0e 46 42 bc 9e cb 40 59 db a1 41
       9.854775 49.513786 6.3631268 20.232103
0000a0 fc c2 08 41 70 bf 5b 41 bc a1 29 41 0a 80 80 41
       8.547604 13.734238 10.601986 16.06252
0000b0 99 44 ce 41 3b 6e a3 41 ce 32 99 41 e6 b8 1f 42
       25.783495 20.428823 19.149807 39.930565
0000c0 86 f9 a8 41 22 e5 31 42 21 96 08 41 aa e3 5d 42
       21.121838 44.473763 8.536653 55.47233
0000d0 f6 bf e4 3f ba ad 25 41 a1 32 af 41 8d 56 6c 42
       1.7871082 10.354914 21.899721 59.084522
0000e0 79 ca 5f 41 9c db 2a 40 39 67 85 41 be 05 88 42
       13.986932 2.669654 16.675402 68.011215
0000f0 85 3e 87 40 65 31 2a 41 73 32 5b 41 71 62 2b 41
       4.226382 10.637059 13.699817 10.711534

layers.3.weight f4 [64, 64]
000000 02 d0 b7 bd 58 24 20 3d f7 69 96 3d 3c 8c 2b 3e
       -0.08975221 0.03909716 0.0734443 0.16752714
000010 33 f7 d1 be bb 0d 69 3e 26 82 b0 bc 02 06 bc 3d
       -0.4100891 0.22759144 -0.021546435 0.091808334
000020 f6 6b 2a bd 23 af 72 3c 23 a1 16 3e 52 35 13 3e
       -0.041606866 0.014812264 0.14709906 0.14375809
000030 37 f5 08 3e c5 46 87 3e 25 05 99 3d 6d 93 4b 3e
       0.13374792 0.2642118 0.07471684 0.19880457
000040 49 60 80 be 35 d6 8a be ab b3 34 3e 48 e9 e9 bd
       -0.2507346 -0.27116552 0.17646663 -0.11421448
000050 2d 19 a6 bc 08 ee 06 be fd 6f 1c bd 88 7c 87 3d
       -0.020275677 -0.13176739 -0.038192738 0.06615549
000060 79 d2 42 3d b4 c4 69 be 14 c6 7f bd ba 67 07 be
       0.047564004 -0.22828943 -0.06244476 -0.13223162
000070 26 4f c1 be 37 31 ed 3d d8 51 62 bd ec 79 37 be
       -0.37755698 0.115816526 -0.055253834 -0.17917603
000080 c8 81 47 3d b8 3d b0 3d 13 72 e2 3d 9c 9e 80 3e
       0.048707753 0.08605522 0.11056914 0.2512101
000090 9a ab 23 3e b8 96 ea 3d d9 64 a0 bd 4b ae 20 3e
       0.1598343 0.114545286 -0.07831735 0.15691487
0000a0 54 8d c0 bd 7d b1 dc 3e df ed 79 be e4 d0 b0 be
       -0.09401956 0.43104163 -0.24407147 -0.3453437
0000b0 35 d7 ea bd cd be 5d be 63 5f ad 3d 0f 7a 47 3e
       -0.11466829 -0.21654816 0.08465459 0.19480155
0000c0 ab 5f cc 3e 86 69 bc bd f1 b0 9f 3d af 7b bf 3b
       0.3991674 -0.091998145 0.07797421 0.0058436017
0000d0 44 7a 67 3e 0e 1c 09 be 1e 36 39 bf 54 9e e6 3d
       0.22605234 -0.13389608 -0.723482 0.112606674
0000e0 78 51 80 bd 8c 70 73 bd 52 38 b6 bd d8 9c 2b bf
       -0.06265539 -0.059433505 -0.08897461 -0.670362
0000f0 f6 92 90 3d 02 b9 86 bd 78 c4 1f 3e 37 0d 22 bd
       0.070592806 -0.06578256 0.1560229 -0.039563384
000100 e1 6c 6e 3d d9 e0 36 3c eb f0 9c 3c 1d ac 1a 3e
       0.058209304 0.011162006 0.019157847 0.15104719
000110 57 65 3d 3b 85 7e 66 be b5 6f 01 3e 14 df d9 3c
       0.0028899515 -0.22509201 0.12640269 0.02659563
000120 32 88 f6 3e 94 d8 78 3e b3 89 34 bc 0d d5 2c 3d
       0.48150784 0.24301368 -0.011019158 0.04219537
000130 ac 38 75 3d b8 c7 ac 3e 77 ca e7 bc 2b 70 61 3e
       0.0598685 0.33746123 -0.028294785 0.22015445
000140 16 98 ae 3d a9 8d 18 be 1e 35 02 3e e7 c2 6f 3d
       0.08525102 -0.14897789 0.12715575 0.058535483
000150 5a 9e 68 3d 53 b6 20 3d 09 ce e7 3b af c7 b8 3d
       0.05679164 0.039236378 0.007074122 0.090224616
000160 79 34 6a 3e 56 5e 47 be 15 db e3 3c 17 08 f4 3c
       0.22871579 -0.1946958 0.027814427 0.029789014
000170 3a 40 91 bd 07 c9 bd be 36 9f 93 3e f5 a6 01 be
       -0.07092328 -0.37067434 0.28832406 -0.12661345
000180 bf 20 a3 3c 70 c2 2b be c3 4a 4b 3e 0a 07 82 3e
       0.019913075 -0.16773391 0.19852738 0.25395995
000190 5f 0c 95 3d 08 90 15 3d 81 5e a7 bd e0 91 24 be
       0.0727775 0.036514312 -0.08172322 -0.16071272
0001a0 d8 67 bf bd 1c c6 5a bc 2d 49 bc 3e a3 88 30 3e
       -0.093459785 -0.013352897 0.3677458 0.17239623
0001b0 bb fe f2 3d 19 0f 9e bd 11 40 48 3e 61 84 29 3c
       0.11864992 -0.077177234 0.1955569 0.010346503
0001c0 4b e1 40 3d 83 6a 27 3e ef 74 8d 3d cd 2f ca bd
       0.047089856 0.16349225 0.06907069 -0.098723985
0001d0 3e ab 15 3e c6 8a b0 bd 4a 62 dd bd 6d 89 8c be
       0.14616105 -0.08620219 -0.10809763 -0.27448598
0001e0 de b1 4b bd dd 32 8c 3e 3c 94 42 3e 28 3a 93 be
       -0.049730174 0.27382556 0.1900186 -0.28755307
0001f0 34 41 5d be 7e 0f 2b 3d c1 05 99 3c 22 21 23 3d
       -0.21606904 0.04176282 0.018679501 0.03982652
000200 04 74 ba 3d 46 fa 2e 3e d4 98 09 3b 27 41 a0 3c
       0.091041595 0.17087659 0.0020995634 0.019562317
000210 4b 6e b6 be 01 bd 4b bd 81 f1 01 3e 68 99 88 be
       -0.35631022 -0.049740795 0.12689783 -0.2667954
000220 f1 dc f0 bd e6 ba 80 3c 04 72 53 3e 4c 0c 64 3e
       -0.11760891 0.01571412 0.20648962 0.22270316
000230 1f 90 b3 bc f7 9f 7e be 37 ec aa 3e 7c f3 3c 3e
       -0.021919308 -0.24865709 0.33383343 0.18452257
000240 89 b4 2f be f5 6d 5b bd 9d 79 05 be 22 9e b4 be
       -0.17158712 -0.05357166 -0.13034673 -0.35276896
000250 a5 01 f1 bd 2c 33 80 3a 78 77 22 3d 5a 9d 33 3e
       -0.11767892 0.0009780875 0.039664716 0.17540494
000260 77 ef 99 bd c4 2c 39 bd ce e6 aa bd ce c6 3e bc
       -0.075163774 -0.045208707 -0.08344804 -0.011644078
000270 a7 80 5f be 04 4b 43 be 86 00 14 3c 71 ff 8d bd
       -0.2182642 -0.19071585 0.009033328 -0.06933487
000280 4b e6 54 be 7b 02 d7 bc 2a 37 fa bd 57 29 70 3e
       -0.20790975 -0.0262463 -0.12217553 0.2345327
000290 4f 5c 87 bd 4e 84 95 3d 63 10 29 3b 41 e6 23 3e
       -0.06609403 0.07300626 0.002579712 0.16005804
0002a0 29 07 e1 3c 00 e6 3b bf f2 44 89 bc 7a 81 3c 3a
       0.027469235 -0.7339783 -0.016756508 0.00071909244
0002b0 b6 24 45 3e 1f c4 1d be ec a3 c6 3d 72 ae 48 3e
       0.19252285 -0.15406846 0.09699234 0.19597796
0002c0 5e 31 82 be c4 4e 7c bb f4 9d 50 be e2 6f a4 bd
       -0.2542829 -0.0038499096 -0.20372754 -0.080291525
0002d0 af 42 38 3d d9 b4 ab be b4 85 a1 bf 63 e8 23 be
       0.04498547 -0.33536413 -1.2618928 -0.16006617
0002e0 81 20 e2 bd 36 57 16 3e b9 62 b6 bd c8 69 0a 3f
       -0.11041356 0.14681706 -0.089055486 0.5406766
0002f0 c4 cf b2 be ff 10 e6 bc ee 8d 97 bc 29 6d f8 be
       -0.34924138 -0.028084276 -0.018500295 -0.48520783
000300 cb 37 45 3d fd bf 1d be 95 28 ae be 0a 25 89 bc
       0.04814891 -0.15405269 -0.34015337 -0.016741294
000310 79 b8 dc 3d 94 71 f6 bd 5b 85 e6 be f9 dd be 3e
       0.10777373 -0.12033382 -0.45023617 0.37278727
000320 8f 7a a4 3d 85 e6 43 3e 13 f9 17 be b6 63 a4 bd
       0.08031189 0.19130905 -0.14841108 -0.08026831
000330 e3 a1 3e 3e af da 69 3e ef 45 45 bd 89 86 b5 3d
       0.18616442 0.22837327 -0.048162397 0.08863551
000340 3e 42 8d bd bd a5 a2 3e b6 9f f0 3c a1 90 8f be
       -0.068974 0.31767073 0.029373031 -0.2804003
000350 89 84 80 be c8 e9 bb bd 94 ae 08 3c 3f 21 18 3e
       -0.25101116 -0.091754496 0.008342404 0.14856432
000360 14 cd 0d 3e 49 0f a2 be e4 2e bd 3d 96 48 36 be
       0.13847762 -0.31652287 0.09237459 -0.17801127
000370 e2 38 31 be 05 36 6f 3d b5 82 ea bc ae 4e 86 be
       -0.17306855 0.058401126 -0.02862678 -0.26231903
000380 df 64 1d 3e a1 5b 55 be 0a 02 b1 bd 8a d0 6e 3e
       0.1537051 -0.20835735 -0.08642967 0.23321739
000390 44 3f 05 3e 20 0a 29 bd e9 1c 55 be ef 8a cd bd
       0.13012415 -0.04126942 -0.2081181 -0.10036265
0003a0 43 4e 2c be a4 3e e7 bc 53 b8 74 bb a6 0d a1 bc
       -0.1682673 -0.028228112 -0.003734131 -0.019659828
0003b0 6c e5 2e bd d6 2a e3 be 14 49 07 be 79 eb 80 3d
       -0.042699262 -0.4436862 -0.13211471 0.06294913
0003c0 7c c1 2c 3c 52 94 2f bd ac 0b b6 3c 44 42 02 3d
       0.010544177 -0.04286606 0.022222362 0.031801477
0003d0 9d 69 57 3d 08 9f 4e 3e 5c ed ff 3d af f2 5b be
       0.052590955 0.20177853 0.124964446 -0.21479295
0003e0 ad 10 a6 3d 5c 34 be 3d e5 10 a5 3c ce 5c c2 3e
       0.081086494 0.092873305 0.020149658 0.3796143
0003f0 fa e1 2c 3e f6 8f 02 be 77 06 5f 3e d0 19 1e bc
       0.16883078 -0.12750229 0.2177981 -0.009649709

layers.3.bias f4 [64]
000000 62 df c5 3d e4 9e 08 bc 8a ce c6 bd 84 ba 28 3d
       0.096617475 -0.008338664 -0.09707363 0.0411935
000010 a9 ab 16 bb 9c df d9 3d 04 2b f6 bd d1 46 cb 3d
       -0.00229905 0.10638353 -0.12019923 0.099256165
000020 a1 83 cb 3d 18 2d 8d bd ae a5 bb 3c 22 8b a5 3d
       0.099372156 -0.068933666 0.02290615 0.08083178
000030 eb 8a b3 bd 62 09 78 bd 4b e2 c0 bd 04 98 e2 bd
       -0.08766731 -0.060555823 -0.09418162 -0.11064151
000040 25 84 00 3e d1 8c 06 bd 17 d4 06 3d e7 0c 95 3c
       0.12550409 -0.032849137 0.03291711 0.018194629
000050 c2 1b 68 3d 16 02 9c bd 5c f9 74 bd d7 dc 58 3c
       0.056667097 -0.07617585 -0.05980812 0.013236246
000060 bb c8 af bd c8 22 ac bc 6d 54 93 bc 2a 84 bf 3d
       -0.08583208 -0.021012679 -0.017984593 0.0935138
000070 c3 b8 fa bd 69 5b 1f 3d 46 15 fd bd 37 fa 8a bd
       -0.12242272 0.038905535 -0.12357573 -0.06786006
000080 29 34 86 3c fd 72 e8 bd 00 32 64 bd 96 a6 c2 bd
       0.016382294 -0.11350057 -0.055711746 -0.0950443
000090 f9 5e 46 3d 62 df 23 3d 87 84 de 3d 80 b0 bd 3b
       0.048430417 0.040007956 0.10865121 0.0057888627
0000a0 2b 3e cc bd e8 62 79 3c ba 1c 8d bc aa 66 a8 bc
       -0.09972795 0.015221335 -0.017225612 -0.020556767
0000b0 dc 1f 88 bc f9 97 a6 3d cf 0e a9 bc 16 a6 a9 bc
       -0.016616754 0.08134455 -0.020636944 -0.020709079
0000c0 1b f1 b6 3c c7 87 26 bc 50 10 a9 bd fd 94 13 bd
       0.022331765 -0.010164208 -0.082550645 -0.03603076
0000d0 48 39 c7 3d d3 64 d4 bd 3a e9 c5 bc a5 33 06 bd
       0.097277224 -0.10370793 -0.024159063 -0.032764096
0000e0 5f 65 b2 bd 36 fe e3 3d ec 49 8b bd 23 ba ba bc
       -0.08710741 0.11132471 -0.06801209 -0.022793835
0000f0 73 df 0d bd 81 93 59 3d 7e 9e 27 3c f1 3f 6f bd
       -0.034636926 0.053119186 0.010230659 -0.05841059

layers.4.weight f4 [64]
000000 7f 94 7b 3f 7b 2d ad 3f 78 30 10 3f 5c d0 2f 3f
       0.9827346 1.3529505 0.5632396 0.68677306
000010 11 8a ce 3f 03 37 99 3f d4 5b a5 3f 28 82 c0 3f
       1.6135885 1.1969913 1.2918649 1.503972
000020 f0 d2 7a 3f ea 87 a3 3f 8f a9 9d 3f 86 fe 40 3f
       0.97978115 1.2775853 1.231737 0.7538837
000030 fb 03 ca 3f 81 1b ce 3f df e1 b8 3f 78 9d 1c 3f
       1.5782465 1.6102144 1.444393 0.6117778
000040 c9 de de 3f ba 2c a8 3f ab b5 c8 3f 62 0c a3 3f
       1.7411739 1.313865 1.5680441 1.2738154
000050 ea 0d a4 3f 09 60 a7 3f 7d 2d cb 3f 8c 87 c7 3f
       1.2816746 1.3076183 1.5873257 1.5588241
000060 8f 86 a1 3f 9a 3f b8 3f ed ab bb 3f 0c 78 8f 3f
       1.2619189 1.439441 1.4661843 1.120851
000070 89 99 9b 3f 37 cc d4 3f 32 8b 86 3f b4 bf 89 3f
       1.215623 1.6624821 1.0511229 1.0761628
000080 aa d9 f4 3f dd 08 86 3f 45 c8 90 3f aa 7e 86 3f
       1.9128926 1.0471455 1.1311117 1.0507405
000090 d4 9b 75 3f cb b8 37 3f 31 41 cc 3f 08 1f c3 3f
       0.959409 0.71766347 1.5957395 1.5243845
0000a0 a3 7d a9 3f 36 c3 c3 3f db de 7f 3f 48 d8 a2 3f
       1.3241466 1.5293949 0.99949425 1.2722254
0000b0 0a c0 88 3f 6f 55 00 40 4a 04 95 3f 92 6c ff 3e
       1.0683606 2.0052145 1.1641934 0.4988752
0000c0 29 40 c9 3f 07 b5 1d 3f f2 29 a2 3f 9a e2 95 3f
       1.5722705 0.6160435 1.2669051 1.1709778
0000d0 b0 8a 9a 3f 2f 7f e4 3f 13 03 c2 3f d8 7b 9e 3f
       1.2073574 1.7851313 1.5157188 1.2381544
0000e0 db 3b 5e 3f 70 ad 6c 3f 4f 32 de 3f 79 77 9e 3f
       0.8681008 0.92452145 1.7359103 1.238021
0000f0 25 ca db 3f ab ef a5 3f 09 61 a3 3f b5 06 8e 3f
       1.7171065 1.2963766 1.2763988 1.1095797

layers.4.bias f4 [64]
000000 3a 70 37 bd f3 97 08 bf a4 f7 39 3e e2 4f 6e 3d
       -0.044784762 -0.53356856 0.18160874 0.05818165
000010 1a 76 4c 3d ec 7b fa be 7c 6e 3c bf 56 84 bf be
       0.049917318 -0.4892267 -0.73606086 -0.37405652
000020 16 90 5b be b0 96 2d 3d 0b 38 46 bf f4 cd a6 3e
       -0.21441683 0.042380035 -0.77429265 0.32579005
000030 b3 47 0b bf 09 5b bd be 55 2d e9 be bf 29 70 3d
       -0.5440628 -0.36983517 -0.45542398 0.058633562
000040 e3 31 57 bf 6b 19 fb be 1e a5 a7 be 4f 09 20 3c
       -0.84060496 -0.4904283 -0.32743162 0.009767844
000050 2b c6 b1 be 6e 16 54 bd ad 74 b2 be 63 71 22 3e
       -0.34721503 -0.051779203 -0.34854642 0.15863566
000060 02 7a af be a4 8a 95 3e 81 b0 a1 be c7 36 24 bf
       -0.34272772 0.29207337 -0.31579974 -0.64146084
000070 fc 39 7a 3e 99 7c c9 be e8 14 b8 be 7c a8 4e be
       0.24436182 -0.39352873 -0.3595345 -0.20181459
000080 8b 26 82 bd 70 16 aa be a9 ae 4f be 07 54 7e be
       -0.06355008 -0.33220243 -0.20281471 -0.24836741
000090 14 bc 06 bf ed a1 10 3e 47 93 1c bf 2a bd dd bb
       -0.52630734 0.1412427 -0.6116223 -0.006766935
0000a0 0a 06 12 bf 4c 60 9c 3c e8 7d cf 3d 12 73 d0 3e
       -0.57040465 0.019088887 0.101314366 0.40712792
0000b0 26 05 7b be 01 58 b1 bc a0 31 19 bf 52 9f 92 bd
       -0.24513683 -0.021648409 -0.59841347 -0.07159294
0000c0 c8 82 3a be 4a 77 d0 bd a4 02 36 be e8 59 ce 3d
       -0.18213952 -0.101790026 -0.17774445 0.10075742
0000d0 21 41 67 be 43 7b ca be 01 04 c7 be 48 59 06 bf
       -0.22583438 -0.39547166 -0.38870242 -0.5247998
0000e0 55 72 40 3e 78 3d 38 bf 08 de c8 3d 5c 4b 5d be
       0.18793614 -0.71968794 0.09807974 -0.21610779
0000f0 0d 45 b0 3e e0 6f a2 bc b0 5a b6 be b2 71 86 be
       0.34427682 -0.019828737 -0.35616064 -0.26258618

layers.4.running_mean f4 [64]
000000 23 88 83 ba a9 6c b3 3e 50 c9 e9 be b2 59 78 3d
       -0.0010035079 0.3504384 -0.45661402 0.060632415
000010 93 e2 de 3e f8 c0 a5 3e 07 59 27 bd 43 da 27 bc
       0.43532237 0.32373786 -0.040856387 -0.010244909
000020 81 19 30 3e e9 1a f6 3c b9 08 0f be d5 bf f8 be
       0.17197229 0.030042129 -0.13968171 -0.48583856
000030 9f 1f 95 be d3 c4 13 3e 02 c9 02 be 61 36 13 3e
       -0.29125687 0.14430551 -0.12771991 0.14376213
000040 ed 8c 10 3f 1f 58 a8 3e 8d 04 40 3e d7 df 88 3e
       0.56465036 0.3287973 0.18751736 0.26733276
000050 15 14 10 3e 48 0a 23 be 1f 9b bf be e3 43 3d bd
       0.1407016 -0.1592189 -0.37423036 -0.04620732
000060 bd 4b ac 3c 40 fa 0a be 0b 16 ef bd e7 94 46 3e
       0.021032209 -0.13572025 -0.11674126 0.19392739
000070 a4 4e 14 bf 4e b1 e0 bd 00 32 01 3d 80 52 16 bf
       -0.57932496 -0.10971318 0.031541824 -0.58719635
000080 a1 a5 71 bd 39 16 67 be fe 0f 52 bc d8 15 02 3f
       -0.058995847 -0.22567071 -0.012821196 0.5081458
000090 77 61 c0 3d f6 81 aa 3d fe e5 29 be 7e 92 87 be
       0.0939359 0.08325569 -0.16591641 -0.26478952
0000a0 12 4b f8 bc b5 34 ff 3e be 91 e2 bd bc e5 04 bf
       -0.030309234 0.498449 -0.11062954 -0.51913047
0000b0 c3 a0 7c be fc a0 d1 bd 9e a5 8e be 29 56 ad be
       -0.246707 -0.102357835 -0.2786073 -0.33854797
0000c0 ae 37 c0 be d1 84 75 be 64 fb f9 3e 33 e9 d9 be
       -0.3754248 -0.23976447 0.48824608 -0.4256073
0000d0 d9 16 ef 3e 40 8d 80 3e 68 e9 c2 bd 6f 58 e4 3d
       0.4669712 0.25107765 -0.09517175 0.1114968
0000e0 ff 46 68 be 4b 29 1a 3f 59 eb 27 3d 6a be 16 3e
       -0.22683333 0.6021926 0.04099593 0.14721075
0000f0 24 32 d1 bd c2 0c c0 bc e1 df 1c 3e e6 7f 71 3e
       -0.10214642 -0.023443583 0.15319778 0.23583946

layers.4.running_var f4 [64]
000000 42 0c cb 3d d3 ec eb 3d 93 7f 13 3e 67 86 30 3e
       0.09914447 0.1151978 0.14404134 0.1723877
000010 a6 2d 16 3e a7 9e 45 3e 94 32 cf 3d 4f 84 ce 3d
       0.14665851 0.19298802 0.10117069 0.100838296
000020 19 06 31 3e 21 74 3d 3e 1b e1 0c 3e 6c f5 09 3e
       0.17287482 0.18501331 0.13757746 0.13472527
000030 d3 0b c0 3d 12 16 35 3e 8c 20 d0 3d c9 f1 2b 3e
       0.09377255 0.176842 0.10162458 0.16791452
000040 ad 90 78 3d 26 dc 9a 3d c2 3d 19 3e f2 fa 45 3d
       0.06068485 0.07561521 0.14964965 0.048335023
000050 2e a7 b2 3d fc b6 26 3e 04 d5 65 3d ff 48 c2 3d
       0.08723293 0.1628074 0.05611135 0.09486579
000060 4d cf 16 3e e6 1d 30 3e 40 1b d2 3d d8 42 90 3d
       0.14727516 0.17198905 0.10259104 0.070439994
000070 7c e2 88 3d 27 99 48 3d 43 1c 0b 3e d6 83 54 3e
       0.066838235 0.048974182 0.13585 0.20753416
000080 b8 bb 85 3d ed 52 32 3e 7d ec 64 3d 48 de 29 3e
       0.06529945 0.17414446 0.055889595 0.165887
000090 3a 01 04 3e 1a 8a 82 3e be 32 c8 3d 34 20 69 3d
       0.12891093 0.25495988 0.09775303 0.056915477
0000a0 35 6c 9b 3d b7 fd 2b 3e 4d fa 86 3d 3b 02 0f 3e
       0.07588998 0.16796003 0.0659071 0.13965695
0000b0 90 cc 9b 3d b2 b4 e7 3d 5b 8a e2 3d ae 13 b0 3d
       0.076073766 0.11313762 0.110615455 0.085975036
0000c0 6e a3 85 3e a7 2b 1b 3e 20 bf fb 3d 1a 92 de 3d
       0.2610125 0.15153371 0.122923136 0.108677104
0000d0 c1 69 cf 3d ee 68 dd 3d 6f 11 52 3e c7 38 29 3e
       0.10127593 0.108110294 0.20514463 0.16525565
0000e0 0e 7d 5a 3e 5b ca 04 3e 56 8f 40 3e 8b 1b ea 3d
       0.21336767 0.12967817 0.18804678 0.11431035
0000f0 1b 81 7c 3d 5c e8 83 3e 99 96 c3 3d 66 32 85 3d
       0.061646562 0.25763214 0.095502086 0.06503753

layers.6.weight f4 [2, 64]
000000 11 bc a2 3e be 0a 92 be ca 9d e2 be e7 0a bd be
       0.31784108 -0.2852382 -0.44261009 -0.3692238
000010 fb ce a9 3b 7c 20 0f 3f 50 54 50 bf 81 5d d1 3e
       0.0051821447 0.5590894 -0.8137865 0.4089165
000020 6f 1d df 3e b8 2b 6a be 2b 22 3b 3f 6d 9c 24 be
       0.43577144 -0.2286824 0.7309901 -0.16075297
000030 25 0d 94 3e a4 fb b6 3e 95 ef 1a bf d6 9e 9c be
       0.28916278 0.35738862 -0.60521823 -0.30589932
000040 59 db 16 bd 88 30 da be f8 ca 1a 3f 14 65 5b bd
       -0.03683028 -0.4261515 0.60465956 -0.053563192
000050 46 87 88 3e fb 52 8f be 40 64 12 3e ea e0 58 3d
       0.26665705 -0.27992997 0.14296055 0.05294887
000060 9c 92 d6 be 73 eb be be 62 86 5d 3e 6d d1 05 3e
       -0.4190873 -0.37289008 0.21633294 0.13068171
000070 74 ca 7f 3d 0a 84 e3 3d 2b 3a e7 3e 86 7b 6d be
       0.062448934 0.11109169 0.45161566 -0.23191652
000080 df 06 7d 3d 11 02 ca 3e 73 8c aa 3e 36 30 20 bf
       0.06177413 0.39454702 0.3331028 -0.62573564
000090 ad d3 07 3f b9 2e da be d8 df 97 be 1f 84 3a 3d
       0.53057367 -0.42613772 -0.29662967 0.045536157
0000a0 92 2e e1 be 09 5c a9 be 81 62 b8 3d ca 51 02 be
       -0.43980843 -0.3307803 0.09003163 -0.12726513
0000b0 02 06 8d be a0 16 79 3b 04 1e 43 bf cf 37 8c be
       -0.27543646 0.003800787 -0.76217675 -0.2738633
0000c0 3a 8a 7a 3e 41 1e b3 3e e1 a4 40 be 84 0a 2c 3e
       0.24466792 0.3498402 -0.18812896 0.16800886
0000d0 9d 40 08 bd 2b e4 8b 3a 32 b3 8b 3e 56 3a ba 3e
       -0.033264745 0.0010672858 0.27285153 0.36372632
0000e0 f4 af 13 3f 7c a4 ca 3e 2b e3 7c 3e 37 6d aa be
       0.5769036 0.39578617 0.24696033 -0.3328645
0000f0 f2 00 48 3d e9 29 11 bf f5 c0 5c 3f 39 60 3f 3e
       0.048829027 -0.56704575 0.8623193 0.1868905
000100 ba d9 af 3d 58 91 20 3e 53 68 c7 bc e9 c6 a5 3e
       0.0858645 0.15680444 -0.024341738 0.3237832
000110 5f e9 5f bf 28 cc 30 3e d2 1d 4c bf 11 86 f5 3e
       -0.8746547 0.1726538 -0.79733 0.47953847
000120 1e 56 4d 3e 7f 74 91 be c3 cc 4a be b4 29 97 3e
       0.20052382 -0.28409192 -0.19804673 0.29524004
000130 a5 34 27 bf 12 ad 55 be db b5 ee 3d b1 d6 ff be
       -0.65314704 -0.20866802 0.1165578 -0.49968484
000140 b8 a8 d4 3f b0 9f 6b be ce 2d ce 3d fe 17 b2 bf
       1.6613989 -0.23010135 0.1006733 -1.3913572
000150 e6 41 a0 3e b8 3b 9b 3d 8a 38 49 bf ba a2 41 3f
       0.31300277 0.0757975 -0.78601897 0.75638926
000160 3f f9 e1 be 24 db 9f be dc cd 0b bf 6e 2a 0a bf
       -0.44135472 -0.3122188 -0.5461099 -0.5397099
000170 56 9a a4 3f 1c 28 54 3f b2 22 52 be 73 c6 20 bf
       1.28596 0.828737 -0.20521048 -0.6280281
000180 91 a8 98 bf ee e3 69 3f 9b d3 ee be d3 3b 30 be
       -1.1926442 0.9136342 -0.46645817 -0.17210321
000190 0a 34 9e bf 4b 68 ef 3e 78 fd be be e3 f2 77 3f
       -1.2359631 0.46759257 -0.37302756 0.9685499
0001a0 80 26 bd 3d ec be 75 be 16 c3 43 3f db 4f 56 bf
       0.09235859 -0.23998612 0.7646955 -0.837156
0001b0 b9 ae 8a bf 6d 06 6b 3f 85 ec b2 3e a1 93 c2 be
       -1.0834571 0.9180668 0.34946075 -0.38003257
0001c0 18 11 ea be e3 89 44 be e2 3b 3d bf 47 13 35 bf
       -0.45716166 -0.19193225 -0.739195 -0.7073254
0001d0 a3 b5 9b 3f 7b 56 8a 3f d8 e5 19 be 36 19 84 bd
       1.2164806 1.0807642 -0.15029085 -0.06450121
0001e0 26 0d eb bd d7 5b b7 3f 80 33 1e bf 21 3c 38 3e
       -0.11477117 1.4324902 -0.6179733 0.17991687
0001f0 b1 15 81 3f 6c ad 0d 3f 81 73 17 3d ef 60 20 bf
       1.0084745 0.55342746 0.036975387 -0.6264791

layers.6.bias f4 [2]
000000 1d e2 62 3d 90 e8 db bd
       0.05539142 -0.10737717
