results/checkpoint_1_critic_local.pt (torch_old, 86950 bytes, 13 tensors)

layers.0.weight f4 [128, 24]
0.055977784 0.001134105 0.083741315 -0.037282534 -0.019704074 -0.028782345 -0.048785273 0.042959012
0.022886634 -0.025838554 -0.0046198145 0.05490545 -0.009924069 -0.06446689 -0.0187364 0.04110045
-0.07219893 -0.011118919 0.05919858 0.06930939 0.0016975701 -0.08000242 0.050755896 -0.012938641
-0.05499366 -0.052887995 -0.08117872 0.016802996 0.05391834 -0.02752798 0.021178372 -0.011345908
0.035167478 0.03987319 0.049871333 -0.08636295 0.06103141 0.054154553 -0.073988065 -0.04178567
0.08470806 -0.042509615 0.027442321 0.038820244 -0.079923205 -0.07738844 0.08333514 -0.011727855
0.062260635 -0.07635307 0.048932336 -0.0048730522 -0.0013401434 0.048456006 0.059460647 0.04912775
-0.045773827 0.0016832799 0.0078038275 0.04225368 -0.06790389 -0.073937476 0.05229857 0.044657268
0.01723414 -0.022555664 0.018963479 0.03346353 0.07229247 -0.011190273 -0.058907438 0.014145628
0.013286717 0.04795336 0.031974748 0.0721171 -0.02015718 0.085462116 0.061617978 -0.025812857
0.030853488 -0.04417367 -0.06659302 -0.08197307 -0.03939328 0.00987532 0.050155036 -0.062938645
-0.06001866 0.08000625 -0.035169553 0.005815029 -0.064451516 0.04925535 -0.07592878 0.033020042
-0.07430785 0.0829253 -0.07650286 0.08081295 -0.06212735 -0.033889808 -0.0745127 -0.045173887
0.04684169 0.07567262 0.041945092 -0.026524086 0.0569491 0.06611303 0.019742645 0.07464237
-0.02089277 -0.02494695 0.0736857 0.013961963 0.019128703 0.066233315 0.056909837 -0.028546724
-0.011504807 -0.026076823 -0.017198086 -0.056027606 -0.07387586 -0.040789012 -0.015274115 -0.034340303
0.0647491 0.019243143 0.036533013 0.04153406 0.045807667 0.023412459 0.072124876 0.055401422
0.0038416982 -0.019813076 0.046413355 0.069229774 -0.0017361641 -0.05452126 -0.0123902485 -0.027110476
0.08100087 -0.06499087 -0.057435356 -0.03341024 -0.037574958 0.041912906 0.02030059 0.043327667
-0.021033056 0.01661338 0.07475605 -0.041062474 0.032499462 -0.036371835 0.07420526 0.04126721
0.049050115 0.014108025 0.00076863915 -0.08324798 -0.06324952 -0.08095635 -0.051303934 -0.009083949
0.035596214 -0.05031539 -0.061452992 -0.016756088 0.07456639 -0.032538924 0.051810257 -0.023081616
-0.06496398 -0.084320225 -0.030677795 0.05148212 -0.029419247 0.0765005 0.00011859834 -0.075039744
-0.046611253 0.06537881 -0.06503375 -0.0611306 0.061708324 0.06958134 -0.0004928559 -0.066841125
-0.029526744 -0.054387692 0.082243614 0.0022655427 0.060663633 -0.079893366 0.026210979 0.07809093
-0.012426175 -0.009675421 -0.029527314 -0.0877656 0.044298045 0.038053267 0.0875506 0.07848237
-0.042755723 0.031050391 -0.06891271 0.046872653 -0.034144964 0.01738824 0.007068567 -0.018223777
0.03019911 0.03671152 0.05569128 0.076376386 -0.046816338 -0.006994903 0.037173428 0.04087261
-0.02222813 -0.0680026 -0.041671325 0.027687252 -0.04074833 0.067594774 0.06496971 0.00741639
0.069089465 -0.07458379 -0.010162704 0.05102875 -0.046494443 -0.013046093 -0.065157235 -0.07300098
-0.033755295 -0.07607428 0.048944853 0.08246925 0.017715707 0.03289929 -0.011642322 0.04356148
-0.0839834 -0.0061115324 -0.052902512 0.04509846 -0.02912714 -0.0049204156 -0.07717788 0.030074
00000000: f648 653d 40a6 943a 9180 ab3d 92b5 18bd
00000010: 706a a1bc f4c8 ebbc 11d3 47bd caf5 2f3d
00000020: c07c bb3c 60ab d3bc d061 97bb 8ae4 603d
00000030: 9098 22bc 3807 84bd 147d 99bc f258 283d
00000040: 08dd 93bd 202c 36bc 367a 723d 15f2 8d3d
00000050: 0081 de3a 4fd8 a3bd 6ae5 4f3d 98fc 53bc
00000060: 0841 61bd 15a1 58bd 0741 a6bd 70a6 893c
00000070: 7ad9 5c3d 5c82 e1bc 447e ad3c 30e4 39bc
00000080: c60b 103d 1252 233d e245 4c3d 0fdf b0bd
00000090: 12fc 793d 2ad1 5d3d 0e87 97bd 7327 2bbd
000000a0: 6b7b ad3d 901e 2ebd b8ce e03c fa01 1f3d
000000b0: c7ae a3bd d57d 9ebd 9dab aa3d 3026 40bc
000000c0: 0205 7f3d 005f 9cbd 466d 483d 20ae 9fbb
000000d0: c0a7 afba ce79 463d 028d 733d 2e3a 493d
000000e0: 567d 3bbd 80a1 dc3a 40b7 ff3b 3212 2d3d
000000f0: 3211 8bbd 886c 97bd 0637 563d 8aea 363d
00000100: 9c2e 8d3c a8c6 b8bc 4c59 9b3c 0e11 093d
00000110: 130e 943d 6857 37bc ed48 71bd 10c3 673c
00000120: 88b0 593c be6a 443d f4f7 023d 21b2 933d
00000130: ac20 a5bc c306 af3d 2263 7c3d 7c75 d3bc
00000140: 74c0 fc3c 73ef 34bd ec61 88bd 7fe1 a7bd
00000150: d95a 21bd 18cc 213c 5e6f 4d3d fae5 80bd
00000160: 20d6 75bd 51da a33d f30d 10bd 008c be3b
00000170: 28ff 83bd fabf 493d 8c80 9bbd 0640 073d
00000180: b72e 98bd bdd4 a93d 88ad 9cbd 4381 a53d
00000190: 4079 7ebd 0ad0 0abd 1d9a 98bd 4108 39bd
000001a0: 12dd 3f3d 3ffa 9a3d 9ece 2b3d 0a49 d9bc
000001b0: 7643 693d 4566 873d 54bb a13c 19de 983d
000001c0: 5027 abbc 8c5d ccbc 87e8 963d b8c0 643c
000001d0: ccb3 9c3c 55a5 873d 4a1a 693d d2da e9bc
000001e0: a87e 3cbc 109f d5bc 00e3 8cbc 347d 65bd
000001f0: 3a4c 97bd 6112 27bd 4840 7abc 6ba8 0cbd
00000200: 2d9b 843d cca3 9d3c a4a3 153d 9e1f 2a3d
00000210: d2a0 3b3d 7ccb bf3c 35b6 933d 9aec 623d
00000220: 00c5 7b3b 084f a2bc ee1b 3e3d 57c8 8d3d
00000230: 0090 e3ba af51 5fbd 7800 4bbc ca16 debc
00000240: c9e3 a53d ef19 85bd 5641 6bbd 2dd9 08bd
00000250: 33e8 19bd deac 2b3d 6c4d a63c 5a78 313d
00000260: 844d acbc c818 883c b319 993d 2031 28bd
00000270: 281e 053d a2fa 14bd edf8 973d ce07 293d
00000280: c6e8 483d 5825 673c 807e 493a eb7d aabd
00000290: f788 81bd 71cc a5bd 1324 52bd d8d4 14bc
000002a0: 56cd 113d 8317 4ebd 22b6 7bbd 1044 89bc
000002b0: 43b6 983d 8947 05bd fe36 543d a815 bdbc
000002c0: d60b 85bd 15b0 acbd 0050 fbbc eade 523d
000002d0: a200 f1bc 4bac 9c3d 00b8 f838 70ae 99bd
000002e0: 71eb 3ebd 53e5 853d 6a30 85bd 1464 7abd
000002f0: dec1 7c3d a980 8e3d 0033 01ba 00e4 88bd
00000300: 12e2 f1bc a1c5 5ebd 576f a83d 8079 143b
00000310: 6e7a 783d 229f a3bd 68b8 d63c 23ee 9f3d
00000320: 2897 4bbc a885 1ebc 44e3 f1bc 73be b3bd
00000330: de71 353d bedd 1b3d bb4d b33d 5dbb a03d
00000340: a020 2fbd 645d fe3c 1b22 8dbd 8afd 3f3d
00000350: 97db 0bbd c871 8e3c 709f e73b 084a 95bc
00000360: 2064 f73c d25e 163d 8a1c 643d 396b 9c3d
00000370: 7dc2 3fbd 8035 e5bb 2a43 183d 0a6a 273d
00000380: c417 b6bc f244 8bbd 8daf 2abd 60d0 e23c
00000390: b9e7 26bd 216f 8a3d d70e 853d 3005 f33b
000003a0: c77e 8d3d 63bf 98bd 7881 26bc 8603 513d
000003b0: f570 3ebd 48bf 55bc 2871 85bd 8a81 95bd
000003c0: fe42 0abd d5cc 9bbd 667a 483d a3e5 a83d
000003d0: 8820 913c 68c1 063d 70bf 3ebc 866d 323d
000003e0: 7dff abbd 4043 c8bb 4eb0 58bd 2ab9 383d
000003f0: 0a9c eebc 703b a1bb 700f 9ebd c05d f63c

layers.0.bias f4 [128]
-0.14781788 0.18284127 0.15481761 -0.18357332 -0.038741916 -0.18531959 0.19601026 -0.023032963
0.011841118 0.17829728 0.067236245 -0.16631187 -0.1719189 0.047577858 -0.14523162 0.038172826
0.07294679 0.1965746 0.1250934 0.09409201 -0.16792564 0.18435621 -0.103999995 0.010453641
-0.17791805 0.08764318 -0.039139718 0.15722868 0.10957241 -0.12319185 0.030225322 -0.18195352
0.0014520735 0.16972324 -0.15438476 0.081358016 -0.0479576 0.06019485 0.18528572 0.18112338
0.20392317 0.14659587 0.072497815 -0.17555845 0.074778885 0.010303482 -0.08655037 -0.12274231
-0.17854269 0.14412028 -0.06792162 0.0918546 -0.10387869 -0.031894952 -0.0013570338 -0.17991488
0.0025644153 -0.1494936 -0.15381967 -0.17055783 0.013402984 -0.012352794 0.17677948 -0.14341816
-0.06295036 -0.18891424 0.17249212 -0.2006229 -0.004687026 0.12741062 0.021138385 -0.20306599
-0.007985547 0.10812485 -0.17305991 0.028069079 -0.05450365 0.066470265 -0.15760916 0.035701394
0.13752449 -0.003910929 0.15120426 0.14953691 -0.14719908 -0.10670863 0.024464622 0.01588276
0.19238508 -0.05535394 -0.03129837 -0.1912776 -0.034143537 -0.18631668 -0.1421676 -0.13388726
0.16379672 0.10470781 0.0023348778 -0.060282826 -0.12029587 0.13478518 0.0404986 0.026529014
0.08127481 -0.05933377 0.1499139 -0.20249072 0.12354171 -0.15590113 0.0010429025 -0.06584272
0.012074128 0.026379406 -0.18943213 -0.124145746 0.1633294 0.054429144 0.18980694 -0.055397928
0.15350413 -0.17049891 -0.05804634 0.084672034 0.189706 -0.06506862 -0.042503044 0.04263054
00000000: 925d 17be be3a 3b3e 8288 1e3e a5fa 3bbe
00000010: d8af 1ebd 6bc4 3dbe eab6 483e a0af bcbc
00000020: 4001 423c 9093 363e 28b3 893d a94d 2abe
00000030: 820b 30be 00e1 423d 99b7 14be 1c5b 1c3d
00000040: 2065 953d da4a 493e 7c18 003e 50b3 c03d
00000050: b3f4 2bbe e0c7 3c3e f3fd d4bd c045 2b3c
00000060: 2630 36be 447e b33d f850 20bd 8e00 213e
00000070: 8067 e03d 024c fcbd 189b f73c 0652 3abe
00000080: 8053 be3a eecb 2d3e 0a17 1ebe 089f a63d
00000090: 306f 44bd e08e 763d 8abb 3d3e 6878 393e
000000a0: 3cd1 503e 3a1d 163e bc79 943d 98c5 33be
000000b0: ac25 993d f0cf 283c 5241 b1bd 5260 fbbd
000000c0: e5d3 36be 4494 133e 7e1a 8bbd 441e bc3d
000000d0: 5abe d4bd 48a4 02bd 80de b1ba 9b3b 38be
000000e0: c00f 283b da14 19be e782 1dbe b6a6 2ebe
000000f0: 3098 5b3c 6063 4abc ae05 353e 36dc 12be
00000100: 1eec 80bd bc72 41be c6a1 303e 1770 4dbe
00000110: a095 99bb ee77 023e 682a ad3c 88f0 4fbe
00000120: d0d5 02bc 9070 dd3d 9e36 31be 20f1 e53c
00000130: 383f 5fbd 9021 883d 4c64 21be a03b 123d
00000140: 38d3 0c3e 4027 80bb 4ad5 1a3e 3420 193e
00000150: 5bbb 16be 0e8a dabd 086a c83c 901c 823c
00000160: 9800 453e d0ba 62bd b832 00bd 46de 43be
00000170: 18da 0bbd cdc9 3ebe 6294 11be be19 09be
00000180: 54ba 273e 0c71 d63d c004 193b 20eb 76bd
00000190: ae5d f6bd 2005 0a3e dce1 253d 6053 d93c
000001a0: 6873 a63d f807 73bd 0883 193e ba59 4fbe
000001b0: 7003 fd3d 8ca4 1fbe 00b2 883a 8cd8 86bd
000001c0: 90d2 453c a019 d83c 7ffa 41be 2040 febd
000001d0: d23f 273e 18f1 5e3d c05c 423e f0e8 62bd
000001e0: 3030 1d3e 4497 2ebe 00c2 6dbd 8868 ad3d
000001f0: 4a42 423e b242 85bd ac17 2ebd 5c9d 2e3d

layers.1.weight f4 [128]
0.28135574 0.93959296 0.37314606 0.67031705 0.67741036 0.8221491 0.68359 0.69552046
0.7679532 0.97215515 0.45028943 0.6628095 0.057293594 0.33231634 0.9052992 0.6025309
0.8144975 0.443309 0.084243834 0.9531541 0.91160893 0.1288116 0.779248 0.055367768
0.3313148 0.5044938 0.03075558 0.17198783 0.3231333 0.97244114 0.145055 0.19721156
0.5880566 0.5458185 0.31976962 0.07705271 0.9647314 0.34357703 0.17605925 0.012840152
0.47466338 0.16780734 0.68687457 0.18159133 0.49653417 0.24211764 0.6568088 0.1772933
0.4396658 0.576955 0.63435 0.3511874 0.54599094 0.22430581 0.21722418 0.50769806
0.15880907 0.2091803 0.8211584 0.056253374 0.67966133 0.25145274 0.4194067 0.7499557
0.517976 0.6875007 0.88451153 0.72366005 0.43417716 0.34551972 0.9561429 0.08896321
0.4873839 0.40256548 0.43269688 0.16198152 0.6986215 0.33147174 0.34487885 0.45931667
0.042338967 0.083851874 0.17900789 0.7561041 0.06595963 0.23586059 0.70487475 0.2843418
0.4234798 0.52414227 0.3645141 0.80101395 0.7249744 0.25019497 0.10683614 0.88001156
0.98593223 0.25627208 0.7215191 0.76461834 0.32263833 0.4585386 0.74369335 0.3093437
0.3458628 0.6427628 0.86625654 0.8339352 0.2751277 0.4774093 0.10256249 0.13327438
0.8723095 0.63606566 0.33198857 0.13394535 0.13837636 0.21714747 0.12747717 0.59887755
0.86971414 0.4229753 0.9174545 0.7094928 0.11199403 0.055762827 0.18232936 0.17796022
00000000: dc0d 903e 2a89 703f 000d bf3e e699 2b3f
00000010: c46a 2d3f 5d78 523f c1ff 2e3f a10d 323f
00000020: 9598 443f 29df 783f 568c e63e e2ad 293f
00000030: b0ac 6a3d 5e25 aa3e b0c1 673f 773f 1a3f
00000040: e882 503f 66f9 e23e 0888 ac3d e801 743f
00000050: 345f 693f 30e7 033e cc7c 473f 50c9 623d
00000060: 18a2 a93e 8126 013f 20f3 fb3c 941d 303e
00000070: ba71 a53e e7f1 783f 4c89 143e d4f1 493e
00000080: e18a 163f c3ba 0b3f d8b8 a33e d0cd 9d3d
00000090: a3f8 763f 54e9 af3e e048 343e 805f 523c
000000a0: 1407 f33e b0d5 2b3e 03d7 2f3f 14f3 393e
000000b0: ba39 fe3e b0ed 773e 9f24 283f 608c 353e
000000c0: e01b e13e 53b3 133f c364 223f d6ce b33e
000000d0: 10c6 0b3f 6cb0 653e 0470 5e3e 80f8 013f
000000e0: d89e 223e 5c33 563e 7037 523f f069 663d
000000f0: 49fe 2d3f 6abe 803e 7abc d63e 19fd 3f3f
00000100: 139a 043f 0c00 303f 596f 623f c941 393f
00000110: 784c de3e f6e7 b03e c8c5 743f 5832 b63d
00000120: 628a f93e 101d ce3e 728a dd3e 7cde 253e
00000130: dcd8 323f aab6 a93e f693 b03e 8e2b eb3e
00000140: a06b 2d3d 88ba ab3d d84d 373e 0a90 413f
00000150: d815 873d 7085 713e ac72 343f 4095 913e
00000160: 58d2 d83e 302e 063f 98a1 ba3e 400f 4d3f
00000170: ec97 393f 8e19 803e e8cc da3d 7048 613f
00000180: 0e66 7c3f 1836 833e 7ab5 383f 07be 433f
00000190: da30 a53e 92c5 ea3e b062 3e3f 4c62 9e3e
000001a0: ee14 b13e 1a8c 243f fdc2 5d3f c77c 553f
000001b0: 8add 8c3e fe6e f43e 480c d23d 1479 083e
000001c0: ad4f 5f3f 33d5 223f 68fa a93e f828 093e
000001d0: 88b2 0d3e e85b 5e3e 6089 023e 0a50 193f
000001e0: 96a5 5e3f 3890 d83e 4cde 6a3f 52a1 353f
000001f0: 205d e53d 9067 643d 8cb4 3a3e 343b 363e

layers.1.bias f4 [128]
0.0 0.0 0.0 0.0 0.0 0.0 0.0 0.0
0.0 0.0 0.0 0.0 0.0 0.0 0.0 0.0
0.0 0.0 0.0 0.0 0.0 0.0 0.0 0.0
0.0 0.0 0.0 0.0 0.0 0.0 0.0 0.0
0.0 0.0 0.0 0.0 0.0 0.0 0.0 0.0
0.0 0.0 0.0 0.0 0.0 0.0 0.0 0.0
0.0 0.0 0.0 0.0 0.0 0.0 0.0 0.0
0.0 0.0 0.0 0.0 0.0 0.0 0.0 0.0
0.0 0.0 0.0 0.0 0.0 0.0 0.0 0.0
0.0 0.0 0.0 0.0 0.0 0.0 0.0 0.0
0.0 0.0 0.0 0.0 0.0 0.0 0.0 0.0
0.0 0.0 0.0 0.0 0.0 0.0 0.0 0.0
0.0 0.0 0.0 0.0 0.0 0.0 0.0 0.0
0.0 0.0 0.0 0.0 0.0 0.0 0.0 0.0
0.0 0.0 0.0 0.0 0.0 0.0 0.0 0.0
0.0 0.0 0.0 0.0 0.0 0.0 0.0 0.0
00000000: 0000 0000 0000 0000 0000 0000 0000 0000
00000010: 0000 0000 0000 0000 0000 0000 0000 0000
00000020: 0000 0000 0000 0000 0000 0000 0000 0000
00000030: 0000 0000 0000 0000 0000 0000 0000 0000
00000040: 0000 0000 0000 0000 0000 0000 0000 0000
00000050: 0000 0000 0000 0000 0000 0000 0000 0000
00000060: 0000 0000 0000 0000 0000 0000 0000 0000
00000070: 0000 0000 0000 0000 0000 0000 0000 0000
00000080: 0000 0000 0000 0000 0000 0000 0000 0000
00000090: 0000 0000 0000 0000 0000 0000 0000 0000
000000a0: 0000 0000 0000 0000 0000 0000 0000 0000
000000b0: 0000 0000 0000 0000 0000 0000 0000 0000
000000c0: 0000 0000 0000 0000 0000 0000 0000 0000
000000d0: 0000 0000 0000 0000 0000 0000 0000 0000
000000e0: 0000 0000 0000 0000 0000 0000 0000 0000
000000f0: 0000 0000 0000 0000 0000 0000 0000 0000
00000100: 0000 0000 0000 0000 0000 0000 0000 0000
00000110: 0000 0000 0000 0000 0000 0000 0000 0000
00000120: 0000 0000 0000 0000 0000 0000 0000 0000
00000130: 0000 0000 0000 0000 0000 0000 0000 0000
00000140: 0000 0000 0000 0000 0000 0000 0000 0000
00000150: 0000 0000 0000 0000 0000 0000 0000 0000
00000160: 0000 0000 0000 0000 0000 0000 0000 0000
00000170: 0000 0000 0000 0000 0000 0000 0000 0000
00000180: 0000 0000 0000 0000 0000 0000 0000 0000
00000190: 0000 0000 0000 0000 0000 0000 0000 0000
000001a0: 0000 0000 0000 0000 0000 0000 0000 0000
000001b0: 0000 0000 0000 0000 0000 0000 0000 0000
000001c0: 0000 0000 0000 0000 0000 0000 0000 0000
000001d0: 0000 0000 0000 0000 0000 0000 0000 0000
000001e0: 0000 0000 0000 0000 0000 0000 0000 0000
000001f0: 0000 0000 0000 0000 0000 0000 0000 0000

layers.1.running_mean f4 [128]
0.0 0.0 0.0 0.0 0.0 0.0 0.0 0.0
0.0 0.0 0.0 0.0 0.0 0.0 0.0 0.0
0.0 0.0 0.0 0.0 0.0 0.0 0.0 0.0
0.0 0.0 0.0 0.0 0.0 0.0 0.0 0.0
0.0 0.0 0.0 0.0 0.0 0.0 0.0 0.0
0.0 0.0 0.0 0.0 0.0 0.0 0.0 0.0
0.0 0.0 0.0 0.0 0.0 0.0 0.0 0.0
0.0 0.0 0.0 0.0 0.0 0.0 0.0 0.0
0.0 0.0 0.0 0.0 0.0 0.0 0.0 0.0
0.0 0.0 0.0 0.0 0.0 0.0 0.0 0.0
0.0 0.0 0.0 0.0 0.0 0.0 0.0 0.0
0.0 0.0 0.0 0.0 0.0 0.0 0.0 0.0
0.0 0.0 0.0 0.0 0.0 0.0 0.0 0.0
0.0 0.0 0.0 0.0 0.0 0.0 0.0 0.0
0.0 0.0 0.0 0.0 0.0 0.0 0.0 0.0
0.0 0.0 0.0 0.0 0.0 0.0 0.0 0.0
00000000: 0000 0000 0000 0000 0000 0000 0000 0000
00000010: 0000 0000 0000 0000 0000 0000 0000 0000
00000020: 0000 0000 0000 0000 0000 0000 0000 0000
00000030: 0000 0000 0000 0000 0000 0000 0000 0000
00000040: 0000 0000 0000 0000 0000 0000 0000 0000
00000050: 0000 0000 0000 0000 0000 0000 0000 0000
00000060: 0000 0000 0000 0000 0000 0000 0000 0000
00000070: 0000 0000 0000 0000 0000 0000 0000 0000
00000080: 0000 0000 0000 0000 0000 0000 0000 0000
00000090: 0000 0000 0000 0000 0000 0000 0000 0000
000000a0: 0000 0000 0000 0000 0000 0000 0000 0000
000000b0: 0000 0000 0000 0000 0000 0000 0000 0000
000000c0: 0000 0000 0000 0000 0000 0000 0000 0000
000000d0: 0000 0000 0000 0000 0000 0000 0000 0000
000000e0: 0000 0000 0000 0000 0000 0000 0000 0000
000000f0: 0000 0000 0000 0000 0000 0000 0000 0000
00000100: 0000 0000 0000 0000 0000 0000 0000 0000
00000110: 0000 0000 0000 0000 0000 0000 0000 0000
00000120: 0000 0000 0000 0000 0000 0000 0000 0000
00000130: 0000 0000 0000 0000 0000 0000 0000 0000
00000140: 0000 0000 0000 0000 0000 0000 0000 0000
00000150: 0000 0000 0000 0000 0000 0000 0000 0000
00000160: 0000 0000 0000 0000 0000 0000 0000 0000
00000170: 0000 0000 0000 0000 0000 0000 0000 0000
00000180: 0000 0000 0000 0000 0000 0000 0000 0000
00000190: 0000 0000 0000 0000 0000 0000 0000 0000
000001a0: 0000 0000 0000 0000 0000 0000 0000 0000
000001b0: 0000 0000 0000 0000 0000 0000 0000 0000
000001c0: 0000 0000 0000 0000 0000 0000 0000 0000
000001d0: 0000 0000 0000 0000 0000 0000 0000 0000
000001e0: 0000 0000 0000 0000 0000 0000 0000 0000
000001f0: 0000 0000 0000 0000 0000 0000 0000 0000

layers.1.running_var f4 [128]
1.0 1.0 1.0 1.0 1.0 1.0 1.0 1.0
1.0 1.0 1.0 1.0 1.0 1.0 1.0 1.0
1.0 1.0 1.0 1.0 1.0 1.0 1.0 1.0
1.0 1.0 1.0 1.0 1.0 1.0 1.0 1.0
1.0 1.0 1.0 1.0 1.0 1.0 1.0 1.0
1.0 1.0 1.0 1.0 1.0 1.0 1.0 1.0
1.0 1.0 1.0 1.0 1.0 1.0 1.0 1.0
1.0 1.0 1.0 1.0 1.0 1.0 1.0 1.0
1.0 1.0 1.0 1.0 1.0 1.0 1.0 1.0
1.0 1.0 1.0 1.0 1.0 1.0 1.0 1.0
1.0 1.0 1.0 1.0 1.0 1.0 1.0 1.0
1.0 1.0 1.0 1.0 1.0 1.0 1.0 1.0
1.0 1.0 1.0 1.0 1.0 1.0 1.0 1.0
1.0 1.0 1.0 1.0 1.0 1.0 1.0 1.0
1.0 1.0 1.0 1.0 1.0 1.0 1.0 1.0
1.0 1.0 1.0 1.0 1.0 1.0 1.0 1.0
00000000: 0000 803f 0000 803f 0000 803f 0000 803f
00000010: 0000 803f 0000 803f 0000 803f 0000 803f
00000020: 0000 803f 0000 803f 0000 803f 0000 803f
00000030: 0000 803f 0000 803f 0000 803f 0000 803f
00000040: 0000 803f 0000 803f 0000 803f 0000 803f
00000050: 0000 803f 0000 803f 0000 803f 0000 803f
00000060: 0000 803f 0000 803f 0000 803f 0000 803f
00000070: 0000 803f 0000 803f 0000 803f 0000 803f
00000080: 0000 803f 0000 803f 0000 803f 0000 803f
00000090: 0000 803f 0000 803f 0000 803f 0000 803f
000000a0: 0000 803f 0000 803f 0000 803f 0000 803f
000000b0: 0000 803f 0000 803f 0000 803f 0000 803f
000000c0: 0000 803f 0000 803f 0000 803f 0000 803f
000000d0: 0000 803f 0000 803f 0000 803f 0000 803f
000000e0: 0000 803f 0000 803f 0000 803f 0000 803f
000000f0: 0000 803f 0000 803f 0000 803f 0000 803f
00000100: 0000 803f 0000 803f 0000 803f 0000 803f
00000110: 0000 803f 0000 803f 0000 803f 0000 803f
00000120: 0000 803f 0000 803f 0000 803f 0000 803f
00000130: 0000 803f 0000 803f 0000 803f 0000 803f
00000140: 0000 803f 0000 803f 0000 803f 0000 803f
00000150: 0000 803f 0000 803f 0000 803f 0000 803f
00000160: 0000 803f 0000 803f 0000 803f 0000 803f
00000170: 0000 803f 0000 803f 0000 803f 0000 803f
00000180: 0000 803f 0000 803f 0000 803f 0000 803f
00000190: 0000 803f 0000 803f 0000 803f 0000 803f
000001a0: 0000 803f 0000 803f 0000 803f 0000 803f
000001b0: 0000 803f 0000 803f 0000 803f 0000 803f
000001c0: 0000 803f 0000 803f 0000 803f 0000 803f
000001d0: 0000 803f 0000 803f 0000 803f 0000 803f
000001e0: 0000 803f 0000 803f 0000 803f 0000 803f
000001f0: 0000 803f 0000 803f 0000 803f 0000 803f

layers.3.weight f4 [128, 130]
-0.034344263 0.041464143 -0.04593842 0.036399722 -0.046803463 -0.08144238 -0.03440858 -0.0075304583
-0.0115998015 0.0084427 -0.034553807 0.03195879 0.063069455 -0.063681394 0.088039435 0.067994274
-0.012156703 0.050086536 -0.04745985 0.057105877 0.03343694 0.07170155 -0.04551985 -0.01654879
-0.036279816 0.087951384 -0.04477838 0.04382672 -0.0785538 0.08364952 0.07428018 -0.06336418
-0.026776187 0.037177734 -0.06761366 0.006338194 0.006539233 -0.046991248 0.01334288 0.037893064
0.08735285 0.017997518 -0.032602545 -0.06499375 -0.07859469 -0.044237763 0.040790997 0.07080013
0.068331264 0.04115381 -0.00019314885 -0.03780606 0.074867256 -0.0683971 -0.08033042 -0.040342983
0.04079061 0.02806954 -0.04325705 0.017462738 -0.025568448 -0.033229798 -0.054176696 0.077810295
-0.03621819 0.039861925 0.053819664 0.033897772 -0.0052640364 -0.047581222 -0.052314207 0.06729796
0.056689315 -0.013435014 -0.013312586 0.053898104 0.008951493 0.05633194 0.054257713 -0.04985522
-0.06396796 0.06232313 -0.01380793 -0.058575068 -0.03594434 -0.014799789 0.07354704 -0.0015926734
0.075131394 -0.036877375 -0.042234894 -0.04381819 0.017378673 0.079909556 -0.086924605 0.014374815
0.032324612 -0.018864244 -0.06682819 -0.0823552 -0.034944266 0.043523706 -0.0032368004 -0.043810796
0.06854799 0.053549774 0.07343986 0.0786028 0.053377114 0.07421679 -0.08552938 0.06070278
0.03338214 0.0029345155 0.0687597 -0.044159517 0.012898408 -0.03865374 0.061522074 -0.06516911
-0.026468653 -0.081221715 -0.0025578365 0.012154043 0.07352198 0.026924089 -0.08620588 -0.0010953024
-0.0811893 -0.032343395 0.071067 -0.005831711 -0.015577003 0.00040911138 0.07113678 -0.03482561
-0.029454105 -0.008299515 0.07609337 0.07107953 0.05068534 -0.025293618 0.008548446 0.037619658
-0.0026657134 -0.05828435 -0.040262062 0.08049274 -0.052130055 0.06311063 -0.08561599 -0.013405003
-0.08025403 -0.019736253 0.030967668 0.0054136664 -0.021113187 0.031549856 0.025660686 0.00089932233
0.07958918 -0.078859694 0.07582543 0.08208444 0.070048384 -0.07146971 -0.07169728 0.023606695
-0.07482479 0.08728615 0.07891346 -0.07459763 0.033965774 0.050659545 -0.024643347 -0.020478286
0.08324788 -0.014321007 0.05137617 -0.023043893 0.046950825 -0.019107193 -0.023518033 0.062226303
0.05931189 -0.07842927 0.07564222 -0.025053881 -0.00015234202 -0.05999372 0.014606841 -0.009801999
-0.013173021 0.051870383 -0.03427212 -0.069657 -0.007501319 -0.05978903 -0.050966647 0.014326043
0.035520896 0.08822291 -0.0795209 -0.0058996305 0.04538385 -0.014383532 -0.015682854 -0.016164973
-0.03780255 0.07759955 -0.009234756 0.0016594082 0.017895639 -0.05904924 -0.045613203 -0.030864686
0.06416827 -0.05056134 0.034315236 0.011200704 -0.034526203 -0.086363114 0.081654854 0.008477166
0.042347275 0.026065715 -0.057766017 -0.039018307 -0.059002068 -0.082362 0.035260066 0.012028344
0.036539666 -0.0002462715 -0.04486631 -0.037144132 0.043802775 -0.0326678 -0.04817137 -0.059219144
0.068568565 0.08067117 0.0132867545 0.08707058 0.059244446 0.01839634 -0.027300306 0.06745105
-0.054077674 -0.06134561 0.08830295 0.03744998 -0.06619876 -0.06055405 -0.01696124 0.015629485
00000000: 92ac 0cbd 4ed6 293d ed29 3cbd e017 153d
00000010: fdb4 3fbd 43cb a6bd 03f0 0cbd 10c2 f6bb
00000020: 180d 3ebc 4053 0a3c 4b88 0dbd 38e7 023d
00000030: 8f2a 813d 646b 82bd 054e b43d 9540 8b3d
00000040: e82c 47bc 8a27 4d3d 4265 42bd dae7 693d
00000050: 2cf5 083d 43d8 923d 0673 3abd 5491 87bc
00000060: 259a 14bd db1f b43d 8969 37bd a683 333d
00000070: d1e0 a0bd 7150 ab3d 3520 983d 14c5 81bd
00000080: bc59 dbbc ae47 183d 0879 8abd a0b0 cf3b
00000090: 1047 d63b e579 40bd 189c 5a3c c235 1b3d
000000a0: 0de6 b23d 886f 933c 3f8a 05bd 711b 85bd
000000b0: 41f6 a0bd a832 35bd 7614 273d a9ff 903d
000000c0: 43f1 8b3d e690 283d 0088 4ab9 87da 1abd
000000d0: 0154 993d c713 8cbd 4684 a4bd af3e 25bd
000000e0: 0e14 273d 18f2 e53c 4e2e 31bd 040e 8f3c
000000f0: ec74 d1bc f81b 08bd 62e8 5dbd 015b 9f3d
00000100: 8659 14bd 4246 233d 0272 5c3d 64d8 0a3d
00000110: f07d acbb 87e4 42bd 6c47 56bd 83d3 893d
00000120: 0e33 683d 881e 5cbc 081d 5abc 42c4 5c3d
00000130: 48a9 123c 52bc 663d 563d 5e3d fd34 4cbd
00000140: a201 83bd 8a46 7f3d a83a 62bc 69ec 6fbd
00000150: 5f3a 13bd d07a 72bc d59f 963d 40c1 d0ba
00000160: 7dde 993d bb0c 17bd 7ffe 2cbd b47a 33bd
00000170: b85d 8e3c 9fa7 a33d 8705 b2bd 5884 6b3c
00000180: d066 043d 3089 9abc 38dd 88bd d8a9 a8bd
00000190: b821 0fbd ea45 323d 8020 54bb f372 33bd
000001a0: e362 8c3d 0257 5b3d a367 963d 81fa a03d
000001b0: f6a1 5a3d f9fe 973d 072a afbd 7aa3 783d
000001c0: b6bb 083d 0051 403b e3d1 8c3d 9ce0 34bd
000001d0: d853 533c 6253 1ebd 92fe 7b3d 6277 85bd
000001e0: cad4 d8bc 9257 a6bd 60a1 27bb c021 473c
000001f0: b192 963d e88f dc3c b58c b0bd 4090 8fba
00000200: 9346 a6bd 827a 04bd 938b 913d f017 bfbb
00000210: b036 7fbc 007e d639 29b0 913d 4da5 0ebd
00000220: bc49 f1bc b0fa 07bc d7d6 9b3d 2592 913d
00000230: 6e9b 4f3d 9034 cfbc c80e 0c3c 1217 1a3d
00000240: 40b3 2ebb 92bb 6ebd d5e9 24bd 61d9 a43d
00000250: 5386 55bd 2540 813d 7057 afbd a8a0 5bbc
00000260: 3a5c a4bd ecad a1bc e8af fd3c 2065 b13b
00000270: 90f5 acbc 6c3a 013d 5c36 d23c 80c0 6b3a
00000280: a7ff a23d 3181 a1bd 5d4a 9b3d e31b a83d
00000290: 8775 8f3d b65e 92bd 06d6 92bd d462 c13c
000002a0: bd3d 99bd 15c3 b23d 619d a13d a4c6 98bd
000002b0: b21f 0b3d 6280 4f3d d8e0 c9bc 14c2 a7bc
000002c0: dd7d aa3d a8a2 6abc d26f 523d 8cc6 bcbc
000002d0: 824f 403d b086 9cbc e4a8 c0bc 02e1 7e3d
000002e0: 06f1 723d 869f a0bd 4fea 9a3d cc3d cdbc
000002f0: 00be 1fb9 fabb 75bd 8851 6f3c 9098 20bc
00000300: a8d3 57bc 0a76 543d ec60 0cbd 54a8 8ebd
00000310: a0cd f5bb 58e5 74bd 67c2 50bd c8b7 6a3c
00000320: 5c7e 113d 37ae b43d dbdb a2bd b051 c1bb
00000330: 6ae4 393d e8a8 6bbc 5479 80bc 686c 84bc
00000340: d9d6 1abd 83ec 9e3d 604d 17bc 8080 d93a
00000350: e099 923c 9edd 71bd e9d4 3abd f0d7 fcbc
00000360: a76a 833d 6819 4fbd 228e 0c3d 2883 373c
00000370: 596b 0dbd 25df b0bd a93a a73d d0e3 0a3c
00000380: 5674 2d3d c487 d53c 0f9c 6cbd a9d1 1fbd
00000390: 27ac 71bd 69ad a8bd dc6c 103d 8812 453c
000003a0: 9eaa 153d 001e 81b9 bcc5 37bd 7224 18bd
000003b0: 8a6a 333d acce 05bd 584f 45bd c68f 72bd
000003c0: ad6d 8c3d ed36 a53d b0b0 593c 0f52 b23d
000003d0: 4eaa 723d ecb3 963c e4a4 dfbc c723 8a3d
000003e0: 8d80 5dbd 8945 7bbd 2dd8 b43d 2665 193d
000003f0: 3793 87bd 8607 78bd 4cf2 8abc 6809 803c

layers.3.bias f4 [128]
0.06785294 -0.05460026 0.013025738 0.07204866 0.059522904 0.0026858523 0.08266514 -0.056072228
-0.015928447 -0.042352673 0.08297681 -0.008474253 -0.0436722 -0.04126886 -0.07157794 -0.012715042
0.015326723 0.04855459 -0.00065823644 0.07698614 -0.034273084 -0.087449476 0.073936574 -0.019876972
-0.05690247 0.0020162687 0.056878723 -0.053783763 0.08146194 0.06407846 -0.066744044 0.086572595
0.02033683 0.080847494 -0.0048388317 0.02755361 0.069531925 0.0020314306 -0.06832841 -0.07978878
0.074590914 -0.058569215 0.08744604 0.006089404 0.010233715 -0.029000517 0.03801977 -0.004291512
-0.034094978 -0.05068007 0.058357514 -0.0069103986 0.024752676 0.08016046 0.086987354 -0.06648526
-0.08555646 0.06849956 0.018969677 0.08767607 -0.07123807 0.0128190145 -0.019539356 -0.0057355314
-0.04202975 0.035080537 -0.036170427 0.041406803 -0.08616702 -0.038099073 -0.018142693 -0.078198805
0.07835779 -0.025526613 -0.012055017 0.020504676 -0.014875479 -0.00053586066 -0.014933139 0.019020148
-0.021769881 0.00045052916 -0.072048396 -0.07507452 -0.01687634 -0.03734592 -0.08096568 -0.07716298
0.039064117 0.072159864 -0.07290532 0.028229736 -0.08383578 -0.028538879 0.028466225 0.05653497
-0.0005346313 -0.08094156 -0.030834101 -0.05786284 0.083115734 -0.035921432 0.042147823 0.011156149
0.044232212 -0.005286038 0.031828627 0.004899688 -0.00034423172 0.058070637 0.04703764 0.054174103
-0.0041542947 0.007006265 0.06697618 -0.0676684 0.01904235 0.009591274 -0.047559906 -0.008142941
-0.058456667 -0.03297502 0.029385418 0.039498962 -0.028083958 -0.026178107 -0.028695345 0.024693593
00000000: 7bf6 8a3d 86a4 5fbd e869 553c 3f8e 933d
00000010: 4ace 733d 2005 303b 574c a93d feab 65bd
00000020: 607c 82bc ff79 2dbd bfef a93d 98d7 0abc
00000030: 9fe1 32bd 8909 29bd 7497 92bd c052 50bc
00000040: f01c 7b3c 2ee1 463d 808d 2cba e9aa 9d3d
00000050: ef61 0cbd b618 b3bd 0f6c 973d 08d5 a2bc
00000060: 9012 69bd 6023 043b aaf9 683d 5d4c 5cbd
00000070: 85d5 a63d 913b 833d 1ab1 88bd f94c b13d
00000080: 6c99 a63c 5f93 a53d 108f 9ebb 1cb8 e13c
00000090: c166 8e3d c021 053b c4ef 8bbd 4d68 a3bd
000000a0: 1fc3 983d 46e6 6fbd e916 b33d a089 c73b
000000b0: 50ab 273c 7e92 edbc 9eba 1b3d d09f 8cbb
000000c0: 2da7 0bbd e895 4fbd 4a08 6f3d a070 e2bb
000000d0: 20c6 ca3c 2b2b a43d 6d26 b23d 6d29 88bd
000000e0: 3a38 afbd 7f49 8c3d 4c66 9b3c 838f b33d
000000f0: 44e5 91bd d806 523c 0011 a0bc 20f1 bbbb
00000100: 6327 2cbd 9cb0 0f3d 7127 14bd 2e9a 293d
00000110: 5678 b0bd c60d 1cbd fc9f 94bc b226 a0bd
00000120: 0d7a a03d 301d d1bc 6882 45bc 6cf9 a73c
00000130: 48b8 73bc 0079 0cba 20aa 74bc 24d0 9b3c
00000140: c056 b2bc 0035 ec39 1c8e 93bd acc0 99bd
00000150: 4040 8abc 09f8 18bd 56d1 a5bd a007 9ebd
00000160: b201 203d 8dc8 933d 624f 95bd 0c42 e73c
00000170: 18b2 abbd 5eca e9bc 0032 e93c 3691 673d
00000180: 8026 0cba b0c4 a5bd cc97 fcbc 9601 6dbd
00000190: 9538 aa3d 5a22 13bd 32a3 2c3d 48c8 363c
000001a0: d62c 353d 8036 adbb bc5e 023d 908d a03b
000001b0: 007a b4b9 7adb 6d3d 8aaa 403d aae5 5d3d
000001c0: c020 88bb d094 e53b cf2a 893d bb95 8abd
000001d0: b4fe 9b3c b824 1d3c 2dce 42bd f869 05bc
000001e0: 4270 6fbd d110 07bd b0b9 f03c aac9 213d
000001f0: 5410 e6bc 7873 d6bc 8012 ebbc 384a ca3c

layers.4.weight f4 [128]
0.51074153 0.3971877 0.8861238 0.044750392 0.27902544 0.9297745 0.9424962 0.31552863
0.3200757 0.84023416 0.34938508 0.9712468 0.025544047 0.46628988 0.80844176 0.092888474
0.3261432 0.92732996 0.7565541 0.42514247 0.32203615 0.82442534 0.15433699 0.90297604
0.6590621 0.09343159 0.065144 0.68037456 0.6554751 0.6671405 0.35097045 0.61133236
0.6915969 0.091210425 0.6854285 0.6796348 0.941424 0.08252442 0.8609169 0.83476526
0.89221 0.87572044 0.75787425 0.10443121 0.43377107 0.1160264 0.66957384 0.536461
0.5472558 0.90492624 0.40454006 0.70573956 0.16544628 0.5281285 0.318197 0.17561364
0.9222917 0.48153228 0.026099384 0.03940779 0.72574407 0.19181234 0.41118234 0.6504236
0.6300162 0.74985236 0.38888782 0.4694718 0.87309647 0.54134953 0.48697758 0.29031473
0.55439866 0.7883978 0.7073833 0.26205474 0.37881875 0.17309505 0.74635255 0.03910947
0.0034752488 0.78551215 0.8776214 0.0076030493 0.0052292347 0.3829804 0.004450321 0.77102566
0.75141346 0.015074551 0.41878092 0.18141669 0.40490586 0.63161004 0.07203084 0.42262697
0.37163997 0.25898224 0.46451735 0.2136113 0.283472 0.014196634 0.28228754 0.67493635
0.3895173 0.86534566 0.5438026 0.6949176 0.74050754 0.29209465 0.6862158 0.2828642
0.5225814 0.047040343 0.9718659 0.7968379 0.34752816 0.6496097 0.48409677 0.054373384
0.16571558 0.8282416 0.5838113 0.7765409 0.5922959 0.12916201 0.68845224 0.5124601
00000000: f5bf 023f 305c cb3e 02d9 623f 304c 373d
00000010: 6cdc 8e3e b405 6e3f 6e47 713f f88c a13e
00000020: f6e0 a33e 9619 573f 9ae2 b23e a1a3 783f
00000030: c041 d13c 8cbd ee3e 0af6 4e3f 503c be3d
00000040: 3efc a63e 7f65 6d3f 88ad 413f 46ac d93e
00000050: ece1 a43e 8a0d 533f 840a 1e3e 7029 673f
00000060: 4bb8 283f 1059 bf3d 386a 853d 072d 2e3f
00000070: 37cd 273f b8c9 2a3f 66b2 b33e 4780 1c3f
00000080: 7f0c 313f 88cc ba3d 3e78 2f3f 8cfc 2d3f
00000090: 2a01 713f 9002 a93d 0d65 5c3f 2db3 553f
000000a0: e067 643f 372f 603f 0c04 423f 08e0 d53d
000000b0: 3e17 de3e 409f ed3d 3169 2b3f 8255 093f
000000c0: f518 0c3f 3fa9 673f e01f cf3e 59ab 343f
000000d0: c06a 293e 6e33 073f b8ea a23e 10d4 333e
000000e0: 4f1b 6c3f 668b f63e 60ce d53c 106a 213d
000000f0: 5dca 393f 746a 443e 7e86 d23e 2982 263f
00000100: be48 213f 53f6 3f3f 4e1c c73e 9c5e f03e
00000110: 4083 5f3f e295 0a3f 2055 f93e 22a4 943e
00000120: 12ed 0d3f 70d4 493f 1217 353f 0a2c 863e
00000130: 88f4 c13e d43f 313e f610 3f3f 4031 203d
00000140: 00c1 633b 5317 493f ccab 603f 0023 f93b
00000150: 005a ab3b 0216 c43e 00d4 913b f061 453f
00000160: a25c 403f 40fb 763c 746a d63e 4cc5 393e
00000170: d24f cf3e 32b1 213f e884 933d 9062 d83e
00000180: 9847 be3e 5299 843e 38d5 ed3e ecbc 5a3e
00000190: 3e23 913e 0099 683c fe87 903e a1c8 2c3f
000001a0: d06e c73e 4b87 5d3f a636 0b3f 1fe6 313f
000001b0: e791 3d3f 6e8d 953e d7ab 2f3f 94d3 903e
000001c0: e5c7 053f 60ad 403d 34cc 783f 92fd 4b3f
000001d0: 36ef b13e d24c 263f 88db f73e a0b6 5e3d
000001e0: 58b1 293e a407 543f a874 153f 62cb 463f
000001f0: b4a0 173f 0c43 043e 683e 303f 9630 033f

layers.4.bias f4 [128]
0.0 0.0 0.0 0.0 0.0 0.0 0.0 0.0
0.0 0.0 0.0 0.0 0.0 0.0 0.0 0.0
0.0 0.0 0.0 0.0 0.0 0.0 0.0 0.0
0.0 0.0 0.0 0.0 0.0 0.0 0.0 0.0
0.0 0.0 0.0 0.0 0.0 0.0 0.0 0.0
0.0 0.0 0.0 0.0 0.0 0.0 0.0 0.0
0.0 0.0 0.0 0.0 0.0 0.0 0.0 0.0
0.0 0.0 0.0 0.0 0.0 0.0 0.0 0.0
0.0 0.0 0.0 0.0 0.0 0.0 0.0 0.0
0.0 0.0 0.0 0.0 0.0 0.0 0.0 0.0
0.0 0.0 0.0 0.0 0.0 0.0 0.0 0.0
0.0 0.0 0.0 0.0 0.0 0.0 0.0 0.0
0.0 0.0 0.0 0.0 0.0 0.0 0.0 0.0
0.0 0.0 0.0 0.0 0.0 0.0 0.0 0.0
0.0 0.0 0.0 0.0 0.0 0.0 0.0 0.0
0.0 0.0 0.0 0.0 0.0 0.0 0.0 0.0
00000000: 0000 0000 0000 0000 0000 0000 0000 0000
00000010: 0000 0000 0000 0000 0000 0000 0000 0000
00000020: 0000 0000 0000 0000 0000 0000 0000 0000
00000030: 0000 0000 0000 0000 0000 0000 0000 0000
00000040: 0000 0000 0000 0000 0000 0000 0000 0000
00000050: 0000 0000 0000 0000 0000 0000 0000 0000
00000060: 0000 0000 0000 0000 0000 0000 0000 0000
00000070: 0000 0000 0000 0000 0000 0000 0000 0000
00000080: 0000 0000 0000 0000 0000 0000 0000 0000
00000090: 0000 0000 0000 0000 0000 0000 0000 0000
000000a0: 0000 0000 0000 0000 0000 0000 0000 0000
000000b0: 0000 0000 0000 0000 0000 0000 0000 0000
000000c0: 0000 0000 0000 0000 0000 0000 0000 0000
000000d0: 0000 0000 0000 0000 0000 0000 0000 0000
000000e0: 0000 0000 0000 0000 0000 0000 0000 0000
000000f0: 0000 0000 0000 0000 0000 0000 0000 0000
00000100: 0000 0000 0000 0000 0000 0000 0000 0000
00000110: 0000 0000 0000 0000 0000 0000 0000 0000
00000120: 0000 0000 0000 0000 0000 0000 0000 0000
00000130: 0000 0000 0000 0000 0000 0000 0000 0000
00000140: 0000 0000 0000 0000 0000 0000 0000 0000
00000150: 0000 0000 0000 0000 0000 0000 0000 0000
00000160: 0000 0000 0000 0000 0000 0000 0000 0000
00000170: 0000 0000 0000 0000 0000 0000 0000 0000
00000180: 0000 0000 0000 0000 0000 0000 0000 0000
00000190: 0000 0000 0000 0000 0000 0000 0000 0000
000001a0: 0000 0000 0000 0000 0000 0000 0000 0000
000001b0: 0000 0000 0000 0000 0000 0000 0000 0000
000001c0: 0000 0000 0000 0000 0000 0000 0000 0000
000001d0: 0000 0000 0000 0000 0000 0000 0000 0000
000001e0: 0000 0000 0000 0000 0000 0000 0000 0000
000001f0: 0000 0000 0000 0000 0000 0000 0000 0000

layers.4.running_mean f4 [128]
0.0 0.0 0.0 0.0 0.0 0.0 0.0 0.0
0.0 0.0 0.0 0.0 0.0 0.0 0.0 0.0
0.0 0.0 0.0 0.0 0.0 0.0 0.0 0.0
0.0 0.0 0.0 0.0 0.0 0.0 0.0 0.0
0.0 0.0 0.0 0.0 0.0 0.0 0.0 0.0
0.0 0.0 0.0 0.0 0.0 0.0 0.0 0.0
0.0 0.0 0.0 0.0 0.0 0.0 0.0 0.0
0.0 0.0 0.0 0.0 0.0 0.0 0.0 0.0
0.0 0.0 0.0 0.0 0.0 0.0 0.0 0.0
0.0 0.0 0.0 0.0 0.0 0.0 0.0 0.0
0.0 0.0 0.0 0.0 0.0 0.0 0.0 0.0
0.0 0.0 0.0 0.0 0.0 0.0 0.0 0.0
0.0 0.0 0.0 0.0 0.0 0.0 0.0 0.0
0.0 0.0 0.0 0.0 0.0 0.0 0.0 0.0
0.0 0.0 0.0 0.0 0.0 0.0 0.0 0.0
0.0 0.0 0.0 0.0 0.0 0.0 0.0 0.0
00000000: 0000 0000 0000 0000 0000 0000 0000 0000
00000010: 0000 0000 0000 0000 0000 0000 0000 0000
00000020: 0000 0000 0000 0000 0000 0000 0000 0000
00000030: 0000 0000 0000 0000 0000 0000 0000 0000
00000040: 0000 0000 0000 0000 0000 0000 0000 0000
00000050: 0000 0000 0000 0000 0000 0000 0000 0000
00000060: 0000 0000 0000 0000 0000 0000 0000 0000
00000070: 0000 0000 0000 0000 0000 0000 0000 0000
00000080: 0000 0000 0000 0000 0000 0000 0000 0000
00000090: 0000 0000 0000 0000 0000 0000 0000 0000
000000a0: 0000 0000 0000 0000 0000 0000 0000 0000
000000b0: 0000 0000 0000 0000 0000 0000 0000 0000
000000c0: 0000 0000 0000 0000 0000 0000 0000 0000
000000d0: 0000 0000 0000 0000 0000 0000 0000 0000
000000e0: 0000 0000 0000 0000 0000 0000 0000 0000
000000f0: 0000 0000 0000 0000 0000 0000 0000 0000
00000100: 0000 0000 0000 0000 0000 0000 0000 0000
00000110: 0000 0000 0000 0000 0000 0000 0000 0000
00000120: 0000 0000 0000 0000 0000 0000 0000 0000
00000130: 0000 0000 0000 0000 0000 0000 0000 0000
00000140: 0000 0000 0000 0000 0000 0000 0000 0000
00000150: 0000 0000 0000 0000 0000 0000 0000 0000
00000160: 0000 0000 0000 0000 0000 0000 0000 0000
00000170: 0000 0000 0000 0000 0000 0000 0000 0000
00000180: 0000 0000 0000 0000 0000 0000 0000 0000
00000190: 0000 0000 0000 0000 0000 0000 0000 0000
000001a0: 0000 0000 0000 0000 0000 0000 0000 0000
000001b0: 0000 0000 0000 0000 0000 0000 0000 0000
000001c0: 0000 0000 0000 0000 0000 0000 0000 0000
000001d0: 0000 0000 0000 0000 0000 0000 0000 0000
000001e0: 0000 0000 0000 0000 0000 0000 0000 0000
000001f0: 0000 0000 0000 0000 0000 0000 0000 0000

layers.4.running_var f4 [128]
1.0 1.0 1.0 1.0 1.0 1.0 1.0 1.0
1.0 1.0 1.0 1.0 1.0 1.0 1.0 1.0
1.0 1.0 1.0 1.0 1.0 1.0 1.0 1.0
1.0 1.0 1.0 1.0 1.0 1.0 1.0 1.0
1.0 1.0 1.0 1.0 1.0 1.0 1.0 1.0
1.0 1.0 1.0 1.0 1.0 1.0 1.0 1.0
1.0 1.0 1.0 1.0 1.0 1.0 1.0 1.0
1.0 1.0 1.0 1.0 1.0 1.0 1.0 1.0
1.0 1.0 1.0 1.0 1.0 1.0 1.0 1.0
1.0 1.0 1.0 1.0 1.0 1.0 1.0 1.0
1.0 1.0 1.0 1.0 1.0 1.0 1.0 1.0
1.0 1.0 1.0 1.0 1.0 1.0 1.0 1.0
1.0 1.0 1.0 1.0 1.0 1.0 1.0 1.0
1.0 1.0 1.0 1.0 1.0 1.0 1.0 1.0
1.0 1.0 1.0 1.0 1.0 1.0 1.0 1.0
1.0 1.0 1.0 1.0 1.0 1.0 1.0 1.0
00000000: 0000 803f 0000 803f 0000 803f 0000 803f
00000010: 0000 803f 0000 803f 0000 803f 0000 803f
00000020: 0000 803f 0000 803f 0000 803f 0000 803f
00000030: 0000 803f 0000 803f 0000 803f 0000 803f
00000040: 0000 803f 0000 803f 0000 803f 0000 803f
00000050: 0000 803f 0000 803f 0000 803f 0000 803f
00000060: 0000 803f 0000 803f 0000 803f 0000 803f
00000070: 0000 803f 0000 803f 0000 803f 0000 803f
00000080: 0000 803f 0000 803f 0000 803f 0000 803f
00000090: 0000 803f 0000 803f 0000 803f 0000 803f
000000a0: 0000 803f 0000 803f 0000 803f 0000 803f
000000b0: 0000 803f 0000 803f 0000 803f 0000 803f
000000c0: 0000 803f 0000 803f 0000 803f 0000 803f
000000d0: 0000 803f 0000 803f 0000 803f 0000 803f
000000e0: 0000 803f 0000 803f 0000 803f 0000 803f
000000f0: 0000 803f 0000 803f 0000 803f 0000 803f
00000100: 0000 803f 0000 803f 0000 803f 0000 803f
00000110: 0000 803f 0000 803f 0000 803f 0000 803f
00000120: 0000 803f 0000 803f 0000 803f 0000 803f
00000130: 0000 803f 0000 803f 0000 803f 0000 803f
00000140: 0000 803f 0000 803f 0000 803f 0000 803f
00000150: 0000 803f 0000 803f 0000 803f 0000 803f
00000160: 0000 803f 0000 803f 0000 803f 0000 803f
00000170: 0000 803f 0000 803f 0000 803f 0000 803f
00000180: 0000 803f 0000 803f 0000 803f 0000 803f
00000190: 0000 803f 0000 803f 0000 803f 0000 803f
000001a0: 0000 803f 0000 803f 0000 803f 0000 803f
000001b0: 0000 803f 0000 803f 0000 803f 0000 803f
000001c0: 0000 803f 0000 803f 0000 803f 0000 803f
000001d0: 0000 803f 0000 803f 0000 803f 0000 803f
000001e0: 0000 803f 0000 803f 0000 803f 0000 803f
000001f0: 0000 803f 0000 803f 0000 803f 0000 803f

layers.6.weight f4 [1, 128]
-0.0027146256 -0.0017919058 0.0028572963 -0.0012994091 0.0016180463 -0.0014701904 -0.002458217 -0.0008599516
-0.0029334484 -0.00084551563 -0.0020677294 -0.0011821779 -0.0014936975 -0.0006346835 -0.00083623617 -0.0011131497
-0.0023918957 -0.0022582742 0.001101275 -0.00069263903 -0.0021527894 -0.0019042006 0.00033802958 0.00042778975
-0.0027353286 0.00038851588 0.0012395089 0.0008831753 0.0005056516 -0.0020538096 -0.00044370163 -0.0015516779
-0.0027831013 -0.001049847 -0.00040540658 -0.0022193324 0.00065791165 -0.0017226294 0.00072739646 0.0025475924
0.0021679373 -0.00037340703 0.002529357 0.0018075062 -0.0008410665 0.0013070507 -0.0006754638 -0.000567283
-0.0017661159 -0.0015167341 0.0020431061 0.0029241312 -0.0018005738 -0.0007249075 0.002152842 0.0022193822
0.00048501464 0.0021275645 0.0028216494 -0.0007014184 -0.0017581033 -0.0027545097 0.0010660593 0.0021642535
-0.00042531174 0.0002330672 -0.0021063352 -0.0027834596 -0.00048436434 0.0022868612 -0.00085542444 -0.00038371468
-0.0024535132 4.5929104e-05 0.001175765 0.0023723948 0.0009479872 0.001627821 -0.0025572388 0.0018475866
0.0007583427 0.002964077 -0.002951976 -0.0022567804 0.000487481 0.0010616668 0.0027754689 -0.0011303516
0.0028939494 0.0013313564 -0.0025085546 0.0015907125 0.0027043591 0.0023919055 0.0018266318 -0.0017800487
-0.00038732914 -0.0021887033 -0.0024620495 0.0017334991 -0.0022362722 0.00043787807 -0.0011212731 0.0019814721
-0.0018411366 0.00059823156 0.0020630606 0.0010188753 -0.0016163117 -0.0009963212 0.0023025647 0.001714393
-0.0015312338 -0.00110862 0.0015441361 -0.00064079766 0.00087669794 -0.0021608672 0.00037267036 0.0004895772
-0.0005640206 0.00016849954 0.0005874811 0.0015029842 0.0028582946 0.0024886993 -0.00063568563 0.0007451342
00000000: dce7 31bb 62de eaba 7a41 3b3b ef50 aaba
00000010: a014 d43a 67b3 c0ba 0a1a 21bb 606e 61ba
00000020: 193f 40bb 98a5 5dba be82 07bb 4ff3 9aba
00000030: 2cc8 c3ba e460 26ba dc36 5bba 1be7 91ba
00000040: 5ac1 1cbb 8eff 13bb a858 903a 3892 35ba
00000050: d015 0dbb 5f96 f9ba 9039 b139 f848 e039
00000060: 3343 33bb b8b1 cb39 0477 a23a e484 673a
00000070: b48d 043a 3599 06bb a0a0 e8b9 ac61 cbba
00000080: b164 36bb 059b 89ba c08c d4b9 3872 11bb
00000090: b477 2c3a dac9 e1ba c0ae 3e3a 82f5 263b
000000a0: f413 0e3b d8c5 c3b9 92c3 253b d8e9 ec3a
000000b0: 047b 5cba 5851 ab3a 9c11 31ba b8b5 14ba
000000c0: 047d e7ba 27cd c6ba a2e5 053b c8a2 3f3b
000000d0: 3b01 ecba b807 3eba b216 0d3b 0e73 113b
000000e0: 9049 fe39 9c6e 0b3b 6ceb 383b 64df 37ba
000000f0: 2870 e6ba 0185 34bb 04bb 8b3a 26d6 0d3b
00000100: 60fc deb9 8063 7439 710a 0abb b46a 36bb
00000110: 48f2 fdb9 2adf 153b 903e 60ba 502d c9b9
00000120: 1fcb 20bb 00a4 4038 201c 9a3a 2e7a 1b3b
00000130: 5882 783a 9c5c d53a 5997 27bb b82a f23a
00000140: 84cb 463a f640 423b f075 41bb 7ee6 13bb
00000150: 9894 ff39 a027 8b3a a4e4 353b 4e28 94ba
00000160: 6aa8 3d3b e880 ae3a 9066 24bb 747f d03a
00000170: 9e3b 313b 84c1 1c3b 986b ef3a 8650 e9ba
00000180: 7012 cbb9 5970 0fbb 565a 21bb 9436 e33a
00000190: 6c8e 12bb 0093 e539 aff7 92ba 96db 013b
000001a0: 4b52 f1ba a4d2 1c3a 6a34 073b c88b 853a
000001b0: 6cda d3ba fe96 82ba a0e6 163b 7cb5 e03a
000001c0: aeb3 c8ba 1d4f 91ba 9c64 ca3a 34fb 27ba
000001d0: 34d2 653a 569d 0dbb f862 c339 f856 003a
000001e0: c8da 13ba 40af 3039 3001 1a3a c8ff c43a
000001f0: 3a52 3b3b 7219 233b 24a4 26ba 1c55 433a
