results/checkpoint_0_actor_local.pt (torch_old, 86443 bytes, 14 tensors)

layers.0.weight f4 [128, 24]
000000 30 38 3c bd 9f 77 44 bd 7c ac a5 3c ae 18 95 bd
       -0.045952022 -0.047965642 0.020223849 -0.07280098
000010 e8 fd 23 3c e0 63 98 3b 3b e5 8c bd 90 ed ca 3c
       0.010009266 0.004650578 -0.0687966 0.024771482
000020 1f e6 a0 3d 9c 67 c1 bc f0 7a 76 bd 1c fd 12 3d
       0.07856392 -0.023608975 -0.060175836 0.035885915
000030 b3 bf 4b bd 20 25 fc bb 04 1a e6 3c 7f cf 1f bd
       -0.049743365 -0.0076948553 0.028088577 -0.039016243
000040 d5 fb 88 bd 98 ad 8b 3c cc 69 a1 bd 67 2d 36 bd
       -0.06688658 0.01705055 -0.07881507 -0.044476893
000050 40 f0 ee 3b 78 4b 2f bd 98 4a 41 3c 50 df a3 3c
       0.0072918236 -0.042796582 0.01179757 0.020003945
000060 98 c1 60 3c 3c 71 cb bc 34 3d cf 3c fb 5a a6 bd
       0.013718031 -0.024834268 0.025297739 -0.08122822
000070 c6 9e aa bd 9a 25 58 3d b8 b3 9b 3c 88 b7 2b 3c
       -0.08331065 0.052770235 0.019006595 0.010480769
000080 92 94 11 bd e4 8f 34 bd 68 08 07 3c b4 98 84 bc
       -0.03554208 -0.044082537 0.00824175 -0.016186096
000090 c6 ed 05 3d 96 66 f2 bc 20 a3 05 3b 5e 9f 1b 3d
       0.03269746 -0.029589932 0.002039142 0.03799378
0000a0 00 3f c0 b9 ba ab 60 3d 97 ae 93 bd 88 3c 42 bd
       -0.00036668032 0.05485127 -0.07211035 -0.04742101
0000b0 84 d6 91 bd 29 9f 93 3d c0 dc db ba d0 a8 c9 3b
       -0.07120994 0.07208092 -0.0016774163 0.006154157
0000c0 90 3c 98 bc f5 27 87 3d 70 aa f5 bb 60 c8 a2 bb
       -0.018583566 0.06599418 -0.0074971244 -0.004967734
0000d0 ab ee b0 3d 70 d7 be bb d9 0a 88 bd 30 32 b9 bb
       0.08639272 -0.005824022 -0.06642694 -0.005651735
0000e0 10 6b 8d 3b c6 20 7b 3d d5 a0 8d 3d c9 d3 66 bd
       0.0043157414 0.061310552 0.06915442 -0.056354318
0000f0 1c 89 14 3d 7e 18 b3 bd 55 73 99 3d 47 d9 a1 3d
       0.03626357 -0.08744906 0.07492701 0.079027705
000100 9c 2f 2c bd 90 a3 13 bd 9a 72 55 3d 44 b7 08 3d
       -0.04203759 -0.036044657 0.052111246 0.0333779
000110 51 ad 6e bd 28 99 84 bd 91 1b 9f bd 88 4b c8 bc
       -0.058270756 -0.06474525 -0.0776893 -0.024450079
000120 75 1e af bd 6c 55 27 bd 16 40 61 3d 3a 15 27 3d
       -0.08550731 -0.04085295 0.054992758 0.040791728
000130 b0 1a f6 3b ee 49 71 3d 4d e4 73 bd 00 2d ba 3a
       0.0075105056 0.058908395 -0.059543896 0.0014204085
000140 dc 8c ad 3c 36 9e 51 bd cc 0b f9 bc 9f 36 64 bd
       0.021185331 -0.051176272 -0.030401133 -0.055716153
000150 ec 7b 17 bd 12 80 20 3d 21 8a a9 3d 4a be 48 3d
       -0.036983415 0.039184637 0.08278299 0.0490096
000160 b5 d9 a6 3d a2 53 8e bd 1f 5b 9c 3d 58 bb 45 bc
       0.08146993 -0.069495454 0.076345675 -0.012068592
000170 e2 15 98 bd 6c c8 97 bd 29 2d 0e bd 19 80 86 3d
       -0.07426049 -0.07411274 -0.034711037 0.065674014
000180 2f ab ac 3d a4 5f 7c bd 75 b4 9b 3d 80 97 df 3c
       0.08431088 -0.061614648 0.07602779 0.02729392
000190 bc c5 e2 bc f0 3e d4 bb dd e5 1c bd f3 52 a3 3d
       -0.027682178 -0.0064772293 -0.038305152 0.07974806
0001a0 a7 17 14 bd 90 ad d4 3c 39 2a 1f bd 63 19 9c bd
       -0.03615537 0.025961667 -0.038858626 -0.0762203
0001b0 80 e2 3f 3b a0 12 7f 3c 4a 98 4d bd 0c 08 eb bc
       0.0029279292 0.015568405 -0.050194062 -0.02869036
0001c0 88 c4 15 3d fe 02 01 bd 00 9a 42 3b e0 78 80 bb
       0.03656438 -0.031496994 0.0029693842 -0.0039206594
0001d0 d1 4f 19 bd 50 f4 bf 3b be a2 a9 bd 7a 46 2d 3d
       -0.037429634 0.0058579817 -0.08282994 0.04230354
0001e0 23 64 86 bd ee 31 4a 3d ac 98 ad 3c 0c 59 2d bd
       -0.06562068 0.049364023 0.021190964 -0.04232125
0001f0 59 86 2f bd 72 2c d5 bc d0 3f bf 3b f6 48 65 3d
       -0.042852733 -0.02602217 0.0058364645 0.055977784
000200 40 a6 94 3a 91 80 ab 3d 92 b5 18 bd 70 6a a1 bc
       0.001134105 0.083741315 -0.037282534 -0.019704074
000210 f4 c8 eb bc 11 d3 47 bd ca f5 2f 3d c0 7c bb 3c
       -0.028782345 -0.048785273 0.042959012 0.022886634
000220 60 ab d3 bc d0 61 97 bb 8a e4 60 3d 90 98 22 bc
       -0.025838554 -0.0046198145 0.05490545 -0.009924069
000230 38 07 84 bd 14 7d 99 bc f2 58 28 3d 08 dd 93 bd
       -0.06446689 -0.0187364 0.04110045 -0.07219893
000240 20 2c 36 bc 36 7a 72 3d 15 f2 8d 3d 00 81 de 3a
       -0.011118919 0.05919858 0.06930939 0.0016975701
000250 4f d8 a3 bd 6a e5 4f 3d 98 fc 53 bc 08 41 61 bd
       -0.08000242 0.050755896 -0.012938641 -0.05499366
000260 15 a1 58 bd 07 41 a6 bd 70 a6 89 3c 7a d9 5c 3d
       -0.052887995 -0.08117872 0.016802996 0.05391834
000270 5c 82 e1 bc 44 7e ad 3c 30 e4 39 bc c6 0b 10 3d
       -0.02752798 0.021178372 -0.011345908 0.035167478
000280 12 52 23 3d e2 45 4c 3d 0f df b0 bd 12 fc 79 3d
       0.03987319 0.049871333 -0.08636295 0.06103141
000290 2a d1 5d 3d 0e 87 97 bd 73 27 2b bd 6b 7b ad 3d
       0.054154553 -0.073988065 -0.04178567 0.08470806
0002a0 90 1e 2e bd b8 ce e0 3c fa 01 1f 3d c7 ae a3 bd
       -0.042509615 0.027442321 0.038820244 -0.079923205
0002b0 d5 7d 9e bd 9d ab aa 3d 30 26 40 bc 02 05 7f 3d
       -0.07738844 0.08333514 -0.011727855 0.062260635
0002c0 00 5f 9c bd 46 6d 48 3d 20 ae 9f bb c0 a7 af ba
       -0.07635307 0.048932336 -0.0048730522 -0.0013401434
0002d0 ce 79 46 3d 02 8d 73 3d 2e 3a 49 3d 56 7d 3b bd
       0.048456006 0.059460647 0.04912775 -0.045773827
0002e0 80 a1 dc 3a 40 b7 ff 3b 32 12 2d 3d 32 11 8b bd
       0.0016832799 0.0078038275 0.04225368 -0.06790389
0002f0 88 6c 97 bd 06 37 56 3d 8a ea 36 3d 9c 2e 8d 3c
       -0.073937476 0.05229857 0.044657268 0.01723414
000300 a8 c6 b8 bc 4c 59 9b 3c 0e 11 09 3d 13 0e 94 3d
       -0.022555664 0.018963479 0.03346353 0.07229247
000310 68 57 37 bc ed 48 71 bd 10 c3 67 3c 88 b0 59 3c
       -0.011190273 -0.058907438 0.014145628 0.013286717
000320 be 6a 44 3d f4 f7 02 3d 21 b2 93 3d ac 20 a5 bc
       0.04795336 0.031974748 0.0721171 -0.02015718
000330 c3 06 af 3d 22 63 7c 3d 7c 75 d3 bc 74 c0 fc 3c
       0.085462116 0.061617978 -0.025812857 0.030853488
000340 73 ef 34 bd ec 61 88 bd 7f e1 a7 bd d9 5a 21 bd
       -0.04417367 -0.06659302 -0.08197307 -0.03939328
000350 18 cc 21 3c 5e 6f 4d 3d fa e5 80 bd 20 d6 75 bd
       0.00987532 0.050155036 -0.062938645 -0.06001866
000360 51 da a3 3d f3 0d 10 bd 00 8c be 3b 28 ff 83 bd
       0.08000625 -0.035169553 0.005815029 -0.064451516
000370 fa bf 49 3d 8c 80 9b bd 06 40 07 3d b7 2e 98 bd
       0.04925535 -0.07592878 0.033020042 -0.07430785
000380 bd d4 a9 3d 88 ad 9c bd 43 81 a5 3d 40 79 7e bd
       0.0829253 -0.07650286 0.08081295 -0.06212735
000390 0a d0 0a bd 1d 9a 98 bd 41 08 39 bd 12 dd 3f 3d
       -0.033889808 -0.0745127 -0.045173887 0.04684169
0003a0 3f fa 9a 3d 9e ce 2b 3d 0a 49 d9 bc 76 43 69 3d
       0.07567262 0.041945092 -0.026524086 0.0569491
0003b0 45 66 87 3d 54 bb a1 3c 19 de 98 3d 50 27 ab bc
       0.06611303 0.019742645 0.07464237 -0.02089277
0003c0 8c 5d cc bc 87 e8 96 3d b8 c0 64 3c cc b3 9c 3c
       -0.02494695 0.0736857 0.013961963 0.019128703
0003d0 55 a5 87 3d 4a 1a 69 3d d2 da e9 bc a8 7e 3c bc
       0.066233315 0.056909837 -0.028546724 -0.011504807
0003e0 10 9f d5 bc 00 e3 8c bc 34 7d 65 bd 3a 4c 97 bd
       -0.026076823 -0.017198086 -0.056027606 -0.07387586
0003f0 61 12 27 bd 48 40 7a bc 6b a8 0c bd 2d 9b 84 3d
       -0.040789012 -0.015274115 -0.034340303 0.0647491

layers.0.bias f4 [128]
000000 92 5d 17 be be 3a 3b 3e 82 88 1e 3e a5 fa 3b be
       -0.14781788 0.18284127 0.15481761 -0.18357332
000010 d8 af 1e bd 6b c4 3d be ea b6 48 3e a0 af bc bc
       -0.038741916 -0.18531959 0.19601026 -0.023032963
000020 40 01 42 3c 90 93 36 3e 28 b3 89 3d a9 4d 2a be
       0.011841118 0.17829728 0.067236245 -0.16631187
000030 82 0b 30 be 00 e1 42 3d 99 b7 14 be 1c 5b 1c 3d
       -0.1719189 0.047577858 -0.14523162 0.038172826
000040 20 65 95 3d da 4a 49 3e 7c 18 00 3e 50 b3 c0 3d
       0.07294679 0.1965746 0.1250934 0.09409201
000050 b3 f4 2b be e0 c7 3c 3e f3 fd d4 bd c0 45 2b 3c
       -0.16792564 0.18435621 -0.103999995 0.010453641
000060 26 30 36 be 44 7e b3 3d f8 50 20 bd 8e 00 21 3e
       -0.17791805 0.08764318 -0.039139718 0.15722868
000070 80 67 e0 3d 02 4c fc bd 18 9b f7 3c 06 52 3a be
       0.10957241 -0.12319185 0.030225322 -0.18195352
000080 80 53 be 3a ee cb 2d 3e 0a 17 1e be 08 9f a6 3d
       0.0014520735 0.16972324 -0.15438476 0.081358016
000090 30 6f 44 bd e0 8e 76 3d 8a bb 3d 3e 68 78 39 3e
       -0.0479576 0.06019485 0.18528572 0.18112338
0000a0 3c d1 50 3e 3a 1d 16 3e bc 79 94 3d 98 c5 33 be
       0.20392317 0.14659587 0.072497815 -0.17555845
0000b0 ac 25 99 3d f0 cf 28 3c 52 41 b1 bd 52 60 fb bd
       0.074778885 0.010303482 -0.08655037 -0.12274231
0000c0 e5 d3 36 be 44 94 13 3e 7e 1a 8b bd 44 1e bc 3d
       -0.17854269 0.14412028 -0.06792162 0.0918546
0000d0 5a be d4 bd 48 a4 02 bd 80 de b1 ba 9b 3b 38 be
       -0.10387869 -0.031894952 -0.0013570338 -0.17991488
0000e0 c0 0f 28 3b da 14 19 be e7 82 1d be b6 a6 2e be
       0.0025644153 -0.1494936 -0.15381967 -0.17055783
0000f0 30 98 5b 3c 60 63 4a bc ae 05 35 3e 36 dc 12 be
       0.013402984 -0.012352794 0.17677948 -0.14341816
000100 1e ec 80 bd bc 72 41 be c6 a1 30 3e 17 70 4d be
       -0.06295036 -0.18891424 0.17249212 -0.2006229
000110 a0 95 99 bb ee 77 02 3e 68 2a ad 3c 88 f0 4f be
       -0.004687026 0.12741062 0.021138385 -0.20306599
000120 d0 d5 02 bc 90 70 dd 3d 9e 36 31 be 20 f1 e5 3c
       -0.007985547 0.10812485 -0.17305991 0.028069079
000130 38 3f 5f bd 90 21 88 3d 4c 64 21 be a0 3b 12 3d
       -0.05450365 0.066470265 -0.15760916 0.035701394
000140 38 d3 0c 3e 40 27 80 bb 4a d5 1a 3e 34 20 19 3e
       0.13752449 -0.003910929 0.15120426 0.14953691
000150 5b bb 16 be 0e 8a da bd 08 6a c8 3c 90 1c 82 3c
       -0.14719908 -0.10670863 0.024464622 0.01588276
000160 98 00 45 3e d0 ba 62 bd b8 32 00 bd 46 de 43 be
       0.19238508 -0.05535394 -0.03129837 -0.1912776
000170 18 da 0b bd cd c9 3e be 62 94 11 be be 19 09 be
       -0.034143537 -0.18631668 -0.1421676 -0.13388726
000180 54 ba 27 3e 0c 71 d6 3d c0 04 19 3b 20 eb 76 bd
       0.16379672 0.10470781 0.0023348778 -0.060282826
000190 ae 5d f6 bd 20 05 0a 3e dc e1 25 3d 60 53 d9 3c
       -0.12029587 0.13478518 0.0404986 0.026529014
0001a0 68 73 a6 3d f8 07 73 bd 08 83 19 3e ba 59 4f be
       0.08127481 -0.05933377 0.1499139 -0.20249072
0001b0 70 03 fd 3d 8c a4 1f be 00 b2 88 3a 8c d8 86 bd
       0.12354171 -0.15590113 0.0010429025 -0.06584272
0001c0 90 d2 45 3c a0 19 d8 3c 7f fa 41 be 20 40 fe bd
       0.012074128 0.026379406 -0.18943213 -0.124145746
0001d0 d2 3f 27 3e 18 f1 5e 3d c0 5c 42 3e f0 e8 62 bd
       0.1633294 0.054429144 0.18980694 -0.055397928
0001e0 30 30 1d 3e 44 97 2e be 00 c2 6d bd 88 68 ad 3d
       0.15350413 -0.17049891 -0.05804634 0.084672034
0001f0 4a 42 42 3e b2 42 85 bd ac 17 2e bd 5c 9d 2e 3d
       0.189706 -0.06506862 -0.042503044 0.04263054

layers.1.weight f4 [128]
000000 dc 0d 90 3e 2a 89 70 3f 00 0d bf 3e e6 99 2b 3f
       0.28135574 0.93959296 0.37314606 0.67031705
000010 c4 6a 2d 3f 5d 78 52 3f c1 ff 2e 3f a1 0d 32 3f
       0.67741036 0.8221491 0.68359 0.69552046
000020 95 98 44 3f 29 df 78 3f 56 8c e6 3e e2 ad 29 3f
       0.7679532 0.97215515 0.45028943 0.6628095
000030 b0 ac 6a 3d 5e 25 aa 3e b0 c1 67 3f 77 3f 1a 3f
       0.057293594 0.33231634 0.9052992 0.6025309
000040 e8 82 50 3f 66 f9 e2 3e 08 88 ac 3d e8 01 74 3f
       0.8144975 0.443309 0.084243834 0.9531541
000050 34 5f 69 3f 30 e7 03 3e cc 7c 47 3f 50 c9 62 3d
       0.91160893 0.1288116 0.779248 0.055367768
000060 18 a2 a9 3e 81 26 01 3f 20 f3 fb 3c 94 1d 30 3e
       0.3313148 0.5044938 0.03075558 0.17198783
000070 ba 71 a5 3e e7 f1 78 3f 4c 89 14 3e d4 f1 49 3e
       0.3231333 0.97244114 0.145055 0.19721156
000080 e1 8a 16 3f c3 ba 0b 3f d8 b8 a3 3e d0 cd 9d 3d
       0.5880566 0.5458185 0.31976962 0.07705271
000090 a3 f8 76 3f 54 e9 af 3e e0 48 34 3e 80 5f 52 3c
       0.9647314 0.34357703 0.17605925 0.012840152
0000a0 14 07 f3 3e b0 d5 2b 3e 03 d7 2f 3f 14 f3 39 3e
       0.47466338 0.16780734 0.68687457 0.18159133
0000b0 ba 39 fe 3e b0 ed 77 3e 9f 24 28 3f 60 8c 35 3e
       0.49653417 0.24211764 0.6568088 0.1772933
0000c0 e0 1b e1 3e 53 b3 13 3f c3 64 22 3f d6 ce b3 3e
       0.4396658 0.576955 0.63435 0.3511874
0000d0 10 c6 0b 3f 6c b0 65 3e 04 70 5e 3e 80 f8 01 3f
       0.54599094 0.22430581 0.21722418 0.50769806
0000e0 d8 9e 22 3e 5c 33 56 3e 70 37 52 3f f0 69 66 3d
       0.15880907 0.2091803 0.8211584 0.056253374
0000f0 49 fe 2d 3f 6a be 80 3e 7a bc d6 3e 19 fd 3f 3f
       0.67966133 0.25145274 0.4194067 0.7499557
000100 13 9a 04 3f 0c 00 30 3f 59 6f 62 3f c9 41 39 3f
       0.517976 0.6875007 0.88451153 0.72366005
000110 78 4c de 3e f6 e7 b0 3e c8 c5 74 3f 58 32 b6 3d
       0.43417716 0.34551972 0.9561429 0.08896321
000120 62 8a f9 3e 10 1d ce 3e 72 8a dd 3e 7c de 25 3e
       0.4873839 0.40256548 0.43269688 0.16198152
000130 dc d8 32 3f aa b6 a9 3e f6 93 b0 3e 8e 2b eb 3e
       0.6986215 0.33147174 0.34487885 0.45931667
000140 a0 6b 2d 3d 88 ba ab 3d d8 4d 37 3e 0a 90 41 3f
       0.042338967 0.083851874 0.17900789 0.7561041
000150 d8 15 87 3d 70 85 71 3e ac 72 34 3f 40 95 91 3e
       0.06595963 0.23586059 0.70487475 0.2843418
000160 58 d2 d8 3e 30 2e 06 3f 98 a1 ba 3e 40 0f 4d 3f
       0.4234798 0.52414227 0.3645141 0.80101395
000170 ec 97 39 3f 8e 19 80 3e e8 cc da 3d 70 48 61 3f
       0.7249744 0.25019497 0.10683614 0.88001156
000180 0e 66 7c 3f 18 36 83 3e 7a b5 38 3f 07 be 43 3f
       0.98593223 0.25627208 0.7215191 0.76461834
000190 da 30 a5 3e 92 c5 ea 3e b0 62 3e 3f 4c 62 9e 3e
       0.32263833 0.4585386 0.74369335 0.3093437
0001a0 ee 14 b1 3e 1a 8c 24 3f fd c2 5d 3f c7 7c 55 3f
       0.3458628 0.6427628 0.86625654 0.8339352
0001b0 8a dd 8c 3e fe 6e f4 3e 48 0c d2 3d 14 79 08 3e
       0.2751277 0.4774093 0.10256249 0.13327438
0001c0 ad 4f 5f 3f 33 d5 22 3f 68 fa a9 3e f8 28 09 3e
       0.8723095 0.63606566 0.33198857 0.13394535
0001d0 88 b2 0d 3e e8 5b 5e 3e 60 89 02 3e 0a 50 19 3f
       0.13837636 0.21714747 0.12747717 0.59887755
0001e0 96 a5 5e 3f 38 90 d8 3e 4c de 6a 3f 52 a1 35 3f
       0.86971414 0.4229753 0.9174545 0.7094928
0001f0 20 5d e5 3d 90 67 64 3d 8c b4 3a 3e 34 3b 36 3e
       0.11199403 0.055762827 0.18232936 0.17796022

layers.1.bias f4 [128]
000000 00 00 00 00 00 00 00 00 00 00 00 00 00 00 00 00
       0.0 0.0 0.0 0.0
000010 00 00 00 00 00 00 00 00 00 00 00 00 00 00 00 00
       0.0 0.0 0.0 0.0
000020 00 00 00 00 00 00 00 00 00 00 00 00 00 00 00 00
       0.0 0.0 0.0 0.0
000030 00 00 00 00 00 00 00 00 00 00 00 00 00 00 00 00
       0.0 0.0 0.0 0.0
000040 00 00 00 00 00 00 00 00 00 00 00 00 00 00 00 00
       0.0 0.0 0.0 0.0
000050 00 00 00 00 00 00 00 00 00 00 00 00 00 00 00 00
       0.0 0.0 0.0 0.0
000060 00 00 00 00 00 00 00 00 00 00 00 00 00 00 00 00
       0.0 0.0 0.0 0.0
000070 00 00 00 00 00 00 00 00 00 00 00 00 00 00 00 00
       0.0 0.0 0.0 0.0
000080 00 00 00 00 00 00 00 00 00 00 00 00 00 00 00 00
       0.0 0.0 0.0 0.0
000090 00 00 00 00 00 00 00 00 00 00 00 00 00 00 00 00
       0.0 0.0 0.0 0.0
0000a0 00 00 00 00 00 00 00 00 00 00 00 00 00 00 00 00
       0.0 0.0 0.0 0.0
0000b0 00 00 00 00 00 00 00 00 00 00 00 00 00 00 00 00
       0.0 0.0 0.0 0.0
0000c0 00 00 00 00 00 00 00 00 00 00 00 00 00 00 00 00
       0.0 0.0 0.0 0.0
0000d0 00 00 00 00 00 00 00 00 00 00 00 00 00 00 00 00
       0.0 0.0 0.0 0.0
0000e0 00 00 00 00 00 00 00 00 00 00 00 00 00 00 00 00
       0.0 0.0 0.0 0.0
0000f0 00 00 00 00 00 00 00 00 00 00 00 00 00 00 00 00
       0.0 0.0 0.0 0.0
000100 00 00 00 00 00 00 00 00 00 00 00 00 00 00 00 00
       0.0 0.0 0.0 0.0
000110 00 00 00 00 00 00 00 00 00 00 00 00 00 00 00 00
       0.0 0.0 0.0 0.0
000120 00 00 00 00 00 00 00 00 00 00 00 00 00 00 00 00
       0.0 0.0 0.0 0.0
000130 00 00 00 00 00 00 00 00 00 00 00 00 00 00 00 00
       0.0 0.0 0.0 0.0
000140 00 00 00 00 00 00 00 00 00 00 00 00 00 00 00 00
       0.0 0.0 0.0 0.0
000150 00 00 00 00 00 00 00 00 00 00 00 00 00 00 00 00
       0.0 0.0 0.0 0.0
000160 00 00 00 00 00 00 00 00 00 00 00 00 00 00 00 00
       0.0 0.0 0.0 0.0
000170 00 00 00 00 00 00 00 00 00 00 00 00 00 00 00 00
       0.0 0.0 0.0 0.0
000180 00 00 00 00 00 00 00 00 00 00 00 00 00 00 00 00
       0.0 0.0 0.0 0.0
000190 00 00 00 00 00 00 00 00 00 00 00 00 00 00 00 00
       0.0 0.0 0.0 0.0
0001a0 00 00 00 00 00 00 00 00 00 00 00 00 00 00 00 00
       0.0 0.0 0.0 0.0
0001b0 00 00 00 00 00 00 00 00 00 00 00 00 00 00 00 00
       0.0 0.0 0.0 0.0
0001c0 00 00 00 00 00 00 00 00 00 00 00 00 00 00 00 00
       0.0 0.0 0.0 0.0
0001d0 00 00 00 00 00 00 00 00 00 00 00 00 00 00 00 00
       0.0 0.0 0.0 0.0
0001e0 00 00 00 00 00 00 00 00 00 00 00 00 00 00 00 00
       0.0 0.0 0.0 0.0
0001f0 00 00 00 00 00 00 00 00 00 00 00 00 00 00 00 00
       0.0 0.0 0.0 0.0

layers.1.running_mean f4 [128]
000000 00 00 00 00 00 00 00 00 00 00 00 00 00 00 00 00
       0.0 0.0 0.0 0.0
000010 00 00 00 00 00 00 00 00 00 00 00 00 00 00 00 00
       0.0 0.0 0.0 0.0
000020 00 00 00 00 00 00 00 00 00 00 00 00 00 00 00 00
       0.0 0.0 0.0 0.0
000030 00 00 00 00 00 00 00 00 00 00 00 00 00 00 00 00
       0.0 0.0 0.0 0.0
000040 00 00 00 00 00 00 00 00 00 00 00 00 00 00 00 00
       0.0 0.0 0.0 0.0
000050 00 00 00 00 00 00 00 00 00 00 00 00 00 00 00 00
       0.0 0.0 0.0 0.0
000060 00 00 00 00 00 00 00 00 00 00 00 00 00 00 00 00
       0.0 0.0 0.0 0.0
000070 00 00 00 00 00 00 00 00 00 00 00 00 00 00 00 00
       0.0 0.0 0.0 0.0
000080 00 00 00 00 00 00 00 00 00 00 00 00 00 00 00 00
       0.0 0.0 0.0 0.0
000090 00 00 00 00 00 00 00 00 00 00 00 00 00 00 00 00
       0.0 0.0 0.0 0.0
0000a0 00 00 00 00 00 00 00 00 00 00 00 00 00 00 00 00
       0.0 0.0 0.0 0.0
0000b0 00 00 00 00 00 00 00 00 00 00 00 00 00 00 00 00
       0.0 0.0 0.0 0.0
0000c0 00 00 00 00 00 00 00 00 00 00 00 00 00 00 00 00
       0.0 0.0 0.0 0.0
0000d0 00 00 00 00 00 00 00 00 00 00 00 00 00 00 00 00
       0.0 0.0 0.0 0.0
0000e0 00 00 00 00 00 00 00 00 00 00 00 00 00 00 00 00
       0.0 0.0 0.0 0.0
0000f0 00 00 00 00 00 00 00 00 00 00 00 00 00 00 00 00
       0.0 0.0 0.0 0.0
000100 00 00 00 00 00 00 00 00 00 00 00 00 00 00 00 00
       0.0 0.0 0.0 0.0
000110 00 00 00 00 00 00 00 00 00 00 00 00 00 00 00 00
       0.0 0.0 0.0 0.0
000120 00 00 00 00 00 00 00 00 00 00 00 00 00 00 00 00
       0.0 0.0 0.0 0.0
000130 00 00 00 00 00 00 00 00 00 00 00 00 00 00 00 00
       0.0 0.0 0.0 0.0
000140 00 00 00 00 00 00 00 00 00 00 00 00 00 00 00 00
       0.0 0.0 0.0 0.0
000150 00 00 00 00 00 00 00 00 00 00 00 00 00 00 00 00
       0.0 0.0 0.0 0.0
000160 00 00 00 00 00 00 00 00 00 00 00 00 00 00 00 00
       0.0 0.0 0.0 0.0
000170 00 00 00 00 00 00 00 00 00 00 00 00 00 00 00 00
       0.0 0.0 0.0 0.0
000180 00 00 00 00 00 00 00 00 00 00 00 00 00 00 00 00
       0.0 0.0 0.0 0.0
000190 00 00 00 00 00 00 00 00 00 00 00 00 00 00 00 00
       0.0 0.0 0.0 0.0
0001a0 00 00 00 00 00 00 00 00 00 00 00 00 00 00 00 00
       0.0 0.0 0.0 0.0
0001b0 00 00 00 00 00 00 00 00 00 00 00 00 00 00 00 00
       0.0 0.0 0.0 0.0
0001c0 00 00 00 00 00 00 00 00 00 00 00 00 00 00 00 00
       0.0 0.0 0.0 0.0
0001d0 00 00 00 00 00 00 00 00 00 00 00 00 00 00 00 00
       0.0 0.0 0.0 0.0
0001e0 00 00 00 00 00 00 00 00 00 00 00 00 00 00 00 00
       0.0 0.0 0.0 0.0
0001f0 00 00 00 00 00 00 00 00 00 00 00 00 00 00 00 00
       0.0 0.0 0.0 0.0

layers.1.running_var f4 [128]
000000 00 00 80 3f 00 00 80 3f 00 00 80 3f 00 00 80 3f
       1.0 1.0 1.0 1.0
000010 00 00 80 3f 00 00 80 3f 00 00 80 3f 00 00 80 3f
       1.0 1.0 1.0 1.0
000020 00 00 80 3f 00 00 80 3f 00 00 80 3f 00 00 80 3f
       1.0 1.0 1.0 1.0
000030 00 00 80 3f 00 00 80 3f 00 00 80 3f 00 00 80 3f
       1.0 1.0 1.0 1.0
000040 00 00 80 3f 00 00 80 3f 00 00 80 3f 00 00 80 3f
       1.0 1.0 1.0 1.0
000050 00 00 80 3f 00 00 80 3f 00 00 80 3f 00 00 80 3f
       1.0 1.0 1.0 1.0
000060 00 00 80 3f 00 00 80 3f 00 00 80 3f 00 00 80 3f
       1.0 1.0 1.0 1.0
000070 00 00 80 3f 00 00 80 3f 00 00 80 3f 00 00 80 3f
       1.0 1.0 1.0 1.0
000080 00 00 80 3f 00 00 80 3f 00 00 80 3f 00 00 80 3f
       1.0 1.0 1.0 1.0
000090 00 00 80 3f 00 00 80 3f 00 00 80 3f 00 00 80 3f
       1.0 1.0 1.0 1.0
0000a0 00 00 80 3f 00 00 80 3f 00 00 80 3f 00 00 80 3f
       1.0 1.0 1.0 1.0
0000b0 00 00 80 3f 00 00 80 3f 00 00 80 3f 00 00 80 3f
       1.0 1.0 1.0 1.0
0000c0 00 00 80 3f 00 00 80 3f 00 00 80 3f 00 00 80 3f
       1.0 1.0 1.0 1.0
0000d0 00 00 80 3f 00 00 80 3f 00 00 80 3f 00 00 80 3f
       1.0 1.0 1.0 1.0
0000e0 00 00 80 3f 00 00 80 3f 00 00 80 3f 00 00 80 3f
       1.0 1.0 1.0 1.0
0000f0 00 00 80 3f 00 00 80 3f 00 00 80 3f 00 00 80 3f
       1.0 1.0 1.0 1.0
000100 00 00 80 3f 00 00 80 3f 00 00 80 3f 00 00 80 3f
       1.0 1.0 1.0 1.0
000110 00 00 80 3f 00 00 80 3f 00 00 80 3f 00 00 80 3f
       1.0 1.0 1.0 1.0
000120 00 00 80 3f 00 00 80 3f 00 00 80 3f 00 00 80 3f
       1.0 1.0 1.0 1.0
000130 00 00 80 3f 00 00 80 3f 00 00 80 3f 00 00 80 3f
       1.0 1.0 1.0 1.0
000140 00 00 80 3f 00 00 80 3f 00 00 80 3f 00 00 80 3f
       1.0 1.0 1.0 1.0
000150 00 00 80 3f 00 00 80 3f 00 00 80 3f 00 00 80 3f
       1.0 1.0 1.0 1.0
000160 00 00 80 3f 00 00 80 3f 00 00 80 3f 00 00 80 3f
       1.0 1.0 1.0 1.0
000170 00 00 80 3f 00 00 80 3f 00 00 80 3f 00 00 80 3f
       1.0 1.0 1.0 1.0
000180 00 00 80 3f 00 00 80 3f 00 00 80 3f 00 00 80 3f
       1.0 1.0 1.0 1.0
000190 00 00 80 3f 00 00 80 3f 00 00 80 3f 00 00 80 3f
       1.0 1.0 1.0 1.0
0001a0 00 00 80 3f 00 00 80 3f 00 00 80 3f 00 00 80 3f
       1.0 1.0 1.0 1.0
0001b0 00 00 80 3f 00 00 80 3f 00 00 80 3f 00 00 80 3f
       1.0 1.0 1.0 1.0
0001c0 00 00 80 3f 00 00 80 3f 00 00 80 3f 00 00 80 3f
       1.0 1.0 1.0 1.0
0001d0 00 00 80 3f 00 00 80 3f 00 00 80 3f 00 00 80 3f
       1.0 1.0 1.0 1.0
0001e0 00 00 80 3f 00 00 80 3f 00 00 80 3f 00 00 80 3f
       1.0 1.0 1.0 1.0
0001f0 00 00 80 3f 00 00 80 3f 00 00 80 3f 00 00 80 3f
       1.0 1.0 1.0 1.0

layers.3.weight f4 [128, 128]
000000 36 82 98 bd 00 c0 3f 3c 10 9e 9a bd 4c bb 81 bd
       -0.07446711 0.011703491 -0.07549679 -0.06334552
000010 4a b0 34 3d 28 c8 cb 3c 80 9d 62 3b 5a 1e 66 3d
       0.044113435 0.024875715 0.003457874 0.05618129
000020 ae 80 07 3d c5 9f 99 bd 78 3d 3c 3c a4 55 f6 3c
       0.033081703 -0.07501177 0.011489265 0.030070134
000030 b5 8f 84 bd a0 f2 c2 3b 60 7b ca 3c d7 3d 81 bd
       -0.064727224 0.0059493333 0.024717033 -0.06310623
000040 f0 20 80 bc 80 76 00 3d b2 5d 08 3d 78 e1 4a bc
       -0.015640706 0.03136301 0.03329248 -0.0123828575
000050 ce 02 9d bd a7 4e 89 bd 55 c1 2e bd 44 1c 9e bc
       -0.076665506 -0.06704455 -0.042664845 -0.019300587
000060 13 a2 8d 3d f2 ff 49 bd 9b f6 a4 3d a7 a0 b1 3d
       0.06915679 -0.049316354 0.08054849 0.0867322
000070 b2 53 73 3d a8 96 9d bc 08 0a 19 bc 12 8a 70 3d
       0.05940599 -0.019236878 -0.009340771 0.058725424
000080 10 96 9f bd 2c e7 d9 3c cc d5 a3 bd c0 31 a2 3a
       -0.07792294 0.02659949 -0.07999763 0.0012374446
000090 45 bb 12 bd cd bc ab 3d 78 09 3d 3c 59 bb 8c 3d
       -0.035823125 0.0838562 0.011537902 0.06871671
0000a0 f2 f6 43 3d 84 2b 3e bd b0 3f c4 bb e3 96 a3 3d
       0.047842927 -0.04642822 -0.0059890375 0.07987764
0000b0 20 fc 66 3c 4e 5d 25 3d ad cd 8f 3d b3 e4 ad 3d
       0.014098197 0.040372185 0.070216514 0.084908865
0000c0 80 66 1b 3a 30 eb 7f bd fc e9 80 3c 42 83 7e bd
       0.00059280545 -0.06248015 0.015736572 -0.062136896
0000d0 f6 73 35 3d 2b 97 a3 bd c7 82 51 bd b0 ee 84 3b
       0.044300042 -0.079878174 -0.05115011 0.004056774
0000e0 f2 ff 1f bd ea f2 47 3d e2 7a 18 3d f7 c6 90 3d
       -0.039062448 0.048815645 0.037226565 0.070691995
0000f0 c1 15 80 3d 5c da 14 bd 7a ef 2f 3d 86 f2 22 3d
       0.06254149 -0.036341056 0.042952992 0.03978207
000100 2c d1 a7 3c 19 f6 ac 3d ce 62 dd bc 8e 87 07 3d
       0.020485483 0.08445377 -0.027024653 0.03308826
000110 b9 69 ab 3d 5e c4 85 bd 24 35 59 bd ad 41 9c 3d
       0.08369774 -0.06531595 -0.053029194 0.07629714
000120 57 21 87 3d 72 1d 02 bd 00 38 72 38 46 c5 31 3d
       0.06598156 -0.031766362 5.774945e-05 0.043401025
000130 78 b2 89 bc 31 48 b2 bd 3e 1c 55 3d c0 1c 97 ba
       -0.016808733 -0.08705176 0.052028887 -0.0011528954
000140 c0 05 d5 bb 66 4f 67 bd 5c 6c 8c bd 86 3e 81 bd
       -0.0065009296 -0.056472205 -0.068566054 -0.063107535
000150 e0 e4 25 bc 40 dd c9 3a 63 0f 3e bd 38 a2 6e 3c
       -0.010125369 0.0015401021 -0.046401393 0.014565043
000160 bc cf b1 bd a6 b0 8c bd 2b 95 b3 3d b0 7a f0 bb
       -0.086822 -0.068696305 0.08768686 -0.0073388442
000170 6b 45 15 bd d2 f5 44 3d ee 1f 19 3d 98 d9 b8 3c
       -0.036443155 0.048085995 0.037383966 0.022564694
000180 08 13 66 3c 7b fc 89 bd 90 63 06 bd d3 e4 84 bd
       0.014042623 -0.0673761 -0.032809794 -0.06488957
000190 af 7c 67 bd 05 f4 90 bd 46 7a 07 3d 18 cc 88 bd
       -0.056515392 -0.07077793 0.033075593 -0.06679553
0001a0 f8 e4 1a bc 65 1b 94 3d 27 45 8d bd 3e ad 7f 3d
       -0.0094540045 0.072317876 -0.068979554 0.062421076
0001b0 e1 8a 80 3d 07 49 99 bd 86 17 a6 bd 28 e8 2d 3c
       0.06276489 -0.07484632 -0.081099555 0.010614432
0001c0 b0 62 89 3c 4c 8a 54 bd 51 f0 88 bd 31 5b 3a bd
       0.01677069 -0.051889703 -0.06686462 -0.045497123
0001d0 b0 01 f9 bb a8 f7 85 bc 66 8f 57 bd 2a 08 04 3d
       -0.007599078 -0.016353443 -0.05262699 0.03223435
0001e0 58 2c 10 bd 86 00 2f 3d 82 18 0a 3d 8a 76 77 3d
       -0.03519854 0.04272511 0.03371478 0.060415782
0001f0 72 8a 3e 3d d5 33 b1 bd 2e 5c a5 bd 92 ac 0c bd
       0.04651875 -0.08652464 -0.080742225 -0.034344263
000200 4e d6 29 3d ed 29 3c bd e0 17 15 3d fd b4 3f bd
       0.041464143 -0.04593842 0.036399722 -0.046803463
000210 43 cb a6 bd 03 f0 0c bd 10 c2 f6 bb 18 0d 3e bc
       -0.08144238 -0.03440858 -0.0075304583 -0.0115998015
000220 40 53 0a 3c 4b 88 0d bd 38 e7 02 3d 8f 2a 81 3d
       0.0084427 -0.034553807 0.03195879 0.063069455
000230 64 6b 82 bd 05 4e b4 3d 95 40 8b 3d e8 2c 47 bc
       -0.063681394 0.088039435 0.067994274 -0.012156703
000240 8a 27 4d 3d 42 65 42 bd da e7 69 3d 2c f5 08 3d
       0.050086536 -0.04745985 0.057105877 0.03343694
000250 43 d8 92 3d 06 73 3a bd 54 91 87 bc 25 9a 14 bd
       0.07170155 -0.04551985 -0.01654879 -0.036279816
000260 db 1f b4 3d 89 69 37 bd a6 83 33 3d d1 e0 a0 bd
       0.087951384 -0.04477838 0.04382672 -0.0785538
000270 71 50 ab 3d 35 20 98 3d 14 c5 81 bd bc 59 db bc
       0.08364952 0.07428018 -0.06336418 -0.026776187
000280 ae 47 18 3d 08 79 8a bd a0 b0 cf 3b 10 47 d6 3b
       0.037177734 -0.06761366 0.006338194 0.006539233
000290 e5 79 40 bd 18 9c 5a 3c c2 35 1b 3d 0d e6 b2 3d
       -0.046991248 0.01334288 0.037893064 0.08735285
0002a0 88 6f 93 3c 3f 8a 05 bd 71 1b 85 bd 41 f6 a0 bd
       0.017997518 -0.032602545 -0.06499375 -0.07859469
0002b0 a8 32 35 bd 76 14 27 3d a9 ff 90 3d 43 f1 8b 3d
       -0.044237763 0.040790997 0.07080013 0.068331264
0002c0 e6 90 28 3d 00 88 4a b9 87 da 1a bd 01 54 99 3d
       0.04115381 -0.00019314885 -0.03780606 0.074867256
0002d0 c7 13 8c bd 46 84 a4 bd af 3e 25 bd 0e 14 27 3d
       -0.0683971 -0.08033042 -0.040342983 0.04079061
0002e0 18 f2 e5 3c 4e 2e 31 bd 04 0e 8f 3c ec 74 d1 bc
       0.02806954 -0.04325705 0.017462738 -0.025568448
0002f0 f8 1b 08 bd 62 e8 5d bd 01 5b 9f 3d 86 59 14 bd
       -0.033229798 -0.054176696 0.077810295 -0.03621819
000300 42 46 23 3d 02 72 5c 3d 64 d8 0a 3d f0 7d ac bb
       0.039861925 0.053819664 0.033897772 -0.0052640364
000310 87 e4 42 bd 6c 47 56 bd 83 d3 89 3d 0e 33 68 3d
       -0.047581222 -0.052314207 0.06729796 0.056689315
000320 88 1e 5c bc 08 1d 5a bc 42 c4 5c 3d 48 a9 12 3c
       -0.013435014 -0.013312586 0.053898104 0.008951493
000330 52 bc 66 3d 56 3d 5e 3d fd 34 4c bd a2 01 83 bd
       0.05633194 0.054257713 -0.04985522 -0.06396796
000340 8a 46 7f 3d a8 3a 62 bc 69 ec 6f bd 5f 3a 13 bd
       0.06232313 -0.01380793 -0.058575068 -0.03594434
000350 d0 7a 72 bc d5 9f 96 3d 40 c1 d0 ba 7d de 99 3d
       -0.014799789 0.07354704 -0.0015926734 0.075131394
000360 bb 0c 17 bd 7f fe 2c bd b4 7a 33 bd b8 5d 8e 3c
       -0.036877375 -0.042234894 -0.04381819 0.017378673
000370 9f a7 a3 3d 87 05 b2 bd 58 84 6b 3c d0 66 04 3d
       0.079909556 -0.086924605 0.014374815 0.032324612
000380 30 89 9a bc 38 dd 88 bd d8 a9 a8 bd b8 21 0f bd
       -0.018864244 -0.06682819 -0.0823552 -0.034944266
000390 ea 45 32 3d 80 20 54 bb f3 72 33 bd e3 62 8c 3d
       0.043523706 -0.0032368004 -0.043810796 0.06854799
0003a0 02 57 5b 3d a3 67 96 3d 81 fa a0 3d f6 a1 5a 3d
       0.053549774 0.07343986 0.0786028 0.053377114
0003b0 f9 fe 97 3d 07 2a af bd 7a a3 78 3d b6 bb 08 3d
       0.07421679 -0.08552938 0.06070278 0.03338214
0003c0 00 51 40 3b e3 d1 8c 3d 9c e0 34 bd d8 53 53 3c
       0.0029345155 0.0687597 -0.044159517 0.012898408
0003d0 62 53 1e bd 92 fe 7b 3d 62 77 85 bd ca d4 d8 bc
       -0.03865374 0.061522074 -0.06516911 -0.026468653
0003e0 92 57 a6 bd 60 a1 27 bb c0 21 47 3c b1 92 96 3d
       -0.081221715 -0.0025578365 0.012154043 0.07352198
0003f0 e8 8f dc 3c b5 8c b0 bd 40 90 8f ba 93 46 a6 bd
       0.026924089 -0.08620588 -0.0010953024 -0.0811893

layers.3.bias f4 [128]
000000 9b 49 94 3d 51 3e 67 bd b8 f1 89 bd 66 b7 57 3d
       0.07240602 -0.056455914 -0.06735557 0.052665137
000010 61 a8 0d bd 50 e0 ea bb 9d 29 9a bd 2f 8d 36 bd
       -0.034584407 -0.0071678534 -0.07527468 -0.044568237
000020 46 df 72 3d a0 7e 97 bc 30 01 28 bc e9 44 5f bd
       0.05929496 -0.018492997 -0.010254189 -0.054509077
000030 60 d7 9b 3b 3b 2d 83 bd 9b 72 89 bd 88 b2 7b bc
       0.0047558993 -0.064051114 -0.067113124 -0.015362389
000040 13 88 35 bd 36 99 70 bd 60 5a e0 3c 20 40 30 bb
       -0.044319224 -0.058739863 0.027386844 -0.002689369
000050 28 76 61 3c 08 f3 7c bc 3a f3 61 3d 18 6e 93 bd
       0.013761081 -0.015438803 0.0551636 -0.07198733
000060 f8 31 e7 3c 6f 30 8a 3d 3e d9 49 bd bc 56 81 bc
       0.02822207 0.06747519 -0.049279444 -0.015788428
000070 a6 9a 84 bd 68 f1 42 bd 2a 98 b0 bd 74 72 d8 3c
       -0.06474809 -0.047593504 -0.08622773 0.026421763
000080 fd 8d 43 bd ab 00 86 3d 93 61 19 bd e0 73 1e bb
       -0.047742832 0.06543096 -0.03744657 -0.0024177954
000090 50 20 4f bc a0 ef cd bc db 98 a7 3d a7 74 9e 3d
       -0.012641981 -0.025138676 0.08183452 0.077370934
0000a0 c0 91 05 bd dd 80 96 3d d0 00 01 bd 40 9b b1 3c
       -0.0326097 0.073487975 -0.031494915 0.021680474
0000b0 8b 74 54 bd fb 6f a0 bd 30 b6 bf 3c c4 a9 43 bd
       -0.051868957 -0.078338586 0.023402303 -0.047769323
0000c0 42 20 e8 bc 34 0c 5c bd 13 11 25 bd 28 a0 c7 bc
       -0.028335694 -0.053722575 -0.040299486 -0.02436836
0000d0 1e c5 1f 3d 58 8f 9e bd f1 1e 86 3d 46 3e 08 bd
       0.039006345 -0.077421844 0.0654887 -0.033262514
0000e0 ee d1 4a 3d 32 0d b1 bd ae f7 73 3d bd c3 a3 3d
       0.04951661 -0.08645095 0.059562378 0.079963185
0000f0 fa 8b 06 3d 40 03 fa bb c1 39 0a bd f0 81 f3 bc
       0.032848336 -0.007629782 -0.033746485 -0.029725045
000100 0c 76 e7 bc 30 07 a2 bd d0 47 5f bc 63 00 0f bd
       -0.028254531 -0.07911527 -0.013627961 -0.03491248
000110 78 a1 c5 bc b5 17 ad bd 5d 07 a4 bd cd c5 1e bd
       -0.024124846 -0.084517874 -0.08009217 -0.038762856
000120 96 48 5c 3d a0 c1 fa bc 34 ec b8 bc b4 db e0 3c
       0.05378016 -0.030609906 -0.022573568 0.027448513
000130 d0 32 03 3d a2 7d 16 3d cf a8 66 bd ba 16 a3 bd
       0.03203088 0.036740907 -0.056313332 -0.07963319
000140 fe 6a 28 3d 8a 4c 46 3d 7e 11 98 bd a5 1d af 3d
       0.04111766 0.048412837 -0.07425211 0.08550576
000150 20 a9 88 3c bd 7a ad 3d 30 74 20 bc 34 c5 97 3c
       0.016682208 0.08470676 -0.009793326 0.018526651
000160 84 1c 57 bd 00 8f 54 3b 0d a0 80 3d c0 94 cb 3b
       -0.05251743 0.0032433867 0.06280527 0.0062128007
000170 e7 10 86 3d 7e be 73 3d fa 6a 99 bd e0 d0 0b 3d
       0.065461926 0.05950784 -0.07491107 0.034134746
000180 60 2b 02 3c d4 21 82 bd 0c e4 06 3d 02 78 71 3d
       0.007944912 -0.063541085 0.032932326 0.05895234
000190 26 77 38 3d 77 01 96 3d b0 4f df 3c 65 9f 8d 3d
       0.045035504 0.07324498 0.027259678 0.06915168
0001a0 70 9c 61 bd 51 15 08 bd b0 2f 99 bb 2d ae b2 3d
       -0.05508083 -0.033223454 -0.0046748742 0.08724628
0001b0 60 16 8d 3c 6c 34 82 bd 07 27 85 bd c0 76 8f 3a
       0.017222583 -0.06357655 -0.065015845 0.0010945424
0001c0 d0 bd 55 3c 2a 12 a6 bd 7d ab 95 3d ad 6a 98 3d
       0.013045743 -0.08108933 0.073080994 0.07442222
0001d0 20 d4 a1 bc 1c 8e b3 3c 7c aa ca bc 7e 20 58 3d
       -0.01975447 0.021918349 -0.024739496 0.052765362
0001e0 0a 4f 60 3d 33 66 0b bd 9b d5 ad 3d 79 e5 0a bd
       0.054762878 -0.03403301 0.08488008 -0.03391025
0001f0 b2 02 32 3d 45 0f 93 bd b8 0a 97 bd 8a 92 59 3d
       0.0434596 -0.07180647 -0.07375091 0.053118266

layers.4.weight f4 [128]
000000 3c ae f1 3e 5c fd 5c 3e 04 b9 ed 3e 94 8f 0f 3e
       0.47203243 0.21581024 0.46430218 0.14019614
000010 ee 05 e8 3e 46 ba 5e 3f 8e f5 d1 3e 8c b4 ad 3e
       0.45317024 0.8700298 0.41007656 0.3392681
000020 b8 dd 56 3f 80 c1 e7 3d 25 2f 06 3f d4 13 90 3e
       0.83932066 0.11316204 0.52415687 0.28140128
000030 22 5f 0c 3f 18 98 6c 3e 12 8e c2 3e e0 fa b2 3d
       0.5483266 0.23104894 0.37999016 0.08739257
000040 c0 07 34 3d 0c 62 42 3f 2f 3f 0c 3f e2 b5 0b 3f
       0.043952703 0.7593086 0.5478391 0.54574406
000050 a8 32 7b 3f dc 9d b4 3e 5a 1d ce 3e 0f 3f 4d 3f
       0.9812417 0.35276687 0.40256768 0.80174345
000060 65 a3 70 3f 72 b0 34 3f e0 6d 4d 3f 20 6d 4f 3f
       0.9399932 0.70581734 0.8024578 0.81025887
000070 cd 99 74 3f 44 f7 61 3e ae 12 9a 3e b4 2c ea 3e
       0.9554718 0.2206698 0.30092376 0.4573723
000080 c8 d3 35 3f 3e 3e 83 3e fc 08 05 3e e8 4b 15 3f
       0.7102628 0.25633425 0.12991709 0.5831895
000090 80 26 30 3f 4b 63 3c 3f b8 22 ed 3e 36 f0 e1 3e
       0.68808746 0.7358901 0.4631555 0.4412858
0000a0 16 fc 4d 3f 30 be 62 3e 43 89 53 3f 1b b2 2c 3f
       0.8046278 0.22142863 0.8263132 0.6745927
0000b0 67 c3 3c 3f 42 8d 8b 3e d0 14 c4 3d 00 bf af 3d
       0.7373566 0.2725621 0.09574282 0.08581352
0000c0 d0 44 ff 3d 20 64 7e 3f b0 77 d8 3e 68 89 25 3e
       0.12464297 0.9937153 0.42278814 0.16165698
0000d0 06 39 c6 3e 40 c1 93 3e a0 c9 eb 3d e2 54 3f 3f
       0.3871538 0.28858376 0.11513066 0.74738896
0000e0 c0 6f 65 3f 20 d5 f7 3d 28 05 3d 3f c5 f8 1a 3f
       0.8962364 0.12101197 0.7383599 0.6053584
0000f0 68 da 7e 3f 86 c0 f9 3e d4 55 86 3e fd 9b 09 3f
       0.9955201 0.48779696 0.26237357 0.53753644
000100 a8 8b ac 3e ea bc 48 3f 64 0d f6 3e 9e 91 81 3e
       0.337003 0.7841326 0.4805709 0.2530641
000110 f0 7d b8 3d 1b e9 0d 3f 8d 5e 01 3f 9e e3 aa 3e
       0.09008396 0.55433816 0.505349 0.33376783
000120 0e ff 6d 3f a8 9c 28 3f 8e d3 85 3e 82 32 79 3f
       0.9296731 0.6586404 0.26137966 0.97342694
000130 c0 0b 66 3e 52 a4 6c 3f c4 ac 2f 3f 18 0f 27 3f
       0.2246542 0.9243823 0.68622994 0.65257406
000140 dc d7 37 3e ae fe 1c 3f f0 ff 78 3e eb 2f 16 3f
       0.17953438 0.6132611 0.24316382 0.58666867
000150 95 8c 3d 3f 1d 87 57 3f c3 27 55 3f 98 06 29 3f
       0.74042636 0.8419054 0.83263797 0.66025686
000160 08 7b b7 3e 0d 73 43 3f 84 cb 38 3f 8a f8 62 3f
       0.35836053 0.7634743 0.7218554 0.8866049
000170 56 20 bd 3e 82 51 d7 3e 16 e7 73 3f 17 1c 32 3f
       0.36938733 0.42054373 0.95274484 0.6957411
000180 ec cc 2b 3f 5c 4c 4c 3e 60 af 2f 3e 20 34 9c 3c
       0.6710956 0.19951004 0.17156744 0.019067824
000190 26 b0 ff 3e 28 ea 85 3d d0 b5 8b 3d 36 f9 7d 3f
       0.49939078 0.065388024 0.06821787 0.9920839
0001a0 f0 85 dc 3d 50 c7 7d 3f e8 1f 1c 3e bc c0 2b 3f
       0.10767734 0.9913225 0.15246546 0.67090964
0001b0 f6 e8 8b 3e 9d 13 45 3f ea 15 ad 3e d8 15 3f 3f
       0.27326173 0.7698305 0.33805782 0.74642706
0001c0 96 d8 b9 3e d0 dd 9f 3e 98 f0 ca 3d 30 09 fb 3e
       0.36298054 0.31223917 0.09909171 0.49030447
0001d0 1c f8 4c 3e d4 33 e7 3e 91 8f 53 3f 56 11 b7 3e
       0.20016521 0.4515673 0.8264094 0.35755414
0001e0 ed d5 6d 3f f0 e6 a4 3d 28 43 e0 3e ab ba 05 3f
       0.9290455 0.0805186 0.43801236 0.5223796
0001f0 f7 00 0b 3f 74 e4 2d 3e 2e 8f ef 3e d4 ec 0a 3e
       0.5429835 0.16981679 0.46788925 0.13566905

layers.4.bias f4 [128]
000000 00 00 00 00 00 00 00 00 00 00 00 00 00 00 00 00
       0.0 0.0 0.0 0.0
000010 00 00 00 00 00 00 00 00 00 00 00 00 00 00 00 00
       0.0 0.0 0.0 0.0
000020 00 00 00 00 00 00 00 00 00 00 00 00 00 00 00 00
       0.0 0.0 0.0 0.0
000030 00 00 00 00 00 00 00 00 00 00 00 00 00 00 00 00
       0.0 0.0 0.0 0.0
000040 00 00 00 00 00 00 00 00 00 00 00 00 00 00 00 00
       0.0 0.0 0.0 0.0
000050 00 00 00 00 00 00 00 00 00 00 00 00 00 00 00 00
       0.0 0.0 0.0 0.0
000060 00 00 00 00 00 00 00 00 00 00 00 00 00 00 00 00
       0.0 0.0 0.0 0.0
000070 00 00 00 00 00 00 00 00 00 00 00 00 00 00 00 00
       0.0 0.0 0.0 0.0
000080 00 00 00 00 00 00 00 00 00 00 00 00 00 00 00 00
       0.0 0.0 0.0 0.0
000090 00 00 00 00 00 00 00 00 00 00 00 00 00 00 00 00
       0.0 0.0 0.0 0.0
0000a0 00 00 00 00 00 00 00 00 00 00 00 00 00 00 00 00
       0.0 0.0 0.0 0.0
0000b0 00 00 00 00 00 00 00 00 00 00 00 00 00 00 00 00
       0.0 0.0 0.0 0.0
0000c0 00 00 00 00 00 00 00 00 00 00 00 00 00 00 00 00
       0.0 0.0 0.0 0.0
0000d0 00 00 00 00 00 00 00 00 00 00 00 00 00 00 00 00
       0.0 0.0 0.0 0.0
0000e0 00 00 00 00 00 00 00 00 00 00 00 00 00 00 00 00
       0.0 0.0 0.0 0.0
0000f0 00 00 00 00 00 00 00 00 00 00 00 00 00 00 00 00
       0.0 0.0 0.0 0.0
000100 00 00 00 00 00 00 00 00 00 00 00 00 00 00 00 00
       0.0 0.0 0.0 0.0
000110 00 00 00 00 00 00 00 00 00 00 00 00 00 00 00 00
       0.0 0.0 0.0 0.0
000120 00 00 00 00 00 00 00 00 00 00 00 00 00 00 00 00
       0.0 0.0 0.0 0.0
000130 00 00 00 00 00 00 00 00 00 00 00 00 00 00 00 00
       0.0 0.0 0.0 0.0
000140 00 00 00 00 00 00 00 00 00 00 00 00 00 00 00 00
       0.0 0.0 0.0 0.0
000150 00 00 00 00 00 00 00 00 00 00 00 00 00 00 00 00
       0.0 0.0 0.0 0.0
000160 00 00 00 00 00 00 00 00 00 00 00 00 00 00 00 00
       0.0 0.0 0.0 0.0
000170 00 00 00 00 00 00 00 00 00 00 00 00 00 00 00 00
       0.0 0.0 0.0 0.0
000180 00 00 00 00 00 00 00 00 00 00 00 00 00 00 00 00
       0.0 0.0 0.0 0.0
000190 00 00 00 00 00 00 00 00 00 00 00 00 00 00 00 00
       0.0 0.0 0.0 0.0
0001a0 00 00 00 00 00 00 00 00 00 00 00 00 00 00 00 00
       0.0 0.0 0.0 0.0
0001b0 00 00 00 00 00 00 00 00 00 00 00 00 00 00 00 00
       0.0 0.0 0.0 0.0
0001c0 00 00 00 00 00 00 00 00 00 00 00 00 00 00 00 00
       0.0 0.0 0.0 0.0
0001d0 00 00 00 00 00 00 00 00 00 00 00 00 00 00 00 00
       0.0 0.0 0.0 0.0
0001e0 00 00 00 00 00 00 00 00 00 00 00 00 00 00 00 00
       0.0 0.0 0.0 0.0
0001f0 00 00 00 00 00 00 00 00 00 00 00 00 00 00 00 00
       0.0 0.0 0.0 0.0

layers.4.running_mean f4 [128]
000000 00 00 00 00 00 00 00 00 00 00 00 00 00 00 00 00
       0.0 0.0 0.0 0.0
000010 00 00 00 00 00 00 00 00 00 00 00 00 00 00 00 00
       0.0 0.0 0.0 0.0
000020 00 00 00 00 00 00 00 00 00 00 00 00 00 00 00 00
       0.0 0.0 0.0 0.0
000030 00 00 00 00 00 00 00 00 00 00 00 00 00 00 00 00
       0.0 0.0 0.0 0.0
000040 00 00 00 00 00 00 00 00 00 00 00 00 00 00 00 00
       0.0 0.0 0.0 0.0
000050 00 00 00 00 00 00 00 00 00 00 00 00 00 00 00 00
       0.0 0.0 0.0 0.0
000060 00 00 00 00 00 00 00 00 00 00 00 00 00 00 00 00
       0.0 0.0 0.0 0.0
000070 00 00 00 00 00 00 00 00 00 00 00 00 00 00 00 00
       0.0 0.0 0.0 0.0
000080 00 00 00 00 00 00 00 00 00 00 00 00 00 00 00 00
       0.0 0.0 0.0 0.0
000090 00 00 00 00 00 00 00 00 00 00 00 00 00 00 00 00
       0.0 0.0 0.0 0.0
0000a0 00 00 00 00 00 00 00 00 00 00 00 00 00 00 00 00
       0.0 0.0 0.0 0.0
0000b0 00 00 00 00 00 00 00 00 00 00 00 00 00 00 00 00
       0.0 0.0 0.0 0.0
0000c0 00 00 00 00 00 00 00 00 00 00 00 00 00 00 00 00
       0.0 0.0 0.0 0.0
0000d0 00 00 00 00 00 00 00 00 00 00 00 00 00 00 00 00
       0.0 0.0 0.0 0.0
0000e0 00 00 00 00 00 00 00 00 00 00 00 00 00 00 00 00
       0.0 0.0 0.0 0.0
0000f0 00 00 00 00 00 00 00 00 00 00 00 00 00 00 00 00
       0.0 0.0 0.0 0.0
000100 00 00 00 00 00 00 00 00 00 00 00 00 00 00 00 00
       0.0 0.0 0.0 0.0
000110 00 00 00 00 00 00 00 00 00 00 00 00 00 00 00 00
       0.0 0.0 0.0 0.0
000120 00 00 00 00 00 00 00 00 00 00 00 00 00 00 00 00
       0.0 0.0 0.0 0.0
000130 00 00 00 00 00 00 00 00 00 00 00 00 00 00 00 00
       0.0 0.0 0.0 0.0
000140 00 00 00 00 00 00 00 00 00 00 00 00 00 00 00 00
       0.0 0.0 0.0 0.0
000150 00 00 00 00 00 00 00 00 00 00 00 00 00 00 00 00
       0.0 0.0 0.0 0.0
000160 00 00 00 00 00 00 00 00 00 00 00 00 00 00 00 00
       0.0 0.0 0.0 0.0
000170 00 00 00 00 00 00 00 00 00 00 00 00 00 00 00 00
       0.0 0.0 0.0 0.0
000180 00 00 00 00 00 00 00 00 00 00 00 00 00 00 00 00
       0.0 0.0 0.0 0.0
000190 00 00 00 00 00 00 00 00 00 00 00 00 00 00 00 00
       0.0 0.0 0.0 0.0
0001a0 00 00 00 00 00 00 00 00 00 00 00 00 00 00 00 00
       0.0 0.0 0.0 0.0
0001b0 00 00 00 00 00 00 00 00 00 00 00 00 00 00 00 00
       0.0 0.0 0.0 0.0
0001c0 00 00 00 00 00 00 00 00 00 00 00 00 00 00 00 00
       0.0 0.0 0.0 0.0
0001d0 00 00 00 00 00 00 00 00 00 00 00 00 00 00 00 00
       0.0 0.0 0.0 0.0
0001e0 00 00 00 00 00 00 00 00 00 00 00 00 00 00 00 00
       0.0 0.0 0.0 0.0
0001f0 00 00 00 00 00 00 00 00 00 00 00 00 00 00 00 00
       0.0 0.0 0.0 0.0

layers.4.running_var f4 [128]
000000 00 00 80 3f 00 00 80 3f 00 00 80 3f 00 00 80 3f
       1.0 1.0 1.0 1.0
000010 00 00 80 3f 00 00 80 3f 00 00 80 3f 00 00 80 3f
       1.0 1.0 1.0 1.0
000020 00 00 80 3f 00 00 80 3f 00 00 80 3f 00 00 80 3f
       1.0 1.0 1.0 1.0
000030 00 00 80 3f 00 00 80 3f 00 00 80 3f 00 00 80 3f
       1.0 1.0 1.0 1.0
000040 00 00 80 3f 00 00 80 3f 00 00 80 3f 00 00 80 3f
       1.0 1.0 1.0 1.0
000050 00 00 80 3f 00 00 80 3f 00 00 80 3f 00 00 80 3f
       1.0 1.0 1.0 1.0
000060 00 00 80 3f 00 00 80 3f 00 00 80 3f 00 00 80 3f
       1.0 1.0 1.0 1.0
000070 00 00 80 3f 00 00 80 3f 00 00 80 3f 00 00 80 3f
       1.0 1.0 1.0 1.0
000080 00 00 80 3f 00 00 80 3f 00 00 80 3f 00 00 80 3f
       1.0 1.0 1.0 1.0
000090 00 00 80 3f 00 00 80 3f 00 00 80 3f 00 00 80 3f
       1.0 1.0 1.0 1.0
0000a0 00 00 80 3f 00 00 80 3f 00 00 80 3f 00 00 80 3f
       1.0 1.0 1.0 1.0
0000b0 00 00 80 3f 00 00 80 3f 00 00 80 3f 00 00 80 3f
       1.0 1.0 1.0 1.0
0000c0 00 00 80 3f 00 00 80 3f 00 00 80 3f 00 00 80 3f
       1.0 1.0 1.0 1.0
0000d0 00 00 80 3f 00 00 80 3f 00 00 80 3f 00 00 80 3f
       1.0 1.0 1.0 1.0
0000e0 00 00 80 3f 00 00 80 3f 00 00 80 3f 00 00 80 3f
       1.0 1.0 1.0 1.0
0000f0 00 00 80 3f 00 00 80 3f 00 00 80 3f 00 00 80 3f
       1.0 1.0 1.0 1.0
000100 00 00 80 3f 00 00 80 3f 00 00 80 3f 00 00 80 3f
       1.0 1.0 1.0 1.0
000110 00 00 80 3f 00 00 80 3f 00 00 80 3f 00 00 80 3f
       1.0 1.0 1.0 1.0
000120 00 00 80 3f 00 00 80 3f 00 00 80 3f 00 00 80 3f
       1.0 1.0 1.0 1.0
000130 00 00 80 3f 00 00 80 3f 00 00 80 3f 00 00 80 3f
       1.0 1.0 1.0 1.0
000140 00 00 80 3f 00 00 80 3f 00 00 80 3f 00 00 80 3f
       1.0 1.0 1.0 1.0
000150 00 00 80 3f 00 00 80 3f 00 00 80 3f 00 00 80 3f
       1.0 1.0 1.0 1.0
000160 00 00 80 3f 00 00 80 3f 00 00 80 3f 00 00 80 3f
       1.0 1.0 1.0 1.0
000170 00 00 80 3f 00 00 80 3f 00 00 80 3f 00 00 80 3f
       1.0 1.0 1.0 1.0
000180 00 00 80 3f 00 00 80 3f 00 00 80 3f 00 00 80 3f
       1.0 1.0 1.0 1.0
000190 00 00 80 3f 00 00 80 3f 00 00 80 3f 00 00 80 3f
       1.0 1.0 1.0 1.0
0001a0 00 00 80 3f 00 00 80 3f 00 00 80 3f 00 00 80 3f
       1.0 1.0 1.0 1.0
0001b0 00 00 80 3f 00 00 80 3f 00 00 80 3f 00 00 80 3f
       1.0 1.0 1.0 1.0
0001c0 00 00 80 3f 00 00 80 3f 00 00 80 3f 00 00 80 3f
       1.0 1.0 1.0 1.0
0001d0 00 00 80 3f 00 00 80 3f 00 00 80 3f 00 00 80 3f
       1.0 1.0 1.0 1.0
0001e0 00 00 80 3f 00 00 80 3f 00 00 80 3f 00 00 80 3f
       1.0 1.0 1.0 1.0
0001f0 00 00 80 3f 00 00 80 3f 00 00 80 3f 00 00 80 3f
       1.0 1.0 1.0 1.0
